outputs/x3/epoch_161.pth (torch, 231335 bytes, 5 tensors)

conv1.weight f4 [64, 1, 9, 9]
000000 b6 31 14 bd 4d 71 38 3c d7 a1 40 bd 14 fb 47 3d
       -0.03618022 0.011257482 -0.047029343 0.04882343
000010 a2 c9 b8 bd ee 96 ac 3d f4 8d 9f bd 9c f6 af bd
       -0.090228334 0.08427225 -0.07790747 -0.08591959
000020 2a 9e 8d bd 92 a6 68 3d da 3f 11 bd e2 cc 4a 3d
       -0.06914933 0.05679948 -0.035461284 0.049511798
000030 a8 20 b1 bd 3a 7f 7f bd f9 90 1f bd 54 78 a7 bc
       -0.08648807 -0.062377192 -0.038956616 -0.02044312
000040 c0 e8 aa bd fc 1b 95 3d bc 30 9e bc 3a 36 2f 3d
       -0.08345175 0.07280728 -0.019310348 0.042776324
000050 6d e2 b9 3d 0f 44 14 3d bd 2f 38 3d 5c da ee 3d
       0.090763904 0.03619772 0.0449674 0.116627425
000060 6e 0f 33 bd 1f 93 22 3d 07 c0 42 bd 08 f0 b1 3d
       -0.043715887 0.039691087 -0.047546413 0.086883605
000070 17 f4 c5 3d 12 ec b3 bd a5 5e ed 3d de 6e 9b 3d
       0.09665697 -0.08785261 0.11590318 0.075895056
000080 df 36 86 3d f9 58 6f 3d 38 ea cd 3d cd 0a 37 bc
       0.065534346 0.05843446 0.10054439 -0.011172009
000090 fb b6 b1 bd 1d a9 cd bc 60 fb 86 bd 4a 56 d6 3c
       -0.08677479 -0.025105054 -0.06590915 0.026164193
0000a0 20 52 ab 3a 1e 98 29 bd 83 1f 8f 3b 9e a0 ea 3d
       0.001307074 -0.041404836 0.00436777 0.114564165
0000b0 6e 00 b0 bb 11 48 4b 3c 30 9e 2c bc b5 b4 d8 3c
       -0.005371145 0.012407319 -0.010535762 0.026453355
0000c0 16 28 e2 3d 9f 83 a6 3d 25 9f 52 3d d4 68 10 3d
       0.11042802 0.081305735 0.051421303 0.035256222
0000d0 c9 a9 0a 3d 73 6d 3c 3d ee c3 93 bb bc da c5 bd
       0.033853326 0.046002816 -0.0045094406 -0.09660861
0000e0 cf 6f 7e bd ec f1 ce 3d 02 60 4e 3c b1 55 ad bd
       -0.062118348 0.10104737 0.012596132 -0.0846361
0000f0 51 16 c2 3c bb 0b c6 3d c4 5a d1 bd 04 0a 85 bd
       0.023692282 0.09670206 -0.1022239 -0.06496051
000100 e4 84 19 bd 39 0c 32 3c 1f dc a6 bc 5f 3f 05 bc
       -0.03748025 0.010867172 -0.020368634 -0.008132785
000110 d4 c9 d7 bd 1b d8 63 3d 86 c6 ce 3d 71 6f 91 3d
       -0.105365425 0.055626016 0.10096459 0.07101334
000120 0a 95 8d bd 3e 34 a9 bd 21 73 58 3d db 0b 10 3c
       -0.069131926 -0.082619175 0.05284417 0.008791889
000130 78 61 4f 3d 23 f6 d6 bd 6e ad 5a bb 9e 89 a6 3d
       0.050630063 -0.104961656 -0.0033367532 0.08131717
000140 6b 60 5f 3d 7d 73 9f 3b f7 a5 b0 3c b9 12 38 bc
       0.05453531 0.004866062 0.021563513 -0.011234933
000150 51 47 7b bd ef 24 2b bd 17 ee 88 bd b3 0b c2 3d
       -0.06134731 -0.04178327 -0.06686037 0.09474888
000160 74 77 80 3d 2a fd 1a 3d 78 54 ab bd fe 7c b0 3d
       0.06272784 0.037839092 -0.083657205 0.0861759
000170 9c aa 0f 3d dc e3 9e 3d e8 1a 2f bd 8e 52 ce 3c
       0.035074815 0.077583045 -0.04275027 0.02518585
000180 cd 1d e7 3d 6a 0b a1 3d af 5a b7 3d d8 9c b3 bc
       0.11284981 0.07863505 0.089528434 -0.021925375
000190 ec 0c af 3d 6a 74 ae bd 5e 3c 4b 3c 0a 0e 79 bd
       0.085473865 -0.08518298 0.012404529 -0.060804404
0001a0 8e 63 d1 bc a6 48 ce bc d3 0d 46 3c 94 07 d1 3d
       -0.025560167 -0.025181126 0.012088257 0.102065235
0001b0 cc a0 65 3d c1 a5 83 3a 4a d7 aa 3d 67 43 4e bd
       0.05606155 0.0010043905 0.083418444 -0.05035725
0001c0 a4 ab 7b 3d 26 e1 33 bc 3d 82 99 bc ea 65 72 3c
       0.061442986 -0.010978973 -0.01873886 0.014794806
0001d0 9a f0 ac bd 3e 00 59 3c 1c 36 1d 3d 9c e9 cc 3d
       -0.084443286 0.013244687 0.03838168 0.10005495
0001e0 0e a5 d7 bc d7 45 3d 3d 56 04 e4 3d 2f bf 42 bd
       -0.026323821 0.046209183 0.111336395 -0.047545608
0001f0 fe 3c da 3d a2 5f 5f bd 8f 74 49 3d 0f f3 30 3d
       0.106561646 -0.054534562 0.049183425 0.04320055
000200 7c c9 07 3d 63 98 be 3d 66 08 22 bd 37 97 ff 3c
       0.033151135 0.09306409 -0.03955879 0.031200035
000210 93 0d 22 3b 51 af a7 bd 44 39 d4 bc 90 87 97 bd
       0.002472733 -0.08187736 -0.025906213 -0.07398903
000220 65 ac 42 3d 88 40 06 3c 19 23 2a 3c d8 7b 06 bd
       0.04752769 0.008194096 0.0103843445 -0.03283295
000230 f1 3a d3 3a 89 5f 05 bd f5 0a 08 3d 1e b8 dd 3d
       0.0016115588 -0.032561813 0.033213574 0.10826133
000240 6d 25 89 3c 17 9f 52 bd 84 02 93 bd 49 6b 87 3b
       0.016741479 -0.05142125 -0.07178214 0.0041326624
000250 77 d9 af bd de 55 ae bd a1 d0 93 bd 07 00 1c bd
       -0.085864 -0.085124716 -0.07217527 -0.038085964
000260 ed ba f0 3b 23 d9 9e 3d 63 7e 2f 3d 6a 95 ab 3d
       0.007346502 0.07756259 0.04284514 0.08378108
000270 06 cd 92 bd 0d c2 fa 3b 16 a7 cb bd 15 ad 83 3d
       -0.07168011 0.007652527 -0.099439785 0.06429497
000280 67 4d bd 3c de 78 db 3d 54 d2 a1 bd 27 7c b6 3d
       0.023108197 0.10716413 -0.07901445 0.08910399
000290 03 17 c0 3d f5 f8 b7 3d 2c c2 81 3c 6d ed ce 3d
       0.09379389 0.08983032 0.015839659 0.10103879
0002a0 31 f9 97 3d c0 c5 a9 3d ff 50 ed bb 9a 9d ae bd
       0.07420576 0.08289671 -0.0072423215 -0.08526154
0002b0 0f 13 ba ba 1f 25 aa 3c ab 03 9b bd 20 88 82 bd
       -0.0014196354 0.020769654 -0.07569059 -0.0637362
0002c0 90 28 da bd c8 8c 1f bd 59 39 c6 3d e9 8e 9b 3c
       -0.10652268 -0.03895262 0.09678907 0.018989043
0002d0 af 05 de bb f8 c8 90 3b 21 e1 8d 3d 22 f4 c8 bd
       -0.00677558 0.0044184886 0.069277056 -0.0981219
0002e0 66 95 af bd 3b 4d 17 bd 3e f3 82 bd 8b ce 6a 3d
       -0.08573417 -0.036938887 -0.06394051 0.05732588
0002f0 d1 d0 a0 3d 85 c9 dc bd c5 21 c1 bd c7 9b dd bd
       0.078523286 -0.10780624 -0.09430269 -0.10820728
000300 56 9f 2b 3d f1 24 b7 3d b2 6f b0 bd f2 aa 52 bd
       0.0419 0.08942593 -0.08615054 -0.051432557
000310 b6 ed 10 3d 91 8d 94 bd 89 49 c1 3d 13 ce d3 3c
       0.03538295 -0.07253564 0.09437854 0.0258551
000320 63 00 fe bc 00 db e9 3b 01 ce 0d 3d 62 01 21 bd
       -0.031006044 0.0071367025 0.03462029 -0.03930796
000330 b4 54 b0 bd 4c 17 42 3a bf ac 05 3b 7c d7 12 3b
       -0.08609906 0.0007403984 0.0020397154 0.002240627
000340 ff 4f 85 bc 16 11 92 3d 44 ba fe bc f5 be 31 bc
       -0.016273497 0.07132165 -0.031094678 -0.01084875
000350 71 05 3b 3d c3 40 8f bd 38 6c f3 3c 98 6c c9 bc
       0.045659486 -0.06994774 0.029714689 -0.024587914
000360 61 4a 5a 3d 2d e7 76 bd 31 4b 86 3b c1 f1 31 3c
       0.05329359 -0.06027906 0.004098319 0.010860861
000370 85 17 b7 bd 68 77 a5 bd 70 87 2e 3d ea 76 04 bd
       -0.08940033 -0.080794156 0.042609632 -0.032339968
000380 2e 25 87 3d fc ca e0 bd b8 f8 60 bd d6 6d bb bd
       0.06598888 -0.10976216 -0.054924697 -0.09151809
000390 ee cd 35 3d 1d e3 52 bb 28 c1 a9 bc a7 68 97 bc
       0.044385843 -0.0032178827 -0.020721987 -0.01848252
0003a0 45 de b1 bd 5f 14 01 3d 5b fc 35 3b bc 09 9d bd
       -0.08684973 0.031513568 0.0027768824 -0.07667872
0003b0 6d 41 2b 3d 7c c1 12 bb 54 14 dc bd 93 d1 74 3d
       0.04181044 -0.0022393158 -0.10746065 0.059770178
0003c0 72 70 73 3d f2 74 ab bc bc 1c 9d bd 33 41 79 3b
       0.059433408 -0.020929787 -0.07671496 0.0038033247
0003d0 9c 5e a8 3d 58 3b ce 3d 34 8f a8 bd b2 02 45 bd
       0.0822117 0.10069913 -0.08230439 -0.048098274
0003e0 44 11 b3 3d b8 d1 5d 3d 1f 94 8a 3d 1c e7 6c bd
       0.087435275 0.05415508 0.06766533 -0.05783759
0003f0 fd 81 c4 3d 4f 18 bc bd 69 39 bb bb 0a ff 6f 3b
       0.09595106 -0.09184324 -0.005713631 0.003662052

conv1.bias f4 [64]
000000 34 b2 64 bc d2 04 86 bd 18 89 9b bb 72 96 7c bd
       -0.013958503 -0.06543888 -0.0047465675 -0.061666913
000010 a5 67 09 3d b7 21 c7 bc e4 f1 80 3d e5 ed 61 3d
       0.03354611 -0.024308069 0.06296137 0.055158515
000020 97 66 dd 3d 5b f0 96 bd d1 6e 36 bb 26 77 18 3b
       0.10810583 -0.07370063 -0.0027837048 0.0023264377
000030 27 06 8b bd ec a3 cc 3d 67 0b 7f 3d f4 b5 8b 3d
       -0.06788283 0.09992203 0.062266733 0.06821814
000040 a7 23 07 bd e6 84 4d bd f2 8a 8a 3d 3d 11 84 3c
       -0.032992985 -0.05017557 0.06764783 0.016121501
000050 93 49 79 3c 25 ec b0 bc ad af d6 bd ab 7d 82 3d
       0.015215295 -0.021596977 -0.10482726 0.063716255
000060 bc f0 3a bd b3 d2 72 3d ef dc df bc d2 c6 ed ba
       -0.04563974 0.05928297 -0.027327029 -0.0018140918
000070 2f 12 f6 3c 32 53 15 3d ad 0e 00 3e db ef 26 bd
       0.030037967 0.036456294 0.12505598 -0.040756088
000080 12 83 1d 3d 3a 01 2e 3d 60 2d 9a bc ab fc b6 bd
       0.038455077 0.04248164 -0.018820465 -0.08934911
000090 e6 46 78 bc d4 61 98 3d 89 16 c1 bd 86 65 47 3c
       -0.015153622 0.07440534 -0.09428126 0.012170201
0000a0 c1 97 66 bd 7b 65 62 bd d8 83 be 3d c2 ec 9c 3a
       -0.056297068 -0.05527256 0.09302491 0.0011972415
0000b0 3f dd 14 3d bf 5e 79 3c e2 96 a2 bd 1e 7b e3 bd
       0.03634381 0.015220343 -0.07938935 -0.11107467
0000c0 41 6b 8f bd 28 b2 9f bb cd 91 41 bd 2d 50 c3 bc
       -0.07002879 -0.004873533 -0.047258187 -0.023841942
0000d0 a2 9e 11 3d 29 a9 c7 bb 02 1b dd 3b f9 58 60 bd
       0.035551675 -0.0060931635 0.0067476043 -0.05477235
0000e0 08 19 9c 3d f7 93 59 bd 4f aa ca bb da f5 ca 3d
       0.07621962 -0.053119626 -0.006184853 0.09910174
0000f0 c8 21 d7 3d de 4e 6f bd b5 e6 c9 bd 47 4c 98 bd
       0.1050449 -0.058424823 -0.09858457 -0.07436424

conv2.weight f4 [32, 64, 5, 5]
000000 36 56 a5 3b 68 27 2b 3c ab 52 39 bc db d1 a1 bc
       0.0050456775 0.010446407 -0.0113112135 -0.019753387
000010 20 20 9d bb bc ab ce bb 85 8b 81 bc 00 27 c2 bc
       -0.0047950894 -0.0063070934 -0.015813598 -0.023700237
000020 fb 0a 8e bc 49 a9 77 ba 8d a7 60 3c 1a 81 98 bc
       -0.01733922 -0.00094475277 0.013711822 -0.018616248
000030 19 b6 16 bc 09 34 9c bc 7b c5 45 3c 82 16 b8 ba
       -0.009198689 -0.019067781 0.012071009 -0.0014044794
000040 9a 2c 85 3c 74 70 54 3b 99 05 9a bb 95 7d b4 3c
       0.01625662 0.003241566 -0.0047003743 0.022032538
000050 23 7d 89 3c 88 f2 c3 3c f8 c8 8b bc a8 cf 42 3c
       0.016783303 0.023919359 -0.017063603 0.011890329
000060 f4 17 7e bc a9 db 81 bc aa 16 96 3c 6e c1 32 3c
       -0.015508641 -0.015851812 0.018321354 0.010910375
000070 0d c2 70 bc 65 c3 89 bc 9e 62 5c bc 9f ea 9a 3c
       -0.014694703 -0.016816804 -0.013451247 0.018910704
000080 7c dd 06 3c 85 7d 69 3a 3b 0b 8e bc 40 a9 fd 3b
       0.008231517 0.00089069485 -0.01733934 0.0077411234
000090 67 fe bc bb c2 26 6f 3c 1a d3 b5 3b 9b 4f 32 3c
       -0.005767632 0.014596643 0.005548847 0.010883237
0000a0 0e a0 0a bc f6 c9 fc b9 95 b2 62 bc df 9c b6 3b
       -0.008461012 -0.00048215658 -0.013836523 0.0055728997
0000b0 07 a7 0d bb 50 32 b1 bc cd 43 5c 3c 5d 37 20 3c
       -0.0021614449 -0.021630436 0.013443899 0.009778825
0000c0 5a 20 6d 3c ff 3d 2d 3c 44 89 1e 3b 1b a4 91 3c
       0.014473045 0.010573863 0.0024190703 0.017778447
0000d0 6f 92 b1 bc 6c 05 e2 3b c3 15 a3 3c d7 f8 8a bb
       -0.02167627 0.006897619 0.019907838 -0.00424109
0000e0 3d 5f 9e 3c b4 e6 29 3c 7a 53 ad 3c 54 aa af 3c
       0.019332523 0.010369945 0.021157969 0.021443523
0000f0 d5 cb 3a 3c e4 03 13 3b d2 e4 ad bc 76 78 15 bc
       0.011401136 0.002243274 -0.021227274 -0.009122958
000100 ca 22 b6 bc 1d 42 83 bb be 94 78 3c 71 d8 5d 3c
       -0.022233386 -0.004005684 0.015172182 0.013540373
000110 49 db f3 3a ae a2 c5 bc fe 33 5a 3c 04 6f 18 3c
       0.0018604781 -0.024125423 0.01331806 0.009303812
000120 cd 49 50 bc 40 ef bb bc d0 72 63 bc f3 be 03 3c
       -0.012712908 -0.022941232 -0.013882354 0.008041131
000130 4b 15 63 bc 15 54 91 bc 10 af a5 bc ff 1a 78 bc
       -0.013860057 -0.017740289 -0.020225078 -0.015143155
000140 01 9f 7f bb 08 18 97 3c 89 4c 7d bc 3e 67 b5 bc
       -0.0039004686 0.018444076 -0.015460142 -0.022143956
000150 bf f3 a8 3c 57 30 5d 3c 52 27 ff 3b b2 ed 89 bc
       0.02062404 0.013500295 0.00778667 -0.016836975
000160 bc c3 8d 3c 13 0e 25 3c a7 d0 7d 3b 86 f9 98 3c
       0.017305247 0.010074156 0.0038729103 0.01867367
000170 87 6e f6 3b 80 89 7f 3c 80 72 ee bb d6 4e 7c 3c
       0.0075205 0.015596747 -0.007276833 0.015399655
000180 3f 47 46 bc e7 5f c8 3b 37 30 80 bc 4b 91 bc bc
       -0.012101947 0.006114948 -0.01564799 -0.0230185
000190 74 2e ab bc 1f 46 97 bc 22 b7 5d 3c aa e5 c5 3c
       -0.020896174 -0.018466054 0.013532432 0.024157364
0001a0 c3 4e 79 3c 6a 1f 1c ba 9c 58 8e b9 dd f8 5e 3b
       0.015216532 -0.0005955609 -0.0002715037 0.0034022846
0001b0 87 d5 c2 3c 5b e4 54 3c bf 48 77 bc 75 07 62 bc
       0.023783458 0.012993897 -0.015093028 -0.013795723
0001c0 c5 69 a7 3c f9 0b 5d 3c 8c 52 c8 bc 2d 73 aa bc
       0.020436177 0.013491624 -0.024453424 -0.020806873
0001d0 55 cc 52 3c 64 9e 43 bc 85 1d 9b 3c e9 82 85 3c
       0.012866099 -0.011939619 0.018934974 0.016297774
0001e0 56 c6 a0 bc ea be c0 3b c2 fa 85 bb 6b c5 c3 bc
       -0.019625824 0.0058821337 -0.0040887306 -0.023897847
0001f0 72 c0 03 3c 33 78 35 3b 09 41 97 3b 82 d1 a5 bc
       0.008041488 0.0027690053 0.004615907 -0.020241503
000200 79 e7 b4 bb 06 10 95 bb 48 45 b1 bc 7b 56 9f 3c
       -0.0055207578 -0.0045490293 -0.021639481 0.019450417
000210 44 f7 df bb d8 d8 42 3c b3 e1 d6 bb d3 63 a0 bc
       -0.0068348963 0.01189252 -0.006557667 -0.01957885
000220 52 e1 dd bb e0 94 98 3b 33 82 a1 3c a9 26 79 3b
       -0.006771245 0.004656419 0.019715404 0.0038017428
000230 b6 a0 8b 3c 7a e0 40 3c d1 9b 8c bc c2 f0 56 3a
       0.017044406 0.011772269 -0.017164143 0.0008199328
000240 16 1f b5 3c e6 0d ff bb 9e 32 2f 3c d5 fe b1 3c
       0.02210955 -0.0077836392 0.01069322 0.021727959
000250 ae 3b d1 ba b9 80 19 bc 01 b2 79 bc dd 6a fd ba
       -0.001596322 -0.009369069 -0.015240193 -0.0019334216
000260 34 81 89 bc 61 a3 c8 3c 44 a4 b0 bc 16 5c b3 3c
       -0.016785242 0.024491968 -0.021562703 0.021894496
000270 14 9d 89 3c 01 c4 ae bc 48 0a 6f bc c4 fb be 3c
       0.016798533 -0.021333696 -0.014589854 0.02331341
000280 5e 94 4c bb 78 46 8e bc bb 1a 90 3a 38 a0 b9 bb
       -0.0031216363 -0.017367586 0.0010994294 -0.0056648515
000290 41 ab 4f 3b 4f f9 21 3c 4c 1e ad bc 4e 6e 50 bc
       0.0031687769 0.0098861 -0.02113261 -0.012721611
0002a0 12 e4 07 ba b5 f8 bf 3c 08 f8 99 bc 55 40 57 bc
       -0.00051838264 0.023434022 -0.018795028 -0.013137897
0002b0 29 84 65 3c c7 4b c2 3c 72 d1 48 3b 69 d1 85 38
       0.01400856 0.023717774 0.0030642417 6.38094e-05
0002c0 3f 6f 33 3c 7b d9 9d bb f8 48 74 3c 7b 5f cb 3c
       0.010951816 -0.0048171855 0.014909975 0.024825802
0002d0 1b 2a 94 3c 48 da c7 bc 48 1b a1 3c c7 fd c3 3c
       0.018086484 -0.024396077 0.019666329 0.023924721
0002e0 d4 61 2f 3c aa 4c fb bb d7 eb 44 bb 8a 0a 85 bc
       0.010704476 -0.007669051 -0.0030047798 -0.016240377
0002f0 f1 8c 80 bb 28 ed 83 3c 8f a6 ca bb af 65 67 bb
       -0.0039230515 0.016104296 -0.006184406 -0.003530841
000300 b5 da 87 bb b4 f7 41 38 f7 e5 68 3b 35 d3 60 bb
       -0.004145945 4.6245477e-05 0.003553746 -0.0034305577
000310 5d 96 c7 bc 0c 0d 02 bc b9 70 4f bc 0e b1 11 bc
       -0.024363691 -0.007937681 -0.0126611525 -0.008892311
000320 d7 0b 4c bc bb e8 8f bc ea b7 a5 bc be 24 12 bc
       -0.012453995 -0.01756703 -0.020229299 -0.008919893
000330 74 e3 6c 3b cf d6 c9 3c 1d b2 18 3b 83 1b 0f 3b
       0.0036146315 0.024638562 0.0023299523 0.0021836467
000340 ab 45 48 3c 45 b7 b8 3b 98 2a a4 bc 96 ed c6 bc
       0.012223641 0.005637082 -0.020039842 -0.024283212
000350 5b 8e 7b bc 60 9f a9 bb f3 f2 89 bc ee 9f 98 3c
       -0.015353764 -0.0051764697 -0.01683948 0.018630948
000360 c8 76 fe bb da 72 3e bc 9d a1 90 bc f7 10 33 bc
       -0.0077656247 -0.011624062 -0.017655188 -0.010929338
000370 54 6d 9a bc 1a 18 ab 3c aa 68 db 3b d0 fe af bc
       -0.01885096 0.020885516 0.0066958265 -0.021483809
000380 85 4f c8 3c a9 6c a1 bb fa 2f 08 3c 93 8f 82 bb
       0.02445198 -0.0049262834 0.00831222 -0.0039844005
000390 d2 7f 97 bb 6c 93 62 3c e5 68 b3 3c 30 39 1b 3c
       -0.0046233917 0.013829093 0.021900604 0.009474084
0003a0 01 97 c9 3c b5 ba c4 3c 1f ea b2 ba 93 e0 0d bb
       0.024608137 0.02401481 -0.0013650096 -0.002164875
0003b0 8b c4 e5 ba 1f d0 b5 bb 37 ec 15 bc db 3c a8 bc
       -0.0017529888 -0.0055484916 -0.009150556 -0.02053683
0003c0 87 c3 c3 bc bb ef 20 bc 55 98 1c bc 76 8b c7 bc
       -0.023896946 -0.009822781 -0.009557803 -0.024358492
0003d0 00 e7 b3 bb 44 58 85 3c dc 5d 6f bb 74 ff 34 bc
       -0.005490184 0.01627744 -0.003652445 -0.011047233
0003e0 53 9e 00 ba 43 ae 86 3c f3 c6 37 bc 65 e1 28 bc
       -0.00049064046 0.016440516 -0.011216867 -0.0103076445
0003f0 d5 59 ca ba 61 e3 69 ba fc 92 bd 3c 84 c0 b3 bc
       -0.0015438149 -0.0008922127 0.023141377 -0.021942385

conv2.bias f4 [32]
000000 16 1c 0a bc de 83 c5 bc f8 c9 8e bb fa c7 82 3c
       -0.008429548 -0.02411073 -0.0043575726 0.015964497
000010 71 fc df 3c f3 05 aa 3c 92 ab 73 bc 94 5c 19 3d
       0.027342053 0.02075479 -0.0148724485 0.037441805
000020 45 7c 5e 3b 72 aa 3e bc 00 8f ef bb 11 f7 74 3b
       0.0033948582 -0.011637317 -0.007310748 0.0037378708
000030 89 94 01 3d f2 43 dc 3c ca 30 b4 bb 2f 85 1b bc
       0.031635795 0.026887868 -0.00549898 -0.009492203
000040 bb ba 87 bc 1d a2 92 bc e8 a2 cd 3c f8 6b ad 3c
       -0.016568532 -0.017899567 0.025102094 0.021169648
000050 40 c5 6f b8 dd 0b 1a 3b 52 87 dc bb 51 56 82 39
       -5.7165744e-05 0.0023505606 -0.0067299986 0.00024859843
000060 46 f2 3e 3c bc ec 2d bc 6a dd 51 3c a4 9d e6 3c
       0.011654442 -0.010615524 0.012809137 0.02815134
000070 56 fe cb 3b b5 cb 88 bc ae 5e 8f bb 39 f8 91 bb
       0.0062253876 -0.016698698 -0.0043753004 -0.0044546393

conv3.weight f4 [1, 32, 5, 5]
000000 a6 07 9d 3c 76 ad 95 3c 3d a3 ec ba 62 15 c8 3c
       0.019168686 0.01827119 -0.001805402 0.024424259
000010 bd b9 f7 3c 7a 97 ee bc 9f 05 d3 3a 00 de 0a bd
       0.030239934 -0.029124964 0.0016099698 -0.033903122
000020 f2 fb 89 3b 36 ac 28 3c 9d 88 0d bb a7 b7 e5 3c
       0.0042109424 0.010294965 -0.002159632 0.028041674
000030 1f 60 4a 3c ae 87 f2 bc c0 14 3c bb 4f 94 7c bc
       0.012352019 -0.029605713 -0.0028698891 -0.015416219
000040 0b 3f e9 bc 15 fe bd b8 d1 d9 01 bd 49 ce c0 3c
       -0.028472444 -9.059549e-05 -0.031701867 0.023535864
000050 ff e3 98 3b e7 a1 51 3c a6 15 a2 3c 2a fa e3 3c
       0.004665851 0.012794948 0.019785713 0.027829248
000060 00 92 8d bc b1 bc a1 3b a1 98 f1 bc 03 c2 2e 3c
       -0.017281532 0.004935824 -0.029491724 0.010666373
000070 19 02 da 3c cd 75 b3 bc 89 72 c0 3c d9 c6 3a bc
       0.026612328 -0.021906758 0.023492115 -0.011399948
000080 1c 1c 70 3c 07 d6 64 bc 9f 68 02 3c 05 f4 f0 bc
       0.014655139 -0.013967044 0.007959514 -0.029413233
000090 c4 f0 06 3d 10 e4 b6 ba f4 a9 14 3d 8d 9f 16 bc
       0.032944456 -0.0013953466 0.036294892 -0.009193313
0000a0 6f 08 8a 3c 66 db 5a bc 85 68 36 bc 7d 39 f1 bb
       0.016849725 -0.013357973 -0.011133318 -0.0073615895
0000b0 d2 46 9d 3c ea ef 7d 3c b2 4e be 3c 22 bd 5c bb
       0.019198809 0.0154990945 0.023230884 -0.0033682068
0000c0 73 79 af 3b 0d 7b c2 3c c7 9d 63 bc 56 7b 3f bc
       0.005355054 0.023740316 -0.0138925975 -0.01168712
0000d0 d7 00 dc 3c eb bb f4 bc 1d bf 8c bc 2e 1a a1 bc
       0.02685587 -0.029874763 -0.017180974 -0.019665804
0000e0 73 94 f3 bb 3a be d4 bc 08 2b 06 3c fc d4 ca bc
       -0.007433468 -0.025969613 0.00818897 -0.024759762
0000f0 43 37 7f bc 4f 07 0d bd 7e 05 c2 3c ec e6 b1 bc
       -0.01557714 -0.0344308 0.02368426 -0.021716557
000100 08 3d 8d bb ac 60 ad bc ca 46 a0 bb 1b b9 db bb
       -0.004310254 -0.02116426 -0.004891251 -0.006705416
000110 62 2e 3d bc e8 39 18 ba ec 3e 75 3c 49 f6 ed 3c
       -0.011546703 -0.00058069685 0.014968615 0.029048102
000120 df bf d6 3c 7b 42 d7 bc 02 8d 88 bb 1e 43 e1 bc
       0.026214538 -0.026276818 -0.0041672 -0.027497824
000130 58 9e 96 3c 5c d3 c9 3c a8 e3 1f 3c c2 9c 41 3c
       0.018386051 0.024636917 0.009758867 0.011817159
000140 cd 0d 10 3d df 82 5d bb e1 a0 f6 bc 3d c8 87 bc
       0.03516941 -0.003379993 -0.03010601 -0.016574973
000150 99 1d 2b bc d8 f8 8a 3c ae 0e 85 3a 53 3f e5 3c
       -0.010444068 0.016964361 0.001015147 0.027984297
000160 cd 51 a1 3c 57 fc 26 bc f5 45 13 bc a8 7b 40 bc
       0.019692326 -0.010191998 -0.008988847 -0.011748232
000170 03 6c 02 bd cf 62 39 bc 88 d0 86 bc fc b3 d9 bb
       -0.03184129 -0.011315062 -0.016456857 -0.0066437703
000180 9c 3f ff bb 16 a1 59 bc 3b 3a 86 bc 26 05 b9 3b
       -0.0077895653 -0.013283035 -0.016385188 0.0056463657
000190 7a cf af 3b 24 59 27 3c dc 94 9f 3c 04 f4 37 ba
       0.0053653093 0.010214124 0.019480161 -0.0007017257
0001a0 17 12 9b 3b 4e 80 e2 bb 46 f7 12 3d 0a c7 f0 3b
       0.004732381 -0.0069122678 0.03588035 0.007347946
0001b0 f6 f8 f3 3c f7 c9 94 bc 3c 34 c3 bc f6 c3 39 3c
       0.0297818 -0.01816271 -0.023828618 0.011338225
0001c0 91 91 b3 bc e0 a3 e1 3c e5 63 cc 3c 44 8e 08 3d
       -0.021919997 0.027543962 0.024949977 0.0333388
0001d0 5d 42 1c 3d be b2 9a 3c 4d 69 96 3c de 86 bf ba
       0.038149226 0.018884059 0.018360758 -0.0014612337
0001e0 27 09 0f 3d 01 d5 99 3c 73 c1 94 bb 5b bb fc bc
       0.034920838 0.018778326 -0.0045396625 -0.030851057
0001f0 a4 05 ce 3b f5 2d e1 3b 32 2f e7 3c c2 0a bf 3c
       0.0062872935 0.0068719336 0.028220747 0.02332056
000200 7a e0 0b 3d 84 cd cd 3b 27 19 5b 3c b7 e5 e5 bc
       0.034149624 0.006280603 0.013372696 -0.028063638
000210 e5 72 94 3b 31 f9 0e 3c 08 07 a1 bc 7f 38 89 bc
       0.004530298 0.008726404 -0.019656673 -0.016750572
000220 ad 46 68 3c 9e 96 af bc 2f a7 65 bc ff 3d cd 3c
       0.014177007 -0.021434125 -0.01401691 0.025053976
000230 03 f0 d8 3c a4 c1 02 bd 1e cb 0a bd d2 ed af 3c
       0.026481634 -0.03192295 -0.033885114 0.021475706
000240 7d da 2b bc f3 ba 17 3b 44 87 d1 bc 44 1b 86 bc
       -0.010489103 0.0023152202 -0.025577195 -0.016370423
000250 b2 d2 df 3c 28 07 ae bc 7d 7f 52 3c 15 e2 bc 3a
       0.027322147 -0.021243647 0.012847778 0.0014410639
000260 29 d0 32 3c e3 51 c9 3a 20 f2 f6 bb 47 f1 4c 3c
       0.010913887 0.0015359487 -0.007536188 0.012508697
000270 64 cd 1e 3c cb 73 55 bb fc f4 c1 3c ef ad 00 3d
       0.009692524 -0.0032570239 0.023676388 0.031415876
000280 c7 42 97 3c 81 b6 22 bc ef b0 d1 bc c7 e1 c3 bc
       0.01846446 -0.009931208 -0.025597064 -0.02391137
000290 7d ba 8c bc 94 e7 3b bb 09 18 94 3c e6 bc 1c 3c
       -0.017178768 -0.0028671967 0.018077867 0.009566521
0002a0 f5 21 01 3d f9 fc 0a bd 88 6e 9f bc dd 37 05 3d
       0.031526525 -0.03393266 -0.019461885 0.03252398
0002b0 29 da ce bc b2 c8 b8 3c bd 05 cd 3a 78 67 05 bb
       -0.025250511 0.022556636 0.0015641969 -0.0020355862
0002c0 2c bb f3 3c ad 87 23 3d 36 44 21 bc a6 c5 7a 3a
       0.029752336 0.039924312 -0.009842923 0.0009566195
0002d0 52 3a 0f 3d 43 04 11 3d 00 fd f2 3c ac b9 6f bc
       0.034967728 0.035404455 0.029661655 -0.01463167
0002e0 65 cf a0 bc 70 11 0e 3d e3 a8 0d 3d d3 cc a9 3c
       -0.019630143 0.0346846 0.03458489 0.02072755
0002f0 81 de 47 3d 7f fa 0f 3d 58 6f b2 bb c6 cd a5 3c
       0.04879618 0.035151 -0.005445402 0.020239722
000300 93 83 44 3d de b7 d8 3c c8 08 65 bc 85 37 14 bd
       0.04797704 0.026454862 -0.013979144 -0.03618576
000310 35 0d 13 3c 7d d2 a1 3c 47 04 07 bd e1 df ce 3b
       0.008975317 0.019753689 -0.032963064 0.0063133095
000320 27 c4 b2 bc 8b d7 6b 3c b1 1b 89 bc fc 91 da bc
       -0.021822048 0.014394651 -0.016736837 -0.026680939
000330 19 d3 0b 3d fd 27 ad 3c dc 37 66 bc 13 e5 cb bc
       0.034136865 0.021137232 -0.014051404 -0.024889505
000340 78 1b c6 3c 4f c0 b3 bc c3 8e 2b bc 64 51 7c bc
       0.02418302 -0.021942286 -0.010471049 -0.015400264
000350 4f bf 3b 3c ed 87 e8 ba 83 d2 5b 3c 29 51 a2 bc
       0.011459186 -0.0017740704 0.013416889 -0.01981409
000360 6e 70 d7 3c 25 27 9c 3b c0 7f c5 bc 8b 57 d2 bc
       0.026298728 0.0047654086 -0.024108768 -0.02567651
000370 cd c3 af 3c fd 2b 77 bc ea 8a 2b 3c 9d 6d 97 3a
       0.02145567 -0.015086171 0.010470131 0.0011553053
000380 89 94 85 bc 1b 32 23 3d e4 99 33 bc 79 a7 a9 3c
       -0.016306179 0.039842706 -0.010961983 0.02070974
000390 8e 2b eb 3c 4f 6d 8f 3c fa 3a 13 3d 0d a4 cd bc
       0.028707292 0.017508177 0.035944916 -0.02510264
0003a0 97 db ff 3b 27 61 98 3b 69 90 bc 3c 1d 6b 93 bc
       0.0078081596 0.0046502533 0.023018079 -0.017995412
0003b0 99 01 dc bc fe c1 dd bc 48 ea dd 3c d8 58 6c 3c
       -0.02685623 -0.027070042 0.027089253 0.014425479
0003c0 17 6f 1d bd a4 ac 2c bc 82 c8 01 bd e2 b2 ed bc
       -0.03843602 -0.010539208 -0.03168536 -0.029015962
0003d0 ae 8a c7 3c d7 11 95 bc 2f c8 91 3c 65 6b 0e 3d
       0.02435812 -0.018196983 0.01779565 0.03477039
0003e0 65 63 0f 3c d7 99 a5 3c 02 2b fc bc a1 ac 74 bc
       0.008751725 0.020214958 -0.030782226 -0.014933736
0003f0 22 fc ea ba 8c bb fb 3b d5 24 6c 3c 3a 82 9d 3c
       -0.0017927925 0.0076822694 0.014413078 0.019227136
