outputs/x3/epoch_93.pth (torch, 231327 bytes, 5 tensors)

conv1.weight f4 [64, 1, 9, 9]
00000000: 9f28 19bd 5ed8 263c a346 44bd 313e 473d
00000010: f63f b7bd 2631 ae3d 3938 9fbd b613 b0bd
00000020: 1166 8dbd 4450 653d 5e72 13bd acb6 483d
00000030: 85e7 b0bd 8dc0 7abd c683 19bd 3caf a1bc
00000040: 39d9 aabd 98dd 943d 1f47 a2bc d9bb 2d3d
00000050: a6c1 b73d 7b36 0e3d d304 343d a8df ee3d
00000060: 7cab 32bd a7cc 213d 7d80 43bd 350a b23d
00000070: aa3f c63d bc36 b6bd dfd8 e73d 4938 953d
00000080: c512 833d 1b1f 6c3d d790 cd3d 4645 31bc
00000090: e4e6 b0bd ada1 c8bc 80f5 87bd 4709 c53c
000000a0: 20e4 b9ba 6a22 30bd 358d 5f3b 816b ea3d
000000b0: 92a5 93bb 1703 483c 8873 29bc 623b d83c
000000c0: 1c6c e13d b9d2 a53d ebbe 523d 251f 0f3d
000000d0: 6d69 0a3d 8b99 3e3d ca7a a1bb daf2 c5bd
000000e0: a32e 7ebd 0cf0 cf3d 5b40 613c f1bd aabd
000000f0: d66f c53c b421 c63d 7268 d1bd 4c83 84bd
00000100: 0316 18bd c207 363c d603 a3bc af4a e2bb
00000110: fec5 d4bd 1829 673d e56d cf3d 8338 913d
00000120: b1dd 8bbd 41be a7bd 445f 5a3d df43 153c
00000130: a42a 523d fa01 d5bd 2825 27bb dad1 a73d
00000140: ccb2 603d cb00 863b 84cf aa3c 7415 3ebc
00000150: 15cd 7bbd 02a6 2bbd b0df 89bd b537 c03d
00000160: 43b5 7d3d da82 1a3d 0a53 acbd d418 b03d
00000170: aab0 103d 82dd 9f3d 1881 2dbd 2062 cc3c
00000180: 0286 e43d 974f 9e3d 88df b63d 0251 b3bc
00000190: 6cde af3d 1c78 adbd cdc8 513c 46c9 76bd
000001a0: 9549 cdbc 422c d4bc caad 323c b65e d03d
000001b0: 5905 673d c9e8 c23a 0c63 aa3d 22e2 51bd
000001c0: a112 7a3d 522e 25bc 9b54 96bc 572c 6d3c
000001d0: 475a adbd 2d85 5e3c 8fca 1e3d 5a60 cb3d
000001e0: 1168 e7bc 03d2 363d 3ab4 e43d ef36 40bd
000001f0: 738e da3d 70b8 5fbd 5707 493d 1830 323d
00000200: 9612 073d 8d51 bc3d bbf7 27bd a2fc fb3c
00000210: 04f8 193b 3f26 a8bd a860 d7bc e438 99bd
00000220: e201 423d 2b4d 0b3c f680 2e3c eaae 07bd
00000230: 7919 8a3a 7947 08bd 7250 053d 9b50 dc3d
00000240: 58a6 7f3c 2d42 55bd 8e96 92bd 2f99 a43b
00000250: 3564 aebd ab79 aebd 3aff 94bd 3fa4 1ebd
00000260: 8e95 d73b e70d 9d3d db03 2c3d e4c7 aa3d
00000270: 9e49 92bd 1d82 033c cec1 cbbd 97f9 823d
00000280: 237e ba3c a66e da3d 68d3 a1bd f67b b63d
00000290: 2818 c03d 03fa b73d 81bf 813c 5aeb ce3d
000002a0: 56f7 973d 1bc4 a93d bd5f edbb da9e aebd
000002b0: e70c b9ba 864f aa3c f602 9bbd 6488 82bd
000002c0: d829 dabd 6c94 1fbd d336 c63d 1a7f 9b3c
000002d0: e857 debb 401d 913b 6ce1 8d3d cdf3 c8bd
000002e0: 2095 afbd c951 17bd edf4 82bd 8bbf 6a3d
000002f0: 50cd a03d 7dc9 dcbd a021 c1bd 7e9b ddbd
00000300: e5a2 2b3d 1b25 b73d 976f b0bd aeb1 52bd
00000310: fedd 103d 8891 94bd 604a c13d 0fe9 d33c
00000320: add4 fdbc 9cb6 ea3b 20d3 0d3d 33fd 20bd
00000330: 1954 b0bd 07c4 403a 39c0 043b 8146 123b
00000340: 7836 85bc 0713 923d d98a febc ce54 31bc
00000350: 360a 3b3d 4f3f 8fbd 1e73 f33c 3774 c9bc
00000360: ee4a 5a3d 7ee6 76bd 2833 863b f9f1 313c
00000370: 8417 b7bd 6777 a5bd 0288 2e3d 9176 04bd
00000380: 2d25 873d fcca e0bd b8f8 60bd d66d bbbd
00000390: fbcd 353d 64fd 52bb 2fc1 a9bc 9868 97bc
000003a0: 45de b1bd 8d14 013d fce7 353b bc09 9dbd
000003b0: 8041 2b3d 6f9e 12bb 5414 dcbd 93d1 743d
000003c0: 7270 733d ba74 abbc bc1c 9dbd f505 843b
000003d0: b7a4 a83d ca3c ce3d ea84 a9bd db50 48bd
000003e0: 43e2 b13d 3396 5c3d d85c 8a3d ec07 6bbd
000003f0: fec8 c43d 201c bcbd 0e23 b8bb 3aee 713b
-0.037392255 0.010183422 -0.047918927 0.048643295 -0.089477465 0.08505468 -0.077743955 -0.085975096
-0.06904233 0.05598475 -0.03599774 0.049002334 -0.08637909 -0.061218787 -0.037479185 -0.019736879
-0.08342213 0.07268828 -0.019809304 0.042415474 0.089724824 0.034719925 0.043949913 0.11663753
-0.04362057 0.039501812 -0.047729958 0.08693353 0.09680112 -0.088971585 0.11320662 0.07286126
0.064000644 0.057646852 0.10037392 -0.010819739 -0.08637789 -0.024491156 -0.06638622 0.024052275
-0.0014182366 -0.04300157 0.0034111266 0.11446286 -0.0045058215 0.012207768 -0.010342486 0.026395503
0.11006948 0.08096833 0.051451605 0.03494181 0.033791948 0.04653315 -0.0049279677 -0.09665461
-0.062056195 0.10153207 0.013748254 -0.0833701 0.02410118 0.09674397 -0.102249995 -0.064703554
-0.037130367 0.011110248 -0.01989929 -0.0069058756 -0.103893265 0.056435674 0.101283826 0.07090857
-0.06829394 -0.08190585 0.05331351 0.00911042 0.051310197 -0.104007676 -0.0025504325 0.08194323
0.054858014 0.00408945 0.020850904 -0.0116017945 -0.06147488 -0.041906364 -0.06732118 0.09385625
0.061940443 0.037722446 -0.08414276 0.085984856 0.03532473 0.07805921 -0.04235944 0.024949133
0.111583725 0.07730024 0.08929354 -0.021889213 0.085873455 -0.08470175 0.012804222 -0.060250543
-0.0250595 -0.02590001 0.010905692 0.10174315 0.056401584 0.0014870401 0.08319673 -0.051241048
0.061052922 -0.010081844 -0.01835089 0.0144759035 -0.08464485 0.013581556 0.038767394 0.09930487
-0.028247865 0.044633877 0.11167188 -0.04692739 0.10671701 -0.054619253 0.049079265 0.043502897
0.03297671 0.09195242 -0.04100774 0.030760113 0.0023493776 -0.0821042 -0.026291206 -0.07481554
0.047365077 0.008502285 0.010650864 -0.033125795 0.0010536156 -0.033271287 0.03254742 0.10757562
0.015603624 -0.052065063 -0.07157622 0.0050231437 -0.08515207 -0.085193 -0.07275243 -0.038730856
0.0065791076 0.07668667 0.041995864 0.08338907 -0.071429476 0.008026627 -0.09949075 0.06395262
0.022765225 0.10665636 -0.07901651 0.089103624 0.093796074 0.08983233 0.015838386 0.101034835
0.074202225 0.08289357 -0.007244079 -0.08526392 -0.0014118225 0.020789873 -0.07568924 -0.06373671
-0.10652512 -0.038959906 0.09678426 0.018981505 -0.0067853816 0.0044285357 0.069277614 -0.09812126
-0.08573365 -0.03694323 -0.06394372 0.057311576 0.0785166 -0.10780618 -0.094302416 -0.108206734
0.041903395 0.08942624 -0.08615034 -0.05143898 0.03536796 -0.072543204 0.09438014 0.025867967
-0.0309852 0.007162882 0.034625173 -0.03930397 -0.0860979 0.0007353429 0.0020256175 0.0022319856
-0.016261324 0.071325354 -0.031072067 -0.010823442 0.045664035 -0.06994497 0.029717978 -0.024591548
0.053294115 -0.06027841 0.004095454 0.010860913 -0.08940032 -0.08079415 0.042610176 -0.032339636
0.065988876 -0.10976216 -0.054924697 -0.09151809 0.04438589 -0.003219449 -0.020722 -0.018482491
-0.08684973 0.03151374 0.0027756682 -0.07667872 0.041810513 -0.0022372266 -0.10746065 0.059770178
0.059433408 -0.020929683 -0.07671496 0.0040290304 0.08234542 0.10070188 -0.082773045 -0.048905235
0.08685734 0.05385418 0.0675599 -0.0573806 0.09608649 -0.09185052 -0.005619413 0.0036915676

conv1.bias f4 [64]
00000000: 743e 63bc fa77 88bd 085b 9bbb 5619 83bd
00000010: 65f3 073d 9e19 cfbc 81b7 7f3d cf7b 643d
00000020: e388 e03d 7bcc 94bd 776a 84bb df57 b23a
00000030: 19e2 94bd d168 c63d 41dc 833d 8f5e 8f3d
00000040: 704e 15bd 76cf 57bd cb36 873d 046a 853c
00000050: 7a84 723c cc3f afbc f87c d2bd 5005 843d
00000060: ad25 42bd 5ec7 7e3d 8039 e2bc d7f6 f7bb
00000070: 0578 f03c 708d 0a3d 733a fa3d 7914 28bd
00000080: 2930 213d da01 313d 4321 85bc 5b4b bcbd
00000090: b84e 8dbc 515b 9b3d 6314 c1bd 91f2 533c
000000a0: b6cb 68bd ab65 62bd 4c52 bd3d fad3 233b
000000b0: 01c7 103d 1e89 893c 2998 a2bd 1e7b e3bd
000000c0: de42 8fbd e051 f0bb e5ac 43bd 36a2 bdbc
000000d0: 1eed 163d 7594 dcbb 1915 fe3b 064d 5fbd
000000e0: a841 9b3d 693d 5fbd fa5d d7bb 2a9d c33d
000000f0: 8999 d33d 43b9 70bd a36b cabd ca68 9fbd
-0.01386987 -0.06663509 -0.0047410764 -0.06401317 0.033191103 -0.02528077 0.062430862 0.055782136
0.10963609 -0.07265564 -0.004041012 0.001360651 -0.07269687 0.09687961 0.064384945 0.070004575
-0.036451757 -0.052688085 0.06602248 0.016285904 0.014802093 -0.021392725 -0.10277742 0.06446326
-0.04739921 0.06220185 -0.027615309 -0.0075672674 0.029354105 0.03382629 0.122181796 -0.04103515
0.03935257 0.043214656 -0.016251212 -0.091940604 -0.01724945 0.075857766 -0.094277166 0.01293625
-0.0568349 -0.05527274 0.092442125 0.0024998174 0.035346035 0.016789015 -0.079391785 -0.11107467
-0.06995176 -0.007333979 -0.047772307 -0.023148637 0.036847226 -0.0067315646 0.00775398 -0.054516815
0.07580882 -0.054501925 -0.006572482 0.09551461 0.10332019 -0.05877043 -0.09883811 -0.07783659

conv2.weight f4 [32, 64, 5, 5]
00000000: 856d a13b 7063 283c 8e3c 3dbc 559d a3bc
00000010: 0341 a3bb bdd5 cebb be5b 82bc ff49 c3bc
00000020: 4fac 8ebc d94f 89ba 7480 5b3c 5e9c 9bbc
00000030: d2c9 1cbc 5819 9fbc c2fb 3d3c abde fbba
00000040: a7e4 803c f281 373b dd96 a8bb 99dd af3c
00000050: cc92 843c 4731 bf3c 40e8 8fbc 5bde 3a3c
00000060: 2588 83bc 9e5b 80bc c9ff 963c 11ce 343c
00000070: c262 6ebc b5c8 88bc 1763 5bbc cf3f 9b3c
00000080: 0821 083c 6da9 853a 524e 8dbc 4c5a fd3b
00000090: 7897 bbbb a044 703c 61a1 b93b 8127 343c
000000a0: 3108 0dbc 8b5c 17ba 25df 64bc c41d b23b
000000b0: 8748 15bb 8e4c b2bc a55c 5a3c 1a6a 1d3c
000000c0: dcc4 693c f854 2a3c a79e 1e3b 1ba4 913c
000000d0: 6f92 b1bc 0306 e23b c315 a33c eaf1 8abb
000000e0: 305f 9e3c 34e0 293c 6c53 ad3c 54aa af3c
000000f0: 9ecf 3a3c 250b 133b 87e5 adbc 4482 15bc
00000100: 4b26 b6bc 693c 83bb 8398 783c c0cc 5d3c
00000110: a11a f33a 4ea9 c5bc 3540 5a3c bf91 183c
00000120: 4a27 50bc c0ea bbbc c56b 63bc 55e4 083c
00000130: cf7a 5dbc 7146 8ebc e14b a3bc e86b 75bc
00000140: 35f7 81bb 77b6 963c 9af6 7cbc 33b0 b5bc
00000150: c879 a73c 5b78 5d3c 2aac 003c 26cb 88bc
00000160: 87d2 8e3c 1aa0 253c b60a 6c3b ba08 973c
00000170: d0cc f13b cb42 7e3c 9b13 f3bb 1544 7c3c
00000180: 126d 46bc c8d3 c93b aeb9 7ebc c388 bcbc
00000190: 8bde abbc 62ce 97bc 765e 5c3c 7e58 c53c
000001a0: d5dd 773c 0425 52ba 67d8 0aba ccfc 4d3b
000001b0: 40c6 c13c c1e3 533c c7d4 7bbc f463 68bc
000001c0: 61da a33c e2be 573c 90bf c9bc e754 abbc
000001d0: 7f5c 4f3c 00ca 48bc 1808 983c 33f4 823c
000001e0: 9825 a3bc a392 b73b 2ed9 91bb 6e2d c8bc
000001f0: 4f51 f53b f070 363b 2604 983b 0dac a5bc
00000200: eddd b4bb 16dd 95bb 999b b1bc af10 9f3c
00000210: 498f e1bb c49e 413c 8e31 dabb 32cb 9fbc
00000220: a7d0 dabb cedd 9b3b fd31 a23c 8f27 803b
00000230: 8cc2 8b3c ab52 413c 2a68 8cbc 2b5d 553a
00000240: 2cc1 b53c 6f2c f7bb a953 333c 6524 b43c
00000250: ac62 b2ba afef 13bc 31aa 6ebc 7afd b0ba
00000260: 715c 85bc 5e65 cc3c 016c acbc a8f9 ae3c
00000270: ead8 833c 25b5 b5bc 1e9e 7cbc 6990 b93c
00000280: a48b 6dbb a1f0 92bc 7f5c b839 e0d7 d5bb
00000290: 593a 1f3b 0227 193c 18c8 b0bc fc6e 59bc
000002a0: d763 abba b2fb b83c 619e a0bc 1847 61bc
000002b0: 479e 5c3c d735 bc3c 50b3 0e3b 854d e439
000002c0: eb66 373c 51a8 a0bb e0b6 723c 0e1e cb3c
000002d0: e84e 923c 100e cabc 6987 9d3c 1576 c03c
000002e0: 96c8 283c d929 07bc e47b 5fbb c432 88bc
000002f0: 73e7 89bb 5be3 813c ccdb debb d5d1 81bb
00000300: 5b78 94bb 24be 7fb9 ccd3 563b 99ad 78bb
00000310: 201f cabc 13a4 08bc 0e57 55bc 26e6 17bc
00000320: c3fe 4cbc 1040 90bc 52c8 a5bc 683d 12bc
00000330: bc45 6c3b 297a c93c 096b 133b 4264 0d3b
00000340: 2f33 483c cec3 b73b a64b a4bc bcc1 c7bc
00000350: 39ce 7cbc 4a34 aabb 5efa 89bc 7760 983c
00000360: 922f 01bc f8b1 40bc 7337 91bc 70bf 33bc
00000370: 5006 9abc 7238 ab3c b7b5 d93b 4c55 b0bc
00000380: 1042 c83c 34e7 9ebb 0543 0a3c 25ab 7bbb
00000390: eedd 93bb f5f7 633c eddd b13c 8477 183c
000003a0: 4f81 c83c 7a9a c33c c8c8 c9ba 628c 21bb
000003b0: 6e8e 05bb 161d bdbb b81a 19bc dada a9bc
000003c0: 7d2f c5bc 52a2 23bc d460 1ebc 5307 c8bc
000003d0: e1d6 b5bb adec 843c bf52 75bb d015 36bc
000003e0: be17 08ba 499a 863c c4cb 37bc 6fe7 28bc
000003f0: 389f caba bb4f 6aba 6892 bd3c 289d b3bc
0.004926386 0.010277614 -0.011550082 -0.019972483 -0.0049821152 -0.0063121007 -0.015912887 -0.023838995
-0.017416148 -0.0010476067 0.013397325 -0.01899546 -0.009569602 -0.019421265 0.011595668 -0.001921614
0.01573403 0.0028001037 -0.0051449374 0.02146797 0.01618328 0.023338927 -0.0175668 0.011405553
-0.01605613 -0.015668686 0.018432515 0.011035458 -0.014549913 -0.016697267 -0.013390324 0.018951325
0.0083086565 0.0010197588 -0.01724926 0.0077317115 -0.0057248436 0.014664799 0.00566499 0.010995747
-0.00860791 -0.0005773983 -0.013969217 0.0054356772 -0.0022778825 -0.02176502 0.013327752 0.009607816
0.014268126 0.010396235 0.002420345 0.017778447 -0.02167627 0.0068976893 0.019907838 -0.004240264
0.019332498 0.010368396 0.021157943 0.021443523 0.011402039 0.0022437063 -0.021227611 -0.009125296
-0.022235056 -0.004005004 0.01517308 0.013537586 0.0018547365 -0.024128582 0.013320972 0.009312092
-0.01270468 -0.022939086 -0.013880675 0.00835522 -0.013518049 -0.017367573 -0.019933643 -0.01497934
-0.003966237 0.018397553 -0.015439654 -0.022178745 0.020443812 0.0135174645 0.007853547 -0.016698431
0.017434372 0.010108972 0.0036017126 0.018436778 0.007379152 0.015518854 -0.0074181086 0.015397091
-0.012110965 0.0061592795 -0.015547199 -0.023014432 -0.02098014 -0.018531028 0.013450256 0.024090048
0.0151285725 -0.000801638 -0.00052965287 0.0031431196 0.023654103 0.012932719 -0.015370554 -0.014183987
0.020001592 0.013168069 -0.024627477 -0.020914508 0.01265633 -0.012255192 0.018558547 0.015985584
-0.019915387 0.0056021973 -0.0044509387 -0.024435725 0.0074864994 0.0027838312 0.0046391664 -0.020223642
-0.0055196197 -0.0045734746 -0.02168064 0.019417135 -0.006883536 0.011817638 -0.0066587394 -0.01950607
-0.0066777053 0.004756666 0.019799227 0.0039109658 0.01706054 0.011799495 -0.017139513 0.0008139188
0.022186838 -0.0075431387 0.010945239 0.02199001 -0.0013609729 -0.009029313 -0.014566944 -0.0013503276
-0.016279431 0.02495068 -0.021047594 0.02135928 0.016094644 -0.022181103 -0.015418557 0.022651868
-0.0036246562 -0.017937006 0.0003516413 -0.0065259784 0.0024296253 0.009347679 -0.021579787 -0.01327109
-0.0013076019 0.022580955 -0.019606771 -0.01374986 0.013465471 0.022974892 0.002177436 0.00043545305
0.011193971 -0.0049028774 0.014814109 0.024794605 0.017859891 -0.024664909 0.019229608 0.023493806
0.01030173 -0.008249723 -0.0034100944 -0.01662577 -0.004208499 0.015855482 -0.006801104 -0.0039617815
-0.004530949 -0.00024389528 0.003278005 -0.003794527 -0.024673045 -0.0083399 -0.013021244 -0.00927118
-0.012511912 -0.017608672 -0.020237122 -0.008925773 0.0036052307 0.024594383 0.0022494218 0.002157465
0.012219234 0.0056080585 -0.020055603 -0.024384372 -0.015430027 -0.0051942216 -0.016843017 0.018600686
-0.007884877 -0.011761181 -0.017726636 -0.010970935 -0.018801838 0.020900939 0.0066439766 -0.021525048
0.024445564 -0.004849339 0.00843883 -0.003840157 -0.00451254 0.013914098 0.021712268 0.0093058385
0.024475722 0.023877371 -0.001539492 -0.0024650325 -0.0020379084 -0.0057712896 -0.009344749 -0.02073424
-0.024070496 -0.009987431 -0.00966664 -0.024417555 -0.005549297 0.016226137 -0.0037433354 -0.011113599
-0.0005191526 0.01643099 -0.011218015 -0.010309084 -0.0015458828 -0.00089382724 0.023141101 -0.021925524

conv2.bias f4 [32]
00000000: 4c86 2ebc 6236 c8bc b95e 80bb 740c 743c
00000010: 8163 d93c 6d26 ac3c e843 6ebc 09f0 163d
00000020: 0889 4b3b 5ffe 37bc 695c edbb e529 813b
00000030: bc1d 003d 3a58 dc3c ef38 afbb d97f 1dbc
00000040: 36a3 81bc a5f2 92bc 7222 d03c 71c0 db3c
00000050: cc14 ab3a 9a3f 9a3a 0358 80bb b3b9 2d39
00000060: dcfc 423c 3dd0 2dbc f056 6a3c f643 e93c
00000070: 9228 a33b 83a2 88bc 4ee0 d2bb e02e cdbb
-0.010652136 -0.024439994 -0.003917542 0.014895547 0.026536705 0.021014417 -0.014542557 0.03685001
0.0031057019 -0.01123008 -0.007243682 0.003941762 0.031278357 0.026897538 -0.005347363 -0.009613001
-0.015824895 -0.017937968 0.02540705 0.026825162 0.0013052463 0.0011768222 -0.003916742 0.00016567744
0.011901107 -0.01060873 0.014302954 0.02847479 0.0049792016 -0.016679054 -0.0064354306 -0.0062616915

conv3.weight f4 [1, 32, 5, 5]
00000000: f1e5 9b3c 1439 943c 6029 faba 278b c73c
00000010: 3671 f73c c7ef efbc 6c28 c33a 15f8 0abd
00000020: e1d0 883b 079b 273c 51d5 12bb 6e4d e63c
00000030: 06ab 4c3c 8508 f2bc e2ed 40bb 1e86 7cbc
00000040: 9d6d e7bc cab6 6939 4a17 01bd dfc1 c03c
00000050: 995f 953b 764c 513c 9077 a23c b4f1 e33c
00000060: e711 8ebc a1c7 a63b c6f3 f2bc 7445 293c
00000070: 9275 d93c 0dda b1bc 5f83 c03c dce2 43bc
00000080: a32f 613c 5dbc 6abc b746 023c 19d8 f2bc
00000090: 1a8f 033d 2453 2cbb 7313 123d 906f 1dbc
000000a0: c556 8b3c f5ee 5cbc 233e 3cbc 4fe2 f5bb
000000b0: f4b9 9a3c ed00 813c 5bd4 bf3c 829a 4dbb
000000c0: 21a5 b73b bf98 c23c c79d 63bc 567b 3fbc
000000d0: d700 dc3c ebbb f4bc 1dbf 8cbc 2e1a a1bc
000000e0: c694 f3bb 3abe d4bc 082b 063c fcd4 cabc
000000f0: 4637 7fbc 4f07 0dbd 5a05 c23c ece6 b1bc
00000100: 083d 8dbb ac60 adbc b94e a0bb 78ee dbbb
00000110: 622e 3dbc b839 18ba ec3e 753c 49f6 ed3c
00000120: dfbf d63c 7b42 d7bc 028d 88bb 4270 e1bc
00000130: a0be 953c e942 c93c b7d5 1e3c cd39 413c
00000140: b8a7 0f3d a8ba 69bb 5665 f7bc 7626 88bc
00000150: 38e9 2bbc 1efb 883c b58c 553a a848 e43c
00000160: 3141 a13c 2d67 27bc bfd8 16bc a5cc 42bc
00000170: f39f 02bd 95fe 38bc 5ac9 86bc be5f debb
00000180: e077 00bc 5e2b 59bc f678 85bc 68f8 bb3b
00000190: f559 d33b 4a5b 2e3c 1b4e 9d3c 4ba3 f6b9
000001a0: a905 a73b b9cf cabb 8d00 133d fb32 d23b
000001b0: 900c f03c b63f 96bc eefd c4bc fedd 2e3c
000001c0: f573 bfbc d239 d93c 4619 c73c 4656 053d
000001d0: 90ad 193d 8b46 953c 9290 933c c0aa fbba
000001e0: f1ff 0d3d 54d3 993c 7957 87bb 1ac7 f7bc
000001f0: e8c3 d43b 3f38 cc3b a742 e33c bdd8 b83c
00000200: 2396 073d 3e44 b83b 7174 4b3c e744 e7bc
00000210: c2b8 9c3b 70e0 0e3c 2d83 a0bc 9972 8bbc
00000220: 5259 753c 643c a5bc 5415 59bc 0694 d03c
00000230: 13bb da3c 1ba9 fcbc 4992 05bd 962e b23c
00000240: 7ec0 32bc a107 2b3b 455a cbbc ebdf 80bc
00000250: aaca dd3c 564e b4bc 7d7f 523c 76e3 bc3a
00000260: 29d0 323c 5153 c93a 14f2 f6bb 60f2 4c3c
00000270: f6d0 1e3c 7f17 56bb 3ff6 c13c efad 003d
00000280: cc42 973c 22b5 22bc e5b0 d1bc b8e1 c3bc
00000290: 78ba 8cbc 31d4 3bbb 0a18 943c 27bd 1c3c
000002a0: f521 013d f9fc 0abd 886e 9fbc dd37 053d
000002b0: 29da cebc b2c8 b83c 07f5 cc3a 0b88 04bb
000002c0: 3890 ec3c ee61 1e3d 3805 1fbc f038 a53a
000002d0: 770d 0e3d b63b 0a3d e71c de3c fc10 7cbc
000002e0: 598f a2bc 0f8a 083d ede3 003d 47ad 853c
000002f0: 78da 3f3d 3155 0d3d a26e b4bb cff0 9d3c
00000300: de65 3d3d ac95 d63c 21f2 5abc b1b4 0fbd
00000310: a660 1d3c b53f a13c ebff 05bd a56f e03b
00000320: 27c4 b2bc c3d3 6b3c 89b7 88bc 934e dabc
00000330: c0d3 0b3d fd27 ad3c 9848 66bc ebad cbbc
00000340: d84a c63c e7b8 b3bc 648e 2bbc 68dd 7cbc
00000350: 3b3b 3a3c 2949 edba 753c 5b3c 2951 a2bc
00000360: 2670 d73c a5dd 9a3b 2a87 c5bc 5575 d2bc
00000370: cdc3 af3c f62f 77bc 6212 2b3c 7b9c 963a
00000380: 3ab0 85bc 37ea 203d 9d20 36bc 8314 a53c
00000390: b615 e73c 673f 933c 1354 123d 9ce4 cabc
000003a0: b8d5 f33b fcc3 813b 960c bb3c 5db4 8abc
000003b0: 5816 cfbc 842d d9bc 2754 db3c fed4 643c
000003c0: 04fa 17bd ebd4 13bc 490a ffbc 242b f0bc
000003d0: 4e8c c33c 4b31 8fbc 7821 963c 2427 0d3d
000003e0: f523 073c a667 a43c 022b fcbc a1ac 74bc
000003f0: 86fd eaba 8cbb fb3b d524 6c3c 3a82 9d3c
0.019030543 0.018093623 -0.0019085817 0.024358345 0.03020535 -0.02928914 0.0014889366 -0.033927996
0.004175291 0.0102298325 -0.0022404979 0.028113093 0.012491947 -0.029545078 -0.0029438664 -0.015412835
-0.02825051 0.00022288706 -0.03151635 0.023529945 0.0045585153 0.012774577 0.019832402 0.027825214
-0.01734252 0.0050897156 -0.029657256 0.0103315 0.02654532 -0.02171042 0.023500143 -0.011955943
0.013744268 -0.014327136 0.00795143 -0.029644059 0.032118894 -0.0026294673 0.03566308 -0.009609118
0.017009148 -0.013484706 -0.011489424 -0.0075037847 0.018887497 0.015747512 0.023416689 -0.0031372611
0.0056044017 0.023754476 -0.0138925975 -0.01168712 0.02685587 -0.029874763 -0.017180974 -0.019665804
-0.0074335067 -0.025969613 0.00818897 -0.024759762 -0.015577143 -0.0344308 0.023684192 -0.021716557
-0.004310254 -0.02116426 -0.004892197 -0.0067117773 -0.011546703 -0.00058069406 0.014968615 0.029048102
0.026214538 -0.026276818 -0.0041672 -0.027519349 0.018279374 0.024568038 0.009694508 0.011793566
0.03507206 -0.0035664234 -0.030199688 -0.016619902 -0.010492615 0.016721305 0.0008146272 0.027866676
0.019684406 -0.01021747 -0.00920695 -0.011889611 -0.03189082 -0.011291166 -0.016453434 -0.0067863157
-0.00784108 -0.013254968 -0.01629303 0.0057363994 0.0064499327 0.010641882 0.019202283 -0.0004704244
0.0050971103 -0.0061893133 0.035889197 0.0064147688 0.029302865 -0.018340927 -0.024046864 0.010673044
-0.023370722 0.026516829 0.024304044 0.03255298 0.037519038 0.018222114 0.018013272 -0.0019200668
0.034667913 0.018777527 -0.0041303006 -0.030246306 0.0064930804 0.006232291 0.027741743 0.022564286
0.033102166 0.0056233695 0.0124178985 -0.028231097 0.004782767 0.008720502 -0.0195938 -0.017022418
0.014974909 -0.020170398 -0.013249714 0.025461208 0.026700532 -0.030842355 -0.03261021 0.02175073
-0.0109101515 0.0026097076 -0.024823317 -0.015731772 0.027074177 -0.02201001 0.012847778 0.001441105
0.010913887 0.0015359913 -0.007536182 0.012508959 0.009693375 -0.0032667813 0.02367699 0.031415876
0.018464468 -0.009930881 -0.025597045 -0.023911342 -0.017178759 -0.0028660411 0.018077869 0.009566582
0.031526525 -0.03393266 -0.019461885 0.03252398 -0.025250511 0.022556636 0.0015636989 -0.002022269
0.028877363 0.03866761 -0.009705834 0.001260547 0.03468081 0.03374835 0.027113391 -0.015384909
-0.019843744 0.033334788 0.031467367 0.016317977 0.046839207 0.034505073 -0.0055063525 0.019279866
0.046239726 0.026194416 -0.013363392 -0.03508443 0.009605562 0.019683698 -0.032714766 0.0068492466
-0.021822048 0.01439375 -0.016689079 -0.026648795 0.034137487 0.021137232 -0.014055394 -0.024863204
0.02420561 -0.021938754 -0.01047096 -0.015433647 0.011366661 -0.0018103468 0.013381113 -0.01981409
0.026298594 0.004726129 -0.024112303 -0.025690714 0.02145567 -0.015087118 0.0104413945 0.0011490727
-0.016319383 0.039285865 -0.011116174 0.020151382 0.028208595 0.017974569 0.03572471 -0.024767213
0.0074412487 0.0039601307 0.02283315 -0.016931707 -0.025279209 -0.026510961 0.026773525 0.013966797
-0.037103668 -0.009022932 -0.031132834 -0.029317446 0.023870613 -0.01747956 0.018326506 0.034461156
0.008248319 0.020068955 -0.030782226 -0.014933736 -0.0017928339 0.0076822694 0.014413078 0.019227136
