outputs/x3/epoch_70.pth (torch, 231327 bytes, 5 tensors)

conv1.weight f4 [64, 1, 9, 9]
00000000: e4ef 1cbd 34c8 193c 20f3 46bd 6119 463d
00000010: 44f6 b6bd 3253 ae3d e6b8 9fbd 80ec b0bd
00000020: f21f 8ebd 1ae4 623d e581 15bd 7772 463d
00000030: e281 b1bd 8ff0 79bd b016 18bd 542a a1bc
00000040: 4f5a abbd d83c 943d ca21 a4bc b3ad 2c3d
00000050: af67 b63d 06bb 0a3d 7aa0 313d 399e ee3d
00000060: f5db 32bd 512b 213d 87eb 43bd 8553 b23d
00000070: 7069 c63d 054d b7bd 5c7e e53d 34b1 923d
00000080: 70be 813d 55ba 6a3d 1575 cd3d c51a 2dbc
00000090: c15d b0bd 3645 c6bc 9251 88bd 47a0 be3c
000000a0: 88dd 21bb cd07 33bd 8e23 413b a352 ea3d
000000b0: 0d76 84bb 383f 453c 2502 29bc a555 d83c
000000c0: 495b e13d 139c a53d d549 523d 8621 0e3d
000000d0: 9051 0a3d 9c0b 403d a310 b4bb 9794 c6bd
000000e0: 1b80 7ebd f06c d03d f3b9 683c ac06 aabd
000000f0: e39b c53c 071f c63d d033 d1bd b2b7 85bd
00000100: 6ed2 19bd 5734 323c c63f a2bc 844c d3bb
00000110: 36d8 d3bd edfc 673d b69a cf3d fd40 913d
00000120: e69e 8cbd 6b64 a8bd 908a 593d a758 153c
00000130: 9c6a 533d 8e3f d4bd e3a7 12bb 8f67 a83d
00000140: caa5 613d 8db3 783b 133c a93c a3bc 3dbc
00000150: d964 7bbd 6d92 2bbd 013b 8abd 797b bf3d
00000160: 6b91 7c3d db91 1a3d e8b4 acbd 0b02 b03d
00000170: 335f 113d 135f a03d 0acb 2cbd a8c4 cb3c
00000180: bb93 e33d d356 9d3d 3fbc b63d 1f25 b3bc
00000190: 7519 b03d 6629 adbd 503e 543c 11d2 75bd
000001a0: c226 cbbc a6a5 d5bc 7acc 2c3c c33a d03d
000001b0: be05 683d 59dc da3a d62f aa3d 6606 53bd
000001c0: 1708 7a3d 6787 1cbc 7e85 93bc e94a 6e3c
000001d0: fb27 adbd 71b1 633c fe98 1f3d b4db ca3d
000001e0: 6e88 ecbc 9d2a 353d f264 e53d c088 3ebd
000001f0: ae00 db3d 9922 5fbd 9ea3 493d aeea 323d
00000200: 90d6 063d 887b bb3d 70f4 29bd f15e fb3c
00000210: 3905 1c3b 1e25 a8bd 2686 d7bc 969a 99bd
00000220: e70f 423d 13e4 0d3c a7e4 2f3c 5040 08bd
00000230: 8fde 5b3a 7a52 09bd 2780 043d b8f8 db3d
00000240: b5c5 783c db0b 56bd d83c 92bd 71e7 b03b
00000250: 18de adbd d28d aebd 696b 95bd 6c66 1fbd
00000260: 39c7 d03b 2710 9c3d c864 2a3d c989 aa3d
00000270: 1a10 92bd 2d58 053c eae4 cbbd 7ba3 823d
00000280: ef79 b93c 1d11 da3d 25d4 a1bd 9f7b b63d
00000290: 4418 c03d 05fa b73d 8abb 813c a5e9 ce3d
000002a0: 49f5 973d e3c1 a93d 8c89 edbb 5f9f aebd
000002b0: d4c1 b8ba ba5c aa3c ea02 9bbd cd88 82bd
000002c0: e42a dabd 3799 1fbd a334 c63d 6271 9b3c
000002d0: 067d debb 0036 913b 79e1 8d3d c1f3 c8bd
000002e0: 2c95 afbd 8554 17bd 09f6 82bd eeb7 6a3d
000002f0: 9fca a03d 7bc9 dcbd 9221 c1bd 6c9b ddbd
00000300: daa3 2b3d 1f25 b73d 9f6f b0bd 3db5 52bd
00000310: 6fd6 103d 1a94 94bd 944a c13d 30f1 d33c
00000320: b6c6 fdbc 0dfa ea3b add4 0d3d 02fc 20bd
00000330: 0054 b0bd 4de9 3f3a 1644 043b 2207 123b
00000340: 0b2d 85bc ba13 923d 5f78 febc d92b 31bc
00000350: 0e0c 3b3d e13e 8fbd 4175 f33c 8078 c9bc
00000360: fa4a 5a3d 52e6 76bd 9629 863b 25f1 313c
00000370: 8417 b7bd 6777 a5bd 3488 2e3d c876 04bd
00000380: 2125 873d fcca e0bd b8f8 60bd d66d bbbd
00000390: 12ce 353d 6a07 53bb 64c1 a9bc e468 97bc
000003a0: 45de b1bd 8214 013d 9fd8 353b bc09 9dbd
000003b0: 7d41 2b3d 358e 12bb 5414 dcbd 93d1 743d
000003c0: 7270 733d 3775 abbc bc1c 9dbd 8354 843b
000003d0: 4bc7 a83d fe62 ce3d 53b7 a9bd 2361 49bd
000003e0: a157 b13d 8daa 5b3d e802 8a3d 3cdb 6abd
000003f0: b29f c43d c42d bcbd b305 b6bb 7543 743b
-0.038314715 0.009386111 -0.048571706 0.048364047 -0.0893369 0.08511962 -0.077989385 -0.08638859
-0.06939687 0.055393316 -0.03650083 0.048449006 -0.08667351 -0.06102043 -0.03713101 -0.019673504
-0.08366834 0.072381675 -0.020035643 0.04215784 0.08906495 0.033869766 0.043365933 0.11651272
-0.0436668 0.03934795 -0.04783204 0.08707336 0.09688079 -0.08950237 0.11205742 0.07162705
0.06335151 0.057306606 0.10032097 -0.010565464 -0.08611632 -0.024202924 -0.06656183 0.023269786
-0.0024698693 -0.04370861 0.0029470655 0.11441543 -0.004042393 0.012038998 -0.010315453 0.026408026
0.110037394 0.080864094 0.051339943 0.03469994 0.03376919 0.04688607 -0.0054951473 -0.0969631
-0.06213389 0.10177028 0.01420449 -0.08302054 0.024122184 0.09673887 -0.102149606 -0.06529178
-0.037554197 0.010876737 -0.0198058 -0.0064483304 -0.10343973 0.056637693 0.10136931 0.07092474
-0.06866245 -0.08222278 0.05311066 0.009115375 0.051615342 -0.103636846 -0.00223779 0.08222877
0.05508975 0.0037948817 0.020658528 -0.011580619 -0.061375473 -0.04188769 -0.06749535 0.093497224
0.06166212 0.037736755 -0.08432943 0.0859414 0.03549118 0.07830634 -0.04218582 0.024874046
0.11112162 0.07682576 0.08922624 -0.021868287 0.085986055 -0.08455162 0.01295431 -0.060014788
-0.024798755 -0.026079964 0.010546798 0.10167458 0.0566461 0.0016697749 0.08309905 -0.051519774
0.06104287 -0.009553767 -0.01800799 0.014544227 -0.08454891 0.013897286 0.038964264 0.09905186
-0.028873648 0.044230092 0.112008944 -0.046517134 0.10693489 -0.054476354 0.049228303 0.04368084
0.032919466 0.09154421 -0.04149288 0.03068492 0.0023806824 -0.082102045 -0.026309084 -0.07500188
0.047378447 0.008660334 0.010735667 -0.03326446 0.0008387351 -0.03352592 0.032348778 0.10740799
0.015183856 -0.0522574 -0.07140511 0.0053986837 -0.08489627 -0.08523144 -0.072958775 -0.038916036
0.0063714054 0.07620268 0.04160002 0.08327062 -0.071319774 0.0081386985 -0.09955771 0.06378838
0.02264115 0.10647795 -0.079017915 0.089102976 0.09379628 0.08983234 0.015836496 0.10103158
0.07419831 0.08288934 -0.007249063 -0.085264914 -0.0014095851 0.020796169 -0.07568915 -0.06373749
-0.10652712 -0.038964476 0.096780084 0.018974964 -0.0067898063 0.004431486 0.06927771 -0.09812117
-0.08573374 -0.03694584 -0.06394584 0.057304315 0.07851147 -0.10780617 -0.09430231 -0.1082066
0.041904308 0.08942627 -0.0861504 -0.051442374 0.03536075 -0.07254811 0.09438053 0.025871843
-0.030978542 0.0071709217 0.03462665 -0.039302833 -0.08609772 0.00073208363 0.0020182184 0.0022282084
-0.01625683 0.07132669 -0.031063257 -0.010813677 0.045665793 -0.06994415 0.029718997 -0.024593592
0.05329416 -0.060278244 0.004094313 0.010860716 -0.08940032 -0.08079415 0.042610362 -0.03233984
0.06598879 -0.10976216 -0.054924697 -0.09151809 0.044385977 -0.0032200464 -0.020722099 -0.018482633
-0.08684973 0.0315137 0.0027747524 -0.07667872 0.0418105 -0.0022362594 -0.10746065 0.059770178
0.059433408 -0.020929916 -0.07671496 0.004038395 0.08241137 0.10077475 -0.082869194 -0.049164902
0.08659292 0.053629447 0.067388356 -0.057337984 0.09600772 -0.091884166 -0.0055548786 0.0037271653

conv1.bias f4 [64]
00000000: 074a 6fbc 38fb 88bd df7b 9bbb 8d90 85bd
00000010: 98fe 053d bd7b d0bc 6562 7f3d c92d 633d
00000020: 59a4 e03d 3bd4 92bd b864 9cbb 8fbe 67b9
00000030: cd73 98bd dfac c33d 4b74 853d c217 913d
00000040: d7c8 1abd 5f0c 5bbd 0b32 863d 96d5 863c
00000050: 567d 6c3c 91f7 aebc e14c d0bd 29ae 823d
00000060: e7ce 48bd 5774 823d 22ff e0bc ac40 25bc
00000070: 89f1 ee3c 1276 043d cf8d f83d 8ddb 27bd
00000080: b78e 203d e50f 333d 271b 71bc d2c9 bebd
00000090: 432a 9abc 384e 9c3d 1112 c1bd 334e 563c
000000a0: db88 6bbd e265 62bd f0be bc3d 0add 643b
000000b0: 0b48 0f3d 90d1 8e3c 1879 a2bd 1e7b e3bd
000000c0: a530 8fbd 6439 0dbc 2b8d 44bd 94e7 bcbc
000000d0: 9792 1b3d b0a3 e0bb 4ede 023c 03f6 5ebd
000000e0: 6a0c 9b3d 7b0a 62bd f873 e1bb d355 c03d
000000f0: f163 d23d 5449 71bd 5198 cabd 9092 a1bd
-0.014605052 -0.06688541 -0.004744991 -0.065217115 0.032713503 -0.025449628 0.062349696 0.055463586
0.10968847 -0.07169386 -0.004772749 -0.00022100865 -0.07443962 0.09554457 0.06516322 0.070846096
-0.037789192 -0.053478595 0.06552514 0.016459268 0.014434179 -0.021358283 -0.101709135 0.06380875
-0.049025442 0.06369846 -0.027465407 -0.01008622 0.029167907 0.032339163 0.12136423 -0.040980864
0.039198603 0.04371633 -0.014715946 -0.09315838 -0.01881898 0.076321065 -0.09427274 0.013080168
-0.057503562 -0.055272944 0.09216106 0.0034921789 0.034980815 0.017433912 -0.07933253 -0.11107467
-0.069917 -0.00861964 -0.04798619 -0.023059644 0.037981596 -0.0068554506 0.007987572 -0.054433834
0.07570727 -0.055185776 -0.0068802796 0.0939137 0.102729686 -0.05890782 -0.09892333 -0.07889283

conv2.weight f4 [32, 64, 5, 5]
00000000: 2152 a13b d583 283c 45ef 3cbc a062 a3bc
00000010: 983b a2bb 73a4 cfbb eb78 82bc b14f c3bc
00000020: 0a9d 8ebc 182f 88ba c21b 5a3c 7e38 9cbc
00000030: f5c4 1dbc 657f 9fbc 233b 3d3c 156a 05bb
00000040: 6f0f 803c 9d1d 323b e6d9 aabb 5057 af3c
00000050: 47ae 833c d054 be3c c79f 90bc 6daa 393c
00000060: 7b0f 84bc 1531 80bc b71d 973c 3bef 343c
00000070: b957 6ebc a4c7 88bc 5894 5bbc 5d24 9b3c
00000080: 20da 073c 5e3f 833a 7673 8dbc b4a1 fc3b
00000090: f43d bcbb 2de9 6f3c 17e7 b83b 43d5 333c
000000a0: 6f5e 0dbc a5e1 1cba bd4f 65bc 881b b13b
000000b0: 0f2a 17bb 6495 b2bc 65c9 593c 21bd 1c3c
000000c0: a1f9 683c 437d 293c 129f 1e3b 1ba4 913c
000000d0: 6f92 b1bc 3006 e23b c315 a33c 40f5 8abb
000000e0: 255f 9e3c 5bde 293c 6253 ad3c 52aa af3c
000000f0: 86ce 3a3c 3604 133b b8e5 adbc 1a85 15bc
00000100: f626 b6bc 003e 83bb 7598 783c 0ccb 5d3c
00000110: 74f2 f23a 8eaa c5bc 6440 5a3c 3094 183c
00000120: d021 50bc 57e9 bbbc 9569 63bc f2b7 083c
00000130: 6b72 5dbc 4025 8ebc 0c1a a3bc 2809 75bc
00000140: 103b 83bb d381 963c 6e22 7dbc 6bb0 b5bc
00000150: e977 a73c d718 5d3c f973 003c abc7 88bc
00000160: 45f4 8e3c f800 263c 8ca5 683b 8ca9 963c
00000170: fcc0 f03b 3d01 7e3c bd4d f3bb 4a96 7b3c
00000180: 6b26 47bc 8e9e c83b 3021 7fbc eda9 bcbc
00000190: a7f7 abbc fddd 97bc 8b54 5c3c 8a65 c53c
000001a0: 090e 783c f591 5cba f466 14ba 6d08 4c3b
000001b0: 81a0 c13c 9ab1 533c 71c5 7cbc 6758 69bc
000001c0: d765 a33c d3fe 563c 7910 cabc 19ca abbc
000001d0: 7665 4e3c a8cc 49bc 5183 973c f96b 823c
000001e0: eba0 a3bc 0aaf b53b 80ac 93bb 49a8 c8bc
000001f0: eb4c f33b 9c7c 363b 511c 983b cca3 a5bc
00000200: aceb b4bb 8c05 96bb f9a1 b1bc 3c0b 9f3c
00000210: f7c1 e1bb 2671 413c 8cc7 dabb 4ccc 9fbc
00000220: bfbc dabb 63fe 9b3b fd3c a23c e637 803b
00000230: eac0 8b3c fa51 413c d365 8cbc 31f1 553a
00000240: 24cd b53c 3228 f7bb 2f5a 333c 552c b43c
00000250: ce1e b1ba b4a6 13bc 3880 6ebc 2d01 b0ba
00000260: a654 85bc 1565 cc3c 6169 acbc aa36 ae3c
00000270: 4e14 833c 4682 b6bc 823c 7ebc b6c6 b83c
00000280: ff14 72bb f577 93bc 88dd 9439 3a2a d8bb
00000290: b056 1a3b 4bf2 173c e147 b1bc 855d 5abc
000002a0: 175a b3ba e262 b83c 9950 a1bc 5f73 62bc
000002b0: dfa6 5b3c e8c1 bb3c 1a89 0a3b 61ae e039
000002c0: 296e 373c 4086 a0bb 17e6 723c c73c cb3c
000002d0: 47c2 913c fa7d cabc 0125 9d3c 4122 c03c
000002e0: 5e2d 283c 11ec 08bc fe18 65bb b1bb 88bc
000002f0: ecbd 8bbb 857d 813c b253 e2bb 13d0 84bb
00000300: 1da8 96bb 2db4 9cb9 9ae2 533b 7ccc 7cbb
00000310: 89a8 cabc 7a82 09bc 070a 56bc cd70 18bc
00000320: e312 4dbc 1e4e 90bc 38ce a5bc ac42 12bc
00000330: be2f 6c3b 5d79 c93c 26d0 123b 6403 0d3b
00000340: ad2a 483c 37b9 b73b c742 a4bc c9cf c7bc
00000350: 93f2 7cbc 2e5f aabb 9bfb 89bc 3f71 983c
00000360: 0149 01bc 3fde 40bc 613f 91bc 0cc4 33bc
00000370: f8e9 99bc 6d4b ab3c d5b5 d93b 735a b0bc
00000380: ee3f c83c f622 9fbb e23a 0a3c e5a9 7bbb
00000390: aadc 93bb 5df8 633c 998f b13c 80e9 173c
000003a0: 7146 c83c 6567 c33c 640e cdba 1043 24bb
000003b0: 890e 08bb 5c24 bebb 5385 19bc 0c06 aabc
000003c0: 6b52 c5bc 2efa 23bc 919d 1ebc dd0f c8bc
000003d0: 3121 b6bb 92ed 843c 68d4 75bb 1d2c 36bc
000003e0: 5c24 09ba ed98 863c dbcb 37bc 75e7 28bc
000003f0: 069b caba 9543 6aba 6892 bd3c ba93 b3bc
0.0049231206 0.010285337 -0.011531656 -0.019944489 -0.004950952 -0.0063367425 -0.015926799 -0.02384171
-0.017408866 -0.0010390012 0.013312282 -0.019069906 -0.009629478 -0.019469926 0.011549744 -0.002035742
0.01563236 0.0027178295 -0.005213964 0.021403939 0.016074313 0.023233801 -0.017654313 0.011332137
-0.016120663 -0.015648404 0.018446786 0.011043365 -0.014547282 -0.016696759 -0.013402067 0.018938238
0.008291751 0.0010013392 -0.01726697 0.007709706 -0.00574469 0.014642996 0.0056427824 0.0109761385
-0.008628472 -0.00059845514 -0.013996062 0.0054048933 -0.002306584 -0.02179975 0.013292645 0.009566576
0.014219672 0.010344806 0.00242037 0.017778447 -0.02167627 0.0068977103 0.019907838 -0.004240662
0.019332478 0.010367955 0.021157924 0.02144352 0.011401778 0.002243293 -0.021227702 -0.009125972
-0.022235375 -0.0040051937 0.015173067 0.01353718 0.0018535391 -0.024129178 0.013321016 0.009312674
-0.012703374 -0.022938414 -0.013880153 0.008344637 -0.013516049 -0.017351747 -0.019909881 -0.014955796
-0.0040048435 0.018372452 -0.015450103 -0.02217885 0.02044292 0.013494692 0.00784015 -0.016696772
0.017450461 0.010132067 0.0035499064 0.018391393 0.0073472243 0.015503225 -0.0074250386 0.015355656
-0.012155156 0.006122417 -0.015571877 -0.023030246 -0.020992113 -0.01853847 0.013447891 0.02409627
0.015140065 -0.0008414083 -0.0005661093 0.0031132952 0.023636105 0.0129207615 -0.015427933 -0.014242268
0.019946022 0.013122278 -0.024666058 -0.020970391 0.012597432 -0.01231686 0.018495234 0.015920626
-0.019974193 0.005544548 -0.0045066476 -0.024494307 0.007424941 0.002784527 0.0046420475 -0.020219706
-0.0055212583 -0.004578298 -0.02168368 0.019414537 -0.0068895775 0.011806762 -0.00667662 -0.019506596
-0.0066753323 0.00476055 0.019804472 0.0039129136 0.017059762 0.01179933 -0.017138397 0.00081612455
0.022192545 -0.0075426335 0.010946794 0.021993795 -0.0013513209 -0.009011913 -0.014556937 -0.0013428085
-0.016275715 0.024950543 -0.021046342 0.0212663 0.016000893 -0.022278916 -0.015517356 0.02255569
-0.0036938784 -0.018001536 0.00028393813 -0.0065968307 0.0023550205 0.009274076 -0.02164072 -0.013327961
-0.0013683465 0.022508088 -0.019691752 -0.013821452 0.013406484 0.02291961 0.0021138848 0.00042854532
0.011195698 -0.0048988163 0.0148253655 0.024809254 0.017792834 -0.024718273 0.019182684 0.023453834
0.010264723 -0.008357064 -0.0034957523 -0.01669106 -0.004264584 0.015806923 -0.00690695 -0.0040531247
-0.0045976774 -0.0002988888 0.003233111 -0.003857403 -0.024738567 -0.008392924 -0.013063914 -0.009304238
-0.01251671 -0.017615374 -0.020239934 -0.008927029 0.0036039199 0.024594003 0.0022401898 0.0021516914
0.012217206 0.005606796 -0.020051373 -0.024391072 -0.015438694 -0.0051993346 -0.016843608 0.018608687
-0.007890941 -0.011771738 -0.017730417 -0.010972034 -0.018788323 0.02090999 0.0066439905 -0.021527505
0.024444547 -0.0048564626 0.00843689 -0.0038400826 -0.004512389 0.013914195 0.021674918 0.009271979
0.024447652 0.023853013 -0.0015644548 -0.0025064386 -0.0020760617 -0.005802674 -0.009370166 -0.020754836
-0.024087152 -0.010008378 -0.009681121 -0.024421627 -0.005558156 0.016226564 -0.0037510637 -0.011118916
-0.0005231553 0.016430343 -0.0112180365 -0.01030909 -0.0015457578 -0.0008936462 0.023141101 -0.021921027

conv2.bias f4 [32]
00000000: 74d1 31bc 3c4c c9bc 3c7d 6bbb 049f 713c
00000010: 6461 d43c 27f5 ab3c fb5a 6bbc 9303 163d
00000020: a878 423b 9efc 39bc 497c e8bb 466e 843b
00000030: cda4 fe3c 33f0 da3c 8faf aabb b93a 1ebc
00000040: d338 80bc 3492 92bc 3080 d03c 48b0 ed3c
00000050: 1c2e bb3a 1227 323a abd2 56bb 7394 3a39
00000060: 1e90 463c 98c5 2dbc 4747 723c f156 eb3c
00000070: 6983 8a3b 2f79 88bc b845 f2bb 120b e5bb
-0.01085316 -0.024572484 -0.00359328 0.014747385 0.025925346 0.020990921 -0.014364953 0.036624502
0.0029673968 -0.011351733 -0.007094894 0.004041466 0.031084443 0.026725864 -0.0052089165 -0.009657555
-0.015652096 -0.01789198 0.02545175 0.029014722 0.001428071 0.0006795983 -0.0032779376 0.00017793644
0.012119321 -0.010606192 0.014787502 0.02872798 0.004227091 -0.016659347 -0.007393565 -0.006989845

conv3.weight f4 [1, 32, 5, 5]
00000000: f3ec 9b3c 8d3d 943c 1dcf f9ba 5d8f c73c
00000010: 3c74 f73c fce2 efbc d60d c43a 02f7 0abd
00000020: 29f8 883b 6ea6 273c 5f55 12bb 055d e63c
00000030: 4bc3 4c3c 8703 f2bc 4598 40bb ef71 7cbc
00000040: 7657 e7bc a87a 7839 5816 01bd 65c9 c03c
00000050: c66a 953b 3f6b 513c 7381 a23c 26f3 e33c
00000060: 150f 8ebc aeff a73b c995 f3bc 4a69 273c
00000070: 654e d93c bc88 b1bc fdcc c03c c83a 47bc
00000080: 9dce 5b3c efd4 6cbc 2df0 013c 58f9 f2bc
00000090: a457 023d 80db 4abb 321b 113d a706 20bc
000000a0: a86b 8c3c 46ca 5dbc 4525 3fbc d55c f8bb
000000b0: cfc6 993c 4a6f 823c 4e8f c03c e52a 49bb
000000c0: 64c9 ba3b 86d3 c23c c79d 63bc 567b 3fbc
000000d0: d700 dc3c ebbb f4bc 1dbf 8cbc 2e1a a1bc
000000e0: 11ab f3bb 3abe d4bc 082b 063c fcd4 cabc
000000f0: ba37 7fbc 4f07 0dbd abfe c13c ece6 b1bc
00000100: 083d 8dbb ac60 adbc 6d84 a0bb 984c dcbb
00000110: 622e 3dbc 9939 18ba ec3e 753c 49f6 ed3c
00000120: dfbf d63c 7b42 d7bc 028d 88bb af74 e1bc
00000130: 5388 953c 4d27 c93c 7292 1e3c c220 413c
00000140: 1897 0f3d 2ccb 6dbb 86b0 f7bc 614b 88bc
00000150: b32b 2cbc ea82 883c e0eb 463a f401 e43c
00000160: 1a46 a13c 9974 27bc 9bb1 17bc e36e 43bc
00000170: 4cab 02bd 0ab1 38bc 23a8 86bc e89f e0bb
00000180: db35 01bc 1169 59bc e351 85bc 93d2 bc3b
00000190: b0ed e23b 34d4 313c a10d 9d3c 6efd bfb9
000001a0: f286 aa3b bd45 bebb db4a 133d ddc2 c83b
000001b0: a8ad ee3c 30c9 96bc 5541 c5bc 807d 2a3c
000001c0: c845 c4bc ce79 d53c 9ccc c43c 468f 043d
000001d0: 1bd0 183d b5f8 923c bef7 913c 7aad 09bb
000001e0: b1fe 0d3d f811 9a3c ab83 83bb 619e f6bc
000001f0: 068c d53b 784e c53b 59ae e23c 7b82 b73c
00000200: 995f 063d bcf3 b13b 0aa6 453c f341 e7bc
00000210: a02c a23b e604 103c 6908 a0bc 377d 8cbc
00000220: a658 7a3c 1d3c a1bc 73a2 53bc c31f d23c
00000230: a29b db3c 74e4 f8bc aa55 03bd 91f9 b33c
00000240: b965 33bc 6679 2c3b b265 c9bc 4d49 7ebc
00000250: e61b dd3c 967c b6bc 977f 523c 30e6 bc3a
00000260: 40d0 323c 3c55 c93a d5f1 f6bb 29f4 4c3c
00000270: 96cf 1e3c 9072 56bb fcf8 c13c f9ad 003d
00000280: f042 973c 2db3 22bc 92b0 d1bc 2ce1 c3bc
00000290: 3aba 8cbc 5fcc 3bbb 2418 943c 2ebe 1c3c
000002a0: f721 013d f8fc 0abd 886e 9fbc dd37 053d
000002b0: 29da cebc b2c8 b83c 2af3 cc3a 4ff0 f1ba
000002c0: 5b89 eb3c 1719 1d3d ade0 1bbc 8eec c23a
000002d0: c11a 0e3d 911e 083d 537c d63c 8965 80bc
000002e0: 0912 a3bc f41a 073d db31 f93c 8eae 703c
000002f0: f5b5 3c3d b94c 0c3d 3c79 b3bb 1742 9b3c
00000300: 6a81 3a3d c3e2 d43c acf8 58bc d1f8 0dbd
00000310: bde1 213c 55cd a03c 9afd 05bd c592 e23b
00000320: 27c4 b2bc a3d1 6b3c e29f 88bc 5632 dabc
00000330: 1ad4 0b3d fd27 ad3c cd5a 66bc b4a7 cbbc
00000340: 9959 c63c aeb4 b3bc 2b8e 2bbc 412c 7dbc
00000350: aca2 393c ad2b efba 930a 5b3c 2951 a2bc
00000360: df6f d73c 2c86 9a3b 8387 c5bc 3279 d2bc
00000370: cdc3 af3c 7c31 77bc 8f06 2b3c 323c 973a
00000380: bfb2 85bc 8a97 1f3d b170 38bc af56 a23c
00000390: ca1c e53c f8c4 943c 8cd1 113d f04e cabc
000003a0: a23b eb3b f162 6f3b 96b2 ba3c 7a3e 88bc
000003b0: 8018 cbbc 38d2 d8bc d3c9 d93c 1661 623c
000003c0: 6573 16bd 6c12 0bbc a6b7 fdbc faca f0bc
000003d0: 5be5 c23c 5cd5 8ebc 3854 973c 1f9d 0c3d
000003e0: 63bc 043c 919b a43c 022b fcbc a1ac 74bc
000003f0: ae00 ebba 8cbb fb3b d524 6c3c 3a82 9d3c
0.019033885 0.018095756 -0.0019058917 0.024360353 0.030206792 -0.02928304 0.0014957737 -0.03392697
0.0041799736 0.010232551 -0.0022328717 0.028120527 0.012497733 -0.029542698 -0.0029387635 -0.015408023
-0.028239947 0.00023696816 -0.03151545 0.023533532 0.0045598475 0.012781917 0.019837117 0.027825903
-0.017341176 0.005126915 -0.029734509 0.010217974 0.02652664 -0.021671645 0.023535246 -0.012160011
0.01341596 -0.014455064 0.0079307975 -0.029659912 0.031821862 -0.0030953586 0.035426326 -0.009767211
0.017141178 -0.013536995 -0.011666601 -0.007579426 0.018771557 0.015922207 0.023505833 -0.0030695733
0.005700277 0.023782503 -0.0138925975 -0.01168712 0.02685587 -0.029874763 -0.017180974 -0.019665804
-0.007436164 -0.025969613 0.00818897 -0.024759762 -0.015577251 -0.0344308 0.023681005 -0.021716557
-0.004310254 -0.02116426 -0.004898599 -0.006722998 -0.011546703 -0.00058069226 0.014968615 0.029048102
0.026214538 -0.026276818 -0.0041672 -0.02752146 0.018253481 0.024554873 0.00967847 0.011787595
0.035056204 -0.003628443 -0.03023554 -0.016637506 -0.010508466 0.016663987 0.00075882487 0.027832963
0.019686747 -0.01022067 -0.009258653 -0.011928293 -0.031901643 -0.011272678 -0.016437596 -0.006855
-0.007886375 -0.013269679 -0.016274398 0.005762407 0.006925307 0.010853816 0.019171538 -0.0003661918
0.005204075 -0.0058066533 0.03596006 0.006126745 0.02913554 -0.01840648 -0.024079004 0.010405898
-0.023959056 0.026059058 0.024023347 0.0323632 0.03730784 0.017940858 0.017818328 -0.002100794
0.03466672 0.018807396 -0.004013499 -0.030104818 0.0065169362 0.006021317 0.027671026 0.022401085
0.032806013 0.0054306667 0.012063513 -0.02822969 0.0049491674 0.00879023 -0.01953526 -0.01714955
0.0152799245 -0.019681985 -0.012917149 0.02564991 0.02680761 -0.030382372 -0.032064117 0.021969588
-0.010949546 0.0026317476 -0.024584625 -0.015520406 0.026990842 -0.022276204 0.012847803 0.0014411863
0.0109139085 0.0015360485 -0.007536153 0.012509384 0.009693047 -0.0032722093 0.023678295 0.031415913
0.018464535 -0.009930414 -0.02559689 -0.023911081 -0.017178643 -0.002865575 0.018077917 0.009566827
0.031526532 -0.033932656 -0.019461885 0.03252398 -0.025250511 0.022556636 0.0015636433 -0.0018458458
0.02875202 0.038354006 -0.009514016 0.0014871524 0.034693483 0.033232275 0.02618233 -0.015673416
-0.01990606 0.03298469 0.03041928 0.014690055 0.046071965 0.034252856 -0.0054770987 0.018952413
0.045533575 0.025987035 -0.013242882 -0.034661118 0.00988048 0.01962916 -0.032712556 0.006914469
-0.021822048 0.014393243 -0.0166778 -0.02663533 0.034137823 0.021137232 -0.0140597345 -0.02486024
0.024212645 -0.02193674 -0.010470907 -0.0154524455 0.011330288 -0.0018247269 0.01336922 -0.01981409
0.026298461 0.0047157016 -0.024112469 -0.025692556 0.02145567 -0.015087482 0.010438575 0.0011538325
-0.016320584 0.03896288 -0.0112573365 0.019816725 0.02796783 0.018160328 0.03560023 -0.024695843
0.0071787396 0.003652748 0.022790235 -0.016631354 -0.024791956 -0.026467428 0.026585495 0.013817092
-0.036731143 -0.008488279 -0.03097136 -0.029393662 0.023791006 -0.017435722 0.018472776 0.03432953
0.0081015555 0.020093711 -0.030782226 -0.014933736 -0.001792928 0.0076822694 0.014413078 0.019227136
