outputs/x3/epoch_56.pth (torch, 231327 bytes, 5 tensors)

conv1.weight f4 [64, 1, 9, 9]
000000 cf bd 1f bd 92 14 10 3c 5a f3 48 bd 3b 2f 45 3d
       -0.038999375 0.008793967 -0.049060203 0.048140746
000010 ab ca b6 bd 2d 80 ae 3d c6 e9 9f bd 9d 63 b1 bd
       -0.089253746 0.08520541 -0.078082606 -0.08661578
000020 16 a4 8e bd f1 28 61 3d 04 1b 17 bd 3d 96 44 3d
       -0.06964891 0.054970685 -0.036891 0.04799484
000030 a7 15 b2 bd 05 9b 79 bd bb 05 17 bd 39 18 a0 bc
       -0.08695536 -0.060938854 -0.0368707 -0.0195428
000040 ca 7d ab bd ba ec 93 3d 8e 56 a5 bc 23 ce 2b 3d
       -0.08373602 0.072228864 -0.020182874 0.041944634
000050 13 53 b5 3d 7e 0d 08 3d 5d d6 2f 3d 93 80 ee 3d
       0.08853736 0.033215992 0.042929042 0.11645617
000060 44 a4 32 bd 02 2f 21 3d 80 e0 43 bd 4f 89 b2 3d
       -0.043613687 0.03935147 -0.04782152 0.08717596
000070 7a 75 c6 3d 97 29 b8 bd c9 ce e3 3d 92 f3 90 3d
       0.096903756 -0.08992308 0.111234255 0.07077707
000080 59 e3 80 3d 5d 04 6a 3d 5f 89 cd 3d 40 64 29 bc
       0.06293363 0.057133067 0.10035967 -0.010338843
000090 74 08 b0 bd 7c ee c4 bc 32 a6 88 bd fc 14 ba 3c
       -0.08595362 -0.0240395 -0.06672324 0.022715084
0000a0 aa 93 51 bb a0 05 35 bd ee 64 2d 3b fd 50 ea 3d
       -0.0031978884 -0.044194818 0.0026457864 0.114412285
0000b0 d0 01 74 bb d0 f1 42 3c 38 de 28 bc 07 6b d8 3c
       -0.0037232526 0.011898473 -0.010306887 0.026418222
0000c0 3b 52 e1 3d 9c 6d a5 3d 3c e3 51 3d 15 77 0d 3d
       0.11002012 0.08077547 0.0512421 0.034537394
0000d0 23 5a 0a 3d 2e 0a 41 3d 6d 70 c3 bb 83 16 c7 bd
       0.033777367 0.04712885 -0.00596433 -0.09721091
0000e0 60 b8 7e bd bb c5 d0 3d fa 60 6d 3c 3b 9c a9 bd
       -0.062187552 0.10193964 0.014488453 -0.08281752
0000f0 22 a0 c5 3c 59 21 c6 3d 55 17 d1 bd 5e ec 86 bd
       0.024124209 0.09674329 -0.10209528 -0.06588052
000100 b6 86 1b bd 60 78 2e 3c b8 0e a2 bc 78 f6 ca bb
       -0.037970267 0.010648817 -0.01978241 -0.006193932
000110 c4 58 d3 bd 8b 56 68 3d bb a0 cf 3d f0 1d 91 3d
       -0.10319665 0.05672316 0.10138079 0.07085788
000120 c1 a6 8d bd 3d 39 a9 bd ea 71 58 3d 1e 05 14 3c
       -0.069165714 -0.082628705 0.052843012 0.009034423
000130 ed f4 53 3d 95 e2 d3 bd 70 ad 09 bb f0 9d a8 3d
       0.05174725 -0.103459515 -0.0021007918 0.08233249
000140 56 bc 61 3d 7c 7b 6e 3b 8c c9 a8 3c 71 26 3c bc
       0.05511125 0.003638952 0.020603918 -0.0114837745
000150 67 d8 7a bd f9 58 2b bd 9a 65 8a bd 1f 15 bf 3d
       -0.061241534 -0.041832898 -0.0675766 0.093302004
000160 c0 01 7c 3d 7e c5 1a 3d de e4 ac bd 0c 0a b0 3d
       0.061525106 0.037786 -0.084420905 0.08595666
000170 28 fe 11 3d 69 c6 a0 3d 1a 37 2c bd c8 b0 cb 3c
       0.035642773 0.07850344 -0.042044736 0.02486457
000180 a6 15 e3 3d f4 d6 9c 3d 6b bd b6 3d db fc b2 bc
       0.110881135 0.076581866 0.08922847 -0.021849087
000190 b8 3c b0 3d 6d fb ac bd 12 d4 55 3c 1b 22 75 bd
       0.08605331 -0.08446393 0.01305105 -0.05984698
0001a0 8e 76 c9 bc 05 0f d6 bc f4 30 2a 3c 30 41 d0 3d
       -0.024592664 -0.026130209 0.010387648 0.101686835
0001b0 76 a6 68 3d ea 22 e6 3a 7c fe a9 3d 55 c2 53 bd
       0.056799375 0.0017558013 0.08300492 -0.051699
0001c0 9b 25 7a 3d 3f 34 16 bc e0 3a 91 bc a6 f5 6f 3c
       0.06107102 -0.00916773 -0.01772827 0.0146459695
0001d0 b1 ec ac bd 44 e1 66 3c c5 f4 1f 3d 6c 75 ca 3d
       -0.08443583 0.014091793 0.03905179 0.09885678
0001e0 cc bd ef bc b8 4f 34 3d 09 ec e5 3d ce 59 3d bd
       -0.029265307 0.04402134 0.11226661 -0.046228223
0001f0 49 50 db 3d 9e b8 5e bd 2b 08 4a 3d ea 41 33 3d
       0.107086726 -0.054375283 0.049324196 0.043764032
000200 78 8a 06 3d c4 eb ba 3d 84 29 2b bd 2f 09 fb 3c
       0.032846898 0.09127 -0.04178764 0.030644028
000210 c6 bc 1c 3b a2 2d a8 bd dd b1 d7 bc ae ce 99 bd
       0.0023916229 -0.08211829 -0.026329929 -0.07510124
000220 3d 1a 42 3d 01 5f 0f 3c 31 81 30 3c 68 ac 08 bd
       0.047388304 0.008750678 0.010772989 -0.033367544
000230 49 8c 32 3a cb 15 0a bd e2 e9 03 3d c0 bf db 3d
       0.0006811065 -0.03371219 0.03220547 0.10729933
000240 21 a8 74 3c 78 76 56 bd f1 f9 91 bd 71 a3 b8 3b
       0.014932663 -0.052359074 -0.07127751 0.005634718
000250 7a 95 ad bd fa aa ae bd a7 bc 95 bd c7 e7 1f bd
       -0.08475776 -0.08528705 -0.07311373 -0.0390394
000260 06 d4 cc 3b b1 65 9b 3d c5 5f 29 3d 3b 6a aa 3d
       0.006250861 0.075877555 0.0413511 0.08321043
000270 08 ed 91 bd 20 07 06 3c b4 0f cc bd 9f 5c 82 3d
       -0.07125288 0.00818041 -0.09963933 0.06365322
000280 f4 bc b8 3c 30 d5 d9 3d 94 d4 a1 bd 76 7b b6 3d
       0.022551037 0.106363654 -0.07901874 0.08910267
000290 76 18 c0 3d 3a fa b7 3d 0f bb 81 3c 02 e9 ce 3d
       0.093796656 0.08983274 0.015836267 0.101030365
0002a0 9b f4 97 3d 06 c1 a9 3d 4c 97 ed bb a6 9f ae bd
       0.07419702 0.082887694 -0.007250702 -0.08526544
0002b0 30 84 b8 ba b6 65 aa 3c cc 02 9b bd df 88 82 bd
       -0.0014077481 0.020800453 -0.07568893 -0.06373762
0002c0 33 2b da bd 11 9b 1f bd d4 33 c6 3d e3 6b 9b 3c
       -0.10652771 -0.038966242 0.09677854 0.018972343
0002d0 1e 90 de bb 32 49 91 3b 90 e1 8d 3d a7 f3 c8 bd
       -0.0067920825 0.0044337744 0.06927788 -0.09812098
0002e0 18 95 af bd 8d 55 17 bd 58 f6 82 bd 50 b4 6a 3d
       -0.08573359 -0.036946822 -0.063946426 0.057300866
0002f0 62 c9 a0 3d 7b c9 dc bd 8d 21 c1 bd 58 9b dd bd
       0.07850911 -0.10780617 -0.094302274 -0.10820645
000300 9b a4 2b 3d 26 25 b7 3d 98 6f b0 bd cf b6 52 bd
       0.041905027 0.089426324 -0.08615035 -0.05144387
000310 b2 d2 10 3d 47 95 94 bd b2 4a c1 3d 26 f7 d3 3c
       0.035357185 -0.07255035 0.09438075 0.025874685
000320 09 bd fd bc 9f 26 eb 3b a5 d5 0d 3d 2e fb 20 bd
       -0.030973928 0.007176235 0.034627575 -0.039302044
000330 e2 53 b0 bd 10 a2 3f 3a b5 09 04 3b 9a e9 11 3b
       -0.086097494 0.0007310221 0.0020147387 0.0022264482
000340 ed 25 85 bc 35 14 92 3d 94 6b fe bc 17 0f 31 bc
       -0.016253436 0.071327604 -0.031057157 -0.01080682
000350 77 0d 3b 3d 8f 3e 8f bd 42 78 f3 3c 31 79 c9 bc
       0.045667138 -0.06994354 0.02972043 -0.024593921
000360 ff 4a 5a 3d 30 e6 76 bd 42 27 86 3b ec f1 31 3c
       0.053294178 -0.060278118 0.0040940354 0.010860901
000370 84 17 b7 bd 67 77 a5 bd 60 88 2e 3d e5 76 04 bd
       -0.08940032 -0.08079415 0.042610526 -0.03233995
000380 1f 25 87 3d fc ca e0 bd b8 f8 60 bd d6 6d bb bd
       0.06598877 -0.10976216 -0.054924697 -0.09151809
000390 20 ce 35 3d fe 09 53 bb 85 c1 a9 bc 1d 69 97 bc
       0.04438603 -0.0032202 -0.02072216 -0.01848274
0003a0 45 de b1 bd 73 14 01 3d 92 cf 35 3b bc 09 9d bd
       -0.08684973 0.031513643 0.002774213 -0.07667872
0003b0 7f 41 2b 3d ee 7f 12 bb 54 14 dc bd 93 d1 74 3d
       0.04181051 -0.0022354084 -0.10746065 0.059770178
0003c0 72 70 73 3d 99 75 ab bc bc 1c 9d bd 6e 71 82 3b
       0.059433408 -0.020930098 -0.07671496 0.003980807
0003d0 e4 ca a8 3d 39 6d ce 3d d6 e3 a9 bd 6b 28 4a bd
       0.08241823 0.10079426 -0.082954094 -0.04935495
0003e0 d1 e8 b0 3d 87 c0 5a 3d aa 80 89 3d b0 7d 6b bd
       0.08638156 0.053406265 0.06713994 -0.05749291
0003f0 b4 68 c4 3d ef 46 bc bd 1c 3c b5 bb c6 f7 74 3b
       0.09590283 -0.09193217 -0.0055308472 0.003737913

conv1.bias f4 [64]
000000 37 0d 7a bc 6c 46 89 bd cf 7f 9b bb 4d 97 87 bd
       -0.01526194 -0.06702885 -0.0047454606 -0.06620655
000010 01 1b 04 3d 15 9f d1 bc fb 02 7f 3d 3b 36 61 3d
       0.032252315 -0.025588552 0.0622587 0.05498336
000020 b5 c1 e0 3d 3a 1a 91 bd fe f4 ab bb 5f 2a 8c ba
       0.10974447 -0.070850804 -0.005247711 -0.001069378
000030 6b e7 9a bd 6f b3 c1 3d 2b 96 86 3d d6 58 92 3d
       -0.07563671 0.09458052 0.06571611 0.0714585
000040 74 a4 1e bd bf ed 5c bd 4d 24 85 3d bd d1 87 3c
       -0.038731053 -0.05393767 0.065010644 0.016579503
000050 07 a2 66 3c 43 da ae bc d6 e6 ce bd 58 6a 81 3d
       0.014076716 -0.02134431 -0.10102622 0.063191116
000060 dc af 4e bd 31 d9 84 3d 17 fb df bc 5e 69 41 bc
       -0.05046068 0.064867385 -0.027341409 -0.011804907
000070 eb f4 ec 3c aa a7 ff 3c 33 46 f7 3d 61 94 27 bd
       0.02892538 0.031207878 0.12073936 -0.04091299
000080 ef ff 1f 3d 0c d4 34 3d cd 3a 5d bc 41 bf c0 bd
       0.039062437 0.044147536 -0.013502789 -0.09411479
000090 1d bb a3 bc 2c c4 9c 3d 2d 10 c1 bd 32 80 58 3c
       -0.019986684 0.07654604 -0.094269134 0.013214158
0000a0 b3 ab 6c bd 09 66 62 bd 30 58 bc 3d bb ef 88 3b
       -0.057780933 -0.05527309 0.09196508 0.0041789687
0000b0 87 b5 0d 3d c0 c0 91 3c fa 5d a2 bd 1e 7b e3 bd
       0.034596946 0.017792106 -0.07928081 -0.11107467
0000c0 6c 25 8f bd 6d c4 1d bc 28 19 45 bd 5b 33 bc bc
       -0.069895595 -0.009629351 -0.048119694 -0.022973707
0000d0 2a 35 1f 3d 19 89 e4 bb fd bc 03 3c a9 bd 5e bd
       0.03886906 -0.006974351 0.008040664 -0.054380093
0000e0 94 e7 9a 3d 48 11 64 bd 27 df e8 bb 20 aa bd 3d
       0.07563701 -0.055680543 -0.00710668 0.092609644
0000f0 96 96 d1 3d 22 b8 71 bd 47 b3 ca bd 73 16 a3 bd
       0.102338 -0.059013493 -0.09897476 -0.07963266

conv2.weight f4 [32, 64, 5, 5]
000000 43 3b a1 3b a8 8d 28 3c 94 d2 3c bc b3 4b a3 bc
       0.0049203946 0.01028768 -0.011524815 -0.019933557
000010 d1 db a1 bb f3 f2 cf bb cd 7f 82 bc 61 4e c3 bc
       -0.0049395342 -0.0063461005 -0.01593008 -0.023841085
000020 2a 94 8e bc 5e a9 87 ba 4e a2 59 3c 44 68 9c bc
       -0.017404635 -0.0010350158 0.013283325 -0.019092686
000030 5c 0d 1e bc 78 9a 9f bc 33 08 3d 3c 87 e2 07 bb
       -0.00964674 -0.019482836 0.011537599 -0.0020734386
000040 76 9e 7f 3c 27 b1 30 3b 30 62 ab bb 00 39 af 3c
       0.015601745 0.002696106 -0.0052302107 0.021389484
000050 77 5d 83 3c 19 09 be 3c c0 d9 90 bc bf 50 39 3c
       0.016035778 0.023197697 -0.017681956 0.011310755
000060 9e 34 84 bc 39 22 80 bc 88 25 97 3c ec f0 34 3c
       -0.016138371 -0.015641319 0.018450513 0.011043768
000070 df 5f 6e bc b4 cd 88 bc bf ac 5b bc d2 16 9b 3c
       -0.014549225 -0.01669965 -0.013407885 0.01893178
000080 bb b6 07 3c b4 10 82 3a 52 84 8d bc 3a 50 fc 3b
       0.008283312 0.0009923191 -0.01727501 0.0076999934
000090 fe 86 bc bb 5b c1 6f 3c 6f 97 b8 3b 96 b4 33 3c
       -0.005753397 0.014633502 0.0056332867 0.010968348
0000a0 27 81 0d bc 01 34 1f ba 52 81 65 bc c3 a8 b0 3b
       -0.008636749 -0.0006073118 -0.014007883 0.0053912117
0000b0 24 fa 17 bb f6 9f b2 bc 11 b2 59 3c 0f 98 1c 3c
       -0.0023189867 -0.021804791 0.013287083 0.009557738
0000c0 07 c5 68 3c c2 41 29 3c 1c 9f 1e 3b 1b a4 91 3c
       0.014207131 0.010330619 0.0024203723 0.017778447
0000d0 6f 92 b1 bc 4e 06 e2 3b c3 15 a3 3c c8 f7 8a bb
       -0.02167627 0.0068977242 0.019907838 -0.0042409636
0000e0 20 5f 9e 3c 34 dd 29 3c 5c 53 ad 3c 52 aa af 3c
       0.019332469 0.01036768 0.021157913 0.02144352
0000f0 90 cd 3a 3c 93 fe 12 3b e4 e5 ad bc ba 86 15 bc
       0.011401549 0.002242957 -0.021227784 -0.00912636
000100 52 27 b6 bc 9b 3f 83 bb 3a 98 78 3c d1 c9 5d 3c
       -0.022235546 -0.004005385 0.015173012 0.013536886
000110 da d7 f2 3a 4d ab c5 bc 81 40 5a 3c 69 95 18 3c
       0.0018527464 -0.024129534 0.013321043 0.009312966
000120 bc 1e 50 bc 89 e8 bb bc 6f 68 63 bc 22 97 08 3c
       -0.01270264 -0.02293803 -0.013879879 0.008336814
000130 aa 75 5d bc b1 17 8e bc 0c 05 a3 bc e9 e4 74 bc
       -0.013516823 -0.017345281 -0.019899867 -0.014947155
000140 4e ca 83 bb 1e 6f 96 3c fa 2a 7d bc 39 a9 b5 bc
       -0.0040219193 0.018363532 -0.015452141 -0.022175418
000150 fe 7b a7 3c 58 df 5c 3c 59 50 00 3c ba c8 88 bc
       0.020444866 0.013480984 0.007831656 -0.016697276
000160 f6 01 8f 3c 91 29 26 3c e3 34 67 3b d9 84 96 3c
       0.01745699 0.010141746 0.0035279326 0.018373894
000170 4c 5f f0 3b 95 f2 7d 3c 05 48 f3 bb 14 5a 7b 3c
       0.007335579 0.015499731 -0.007424357 0.0153413005
000180 0a 69 47 bc f3 34 c8 3b 53 3c 7f bc 89 ad bc bc
       -0.012171039 0.0061098277 -0.015578347 -0.023031967
000190 b5 0c ac bc e0 ee 97 bc e4 3c 5c 3c 7b 62 c5 3c
       -0.021002153 -0.018546522 0.013442252 0.02409481
0001a0 80 12 78 3c d9 c8 60 ba 2a 49 18 ba 7c 37 4b 3b
       0.0151411295 -0.00085748505 -0.0005809242 0.0031008413
0001b0 a7 92 c1 3c 7e a2 53 3c de 18 7d bc ac b1 69 bc
       0.0236295 0.012917159 -0.015447823 -0.014263552
0001c0 5a 39 a3 3c ee b5 56 3c 9e 2c ca bc be ec ab bc
       0.019924808 0.013104899 -0.024679478 -0.02098691
0001d0 68 14 4e 3c 13 2d 4a bc bc 4e 97 3c 27 35 82 3c
       0.012578107 -0.012339848 0.01847016 0.015894486
0001e0 d2 bb a3 bc e0 3e b5 3b 64 25 94 bb 30 cc c8 bc
       -0.01998702 0.005531177 -0.004521059 -0.024511427
0001f0 32 ac f2 3b 38 7c 36 3b be 25 98 3b de 9f a5 bc
       0.007405781 0.0027845036 0.004643171 -0.020217832
000200 f0 f9 b4 bb 63 1e 96 bb 05 a6 b1 bc f1 06 9f 3c
       -0.005522959 -0.004581259 -0.02168561 0.01941249
000210 22 e8 e1 bb df 50 41 3c 11 26 db bb 48 cd 9f bc
       -0.0068941275 0.011799066 -0.0066878875 -0.019507065
000220 ab b6 da bb f9 06 9c 3b 87 40 a2 3c ba 33 80 3b
       -0.0066746078 0.0047615734 0.01980616 0.0039124163
000230 19 c0 8b 3c b8 50 41 3c 02 66 8c bc 98 e6 55 3a
       0.017059373 0.01179903 -0.017138485 0.00081596663
000240 40 d1 b5 3c 7a 26 f7 bb 1f 5d 33 3c 5e 30 b4 3c
       0.022194505 -0.0075424286 0.010947495 0.02199572
000250 39 83 b0 ba f2 81 13 bc 7b 7b 6e bc 1a 1c b0 ba
       -0.0013466842 -0.009003149 -0.014555807 -0.0013436109
000260 5e 5c 85 bc 6b 57 cc 3c c1 75 ac bc 75 fb ad 3c
       -0.016279396 0.024944028 -0.021052243 0.021238068
000270 a5 d7 82 3c 8f c6 b6 bc 01 cd 7e bc 68 80 b8 3c
       0.015971968 -0.022311477 -0.015551806 0.022522166
000280 5f 63 73 bb 65 9c 93 bc 8d 33 8a 39 c9 f1 d8 bb
       -0.0037138087 -0.01801891 0.0002635982 -0.00662062
000290 2c 97 18 3b 3d 99 17 3c 6c 65 b1 bc 5c 94 5a bc
       0.0023283465 0.009252843 -0.021654807 -0.013341036
0002a0 11 82 b5 ba db 30 b8 3c b9 87 a1 bc 42 c2 62 bc
       -0.0013847967 0.022484234 -0.019718038 -0.01384026
0002b0 e1 70 5b 3c ed a8 bb 3c 23 68 09 3b 47 25 de 39
       0.013393612 0.022907699 0.0020966611 0.00042370913
0002c0 7b 6e 37 3c 24 81 a0 bb 5c f6 72 3c 4f 47 cb 3c
       0.011195774 -0.0048982073 0.014829244 0.024814276
0002d0 a6 92 91 3c c7 9c ca bc c0 0b 9d 3c 45 0f c0 3c
       0.017770123 -0.02473296 0.019170642 0.023444781
0002e0 bb 09 28 3c 91 96 09 bc e4 f0 66 bb f1 e0 88 bc
       0.010256226 -0.008397714 -0.0035238797 -0.016708823
0002f0 8c 2d 8c bb db 68 81 3c 6c c9 e3 bb ef fa 85 bb
       -0.0042778905 0.01579707 -0.0069515016 -0.0040887515
000300 21 60 97 bb 2a e9 a4 b9 5f 2a 53 3b 48 87 7e bb
       -0.0046196138 -0.00031454238 0.00322213 -0.0038837958
000310 ec df ca bc 5e d4 09 bc 1d 41 56 bc b1 95 18 bc
       -0.024764977 -0.008412449 -0.013077048 -0.009313033
000320 98 1e 4d bc 74 55 90 bc 25 d1 a5 bc 45 44 12 bc
       -0.012519501 -0.017618872 -0.02024133 -0.00892741
000330 ab 27 6c 3b 62 78 c9 3c 9d 7b 12 3b 73 d1 0c 3b
       0.0036034386 0.024593536 0.0022351511 0.0021487146
000340 55 27 48 3c 9b b5 b7 3b 66 3e a4 bc 82 d7 c7 bc
       0.012216409 0.005606366 -0.020049285 -0.024394754
000350 a4 05 7d bc 82 74 aa bb 27 fc 89 bc 39 7b 98 3c
       -0.015443239 -0.005201877 -0.016843868 0.018613445
000360 82 55 01 bc 60 f4 40 bc d5 42 91 bc 17 c5 33 bc
       -0.007893922 -0.011777014 -0.017732063 -0.010972283
000370 a2 da 99 bc da 55 ab 3c 2a b6 d9 3b bf 5c b0 bc
       -0.01878101 0.02091496 0.00664403 -0.0215286
000380 3e 3f c8 3c 12 48 9f bb 3d 36 0a 3c 8d a9 7b bb
       0.024444219 -0.0048608864 0.008435783 -0.003840062
000390 bf db 93 bb a3 f8 63 3c 44 76 b1 3c bd bc 17 3c
       -0.0045122798 0.01391426 0.021662839 0.009261307
0003a0 eb 39 c8 3c 67 5f c3 3c 07 db cd ba 8d 47 25 bb
       0.02444168 0.023849202 -0.0015705534 -0.002521965
0003b0 f5 ef 08 bb dd 73 be bb a4 9e 19 bc 95 09 aa bc
       -0.0020894979 -0.005812152 -0.009376202 -0.020756522
0003c0 21 5f c5 bc d9 1e 24 bc 63 b2 1e bc 4b 11 c8 bc
       -0.024093213 -0.01001712 -0.009686085 -0.024422308
0003d0 9d 32 b6 bb 2e ef 84 3c 63 1c 76 bb 4a 38 36 bc
       -0.005560233 0.016227331 -0.003755354 -0.011121819
0003e0 ae ac 09 ba 65 98 86 3c e9 cb 37 bc 80 e7 28 bc
       -0.00052518665 0.01643009 -0.01121805 -0.0103091
0003f0 10 99 ca ba 82 3d 6a ba 68 92 bd 3c ac 8e b3 bc
       -0.0015456993 -0.0008935557 0.023141101 -0.021918617

conv2.bias f4 [32]
000000 19 22 33 bc de 2e ca bc 7b f1 5a bb 05 8f 77 3c
       -0.0109334225 -0.024680551 -0.0033408094 0.015109782
000010 8f b0 d0 3c 00 bb aa 3c 3d a8 68 bc 40 9a 15 3d
       0.025474815 0.020841122 -0.014200267 0.036524057
000020 dc b0 3a 3b a2 9c 40 bc 57 48 e4 bb c5 f1 86 3b
       0.0028486764 -0.011756094 -0.0069666314 0.0041181766
000030 e6 60 fd 3c bd 7f d8 3c 81 4c a7 bb 40 ba 1e bc
       0.030929994 0.026428098 -0.0051055555 -0.00968796
000040 76 48 7e bc 60 fe 92 bc 02 2d d0 3c f0 a4 f5 3c
       -0.015520206 -0.017943561 0.025412086 0.029985875
000050 af 9c bd 3a 1e a7 78 39 39 22 43 bb 37 96 15 39
       0.0014466251 0.00023713379 -0.0029775037 0.00014265707
000060 86 de 4b 3c 13 bd 2d bc 87 f1 78 3c 0f fe eb 3c
       0.01244319 -0.010604161 0.015194303 0.028807668
000070 74 ed 6d 3b 02 53 88 bc 10 67 03 bc 0d db f6 bb
       0.0036304863 -0.016641144 -0.0080201775 -0.007533437

conv3.weight f4 [1, 32, 5, 5]
000000 8a f0 9b 3c 7c 3f 94 3c a7 a7 f9 ba 05 91 c7 3c
       0.019035596 0.018096678 -0.0019047157 0.024361143
000010 cb 74 f7 3c 15 dc ef bc cc 93 c4 3a a1 f6 0a bd
       0.030207058 -0.029279748 0.001499766 -0.03392661
000020 4e 08 89 3b 6a aa 27 3c 5e 0e 12 bb 41 65 e6 3c
       0.004181898 0.010233501 -0.0022286396 0.028124453
000030 61 ce 4c 3c ce 01 f2 bc ba 72 40 bb 1c 69 7c bc
       0.012500376 -0.029541876 -0.0029365257 -0.015405919
000040 57 4d e7 bc f4 55 7f 39 1b 16 01 bd 4e cc c0 3c
       -0.02823512 0.00024350715 -0.031515222 0.02353492
000050 32 6c 95 3b c8 79 51 3c 10 86 a2 3c 58 f3 e3 3c
       0.004560017 0.012785383 0.019839317 0.027825996
000060 54 0e 8e bc 28 00 a8 3b 55 09 f4 bc ff 93 26 3c
       -0.017340817 0.0051269718 -0.029789606 0.010167121
000070 40 72 d9 3c 3a 2d b1 bc 83 e2 c0 3c e1 6e 49 bc
       0.026543736 -0.021628011 0.02354551 -0.012294502
000080 1f a7 58 3c 0a c6 6d bc 79 0c 02 3c ef 17 f3 bc
       0.0132234385 -0.014512548 0.007937544 -0.029674498
000090 4b 88 01 3d 4c 22 5e bb dd 86 10 3d e1 82 21 bc
       0.03162412 -0.0033894954 0.035284866 -0.009857864
0000a0 f2 48 8d 3c 3b 2b 5e bc 15 c9 40 bc 4e 38 f9 bb
       0.017246697 -0.013560112 -0.011766692 -0.007605589
0000b0 a8 66 99 3c f9 97 83 3c 96 34 c1 3c fd d9 44 bb
       0.018725708 0.016063677 0.023584645 -0.0030037158
0000c0 0f d2 bd 3b ba 44 c3 3c c7 9d 63 bc 56 7b 3f bc
       0.005792863 0.023836482 -0.0138925975 -0.01168712
0000d0 d7 00 dc 3c eb bb f4 bc 1d bf 8c bc 2e 1a a1 bc
       0.02685587 -0.029874763 -0.017180974 -0.019665804
0000e0 fc df f3 bb 45 be d4 bc 08 2b 06 3c fc d4 ca bc
       -0.0074424725 -0.025969634 0.00818897 -0.024759762
0000f0 d8 3a 7f bc 4f 07 0d bd a3 e6 c1 3c ec e6 b1 bc
       -0.015577994 -0.0344308 0.023669546 -0.021716557
000100 08 3d 8d bb ac 60 ad bc 9b c1 a0 bb ff 9a dc bb
       -0.004310254 -0.02116426 -0.004905892 -0.006732344
000110 62 2e 3d bc f5 38 18 ba ec 3e 75 3c 49 f6 ed 3c
       -0.011546703 -0.0005806827 0.014968615 0.029048102
000120 df bf d6 3c 7b 42 d7 bc 02 8d 88 bb ad 76 e1 bc
       0.026214538 -0.026276818 -0.0041672 -0.02752241
000130 c1 62 95 3c 15 07 c9 3c 89 56 1e 3c a1 f7 40 3c
       0.018235566 0.02453951 0.009664186 0.011777789
000140 c7 82 0f 3d c1 b7 70 bb 47 f0 f7 bc 2f 7a 88 bc
       0.03503683 -0.003673062 -0.03026594 -0.016659824
000150 f0 83 2c bc 3b 2d 88 3c 15 ff 3a 3a e7 b8 e3 3c
       -0.010529503 0.01662313 0.0007133347 0.02779813
000160 da 2c a1 3c be bf 27 bc 87 42 18 bc c7 eb 43 bc
       0.019674707 -0.010238586 -0.009293205 -0.011958069
000170 7f b9 02 bd 9e 8c 38 bc bd 98 86 bc a0 72 e2 bb
       -0.031915184 -0.0112639945 -0.016430253 -0.006910637
000180 98 e7 01 bc a3 c4 59 bc c4 4a 85 bc 8f 27 bd 3b
       -0.007928751 -0.013291511 -0.016271003 0.005772538
000190 c8 b0 ec 3b 1b 03 34 3c 18 27 9d 3c a5 ff 87 b9
       0.0072232224 0.0109870685 0.01918368 -0.00025939677
0001a0 19 19 ae 3b 82 35 b6 bb 26 7b 13 3d 28 b2 c3 3b
       0.0053130505 -0.005560578 0.036006115 0.0059721656
0001b0 d1 1c ee 3c 3d c1 96 bc fd 4a c5 bc f1 e3 27 3c
       0.029066475 -0.01840269 -0.024083609 0.010247217
0001c0 1b 11 c7 bc a4 71 d3 3c e1 ce c3 3c 63 3f 04 3d
       -0.024300149 0.025811024 0.023902358 0.032287013
0001d0 6e 6a 18 3d 24 ea 91 3c 67 6a 91 3c 7f 65 0c bb
       0.037210874 0.017811842 0.017750932 -0.00214228
0001e0 43 2e 0e 3d bb 95 9a 3c de b8 7e bb 59 70 f5 bc
       0.034712087 0.018870225 -0.0038867514 -0.029960798
0001f0 c5 01 d8 3b de 76 c0 3b b1 7c e2 3c d1 ce b6 3c
       0.006592008 0.005873545 0.027647348 0.022315415
000200 98 9f 05 3d f9 de ac 3b 13 2f 42 3c 71 ea e6 bc
       0.032622904 0.005275604 0.011852044 -0.028187962
000210 6f e3 a6 3b 2d 50 11 3c 4f b7 9f bc 0f 0d 8d bc
       0.00509303 0.008869213 -0.019496588 -0.01721814
000220 a6 f6 7d 3c 18 7e 9e bc 02 a9 4f bc df 2d d3 3c
       0.0155007 -0.019347236 -0.012674572 0.025778709
000230 e0 75 dc 3c 14 28 f6 bc a1 c5 01 bd c8 85 b5 3c
       0.026911676 -0.030048408 -0.031682614 0.022158518
000240 0f 31 33 bc 3f 9b 2d 3b b9 10 c8 bc 40 10 7c bc
       -0.010936989 0.002649024 -0.024422036 -0.015384734
000250 ea c2 dc 3c ea e1 b7 bc c0 7f 52 3c fb ea bc 3a
       0.026948411 -0.022446591 0.012847841 0.0014413291
000260 67 d0 32 3c fb 57 c9 3a 69 f1 f6 bb 30 f7 4c 3c
       0.010913945 0.0015361303 -0.0075361026 0.012510106
000270 6d cb 1e 3c 78 a3 56 bb 3c ff c1 3c 30 ae 00 3d
       0.009692055 -0.0032751244 0.023681276 0.03141612
000280 47 43 97 3c 5e b0 22 bc af af d1 bc 6c df c3 bc
       0.018464698 -0.0099297445 -0.025596468 -0.023910247
000290 a8 b9 8c bc 34 c6 3b bb 4b 18 94 3c 53 c0 1c 3c
       -0.017178372 -0.0028652074 0.01807799 0.009567338
0002a0 04 22 01 3d ec fc 0a bd 88 6e 9f bc dd 37 05 3d
       0.03152658 -0.03393261 -0.019461885 0.03252398
0002b0 28 da ce bc b2 c8 b8 3c 1d f4 cc 3a 29 55 e3 ba
       -0.02525051 0.022556636 0.0015636716 -0.0017344105
0002c0 13 29 eb 3c b0 5c 1c 3d 15 19 19 bc fa 44 dd 3a
       0.02870611 0.03817433 -0.009344359 0.0016881519
0002d0 1c 49 0e 3d 4c 12 07 3d cb 12 d2 3c 7b 57 81 bc
       0.03473769 0.032976434 0.025643727 -0.015788784
0002e0 eb cb a2 bc 2a 55 06 3d 59 5f f4 3c 4c bf 60 3c
       -0.019872626 0.032796063 0.029830622 0.013717484
0002f0 a7 fc 3a 3d a6 e0 0b 3d 73 1b b2 bb b9 22 9a 3c
       0.045651104 0.03414979 -0.005435401 0.018815385
000300 9d ed 38 3d 49 6a d4 3c 97 bc 56 bc 14 d4 0c bd
       0.04514848 0.025929587 -0.013106487 -0.03438194
000310 42 ca 25 3c 6b 08 a1 3c 3d aa 05 bd 8e c4 e5 3b
       0.010119023 0.019657334 -0.032633055 0.0070119565
000320 27 c4 b2 bc 3a d0 6b 3c 7b 9b 88 bc 53 24 da bc
       -0.021822048 0.014392907 -0.016675701 -0.026628649
000330 62 d4 0b 3d fd 27 ad 3c 0c 66 66 bc 5a ae cb bc
       0.03413809 0.021137232 -0.014062416 -0.02486341
000340 a1 5f c6 3c e4 b1 b3 bc 03 8e 2b bc 88 5c 7d bc
       0.024215521 -0.02193541 -0.01047087 -0.015463956
000350 6f 36 39 3c 2a 70 f0 ba bf f1 5a 3c 29 51 a2 bc
       0.011304482 -0.0018343974 0.013363301 -0.01981409
000360 c8 6f d7 3c 25 3b 9a 3b bf 87 c5 bc 5d 79 d2 bc
       0.026298419 0.0047067576 -0.02411258 -0.025692636
000370 cd c3 af 3c 4b 32 77 bc 99 f9 2a 3c 19 b0 97 3a
       0.02145567 -0.015087674 0.010435485 0.0011572867
000380 99 b2 85 bc f9 ad 1e 3d e0 b1 39 bc 8e 5e a0 3c
       -0.016320514 0.038740132 -0.011333913 0.019576337
000390 62 ad e3 3c 44 59 95 3c 81 a2 11 3d 7a 86 c9 bc
       0.027792636 0.018231042 0.035555366 -0.024600256
0003a0 88 f0 e5 3b 39 14 64 3b fd 8b ba 3c f7 84 86 bc
       0.007017199 0.0034802093 0.02277183 -0.016420824
0003b0 94 48 c8 bc 9f a4 d8 bc db ff d8 3c 1f 29 61 3c
       -0.02444867 -0.026445685 0.026489189 0.013742714
0003c0 bc 4f 15 bd f1 23 04 bc a5 6b fc bc b4 88 f0 bc
       -0.036452994 -0.00806521 -0.030813048 -0.02936206
0003d0 36 12 c3 3c b7 b7 8e bc e2 8e 98 3c b4 70 0c 3d
       0.023812395 -0.017421586 0.01862282 0.03428717
0003e0 a6 fb 03 3c fb ee a4 3c 02 2b fc bc a1 ac 74 bc
       0.008055603 0.020133486 -0.030782226 -0.014933736
0003f0 7b 09 eb ba 89 bb fb 3b d5 24 6c 3c 3a 82 9d 3c
       -0.0017931903 0.007682268 0.014413078 0.019227136
