outputs/x3/epoch_82.pth (torch, 231327 bytes, 5 tensors)

conv1.weight f4 [64, 1, 9, 9]
00000000: b9c4 1abd 1c47 213c a56a 45bd f3c7 463d
00000010: 6519 b7bd 1f40 ae3d bb75 9fbd ca74 b0bd
00000020: f8ae 8dbd 0c49 643d 0a4d 14bd 62c5 473d
00000030: c123 b1bd bb54 7abd 15e1 18bd c68f a1bc
00000040: 041a abbd 8e97 943d a90a a3bc 7d4f 2d3d
00000050: 9c2b b73d fea6 0c3d 20e8 323d 31b8 ee3d
00000060: c9db 32bd d26b 213d 15b8 43bd 3330 b23d
00000070: 9958 c63d 53b2 b6bd 9ec1 e63d 7005 943d
00000080: fe68 823d be5e 6b3d ba78 cd3d eb74 2fbc
00000090: 8ea0 b0bd 6671 c7bc fd1c 88bd 0f04 c23c
000000a0: c499 fbba 208c 31bd 5b58 503b 3a59 ea3d
000000b0: 858f 8cbb 8515 473c 3509 29bc 534c d83c
000000c0: 8660 e13d 13b5 a53d 5e80 523d d09f 0e3d
000000d0: 9c56 0a3d f74a 3f3d a1d1 a8bb a730 c6bd
000000e0: a74a 7ebd 6b29 d03d f5b7 643c 6868 aabd
000000f0: c284 c53c 5421 c63d f648 d1bd 3cf0 84bd
00000100: 1cb0 18bd d2c2 343c 7286 a2bc d0e2 dabb
00000110: 8850 d4bd a099 673d 258c cf3d 834c 913d
00000120: 160d 8cbd 59e8 a7bd 6930 5a3d bad8 153c
00000130: 96d9 523d fd9b d4bd 4613 1cbb cf27 a83d
00000140: 3554 613d 1371 813b 1afc a93c e82b 3ebc
00000150: 51ab 7bbd 1fa6 2bbd ca0c 8abd f1db bf3d
00000160: 2125 7d3d a484 1a3d 1782 acbd 230a b03d
00000170: 97f8 103d 2815 a03d e433 2dbd d307 cc3c
00000180: fa0d e43d 17d5 9d3d 50cc b63d db3c b3bc
00000190: 11fa af3d a753 adbd 97dc 523c 735d 76bd
000001a0: 965f ccbc 3a01 d5bc 6eab 2f3c 5549 d03d
000001b0: eb7a 673d bc3f ce3a 8e4a aa3d ce74 52bd
000001c0: affc 793d 7d62 21bc 4a2b 95bc 076f 6d3c
000001d0: ac48 adbd f1e7 603c 3f2d 1f3d 4b21 cb3d
000001e0: e0e8 e9bc c1f6 353d 40ff e43d fe78 3fbd
000001f0: 02c1 da3d d473 5fbd 9c4d 493d b889 323d
00000200: b1f8 063d 26eb bb3d cbef 28bd cba6 fb3c
00000210: ebcc 1a3b 3b24 a8bd ec6a d7bc 3b68 99bd
00000220: 7608 423d f78d 0c3c 3536 2f3c 18ef 07bd
00000230: e223 7b3a debe 08bd 9ef5 043d 552a dc3d
00000240: 307a 7c3c f19f 55bd b46b 92bd 5291 aa3b
00000250: 4e1f aebd d17c aebd c62c 95bd e8f6 1ebd
00000260: 1196 d43b 809f 9c3d 3d4c 2b3d 6cae aa3d
00000270: f228 92bd b9a5 043c 43c8 cbbd 06da 823d
00000280: d623 ba3c 4b4a da3d c0d3 a1bd cb7b b63d
00000290: 2e18 c03d 02fa b73d 59bd 813c 73ea ce3d
000002a0: 42f6 973d f0c2 a93d 6b75 edbb 239f aebd
000002b0: 35eb b8ba a255 aa3c fa02 9bbd ab88 82bd
000002c0: 6e2a dabd fa96 1fbd 9f35 c63d 0178 9b3c
000002d0: 036a debb 2328 913b 68e1 8d3d d6f3 c8bd
000002e0: 3295 afbd 3053 17bd 9af5 82bd bebb 6a3d
000002f0: dacb a03d 7ec9 dcbd 9d21 c1bd 789b ddbd
00000300: 4ea3 2b3d 1825 b73d a26f b0bd 7ab3 52bd
00000310: 49da 103d ec92 94bd 724a c13d d5ec d33c
00000320: 22ce fdbc 2ad6 ea3b d2d3 0d3d b4fc 20bd
00000330: 1454 b0bd d74e 403a 7d81 043b d426 123b
00000340: 2032 85bc 5313 923d 6282 febc 0342 31bc
00000350: 010b 3b3d 213f 8fbd dd73 f33c b176 c9bc
00000360: f04a 5a3d 6fe6 76bd 0a2e 863b 77f1 313c
00000370: 8417 b7bd 6777 a5bd 1288 2e3d b376 04bd
00000380: 2825 873d fcca e0bd b8f8 60bd d66d bbbd
00000390: 05ce 353d a302 53bb 46c1 a9bc b868 97bc
000003a0: 45de b1bd 8614 013d 07e1 353b bc09 9dbd
000003b0: 7d41 2b3d 5897 12bb 5414 dcbd 93d1 743d
000003c0: 7270 733d e474 abbc bc1c 9dbd c516 853b
000003d0: 91bf a83d fb56 ce3d 8f95 a9bd 65c3 48bd
000003e0: fda9 b13d fe42 5c3d ab48 8a3d 71bc 6abd
000003f0: 09c5 c43d 8119 bcbd 5a9e b6bb 48e8 733b
-0.037785266 0.009843614 -0.048197407 0.04853053 -0.089403905 0.08508324 -0.07786127 -0.08616026
-0.06918138 0.055733725 -0.036206283 0.048772223 -0.08649398 -0.06111596 -0.03732403 -0.019721877
-0.083545715 0.07255469 -0.019902544 0.042312134 0.08943865 0.034338944 0.043678403 0.116562255
-0.043666635 0.039409466 -0.047782976 0.087005995 0.096848674 -0.089207314 0.11267398 0.072275996
0.06367682 0.0574634 0.100327924 -0.010709028 -0.086243734 -0.024346065 -0.06646154 0.023683576
-0.0019195606 -0.043346524 0.0031790945 0.114428 -0.00428957 0.012151127 -0.0103171365 0.026403582
0.110047385 0.08091178 0.05139195 0.034820378 0.033774003 0.04670235 -0.005151943 -0.096772484
-0.062082913 0.1016415 0.013959874 -0.08320695 0.024111155 0.096743256 -0.10218994 -0.064911336
-0.037277326 0.011032777 -0.0198395 -0.00667987 -0.103669226 0.056542993 0.10134152 0.070946716
-0.068384334 -0.08198614 0.053268824 0.00914591 0.051477037 -0.10381315 -0.0023815199 0.08210718
0.055011947 0.003950247 0.020750094 -0.011607148 -0.061442677 -0.041906472 -0.067407206 0.09368122
0.061802987 0.037724152 -0.0842325 0.085956834 0.035393324 0.07816535 -0.042285815 0.024906075
0.11135478 0.07706659 0.08925688 -0.021879604 0.08592618 -0.08463221 0.0128699755 -0.060147714
-0.024947923 -0.026001561 0.010722024 0.10170237 0.056513708 0.0015735547 0.083150014 -0.051380925
0.061031993 -0.009850142 -0.018209118 0.014491803 -0.08461127 0.013727174 0.03886151 0.099184595
-0.028553426 0.044424776 0.111814976 -0.046746247 0.106813446 -0.05455382 0.04914628 0.04358837
0.032952014 0.091757104 -0.04124431 0.030719182 0.0023620676 -0.082100354 -0.026296102 -0.074905835
0.04737135 0.008578769 0.010694076 -0.033187002 0.0009580237 -0.03338515 0.0324608 0.10750262
0.015409991 -0.052154485 -0.07149449 0.005205312 -0.08502065 -0.085199006 -0.072839305 -0.038809687
0.006487616 0.0764761 0.041820753 0.083340496 -0.07136716 0.008096152 -0.09950306 0.06389241
0.022722166 0.106587015 -0.07901716 0.089103304 0.09379612 0.08983232 0.015837358 0.101033114
0.07420017 0.082891345 -0.0072466633 -0.08526447 -0.0014108183 0.020792786 -0.07568927 -0.063737236
-0.10652624 -0.03896234 0.09678196 0.01897812 -0.00678754 0.0044298335 0.069277585 -0.09812133
-0.085733786 -0.03694457 -0.06394501 0.05730795 0.078513816 -0.10780619 -0.09430239 -0.10820669
0.041903786 0.08942622 -0.08615042 -0.051440693 0.035364423 -0.072545856 0.094380274 0.025869766
-0.03098208 0.0071666436 0.034625836 -0.039303496 -0.08609787 0.0007335967 0.0020218783 0.0022300975
-0.016259253 0.07132592 -0.03106803 -0.010818961 0.04566479 -0.06994463 0.029718334 -0.02459273
0.053294122 -0.060278352 0.0040948438 0.010860792 -0.08940032 -0.08079415 0.042610236 -0.032339763
0.06598884 -0.10976216 -0.054924697 -0.09151809 0.04438593 -0.0032197617 -0.020722043 -0.018482551
-0.08684973 0.031513713 0.0027752535 -0.07667872 0.0418105 -0.002236804 -0.10746065 0.059770178
0.059433408 -0.020929761 -0.07671496 0.004061552 0.082396634 0.10075184 -0.08280479 -0.049014468
0.08675001 0.053774826 0.067521416 -0.057308618 0.09607894 -0.09184552 -0.005573076 0.0037217308

conv1.bias f4 [64]
00000000: af87 68bc 34b9 88bd 766c 9bbb 962e 84bd
00000010: aa0d 073d d9b7 cfbc aa7e 7f3d 8711 643d
00000020: 58a5 e03d 37fe 93bd 8ccb 8fbb 5025 173a
00000030: bb90 96bd 2830 c53d 928e 843d 4a1c 903d
00000040: 7fe2 17bd e863 59bd ebd1 863d 8611 863c
00000050: 02bc 6f3c 041e afbc 0e79 d1bd fa73 833d
00000060: 6ded 44bd 3fb9 803d 65cc e1bc f758 0fbc
00000070: a8b3 ef3c 9ce2 073d a57b f93d a804 28bd
00000080: 13e6 203d 67e2 313d c36e 7fbc 3e71 bdbd
00000090: a425 93bc e8cb 9b3d 4f13 c1bd 92f8 543c
000000a0: f54e 6abd bf65 62bd 1c07 bd3d 864e 413b
000000b0: 4314 103d c40c 8c3c 3c8c a2bd 1e7b e3bd
000000c0: e539 8fbd 6360 01bc 6d17 44bd 727d bdbc
000000d0: 34ed 183d 84b5 ddbb 74de 003c 1b24 5fbd
000000e0: a028 9b3d 4f94 60bd 1d18 dcbb 6134 c23d
000000f0: 9a07 d33d 76f7 70bd c27e cabd b667 a0bd
-0.014192506 -0.0667595 -0.004743154 -0.06454198 0.032972015 -0.02535622 0.062376656 0.055680778
0.10969037 -0.07226222 -0.0043882784 0.0005765753 -0.07351824 0.09628326 0.06472506 0.07036646
-0.037081238 -0.053073794 0.065830074 0.016365778 0.014632227 -0.021376617 -0.102281675 0.06418605
-0.04807799 0.06285333 -0.027563283 -0.008749238 0.029260471 0.033175096 0.121817864 -0.041020066
0.039281916 0.043428805 -0.0155903725 -0.09250115 -0.017962284 0.076072514 -0.09427511 0.012998717
-0.057204206 -0.055272814 0.09229872 0.0029496267 0.035175573 0.01709593 -0.07936904 -0.11107467
-0.069934644 -0.007896516 -0.047873903 -0.023131106 0.03733559 -0.006766023 0.007865537 -0.054477792
0.07576108 -0.054828938 -0.0067167417 0.09482647 0.10304184 -0.058829747 -0.098874584 -0.07832281

conv2.weight f4 [32, 64, 5, 5]
00000000: 2961 a13b 1e75 283c 6812 3dbc b77d a3bc
00000010: ccb2 a2bb aa50 cfbb 0770 82bc 1650 c3bc
00000020: b2a6 8ebc 9dd4 88ba cea6 5a3c 18fe 9bbc
00000030: 1e6a 1dbc 7c5c 9fbc 107c 3d3c e78b 02bb
00000040: f65d 803c b601 343b 3619 aabb 9882 af3c
00000050: 4808 843c c5aa be3c a75a 90bc ef19 3a3c
00000060: 5ae0 83bc f644 80bc 4610 973c 92e1 343c
00000070: f35a 6ebc 54c7 88bc d982 5bbc 272e 9b3c
00000080: 49f6 073c 5838 843a 1865 8dbc f6e6 fc3b
00000090: 3301 bcbb 7e0b 703c 632d b93b f7f2 333c
000000a0: c33f 0dbc 4ce0 1aba d123 65bc 1084 b13b
000000b0: 5b69 16bb ce82 b2bc 82ef 593c 32f0 1c3c
000000c0: 213c 693c 67c6 293c e49e 1e3b 1ba4 913c
000000d0: 6f92 b1bc 1806 e23b c315 a33c 53f3 8abb
000000e0: 285f 9e3c 48df 293c 6753 ad3c 52aa af3c
000000f0: 36cf 3a3c 2c08 133b a7e5 adbc a983 15bc
00000100: 9b26 b6bc f33c 83bb 9798 783c ebcb 5d3c
00000110: 8c07 f33a eea9 c5bc 4b40 5a3c 0b93 183c
00000120: 9924 50bc 11ea bbbc ab6a 63bc 2dd0 083c
00000130: 4b74 5dbc aa34 8ebc 4031 a3bc 4c36 75bc
00000140: 77b0 82bb a495 963c 8f16 7dbc 26b5 b5bc
00000150: 5f74 a73c 1148 5d3c cf8f 003c ffc8 88bc
00000160: 57e4 8e3c 5fd3 253c 4913 6a3b e5cf 963c
00000170: 2828 f13b 5514 7e3c be49 f3bb cad7 7b3c
00000180: 30df 46bc ab11 c93b 66ff 7ebc 48a2 bcbc
00000190: 7be9 abbc 93d4 97bc 9c5d 5c3c 2f61 c53c
000001a0: f1fa 773c 5c66 58ba a1a5 10ba d1c9 4c3b
000001b0: 1fad c13c 7fbe 533c 7f69 7cbc 0dfa 68bc
000001c0: 6693 a33c fa47 573c 2df3 c9bc 1fa0 abbc
000001d0: c9c0 4e3c 3368 49bc 82b8 973c cba2 823c
000001e0: 0379 a3bc 374b b63b 2611 93bb bf7d c8bc
000001f0: 5a04 f43b 0b79 363b 7511 983b b2a7 a5bc
00000200: 02e3 b4bb a0f0 95bb a49e b1bc 5b0e 9f3c
00000210: 8fa5 e1bb e789 413c 0779 dabb aecb 9fbc
00000220: 9dc5 dabb 45f0 9b3b ef37 a23c 4c32 803b
00000230: b9c1 8b3c 8a52 413c ba66 8cbc f7bd 553a
00000240: c4c7 b53c 1b2a f7bb 4057 333c 6a28 b43c
00000250: f4ba b1ba 44ca 13bc 5091 6ebc a95e b0ba
00000260: 6056 85bc 0168 cc3c d367 acbc ca7c ae3c
00000270: 595b 833c 4d36 b6bc c99f 7dbc 8612 b93c
00000280: 157f 70bb 344a 93bc ff4b a139 8c51 d7bb
00000290: c72a 1c3b 525e 183c 2a1f b1bc b312 5abc
000002a0: 18b3 b0ba 029a b83c 0410 a1bc ba0d 62bc
000002b0: 61f4 5b3c c1e5 bb3c 2eed 0b3b 5d9d e239
000002c0: 836b 373c 9f93 a0bb dad0 723c c62e cb3c
000002d0: 0af9 913c c955 cabc 9947 9d3c b73d c03c
000002e0: d05e 283c 9634 08bc 58f1 62bb c48a 88bc
000002f0: f41f 8bbb 9c9d 813c 6ed9 e0bb 7c93 83bb
00000300: 3dd0 95bb 4749 92b9 fee0 543b c513 7bbb
00000310: 6f6f cabc 3b29 09bc 15c7 55bc 7540 18bc
00000320: 2a09 4dbc 7b47 90bc 8ccb a5bc 9740 12bc
00000330: f338 6c3b a079 c93c 9d1b 133b a931 0d3b
00000340: 6b2e 483c 8cbd b73b 5747 a4bc 34c9 c7bc
00000350: 1be1 7cbc fc4a aabb 20fb 89bc 7568 983c
00000360: a83d 01bc 70c9 40bc df3b 91bc 5ec2 33bc
00000370: 0af8 99bc a941 ab3c f0b4 d93b 3e58 b0bc
00000380: d940 c83c 5104 9fbb d93e 0a3c 14aa 7bbb
00000390: 47dd 93bb 2bf8 633c 7ead b13c aa1f 183c
000003a0: da59 c83c b876 c33c a5f0 cbba 3229 23bb
000003b0: f011 07bb c6c2 bdbb f360 19bc ecfa a9bc
000003c0: 9c44 c5bc 60d5 23bc ad86 1ebc da0d c8bc
000003d0: d008 b6bb c2ec 843c 7195 75bb 9a21 36bc
000003e0: 79a9 08ba 7d99 863c cfcb 37bc 6fe7 28bc
000003f0: 089d caba 6249 6aba 6892 bd3c 4798 b3bc
0.0049249125 0.010281829 -0.011540033 -0.019957406 -0.004965162 -0.0063267546 -0.01592256 -0.023841899
-0.01741347 -0.001043934 0.013345433 -0.01904206 -0.00960782 -0.01945328 0.011565223 -0.0019919814
0.015669804 0.002746684 -0.0051909937 0.021424577 0.01611723 0.023274789 -0.017621351 0.011358722
-0.01609819 -0.015657883 0.018440377 0.011040108 -0.014548051 -0.01669661 -0.013397896 0.018942906
0.008298465 0.0010087593 -0.01726012 0.0077179624 -0.0057374476 0.014651177 0.0056511625 0.01098322
-0.008621159 -0.00059080566 -0.01398559 0.0054173544 -0.002295098 -0.021790888 0.013301732 0.009578751
0.014235527 0.010362244 0.0024203593 0.017778447 -0.02167627 0.006897699 0.019907838 -0.0042404323
0.019332483 0.010368176 0.021157933 0.02144352 0.011401942 0.002243529 -0.02122767 -0.0091256285
-0.022235205 -0.0040050684 0.015173099 0.013537387 0.0018541678 -0.02412888 0.013320993 0.0093124015
-0.012704038 -0.02293876 -0.013880412 0.008350414 -0.013516496 -0.017359097 -0.019920945 -0.014966559
-0.0039883214 0.018381901 -0.015447273 -0.022181105 0.020441232 0.0135059515 0.007846787 -0.016697405
0.017442865 0.010121196 0.0035717061 0.018409679 0.0073595233 0.015507777 -0.0074245622 0.015371272
-0.012138173 0.0061361394 -0.015563821 -0.0230266 -0.020985356 -0.01853398 0.013450053 0.024094192
0.015135513 -0.0008254999 -0.00055178447 0.0031248222 0.02364212 0.012923836 -0.015406012 -0.014219773
0.019967746 0.013139719 -0.024652088 -0.020950375 0.012619206 -0.012292909 0.018520597 0.015946766
-0.019955164 0.0055631655 -0.0044881282 -0.024474023 0.007446808 0.0027843143 0.004640753 -0.020221565
-0.0055202255 -0.004575804 -0.021682091 0.019416025 -0.006886191 0.011812664 -0.0066672596 -0.019506302
-0.0066763894 0.004758867 0.019802062 0.003912246 0.017060148 0.011799464 -0.017138828 0.0008153612
0.022189982 -0.007542861 0.010946095 0.021991927 -0.0013559745 -0.009020392 -0.014561012 -0.0013455945
-0.016276538 0.024951937 -0.021045601 0.021299738 0.016034769 -0.02224269 -0.01547999 0.02259184
-0.003669684 -0.017979719 0.00030764934 -0.0065710004 0.0023829208 0.009299831 -0.021621305 -0.013310122
-0.0013481108 0.022534374 -0.019660957 -0.013797218 0.013424964 0.022936704 0.0021351087 0.00043223324
0.011195066 -0.0049004103 0.014820302 0.024802577 0.017818946 -0.024699109 0.01919918 0.023466928
0.010276511 -0.008313319 -0.0034628715 -0.016667731 -0.0042457525 0.015822224 -0.006861857 -0.0040153842
-0.004571943 -0.00027901886 0.0032482739 -0.0038311344 -0.024711339 -0.0083716465 -0.013047953 -0.0092927115
-0.012514392 -0.01761221 -0.02023866 -0.008926532 0.0036044687 0.024594128 0.0022446879 0.0021544492
0.012218098 0.0056073125 -0.020053549 -0.024387933 -0.015434529 -0.005196927 -0.016843379 0.018604496
-0.007888235 -0.011766776 -0.017728744 -0.010971634 -0.018795032 0.020905333 0.006643884 -0.021526452
0.024444984 -0.0048528095 0.008437836 -0.0038400935 -0.0045124623 0.013914148 0.021689173 0.009284893
0.024456907 0.02386032 -0.0015559389 -0.002489638 -0.0020610057 -0.005791041 -0.009361493 -0.020749532
-0.024080567 -0.009999603 -0.009675664 -0.024420667 -0.0055552498 0.016226176 -0.0037473107 -0.01111641
-0.00052132417 0.01643061 -0.011218025 -0.010309084 -0.0015458176 -0.00089373265 0.023141101 -0.021923197

conv2.bias f4 [32]
00000000: 437e 30bc 2ccc c8bc f965 77bb 7976 723c
00000010: 24e0 d63c 2a4a ac3c d607 6dbc 4e35 163d
00000020: ba02 483b 6572 37bc 8da8 ebbb cda0 823b
00000030: 814d ff3c 96de db3c 1135 adbb 2dd6 1dbc
00000040: 5072 81bc 5ed5 92bc f77c d03c 4354 e53c
00000050: 5111 b23a 1880 7a3a 683e 6bbb 7306 4939
00000060: f15f 443c 1dcb 2dbc 8b54 6d3c fc9e ea3c
00000070: 5e19 973b 8991 88bc d987 e1bb 4380 d9bb
-0.010772291 -0.02451142 -0.003774999 0.014798754 0.026229925 0.021031458 -0.0144672 0.03667193
0.0030519203 -0.011196707 -0.0071917237 0.003986454 0.031164886 0.026839536 -0.005285867 -0.009633583
-0.015801579 -0.017924007 0.025450213 0.02799428 0.0013585483 0.00095558306 -0.0035895351 0.00019171256
0.011985765 -0.010607508 0.014485489 0.028640263 0.0046111783 -0.01667096 -0.0068826494 -0.0066376044

conv3.weight f4 [1, 32, 5, 5]
00000000: 97e9 9b3c 813b 943c 6dfb f9ba 838d c73c
00000010: 0073 f73c 2fe9 efbc 7198 c33a 76f7 0abd
00000020: f7e5 883b 29a1 273c 1995 12bb 9355 e63c
00000030: 53b8 4c3c 9b05 f2bc 6ec0 40bb 307b 7cbc
00000040: 8161 e7bc 67be 7139 a816 01bd 14c6 c03c
00000050: ae66 953b ee5c 513c e97c a23c 9bf2 e33c
00000060: 4710 8ebc 9b8f a73b 393d f3bc ba52 283c
00000070: 5757 d93c a3b9 b1bc 9aa7 c03c 6b81 45bc
00000080: f886 5e3c f9de 6bbc 22ff 013c 88ec f2bc
00000090: baf8 023d e729 3bbb 6095 113d f7ca 1ebc
000000a0: 18cc 8b3c 4071 5dbc 77be 3dbc 076b f7bb
000000b0: db2c 9a3c 139d 813c 191a c03c 282e 4cbb
000000c0: faaf b83b 3795 c23c c79d 63bc 567b 3fbc
000000d0: d700 dc3c ebbb f4bc 1dbf 8cbc 2e1a a1bc
000000e0: 3b98 f3bb 3abe d4bc 082b 063c fcd4 cabc
000000f0: 5337 7fbc 4f07 0dbd 5004 c23c ece6 b1bc
00000100: 083d 8dbb ac60 adbc bb60 a0bb f515 dcbb
00000110: 622e 3dbc ad39 18ba ec3e 753c 49f6 ed3c
00000120: dfbf d63c 7b42 d7bc 028d 88bb 6872 e1bc
00000130: 10a5 953c c936 c93c a2b6 1e3c 6830 413c
00000140: 589f 0f3d 9ca7 6bbb 2188 f7bc 3436 88bc
00000150: d905 2cbc c7c0 883c 70b7 4e3a 3f29 e43c
00000160: b646 a13c bd65 27bc 9f47 17bc 2f1e 43bc
00000170: dba5 02bd 01dd 38bc 46bb 86bc 1c62 dfbb
00000180: 78c8 00bc 413f 59bc bc62 85bc 8f6b bc3b
00000190: 23c0 da3b 11e9 2f3c 2610 9d3c 6a58 e6b9
000001a0: 3c10 a83b e70e c5bb f817 133d 4919 cd3b
000001b0: 1937 ef3c feb4 96bc f42f c5bc 0e93 2c3c
000001c0: 44e6 c1bc 5e42 d73c 6bc9 c53c 88e7 043d
000001d0: e42f 193d 11fd 933c 4498 923c 176e 05bb
000001e0: a5ef 0d3d 69c9 993c 593e 86bb 7769 f7bc
000001f0: 0c56 d43b d1c6 c83b 5be2 e23c 081d b83c
00000200: 4efb 063d d165 b53b df91 483c e35f e7bc
00000210: 68dd 9e3b f73e 0f3c 6f49 a0bc 26fc 8bbc
00000220: 1d96 773c 0d67 a3bc 359d 56bc c851 d13c
00000230: 2510 db3c 31f6 fabc 288d 04bd 9ef1 b23c
00000240: 9823 33bc 16a5 2b3b 8171 cabc a10f 80bc
00000250: 1576 dd3c 9d4d b5bc 887f 523c 66e4 bc3a
00000260: 33d0 323c 0854 c93a 08f2 f6bb ebf2 4c3c
00000270: 17d1 1e3c f241 56bb 0ff7 c13c f0ad 003d
00000280: d742 973c 6eb4 22bc cbb0 d1bc 92e1 c3bc
00000290: 66ba 8cbc 80d0 3bbb 1618 943c 7dbd 1c3c
000002a0: f521 013d f9fc 0abd 886e 9fbc dd37 053d
000002b0: 29da cebc b2c8 b83c d8f3 cc3a d986 ffba
000002c0: 0fe3 eb3c c2ab 1d3d 3c02 1ebc 8b74 af3a
000002d0: f5ff 0d3d d61a 093d 9b3d da3c 95d9 7ebc
000002e0: 4113 a3bc 2ec6 073d 946e fd3c 0e24 7e3c
000002f0: cd38 3e3d 81b5 0c3d 5f7c b4bb 946c 9c3c
00000300: e5e4 3b3d 4783 d53c 427e 5abc acea 0ebd
00000310: 5821 1f3c 4fd1 a03c 3a1b 06bd 97b8 e03b
00000320: 27c4 b2bc c1d2 6b3c 6eaa 88bc 9740 dabc
00000330: e2d3 0b3d fd27 ad3c d050 66bc 17a9 cbbc
00000340: 7252 c63c 15b7 b3bc 4f8e 2bbc c902 7dbc
00000350: 99f4 393c ae28 eeba e922 5b3c 2951 a2bc
00000360: 0070 d73c b3b6 9a3b 5587 c5bc e777 d2bc
00000370: cdc3 af3c b230 77bc 080d 2b3c f7e2 963a
00000380: 1eb2 85bc 6d48 203d c560 37bc 86bd a33c
00000390: 051d e63c 0dfe 933c c206 123d 80c7 cabc
000003a0: 2b46 ef3b e0e8 783b d3ca ba3c a39c 89bc
000003b0: 4c50 cdbc 7318 d9bc 4f7b da3c 5c7d 633c
000003c0: a84b 17bd f00b 10bc 5b97 febc e4a9 f0bc
000003d0: 5814 c33c c700 8fbc dc92 963c 97d3 0c3d
000003e0: 66ba 053c 6e6d a43c 022b fcbc a1ac 74bc
000003f0: 5afe eaba 8cbb fb3b d524 6c3c 3a82 9d3c
0.019032283 0.01809478 -0.0019072123 0.02435947 0.030206203 -0.029285995 0.001492275 -0.033927403
0.0041778046 0.010231295 -0.00223667 0.028116977 0.012495118 -0.029543689 -0.0029411572 -0.01541023
-0.028244736 0.00023054481 -0.031515747 0.023531951 0.0045593595 0.012778504 0.019834952 0.027825644
-0.017341746 0.0051135547 -0.02969228 0.01027363 0.026530905 -0.021694964 0.023517419 -0.012054781
0.013581984 -0.014396423 0.007934364 -0.029653803 0.031975485 -0.0028558911 0.035542846 -0.009691945
0.017065093 -0.01351577 -0.011581055 -0.0075506005 0.018820217 0.01582197 0.023449944 -0.003115544
0.0056362124 0.023752792 -0.0138925975 -0.01168712 0.02685587 -0.029874763 -0.017180974 -0.019665804
-0.007433919 -0.025969613 0.00818897 -0.024759762 -0.015577155 -0.0344308 0.023683697 -0.021716557
-0.004310254 -0.02116426 -0.0048943437 -0.0067164847 -0.011546703 -0.0005806934 0.014968615 0.029048102
0.026214538 -0.026276818 -0.0041672 -0.027520373 0.018267184 0.024562256 0.009687098 0.011791326
0.03506407 -0.0035958057 -0.030216279 -0.016627409 -0.010499441 0.016693486 0.00078856107 0.027851699
0.019687038 -0.010217127 -0.009233384 -0.011909052 -0.031896453 -0.01128316 -0.01644672 -0.0068171155
-0.0078602955 -0.01325971 -0.016282432 0.0057501267 0.0066757365 0.01073672 0.01917274 -0.00043934892
0.0051288884 -0.0060137394 0.03591153 0.0062591177 0.029201077 -0.01839685 -0.024070717 0.010533107
-0.02366937 0.026276764 0.024143895 0.032447368 0.037399188 0.018065007 0.017894872 -0.0020359808
0.03465237 0.018772798 -0.004096788 -0.030201657 0.006479984 0.0061272164 0.027695825 0.02247478
0.032954507 0.005535819 0.01224181 -0.028243965 0.004848171 0.008743039 -0.019566266 -0.017088007
0.015111473 -0.0199466 -0.0130990045 0.025551692 0.026741097 -0.030634971 -0.03236118 0.021843728
-0.010933779 0.0026190928 -0.024712326 -0.015632452 0.027033845 -0.022131735 0.012847789 0.001441133
0.010913896 0.0015360126 -0.0075361766 0.012509088 0.009693406 -0.0032693115 0.023677377 0.03141588
0.018464489 -0.009930713 -0.025596997 -0.023911271 -0.017178725 -0.0028658211 0.018077891 0.009566662
0.031526525 -0.03393266 -0.019461885 0.03252398 -0.025250511 0.022556636 0.0015636636 -0.0019495144
0.028794793 0.03849388 -0.009644087 0.0013386173 0.034667928 0.03347286 0.026640704 -0.015554805
-0.019906642 0.033147983 0.030936517 0.015511526 0.04644089 0.034352783 -0.0055079903 0.019094743
0.045872588 0.026063574 -0.013335766 -0.03489177 0.00971254 0.019631056 -0.03274081 0.0068579423
-0.021822048 0.014393509 -0.01668283 -0.026642127 0.034137614 0.021137232 -0.014057353 -0.024860902
0.024209235 -0.021937886 -0.010470941 -0.015442559 0.0113498205 -0.0018170082 0.013375022 -0.01981409
0.026298523 0.0047214865 -0.024112383 -0.02569194 0.02145567 -0.015087293 0.010440119 0.0011511733
-0.016320284 0.03913157 -0.011192505 0.019987833 0.02809001 0.018065477 0.035650976 -0.024753332
0.007302066 0.0037980601 0.022801792 -0.016798323 -0.025062703 -0.026500916 0.026670126 0.0138848685
-0.036937386 -0.008791909 -0.031078031 -0.029377885 0.023813412 -0.017456425 0.018380575 0.034381475
0.008162117 0.020071711 -0.030782226 -0.014933736 -0.0017928586 0.0076822694 0.014413078 0.019227136
