outputs/x3/epoch_91.pth (torch, 231327 bytes, 5 tensors)

conv1.weight f4 [64, 1, 9, 9]
000000 2c 53 19 bd 67 3d 26 3c b7 68 44 bd 0d 34 47 3d
       -0.037432835 0.010146475 -0.047951426 0.048633624
000010 1d 36 b7 bd e7 36 ae 3d e6 3d 9f bd 77 1b b0 bd
       -0.08945868 0.085065655 -0.07775478 -0.085989885
000020 a4 63 8d bd 18 3b 65 3d d6 85 13 bd 7c 98 48 3d
       -0.069037706 0.05596456 -0.036016308 0.048973545
000030 89 ef b0 bd 90 ae 7a bd f8 68 19 bd 25 a6 a1 bc
       -0.08639438 -0.061201632 -0.03745362 -0.019732544
000040 68 df aa bd 02 dd 94 3d 28 45 a2 bc 3e b4 2d 3d
       -0.083433926 0.072687164 -0.019808367 0.04240822
000050 21 a9 b7 3d 20 eb 0d 3d 4d c6 33 3d c1 d1 ee 3d
       0.08967806 0.03464806 0.043890286 0.11661101
000060 76 bd 32 bd 94 bb 21 3d 0f 7c 43 bd 8f 17 b2 3d
       -0.043637715 0.03948553 -0.047725733 0.086959
000070 20 47 c6 3d e8 4d b6 bd 0b a1 e7 3d 77 f7 94 3d
       0.09681535 -0.08901578 0.113100134 0.07273763
000080 be e9 82 3d b4 eb 6b 3d de 88 cd 3d 4c d6 30 bc
       0.06392239 0.05759783 0.10035871 -0.01079328
000090 8a d3 b0 bd 07 60 c8 bc 4a fe 87 bd e7 63 c4 3c
       -0.08634098 -0.024459852 -0.06640299 0.023973418
0000a0 9e 48 c8 ba 0e 79 30 bd f8 bc 5b 3b 28 64 ea 3d
       -0.0015280431 -0.043084197 0.0033529382 0.114448845
0000b0 e5 33 92 bb 83 1e 48 3c 7f 3b 29 bc bb 3d d8 3c
       -0.0044617527 0.012214306 -0.010329126 0.026396623
0000c0 06 65 e1 3d 06 c5 a5 3d ce a2 52 3d 5b fb 0e 3d
       0.11005597 0.0809422 0.051424794 0.03490768
0000d0 32 61 0a 3d 82 c1 3e 3d 96 fe a1 bb 1a f5 c5 bd
       0.0337841 0.046571262 -0.004943679 -0.0966589
0000e0 cc 2b 7e bd 5c f9 cf 3d 34 bf 61 3c 9b b2 aa bd
       -0.062053487 0.101549834 0.0137784965 -0.083348475
0000f0 7f 6b c5 3c 43 23 c6 3d 0e 5b d1 bd f7 83 84 bd
       0.02409911 0.096746944 -0.102224454 -0.06470483
000100 1c 13 18 bd 1b 24 36 3c cc d4 a2 bc 94 c8 e0 bb
       -0.0371276 0.011117007 -0.01987686 -0.0068598483
000110 fc ad d4 bd 8e 46 67 3d 7a 7b cf 3d d8 49 91 3d
       -0.103847474 0.05646377 0.10130973 0.07094163
000120 90 cd 8b bd 06 b0 a7 bd 99 7a 5a 3d 90 cb 15 3c
       -0.06826317 -0.08187871 0.053339574 0.009142771
000130 90 5e 52 3d 66 e5 d4 bd f9 af 23 bb 63 f0 a7 3d
       0.051359713 -0.10395317 -0.0024976714 0.08200147
000140 5d f8 60 3d 65 61 85 3b 6b b1 aa 3c b7 10 3e bc
       0.054924358 0.004070448 0.020836553 -0.011600665
000150 d0 c5 7b bd 1f a5 2b bd ee e6 89 bd 5c 28 c0 3d
       -0.061467946 -0.04190552 -0.067334995 0.09382698
000160 dc 9e 7d 3d 88 88 1a 3d 2e 58 ac bd 6d 18 b0 3d
       0.06191908 0.037727863 -0.084152564 0.08598409
000170 74 c0 10 3d 3d e8 9f 3d 84 72 2d bd c6 54 cc 3c
       0.035339788 0.07807968 -0.04234554 0.024942767
000180 a3 71 e4 3d ba 3b 9e 3d 89 df b6 3d 53 44 b3 bc
       0.11154487 0.07726236 0.08929355 -0.021883165
000190 97 e4 af 3d 18 71 ad bd c3 f5 51 3c 12 b8 76 bd
       0.08588522 -0.084688365 0.012814942 -0.060234137
0001a0 f9 22 cd bc 77 53 d4 bc eb 2b 32 3c 9f 5d d0 3d
       -0.02504109 -0.025918705 0.010874729 0.10174107
0001b0 7c 1a 67 3d e5 bc c4 3a e2 5c aa 3d 99 02 52 bd
       0.05642174 0.0015009908 0.08318497 -0.05127201
0001c0 3d 07 7a 3d 94 99 24 bc a1 28 96 bc d2 31 6d 3c
       0.06104206 -0.0100463815 -0.01832992 0.01447721
0001d0 3f 56 ad bd 60 f1 5e 3c 43 da 1e 3d f3 52 cb 3d
       -0.08463716 0.013607353 0.03878237 0.09927931
0001e0 6a e8 e7 bc 9b a2 36 3d 8c be e4 3d e9 18 40 bd
       -0.028309066 0.044588666 0.111691564 -0.046898756
0001f0 47 97 da 3d 51 a9 5f bd 35 15 49 3d eb 3f 32 3d
       0.10673385 -0.054604832 0.04909249 0.04351799
000200 47 0c 07 3d 77 3d bc 3d bb 28 28 bd d9 e6 fb 3c
       0.032970693 0.09191411 -0.04105447 0.030749725
000210 3a 0d 1a 3b ea 24 a8 bd bf 58 d7 bc 38 3f 99 bd
       0.0023506419 -0.08210166 -0.026287435 -0.07482761
000220 e8 05 42 3d 1d 8e 0b 3c 82 a5 2e 3c d3 b9 07 bd
       0.047368914 0.008517769 0.010659577 -0.0331362
000230 fa 0d 88 3a b7 59 08 bd 8e 45 05 3d c7 4d dc 3d
       0.0010380142 -0.033288684 0.032537036 0.10757022
000240 e7 34 7f 3c b7 4c 55 bd 19 8c 92 bd d2 d3 a5 3b
       0.015576578 -0.052075114 -0.07155628 0.0050606513
000250 41 55 ae bd 3c 77 ae bd da 03 95 bd 02 aa 1e bd
       -0.08512355 -0.08518836 -0.07276125 -0.03873635
000260 32 65 d7 3b 23 01 9d 3d f6 ee 2b 3d d1 c8 aa 3d
       0.0065733427 0.076662324 0.041975938 0.08339084
000270 55 3e 92 bd 95 e1 03 3c 1d bd cb bd 42 fa 82 3d
       -0.07140795 0.008049388 -0.0994818 0.06395389
000280 8c 8a ba 3c 34 70 da 3d 78 d3 a1 bd f5 7b b6 3d
       0.022771142 0.10665932 -0.079016626 0.08910362
000290 2d 18 c0 3d 07 fa b7 3d 2a bf 81 3c 39 eb ce 3d
       0.09379611 0.08983236 0.015838224 0.10103459
0002a0 2c f7 97 3d ef c3 a9 3d 38 63 ed bb e8 9e ae bd
       0.07420191 0.082893245 -0.007244494 -0.08526403
0002b0 da 05 b9 ba b0 50 aa 3c f5 02 9b bd 6e 88 82 bd
       -0.0014116124 0.020790428 -0.075689234 -0.06373678
0002c0 f3 29 da bd dc 94 1f bd 9b 36 c6 3d e8 7d 9b 3c
       -0.106525324 -0.038960323 0.09678384 0.018980935
0002d0 00 5b de bb 70 1f 91 3b 6a e1 8d 3d d0 f3 c8 bd
       -0.0067857504 0.0044287965 0.0692776 -0.098121285
0002e0 22 95 af bd 10 52 17 bd 09 f5 82 bd ea be 6a 3d
       -0.08573367 -0.036943495 -0.06394393 0.057310976
0002f0 08 cd a0 3d 7d c9 dc bd a0 21 c1 bd 7d 9b dd bd
       0.078516066 -0.10780618 -0.094302416 -0.10820673
000300 f5 a2 2b 3d 1b 25 b7 3d 98 6f b0 bd 02 b2 52 bd
       0.041903455 0.08942624 -0.08615035 -0.051439293
000310 5d dd 10 3d ce 91 94 bd 63 4a c1 3d c7 e9 d3 3c
       0.03536736 -0.072543725 0.09438016 0.02586831
000320 71 d3 fd bc 96 bc ea 3b 3f d3 0d 3d 1d fd 20 bd
       -0.030984612 0.0071635945 0.034625288 -0.039303888
000330 19 54 b0 bd 7f af 40 3a 07 b5 04 3b f5 40 12 3b
       -0.0860979 0.00073503697 0.0020249502 0.002231655
000340 b6 35 85 bc 14 13 92 3d 4a 89 fe bc 65 51 31 bc
       -0.016260963 0.07132545 -0.031071324 -0.010822629
000350 58 0a 3b 3d 46 3f 8f bd 3b 73 f3 3c a5 74 c9 bc
       0.04566416 -0.0699449 0.029718032 -0.024591753
000360 f1 4a 5a 3d 7a e6 76 bd 35 32 86 3b df f1 31 3c
       0.053294126 -0.060278393 0.0040953406 0.010860889
000370 84 17 b7 bd 67 77 a5 bd 08 88 2e 3d 94 76 04 bd
       -0.08940032 -0.08079415 0.0426102 -0.032339647
000380 2d 25 87 3d fc ca e0 bd b8 f8 60 bd d6 6d bb bd
       0.065988876 -0.10976216 -0.054924697 -0.09151809
000390 fd cd 35 3d 51 fe 52 bb 2d c1 a9 bc 98 68 97 bc
       0.0443859 -0.0032195041 -0.020721996 -0.018482491
0003a0 45 de b1 bd 8c 14 01 3d cc e6 35 3b bc 09 9d bd
       -0.08684973 0.031513736 0.0027755974 -0.07667872
0003b0 80 41 2b 3d 2c 9d 12 bb 54 14 dc bd 93 d1 74 3d
       0.041810513 -0.0022371514 -0.10746065 0.059770178
0003c0 72 70 73 3d ba 74 ab bc bc 1c 9d bd af c9 84 3b
       0.059433408 -0.020929683 -0.07671496 0.004052363
0003d0 35 b0 a8 3d 58 46 ce 3d 64 84 a9 bd df 5f 48 bd
       0.08236734 0.10072011 -0.08277205 -0.048919555
0003e0 79 dc b1 3d 85 95 5c 3d c4 63 8a 3d 33 df 6a bd
       0.0868463 0.05385353 0.0675731 -0.057341766
0003f0 b4 d1 c4 3d de 14 bc bd 9e 91 b7 bb 21 b2 72 3b
       0.0961031 -0.091836676 -0.0056020757 0.0037032443

conv1.bias f4 [64]
000000 af 6e 64 bc 6b 86 88 bd 77 5d 9b bb bc 4f 83 bd
       -0.013942405 -0.06666263 -0.0047413665 -0.064116925
000010 b4 b2 07 3d 6f 4d cf bc 0a 9d 7f 3d b3 5d 64 3d
       0.03312941 -0.025305478 0.062405623 0.05575342
000020 76 a0 e0 3d c4 b7 94 bd ba b3 86 bb b9 f6 9f 3a
       0.109681055 -0.07261613 -0.0041107805 0.0012204266
000030 7e 2c 95 bd a6 3d c6 3d 56 f7 83 3d ce 76 8f 3d
       -0.07283877 0.09679727 0.0644366 0.07005082
000040 11 dc 15 bd 11 1d 58 bd e4 2e 87 3d 7c 87 85 3c
       -0.036586825 -0.052762095 0.066007406 0.016299956
000050 17 ae 71 3c cb 3b af bc 4f 4b d2 bd 58 e5 83 3d
       0.014750979 -0.021390816 -0.1026827 0.06440228
000060 60 a4 42 bd 81 37 7f 3d 51 36 e2 bc a3 0c ff bb
       -0.04752004 0.062308792 -0.02761379 -0.007783489
000070 fc 1d f0 3c 6e 1a 0a 3d 3a 21 fa 3d 0a 16 28 bd
       0.029311173 0.03371661 0.12213369 -0.041036643
000080 ae 17 21 3d 32 21 31 3d 50 55 84 bc 4f 8d bc bd
       0.039329223 0.04324455 -0.016153961 -0.0920664
000090 78 70 8e bc 34 62 9b 3d 31 14 c1 bd 91 2b 54 3c
       -0.017387614 0.0758709 -0.09427679 0.01294984
0000a0 d6 0b 69 bd b0 65 62 bd 4d 3c bd 3d 45 e0 28 3b
       -0.056896053 -0.055272758 0.09240017 0.002576844
0000b0 7f 92 10 3d eb e2 89 3c a2 96 a2 bd 1e 7b e3 bd
       0.03529596 0.016831836 -0.07938887 -0.11107467
0000c0 3d 41 8f bd ad fc f2 bb 06 c0 43 bd a5 9c bd bc
       -0.06994865 -0.007415375 -0.04779055 -0.023145983
0000d0 7f 37 17 3d cc ad dc bb 29 26 fe 3b a4 45 5f bd
       0.03691816 -0.0067345854 0.007756014 -0.054509774
0000e0 10 3d 9b 3d 03 8f 5f bd 7a 21 d8 bb 6a 6f c3 3d
       0.07580006 -0.054579746 -0.0065957876 0.09542735
0000f0 49 7b d3 3d 9e c4 70 bd 8f 73 ca bd f1 93 9f bd
       0.10326249 -0.05878126 -0.09885322 -0.077918895

conv2.weight f4 [32, 64, 5, 5]
000000 45 6b a1 3b 18 67 28 3c e2 33 3d bc ec 96 a3 bc
       0.0049261176 0.010278486 -0.011548014 -0.019969426
000010 69 24 a3 bb 85 f2 ce bb 0a 61 82 bc 07 4c c3 bc
       -0.0049787057 -0.0063155317 -0.015915412 -0.023839964
000020 c1 ab 8e bc d6 3f 89 ba 52 4c 5b 3c 32 b4 9b bc
       -0.017415883 -0.0010471295 0.013384895 -0.019006822
000030 64 f1 1c bc 38 2a 9f bc 38 db 3d 3c e1 19 fe ba
       -0.009579036 -0.019429311 0.01158791 -0.0019386375
000040 76 c3 80 3c a9 a1 36 3b 4e f9 a8 bb 31 c6 af 3c
       0.015718203 0.0027867353 -0.0051566726 0.02145681
000050 a3 71 84 3c fc 10 bf 3c 2f 04 90 bc bc ad 3a 3c
       0.016167467 0.023323528 -0.01758012 0.011393961
000060 55 9e 83 bc 39 57 80 bc 13 03 97 3c ff d1 34 3c
       -0.01606671 -0.015666591 0.018434083 0.011036395
000070 2d 61 6e bc 75 c8 88 bc 89 6b 5b bc 4b 3b 9b 3c
       -0.014549536 -0.016697148 -0.013392338 0.018949172
000080 7d 16 08 3c 2e 50 85 3a da 53 8d bc 2e 3d fd 3b
       0.008306143 0.001017099 -0.017251898 0.0077282405
000090 6f b2 bb bb 50 36 70 3c 68 84 b9 3b 21 1a 34 3c
       -0.005728058 0.014661387 0.005661536 0.010992558
0000a0 92 16 0d bc 53 45 18 ba 08 f0 64 bc ba f8 b1 3b
       -0.008611338 -0.000580867 -0.013973244 0.005431262
0000b0 67 8e 15 bb c6 5b b2 bc ff 3d 5a 3c 02 49 1d 3c
       -0.0022820474 -0.021772277 0.013320445 0.009599926
0000c0 09 a1 69 3c 3f 30 2a 3c b4 9e 1e 3b 1b a4 91 3c
       0.014259585 0.010387479 0.002420348 0.017778447
0000d0 6f 92 b1 bc 07 06 e2 3b c3 15 a3 3c 27 f2 8a bb
       -0.02167627 0.006897691 0.019907838 -0.0042402926
0000e0 2f 5f 9e 3c 09 e0 29 3c 6c 53 ad 3c 54 aa af 3c
       0.019332496 0.010368356 0.021157943 0.021443523
0000f0 94 cf 3a 3c ad 0a 13 3b 8e e5 ad bc 84 82 15 bc
       0.01140203 0.0022436783 -0.021227624 -0.009125356
000100 5a 26 b6 bc 7d 3c 83 bb 88 98 78 3c 96 cc 5d 3c
       -0.022235084 -0.0040050135 0.015173085 0.013537547
000110 11 17 f3 3a 68 a9 c5 bc 37 40 5a 3c 03 92 18 3c
       0.0018546303 -0.02412863 0.013320974 0.009312156
000120 cb 26 50 bc a6 ea bb bc 8c 6b 63 bc d4 e0 08 3c
       -0.012704561 -0.022939038 -0.013880622 0.008354384
000130 1c 79 5d bc b6 42 8e bc 7b 46 a3 bc 18 61 75 bc
       -0.013517644 -0.017365795 -0.019931069 -0.014976762
000140 1e 21 82 bb 6f ae 96 3c 45 ff 7c bc 66 b2 b5 bc
       -0.003971233 0.018393723 -0.01544172 -0.022179794
000150 8a 77 a7 3c 8c 6e 5d 3c 48 a6 00 3c b7 ca 88 bc
       0.020442743 0.013515126 0.007852145 -0.016698224
000160 16 d6 8e 3c 5c aa 25 3c 30 96 6b 3b 56 fb 96 3c
       0.017436069 0.010111418 0.0035947673 0.018430393
000170 b5 a4 f1 3b 2e 36 7e 3c bd 24 f3 bb 42 29 7c 3c
       0.007374371 0.015515847 -0.007420151 0.015390696
000180 d7 88 46 bc ca a3 c9 3b e9 cb 7e bc e6 8f bc bc
       -0.012117586 0.0061535584 -0.015551546 -0.023017835
000190 71 e0 ab bc 5f cf 97 bc e2 5e 5c 3c 72 5a c5 3c
       -0.020981045 -0.0185315 0.013450356 0.02409098
0001a0 08 e4 77 3c 4a a2 53 ba 0e 3f 0c ba 6f b1 4d 3b
       0.0151300505 -0.0008073194 -0.0005349972 0.0031386276
0001b0 a8 bf c1 3c 07 d9 53 3c 10 f9 7b bc 73 88 68 bc
       0.02365096 0.012930161 -0.015379205 -0.014192688
0001c0 48 c9 a3 3c af a1 57 3c a8 cc c9 bc ef 67 ab bc
       0.01999344 0.013161107 -0.02463372 -0.020923583
0001d0 e1 35 4f 3c 30 f0 48 bc 30 f5 97 3c d8 e0 82 3c
       0.012647123 -0.012264296 0.018549532 0.015976354
0001e0 82 3b a3 bc ac 3c b7 3b d5 29 92 bb df 41 c8 bc
       -0.019925836 0.0055919494 -0.004460553 -0.024445472
0001f0 1f fd f4 3b e1 72 36 3b e1 06 98 3b 2e ab a5 bc
       0.0074764634 0.002783947 0.004639492 -0.020223226
000200 c9 de b4 bb c3 e0 95 bb 38 9c b1 bc 4c 10 9f 3c
       -0.005519722 -0.004573913 -0.021680936 0.01941695
000210 35 93 e1 bb ee 9a 41 3c c1 3e da bb 4a cb 9f bc
       -0.0068840035 0.011816723 -0.006660313 -0.019506115
000220 7a ce da bb 7f e1 9b 3b 18 33 a2 3c aa 29 80 3b
       -0.006677446 0.004757106 0.019799754 0.0039112167
000230 60 c2 8b 3c aa 52 41 3c e4 67 8c bc 52 71 55 3a
       0.017060459 0.011799494 -0.017139383 0.0008142191
000240 68 c2 b5 3c e8 2b f7 bb 67 54 33 3c 2d 25 b4 3c
       0.022187427 -0.007543076 0.010945416 0.021990383
000250 38 42 b2 ba 6c e8 13 bc 18 a5 6e bc 6b dd b0 ba
       -0.0013600057 -0.009027582 -0.014565729 -0.0013493722
000260 34 5b 85 bc 2a 66 cc 3c f6 6a ac bc 6b da ae 3c
       -0.01627884 0.02495106 -0.021047097 0.021344384
000270 6a b9 83 3c 36 d5 b5 bc 94 dd 7c bc 50 71 b9 3c
       0.016079623 -0.022196393 -0.015433688 0.02263704
000280 98 4c 6e bb db 07 93 bc 33 72 b2 39 0a 37 d6 bb
       -0.0036361571 -0.017948082 0.0003403589 -0.006537323
000290 df 76 1e 3b c8 f3 18 3c 1b df b0 bc a8 9a 59 bc
       0.002417974 0.009335466 -0.02159076 -0.013281502
0002a0 9b c6 ac ba 13 e3 b8 3c c9 ba a0 bc 60 7a 61 bc
       -0.0013181748 0.022569215 -0.019620316 -0.013762087
0002b0 4b 71 5c 3c 80 20 bc 3c b2 fa 0d 3b 9c fb e3 39
       0.0134547455 0.022964716 0.0021664319 0.00043484278
0002c0 ec 67 37 3c 23 a4 a0 bb f3 bb 72 3c 58 21 cb 3c
       0.0111942105 -0.004902379 0.014815318 0.024796173
0002d0 2f 3a 92 3c fd 1f ca bc 74 77 9d 3c 69 67 c0 3c
       0.01785001 -0.024673456 0.019221999 0.02348681
0002e0 d2 ac 28 3c 34 68 07 bc cc 51 60 bb b0 48 88 bc
       0.01029511 -0.00826459 -0.0034228442 -0.016636223
0002f0 34 37 8a bb 1a d1 81 3c d5 4f df bb 24 3a 82 bb
       -0.0042180065 0.015846778 -0.0068149366 -0.003974216
000300 00 cb 94 bb d6 6f 84 b9 fd 54 56 3b 76 3d 79 bb
       -0.004540801 -0.00025260326 0.0032704466 -0.0038031018
000310 c5 31 ca bc d4 c3 08 bc a5 72 55 bc 19 fd 17 bc
       -0.024681935 -0.00834747 -0.013027822 -0.009276652
000320 ec 00 4d bc 9b 41 90 bc 01 c9 a5 bc 3a 3e 12 bc
       -0.012512427 -0.017609408 -0.020237448 -0.008925969
000330 ce 42 6c 3b f0 79 c9 3c 05 5b 13 3b de 59 0d 3b
       0.003605056 0.024594277 0.0022484672 0.0021568458
000340 1a 32 48 3c 3f c2 b7 3b e2 4a a4 bc 61 c3 c7 bc
       0.012218976 0.0056078727 -0.020055238 -0.024385156
000350 19 d2 7c bc f1 38 aa bb 99 fa 89 bc d1 61 98 3c
       -0.015430951 -0.005194776 -0.016843127 0.01860133
000360 ac 32 01 bc dd b6 40 bc 6d 38 91 bc 40 c0 33 bc
       -0.007885616 -0.011762348 -0.017727101 -0.010971129
000370 92 03 9a bc 1f 3a ab 3c 3b b5 d9 3b 00 56 b0 bc
       -0.01880053 0.020901738 0.006643919 -0.021525383
000380 c5 41 c8 3c d0 ec 9e bb 1f 42 0a 3c e3 aa 7b bb
       0.024445424 -0.0048500076 0.008438616 -0.0038401417
000390 c8 dd 93 bb ff f7 63 3c 86 d2 b1 3c 4c 62 18 3c
       -0.0045125224 0.013914107 0.02170683 0.00930078
0003a0 7d 77 c8 3c 6b 91 c3 3c 22 54 ca ba a2 ec 21 bb
       0.024471039 0.023873052 -0.001543645 -0.0024707695
0003b0 67 ea 05 bb ce 45 bd bb 89 2c 19 bc 5a e3 a9 bc
       -0.0020433904 -0.0057761436 -0.009348997 -0.020738292
0003c0 9b 34 c5 bc ea ad 23 bc 00 6a 1e bc 67 09 c8 bc
       -0.024072936 -0.009990195 -0.009668827 -0.024418546
0003d0 85 e3 b5 bb 93 ec 84 3c a5 60 75 bb 5e 18 36 bc
       -0.005550804 0.016226089 -0.0037441638 -0.011114208
0003e0 4b 38 08 ba 07 9a 86 3c c6 cb 37 bc 6f e7 28 bc
       -0.00051963766 0.016430868 -0.011218017 -0.010309084
0003f0 c6 9e ca ba 87 4e 6a ba 68 92 bd 3c 2d 9c b3 bc
       -0.0015458695 -0.0008938093 0.023141101 -0.021925056

conv2.bias f4 [32]
000000 06 ff 2e bc 11 7f c8 bc 54 27 7f bb 77 c6 73 3c
       -0.0106809195 -0.024474652 -0.0038933353 0.014878861
000010 7f 8e d8 3c 9f 41 ac 3c 69 0e 6e bc 36 7c 16 3d
       0.026435135 0.021027384 -0.014529803 0.03673955
000020 c6 28 4b 3b 9d de 37 bc a3 23 ed bb 04 6b 81 3b
       0.0030999645 -0.011222509 -0.0072369142 0.003949525
000030 07 d6 ff 3c 1e 50 dc 3c 1f e1 ae bb 04 8f 1d bc
       0.031229986 0.026893672 -0.005336895 -0.009616617
000040 35 db 81 bc 70 30 93 bc 33 51 d0 3c 54 fc dd 3c
       -0.015851596 -0.017967433 0.025429344 0.027097858
000050 92 3f ae 3a 6b ac 94 3a 10 25 7d bb 79 8b 3e 39
       0.0013294092 0.0011342888 -0.0038626827 0.0001817177
000060 e0 35 43 3c 45 cf 2d bc 2e 9a 6a 3c fb ef e9 3c
       0.0119147 -0.010608499 0.014318986 0.028556814
000070 95 69 9f 3b a1 9f 88 bc c4 56 d5 bb 1c 3a d1 bb
       0.0048648813 -0.01667768 -0.0065105874 -0.006385101

conv3.weight f4 [1, 32, 5, 5]
000000 ab e6 9b 3c 97 39 94 3c 49 21 fa ba a8 8b c7 3c
       0.01903089 0.018093867 -0.0019083406 0.024358585
000010 99 71 f7 3c 77 ee ef bc 03 3d c3 3a f2 f7 0a bd
       0.030205535 -0.029288514 0.0014895502 -0.033927865
000020 2d d5 88 3b 31 9c 27 3c 5f c9 12 bb 04 4f e6 3c
       0.004175803 0.01023011 -0.0022397859 0.02811385
000030 d8 ad 4c 3c e2 07 f2 bc 1a e5 40 bb d5 83 7c bc
       0.012492619 -0.029544774 -0.002943343 -0.015412291
000040 02 6b e7 bc 82 6d 6b 39 16 17 01 bd cb c2 c0 3c
       -0.028249267 0.00022452141 -0.031516157 0.023530385
000050 11 61 95 3b bf 4f 51 3c a9 78 a2 3c e8 f1 e3 3c
       0.0045586904 0.012775361 0.019832926 0.02782531
000060 8c 11 8e bc 52 f5 a6 3b 15 04 f3 bc 56 0c 29 3c
       -0.017342351 0.0050951624 -0.029665032 0.0103178825
000070 57 69 d9 3c 06 d8 b1 bc b6 86 c0 3c 48 3f 44 bc
       0.026539488 -0.021709453 0.023501735 -0.011977978
000080 43 9b 60 3c 19 0b 6b bc a3 24 02 3c e5 e2 f2 bc
       0.013708892 -0.014345908 0.007943305 -0.029649207
000090 82 6d 03 3d 7e 88 2f bb a7 f3 11 3d 29 ce 1d bc
       0.032086857 -0.0026784237 0.035632756 -0.009631672
0000a0 09 62 8b 3c 23 26 5d bc 70 ab 3c bc 2a 80 f6 bb
       0.01701452 -0.013497862 -0.011515483 -0.0075226026
0000b0 0f 8c 9a 3c 3b 14 81 3c c5 d1 bf 3c 53 f6 4d bb
       0.018865613 0.015756717 0.023415456 -0.0031427338
0000c0 31 7e b7 3b 61 83 c2 3c c7 9d 63 bc 56 7b 3f bc
       0.00559976 0.023744287 -0.0138925975 -0.01168712
0000d0 d7 00 dc 3c eb bb f4 bc 1d bf 8c bc 2e 1a a1 bc
       0.02685587 -0.029874763 -0.017180974 -0.019665804
0000e0 ff 94 f3 bb 3a be d4 bc 08 2b 06 3c fc d4 ca bc
       -0.007433533 -0.025969613 0.00818897 -0.024759762
0000f0 48 37 7f bc 4f 07 0d bd 47 05 c2 3c ec e6 b1 bc
       -0.015577145 -0.0344308 0.023684157 -0.021716557
000100 08 3d 8d bb ac 60 ad bc f7 50 a0 bb c0 f4 db bb
       -0.004310254 -0.02116426 -0.0048924643 -0.006712526
000110 62 2e 3d bc b6 39 18 ba ec 3e 75 3c 49 f6 ed 3c
       -0.011546703 -0.00058069394 0.014968615 0.029048102
000120 df bf d6 3c 7b 42 d7 bc 02 8d 88 bb b6 70 e1 bc
       0.026214538 -0.026276818 -0.0041672 -0.027519565
000130 e8 b9 95 3c b3 40 c9 3c ed cf 1e 3c 38 38 41 3c
       0.018277124 0.024566984 0.009693128 0.011793189
000140 f3 a5 0f 3d dc 14 6a bb ab 6b f7 bc 3f 29 88 bc
       0.03507037 -0.0035718 -0.030202707 -0.01662123
000150 44 ee 2b bc 1c f0 88 3c 81 49 54 3a 03 43 e4 3c
       -0.010493819 0.016716056 0.0008098111 0.027863985
000160 66 42 a1 3c 9f 66 27 bc 4d ef 16 bc 58 dd 42 bc
       0.019684982 -0.010217338 -0.009212327 -0.011893593
000170 49 a1 02 bd 0a fa 38 bc a8 c7 86 bc 65 8e de bb
       -0.031892095 -0.011290083 -0.016452625 -0.006791877
000180 f4 85 00 bc 78 2e 59 bc c7 74 85 bc e6 0c bc 3b
       -0.007844437 -0.013255708 -0.016291035 0.0057388423
000190 96 c5 d4 3b f4 95 2e 3c 2e 31 9d 3c 61 1f f9 b9
       0.0064932806 0.010655869 0.01918849 -0.0004751636
0001a0 26 e8 a6 3b ec d6 c9 bb 67 fc 12 3d 98 d7 d0 3b
       0.005093592 -0.006159654 0.03588524 0.006373357
0001b0 41 c6 ef 3c 9d 72 96 bc f8 12 c5 bc 97 43 2e 3c
       0.02926934 -0.018365199 -0.024056897 0.010636232
0001c0 c9 07 c0 bc 69 b8 d8 3c 01 b8 c6 3c 3c 3a 05 3d
       -0.023441212 0.026455121 0.024257662 0.03252624
0001d0 58 89 19 3d 64 e6 94 3c 27 3c 93 3c 49 63 00 bb
       0.037484497 0.018176265 0.017973019 -0.0019590429
0001e0 44 f7 0d 3d 2a bc 99 3c aa 9a 87 bb e5 d5 f7 bc
       0.03465964 0.018766481 -0.0041383104 -0.03025336
0001f0 3c 39 d4 3b d7 71 cb 3b 3a 23 e3 3c 7e a9 b8 3c
       0.0064765494 0.006208639 0.027726758 0.022541758
000200 5e 76 07 3d 1b cb b7 3b 55 d9 4a 3c cf 57 e7 bc
       0.033071868 0.005608929 0.012380918 -0.028240113
000210 37 e7 9c 3b 45 e2 0e 3c 92 75 a0 bc 26 94 8b bc
       0.004788305 0.008720939 -0.019587312 -0.017038416
000220 51 ab 75 3c 21 f1 a4 bc 17 ac 58 bc d5 bb d0 3c
       0.014994458 -0.02013451 -0.013224623 0.02548019
000230 13 c0 da 3c 8a 66 fc bc 77 68 05 bd 7f 4b b2 3c
       0.026702916 -0.030810613 -0.03257033 0.021764515
000240 2c cc 32 bc b9 f4 2a 3b 19 38 cb bc 36 c1 80 bc
       -0.010912936 0.0026085807 -0.024807023 -0.01571713
000250 fe b8 dd 3c cd 75 b4 bc 7f 7f 52 3c 97 e3 bc 3a
       0.02706575 -0.022028828 0.01284778 0.0014411089
000260 2a d0 32 3c 69 53 c9 3a 12 f2 f6 bb 79 f2 4c 3c
       0.010913888 0.0015359941 -0.0075361812 0.012508982
000270 17 d1 1e 3c e0 1e 56 bb 59 f6 c1 3c ef ad 00 3d
       0.009693406 -0.0032672212 0.023677038 0.031415876
000280 ce 42 97 3c 02 b5 22 bc e1 b0 d1 bc b1 e1 c3 bc
       0.018464472 -0.009930851 -0.025597038 -0.023911329
000290 75 ba 8c bc 7a d3 3b bb 0c 18 94 3c 34 bd 1c 3c
       -0.017178753 -0.0028659985 0.018077873 0.009566594
0002a0 f5 21 01 3d f9 fc 0a bd 88 6e 9f bc dd 37 05 3d
       0.031526525 -0.03393266 -0.019461885 0.03252398
0002b0 29 da ce bc b2 c8 b8 3c c1 f4 cc 3a 51 1f 04 bb
       -0.025250511 0.022556636 0.0015636907 -0.0020160268
0002c0 b0 50 ec 3c 13 2c 1e 3d c7 28 1f bc cf 09 a5 3a
       0.028847069 0.03861625 -0.009714312 0.0012591424
0002d0 7f fc 0d 3d ae ef 09 3d 13 30 dd 3c e4 02 7d bc
       0.034664627 0.033675842 0.027000463 -0.015442584
0002e0 d4 d6 a2 bc c0 55 08 3d ce 64 00 3d 4a 3c 84 3c
       -0.019877829 0.033284903 0.031346135 0.01614203
0002f0 ff 6f 3f 3d f2 1d 0d 3d f1 d8 b4 bb b6 7d 9d 3c
       0.046737667 0.034452386 -0.0055190255 0.019224983
000300 83 04 3d 3d 18 2d d6 3c 56 39 5b bc 7e 97 0f bd
       0.04614688 0.02614455 -0.013380369 -0.035056584
000310 95 6f 1d 3c ea ff a0 3c 80 1a 06 bd 72 f1 df 3b
       0.009609123 0.01965328 -0.032740116 0.0068342024
000320 27 c4 b2 bc 92 d3 6b 3c 1e b5 88 bc 7a 4c da bc
       -0.021822048 0.014393704 -0.016687926 -0.026647795
000330 c4 d3 0b 3d fd 27 ad 3c 07 4a 66 bc f7 ac cb bc
       0.034137502 0.021137232 -0.014055735 -0.02486275
000340 f1 4b c6 3c a3 b8 b3 bc 62 8e 2b bc 08 e4 7c bc
       0.024206134 -0.021938628 -0.010470958 -0.015435226
000350 31 2e 3a 3c 2c 77 ed ba 03 37 5b 3c 29 51 a2 bc
       0.011363552 -0.0018117181 0.013379815 -0.01981409
000360 1e 70 d7 3c 11 d6 9a 3b 55 87 c5 bc 27 76 d2 bc
       0.026298579 0.0047252257 -0.024112383 -0.025691105
000370 cd c3 af 3c 16 30 77 bc e9 10 2b 3c db a1 96 3a
       0.02145567 -0.015087148 0.010441043 0.0011492328
000380 d0 b0 85 bc dd cc 20 3d 00 6f 36 bc 55 cb a4 3c
       -0.016319662 0.039257873 -0.011134863 0.020116488
000390 5a e3 e6 3c 65 6b 93 3c 55 40 12 3d a2 f4 ca bc
       0.028184582 0.017995546 0.035705883 -0.024774853
0003a0 ab a8 f2 3b 4a 88 80 3b f7 fd ba 3c 50 8d 8a bc
       0.0074053607 0.003922497 0.022826178 -0.016913086
0003b0 4d da ce bc 7f 41 d9 bc 5f 19 db 3c 16 8c 64 3c
       -0.025250578 -0.026520489 0.026745496 0.013949415
0003c0 53 e2 17 bd fa 5d 13 bc a0 14 ff bc 9b 5c f0 bc
       -0.037081074 -0.008994574 -0.031137764 -0.029341033
0003d0 9e 6a c3 3c 1d 2f 8f bc d3 21 96 3c 1a 0c 0d 3d
       0.02385455 -0.01747852 0.018326676 0.03443537
0003e0 b3 bd 06 3c 88 65 a4 3c 02 2b fc bc a1 ac 74 bc
       0.008223939 0.020067945 -0.030782226 -0.014933736
0003f0 a6 fd ea ba 8c bb fb 3b d5 24 6c 3c 3a 82 9d 3c
       -0.0017928376 0.0076822694 0.014413078 0.019227136
