outputs/x3/epoch_133.pth (torch, 231335 bytes, 5 tensors)

conv1.weight f4 [64, 1, 9, 9]
00000000: c32b 17bd 2c84 2d3c 33f2 42bd 33d5 463d
00000010: 979c b8bd d0d1 ac3d 6fce 9fbd 8054 b0bd
00000020: 78e4 8dbd 8559 663d 02ef 12bd 3d80 493d
00000030: 4330 b1bd efee 7dbd 4294 1dbd cc2e a6bc
00000040: ad1c abbd adb8 943d 3967 a1bc a71d 2e3d
00000050: cf0a b93d 932c 123d 66e0 363d e4f5 ee3d
00000060: ade4 32bd 9333 223d 585f 43bd a2aa b13d
00000070: 06eb c53d 74b8 b4bd 1077 eb3d e553 993d
00000080: 984a 853d 1c8c 6e3d eaec cd3d 8007 35bc
00000090: 92b4 b1bd 3171 ccbc b25d 87bd e91b d03c
000000a0: 92b9 c439 9c7a 2bbd 0c77 873b 19bb ea3d
000000b0: b4fa a4bb f5e2 473c 203d 2dbc 15e5 d73c
000000c0: f3cd e13d 805b a63d 811a 533d e93e 103d
000000d0: 62b1 0a3d 5115 3d3d 75a4 9bbb c012 c6bd
000000e0: 4bbb 7ebd 4927 cf3d 0572 553c fb42 acbd
000000f0: 897a c33c e506 c63d 2489 d1bd 4df4 84bd
00000100: ce3f 19bd ca16 323c 2052 a6bc b7db fdbb
00000110: 92c1 d6bd f5cb 643d 0ed8 ce3d fe1b 913d
00000120: 2314 8dbd d2cc a8bd d1d5 583d 4519 103c
00000130: 6cee 4f3d b679 d6bd b052 50bb 12c1 a63d
00000140: 5442 5f3d f268 933b 698b ad3c 459d 3cbc
00000150: b4f7 7bbd 1aa7 2bbd 955e 89bd 9c51 c13d
00000160: ea9d 7f3d 8ba7 1a3d 02e6 abbd 3420 b03d
00000170: e79b 0f3d 9c15 9f3d e7bc 2ebd 3229 cd3c
00000180: 7f04 e63d 87e3 9f3d 1612 b73d a0fa b3bc
00000190: 144d af3d aa1c aebd 26a0 4d3c ba3a 78bd
000001a0: c409 d0bc 9de8 d0bc 5fd9 3d3c 03b2 d03d
000001b0: e21e 663d 3fb5 a23a 29d2 aa3d 2166 4fbd
000001c0: 952d 7b3d f902 2ebc 6e3b 98bc 1c74 703c
000001d0: 691a adbd c984 5a3c f7f5 1d3d 9c72 cc3d
000001e0: 485f ddbc 92c7 3a3d 5e46 e43d 4db5 41bd
000001f0: be65 da3d 9585 5fbd dde7 483d 5b4b 313d
00000200: 298c 073d 7ac1 bd3d d25d 24bd 140e fe3c
00000210: e5a0 1e3b b7e1 a7bd cdb3 d5bc 7e69 98bd
00000220: 7710 423d 0745 073c fc83 2b3c 1003 07bd
00000230: f0f8 b33a 7b99 06bd a4d6 063d e210 dd3d
00000240: 91c5 843c cf14 54bd 2c16 93bd 6a04 903b
00000250: e766 afbd c77f aebd 9366 94bd 9f56 1dbd
00000260: 4638 e43b 0cfe 9d3d 61b5 2d3d 85f9 aa3d
00000270: 38e0 92bd f7dc fb3b afe4 cbbd 0532 833d
00000280: a148 bb3c d6d6 da3d d3d2 a1bd fc7b b63d
00000290: 3f17 c03d 23f9 b73d 27be 813c 88ec ce3d
000002a0: 63f8 973d 1ac5 a93d d059 edbb 329e aebd
000002b0: afd4 b9ba ab33 aa3c 8103 9bbd 5c88 82bd
000002c0: 2129 dabd 5590 1fbd 6938 c63d 5088 9b3c
000002d0: 7828 debb d9e2 903b 3be1 8d3d 0bf4 c8bd
000002e0: 5a95 afbd 524f 17bd eff3 82bd 81c8 6a3d
000002f0: a8cf a03d 83c9 dcbd b921 c1bd b29b ddbd
00000300: 7da0 2b3d 0025 b73d a96f b0bd bfad 52bd
00000310: 90e7 103d de8e 94bd d749 c13d 03d8 d33c
00000320: 01f0 fdbc 3f2f ea3b cccf 0d3d f7ff 20bd
00000330: 7b54 b0bd 9778 413a 264e 053b 6998 123b
00000340: ee46 85bc d211 923d fea8 febc 4b98 31bc
00000350: f706 3b3d 3140 8fbd 066e f33c 5770 c9bc
00000360: 8f4a 5a3d f8e6 76bd f33e 863b c6f0 313c
00000370: 8517 b7bd 6877 a5bd 9087 2e3d ce76 04bd
00000380: 2e25 873d fcca e0bd b8f8 60bd d66d bbbd
00000390: eecd 353d 00f1 52bb 32c1 a9bc a768 97bc
000003a0: 45de b1bd 7714 013d 5df4 353b bc09 9dbd
000003b0: 7541 2b3d e3b6 12bb 5414 dcbd 93d1 743d
000003c0: 7270 733d d874 abbc bc1c 9dbd 0a81 793b
000003d0: 7b50 a83d 2c1a ce3d 5d0e a9bd f57e 46bd
000003e0: ac96 b23d ce42 5d3d 7673 8a3d f066 6cbd
000003f0: 3263 c43d fa53 bcbd 4d63 bdbb 0963 6a3b
-0.03690697 0.010590594 -0.04759426 0.048543166 -0.09014242 0.08438456 -0.07803046 -0.08609867
-0.069283426 0.056237716 -0.035872467 0.049194563 -0.08651783 -0.061995443 -0.038471468 -0.020285986
-0.08355079 0.072617866 -0.01970254 0.042508747 0.09035265 0.03568704 0.044647597 0.11667994
-0.043675113 0.039599966 -0.04769835 0.08675124 0.09663968 -0.08824244 0.11497319 0.07486705
0.06508368 0.058239087 0.100549534 -0.011049151 -0.08677019 -0.024956318 -0.06609668 0.025403934
0.00037522294 -0.041864976 0.0041340645 0.11461467 -0.005034769 0.012200107 -0.010573655 0.026354352
0.1102561 0.08122921 0.051538948 0.035216246 0.03386057 0.046162907 -0.0047498294 -0.09671545
-0.062190335 0.10114915 0.013027673 -0.08411213 0.02386214 0.09669284 -0.102312356 -0.06491909
-0.037414365 0.010869691 -0.020302832 -0.0077471393 -0.10486139 0.05585857 0.10099803 0.07085417
-0.068886064 -0.082421914 0.052938286 0.008795087 0.050764486 -0.10472433 -0.0031787567 0.08142294
0.054506615 0.0044985944 0.02118464 -0.011512105 -0.061515525 -0.041907407 -0.06707493 0.09439394
0.062406458 0.037757438 -0.0839348 0.08599892 0.03506079 0.077677935 -0.04266062 0.025044058
0.11231326 0.07807069 0.089389965 -0.021970093 0.08559623 -0.08501561 0.012550389 -0.06060288
-0.025395282 -0.025501544 0.01158747 0.10190203 0.056181796 0.0012413635 0.08340866 -0.050634507
0.061322767 -0.010620826 -0.018583026 0.01467612 -0.08452303 0.0133373225 0.03856465 0.099827975
-0.027022973 0.04560048 0.11146234 -0.047292043 0.10663937 -0.054570753 0.049049247 0.043284755
0.03309265 0.09265418 -0.040128537 0.031012572 0.0024204787 -0.081973486 -0.026086712 -0.07441996
0.047378983 0.0082562035 0.010468479 -0.032961905 0.0013730805 -0.032861214 0.03291954 0.10794236
0.016207488 -0.051777657 -0.07181963 0.0043950574 -0.08564549 -0.08520465 -0.07246127 -0.038412686
0.006964716 0.07714471 0.042409305 0.08348373 -0.071716726 0.007686253 -0.09955727 0.06406025
0.02286178 0.10685508 -0.0790154 0.08910367 0.09379434 0.08983066 0.015837742 0.101037085
0.07420423 0.08289547 -0.0072433725 -0.08526267 -0.0014177765 0.02077659 -0.07569028 -0.06373665
-0.10652376 -0.038956005 0.09678728 0.018985897 -0.0067797266 0.0044215736 0.06927725 -0.098121725
-0.085734084 -0.03694088 -0.06394183 0.05732012 0.07852107 -0.10780623 -0.0943026 -0.10820712
0.0419011 0.08942604 -0.086150475 -0.05143523 0.035377085 -0.07253812 0.09437912 0.025859838
-0.030998232 0.0071467455 0.034622 -0.039306607 -0.08609863 0.0007380335 0.002034077 0.0022368676
-0.016269173 0.07132305 -0.031086441 -0.010839532 0.04566094 -0.069946654 0.02971555 -0.0245897
0.05329376 -0.060278863 0.0040968596 0.0108606275 -0.08940033 -0.080794156 0.04260975 -0.032339863
0.06598888 -0.10976216 -0.054924697 -0.09151809 0.044385843 -0.0032187104 -0.020722006 -0.01848252
-0.08684973 0.031513657 0.002776406 -0.07667872 0.04181047 -0.002238684 -0.10746065 0.059770178
0.059433408 -0.020929739 -0.07671496 0.0038071298 0.082184754 0.10063586 -0.08254693 -0.04846092
0.08720145 0.054018788 0.06760304 -0.057715356 0.095892325 -0.09195705 -0.00577966 0.0035764596

conv1.bias f4 [64]
00000000: 9ee5 64bc 9205 87bd 3682 9bbb 2441 80bd
00000010: d332 093d b205 cabc 95a6 803d cadb 623d
00000020: 3c2d de3d 5df2 95bd a9bc 4cbb 5eeb 043b
00000030: 1c79 8ebd b641 ca3d b562 813d 0e3a 8d3d
00000040: e317 0cbd ce25 51bd 6ac2 883d b2a3 843c
00000050: 3858 783c 3a00 b0bc 5c53 d5bd a356 833d
00000060: f389 3dbd cec5 763d 4ac2 e0bc 0e2c 74bb
00000070: 69e5 f43c 5cae 113d def3 fd3d 807e 27bd
00000080: 5315 1f3d 7bfb 2e3d 84f8 91bc 84c7 b8bd
00000090: c623 82bc 7580 993d 2c15 c1bd 989c 4c3c
000000a0: 3f7a 67bd 8665 62bd 8a6d be3d 8e0c f03a
000000b0: c2ad 133d 765b 833c 6c99 a2bd 1e7b e3bd
000000c0: 1c5e 8fbd 6399 bcbb 4e59 42bd 2677 c0bc
000000d0: 0e68 133d 8036 cfbb adc4 ef3b e7ea 5fbd
000000e0: d7b6 9b3d 7d25 5bbd 0dbe d0bb 72ee c73d
000000f0: e550 d63d 1ab0 6fbd cbe8 c9bd 3903 9bbd
-0.013970761 -0.06592859 -0.004745747 -0.062624246 0.033495735 -0.024660919 0.06281773 0.05538539
0.108484715 -0.07321618 -0.003124038 0.0020281891 -0.069566935 0.098758146 0.06317655 0.06895839
-0.034202468 -0.051061444 0.066777065 0.016191337 0.015157752 -0.021484483 -0.1041629 0.06413009
-0.046274137 0.060247235 -0.027436394 -0.0037257704 0.029894548 0.035566673 0.124000296 -0.040892124
0.038838696 0.0427203 -0.017818697 -0.090224296 -0.015886199 0.07495204 -0.09427866 0.012488507
-0.056513067 -0.0552726 0.09298237 0.0018314288 0.03605438 0.016034823 -0.07939419 -0.11107467
-0.07000372 -0.00575559 -0.04744845 -0.023494314 0.035987906 -0.0063236356 0.0073171468 -0.05466738
0.07603233 -0.05350255 -0.006370312 0.09762277 0.10464648 -0.058517553 -0.09858855 -0.07568974

conv2.weight f4 [32, 64, 5, 5]
00000000: aa9d a33b dcb0 293c b98b 3bbc 95d9 a2bc
00000010: 0a89 a0bb ab2a cdbb 0ba8 81bc ce93 c2bc
00000020: 663e 8ebc 559f 80ba 81a4 603c bcd7 98bc
00000030: 7abe 17bc 11c6 9cbc ab7d 433c 2637 c1ba
00000040: 778e 843c 4c71 503b 18c8 9cbb d030 b33c
00000050: e87c 883c a210 c33c ab86 8cbc 661f 413c
00000060: e94d 80bc 9d1e 81bc ff88 963c 95e2 333c
00000070: c35a 6fbc e12a 89bc 5b05 5bbc c37e 9b3c
00000080: dd66 083c 9543 853a ca2b 8dbc 9309 ff3b
00000090: 92c7 babb 267f 703c de69 b93b 5e17 343c
000000a0: 21fa 0abc d7bf f8b9 dadd 62bc d83a b63b
000000b0: aea7 0dbb 52dd b0bc 732d 5d3c deb1 203c
000000c0: 145e 6d3c 31c6 2d3c 8494 1e3b 1ba4 913c
000000d0: 6f92 b1bc a605 e23b c315 a33c b8f3 8abb
000000e0: 375f 9e3c fbe3 293c 7553 ad3c 54aa af3c
000000f0: a1ce 3a3c 5f0b 133b 14e5 adbc 507c 15bc
00000100: 4124 b6bc 1c3b 83bb d097 783c eed3 5d3c
00000110: 328d f33a 3ea5 c5bc c93a 5a3c aa80 183c
00000120: 9639 50bc 30ed bbbc 866f 63bc 7493 063c
00000130: 9b33 60bc 02d6 8fbc 2494 a4bc 6f02 77bc
00000140: 67b1 7dbb e14e 973c 6a88 7cbc 7259 b5bc
00000150: 7f60 a83c 82bb 5d3c 6d5c 003c 665a 89bc
00000160: 2325 8e3c 2fe4 243c 05d0 7a3b 56b5 983c
00000170: 387a f63b 11ce 7f3c cf52 efbb 69e4 7d3c
00000180: 4ca4 44bc 412c cc3b 603b 7ebc 1f0d bcbc
00000190: 4357 abbc d468 97bc 1e1e 5d3c 8c9a c53c
000001a0: cb80 783c 4bfd 24ba 407b afb9 25e4 593b
000001b0: 7eae c23c 253d 553c f5f2 77bc 448c 63bc
000001c0: 015d a63c e4b4 5b3c fe49 c8bc 5c05 aabc
000001d0: 2cf8 523c d07d 44bc 6454 9a3c ec12 853c
000001e0: 3704 a1bc e55e c03b 0e13 88bb 7b2b c5bc
000001f0: b6df 003c 4c10 363b a2ac 973b 96be a5bc
00000200: 7ed8 b4bb fa66 95bb 525e b1bc 2d46 9f3c
00000210: b872 e0bb e66c 423c 4a14 d8bb 3c30 a0bc
00000220: edbf dcbb 25cd 993b e9be a13c 0816 7c3b
00000230: 8faf 8b3c ef14 413c 9786 8cbc 7a11 553a
00000240: 7070 b53c 5743 fbbb 532e 313c 1f04 b33c
00000250: 18a4 c3ba 46e1 16bc 992f 73bc d334 cfba
00000260: 8bf1 86bc f9f9 ca3c 1916 aebc b3da b23c
00000270: 8f61 883c e48f b0bc c88b 72bc d9fc bd3c
00000280: d3f8 53bb 267c 8fbc 36ca 623a 1568 c3bb
00000290: fc34 413b a943 203c 2295 adbc 4739 52bc
000002a0: fd92 48ba d7cb bd3c 2ac8 9bbc b225 59bc
000002b0: a124 643c 6495 c03c 3bc6 363b cc15 9239
000002c0: 29a8 353c 6d82 9fbb 795d 733c 3639 cb3c
000002d0: b950 943c 1dee c7bc 4f1e a03c bc03 c33c
000002e0: c0c9 2d3c 8685 ffbb 0c77 47bb 7781 85bc
000002f0: 96da 80bb b5fe 833c 7a21 d0bb 86d8 6bbb
00000300: c04e 8abb 24fb 4137 1732 663b 5d7f 65bb
00000310: 11df c7bc 9de1 03bc 5c15 51bc bacd 13bc
00000320: 366e 4cbc 1b06 90bc 32b3 a5bc e618 12bc
00000330: fae2 6c3b bfb0 c93c 9286 163b d5c2 0e3b
00000340: 8257 483c 7768 b83b 4037 a4bc 3e4c c7bc
00000350: 0b12 7cbc cbaa a9bb 44eb 89bc 1987 983c
00000360: 1f09 00bc 4661 3fbc ead8 90bc b53c 33bc
00000370: db42 9abc 1e27 ab3c 5aa8 da3b de20 b0bc
00000380: a454 c83c b2a1 9fbb 1877 093c 5289 7fbb
00000390: 4059 95bb cb6a 633c a824 b33c c4d5 1a3c
000003a0: fd89 c93c baa0 c43c 304b b7ba ded0 14bb
000003b0: 3080 f2ba e0f0 b7bb 39c4 16bc 07b1 a8bc
000003c0: fd63 c4bc af14 22bc de3d 1dbc d2a8 c7bc
000003d0: f767 b4bb 5d1f 853c f42c 72bb 0376 35bc
000003e0: 187c 02ba b4ad 863c d2ca 37bc 2be6 28bc
000003f0: 409c caba ae55 6aba 9e92 bd3c 0db2 b3bc
0.0049931603 0.010357108 -0.011446887 -0.019879142 -0.004899149 -0.00626119 -0.0158272 -0.02375212
-0.017363738 -0.000981311 0.013711096 -0.018657558 -0.009261722 -0.019137414 0.011931817 -0.0014741167
0.016181214 0.0031805811 -0.004784595 0.021873862 0.016661122 0.023811642 -0.017154058 0.011787271
-0.01566215 -0.015761668 0.018375872 0.010979314 -0.014609042 -0.016744079 -0.013367976 0.018981343
0.008325306 0.0010167236 -0.017232794 0.0077831238 -0.00570006 0.014678752 0.0056583723 0.010991899
-0.008482487 -0.00047445178 -0.013846839 0.005561214 -0.0021614837 -0.021589909 0.0134996055 0.009808032
0.014487762 0.010606335 0.002419741 0.017778447 -0.02167627 0.006897646 0.019907838 -0.0042404793
0.019332511 0.010369296 0.02115796 0.021443523 0.011401803 0.0022437198 -0.021227397 -0.009123877
-0.022234084 -0.004004849 0.015172914 0.0135392975 0.0018581508 -0.024126645 0.01331968 0.00930802
-0.012709042 -0.022940248 -0.01388157 0.0082138665 -0.013684179 -0.017558102 -0.02009017 -0.015076264
-0.0038710476 0.01847023 -0.015413383 -0.022137377 0.020553825 0.013533475 0.007834536 -0.016766738
0.017351693 0.010064169 0.0038270962 0.018641155 0.007521894 0.015613095 -0.0073035727 0.015496352
-0.012002062 0.0062308614 -0.015517086 -0.022955475 -0.020915633 -0.018482603 0.01349595 0.024121545
0.015167425 -0.0006293847 -0.0003347043 0.0033247557 0.023764845 0.013015066 -0.015133609 -0.013888422
0.02030802 0.013409827 -0.024449345 -0.020754509 0.012876552 -0.011992887 0.018839069 0.016244374
-0.01965533 0.0058706873 -0.004152662 -0.024068585 0.007865837 0.002778071 0.0046287337 -0.02023248
-0.005518972 -0.004559395 -0.02165142 0.019442642 -0.006849613 0.011866784 -0.0065942155 -0.01955425
-0.0067367465 0.0046936446 0.019744353 0.003846528 0.017051486 0.011784776 -0.017154021 0.00081279094
0.022148341 -0.0076679396 0.010814267 0.021852551 -0.0014926223 -0.009208983 -0.014842891 -0.001580859
-0.016472599 0.0247774 -0.021250771 0.0218328 0.016648082 -0.021552987 -0.014803834 0.023191856
-0.0032344356 -0.017515253 0.00086513476 -0.0059633353 0.0029481044 0.009781756 -0.021189276 -0.012831039
-0.00076512975 0.023168487 -0.019016344 -0.013253616 0.013924749 0.023508735 0.002788915 0.0002786353
0.011087456 -0.004867843 0.014853829 0.024807554 0.018104898 -0.024405533 0.019545702 0.023805492
0.010607183 -0.0077978997 -0.0030435948 -0.016297085 -0.0039323075 0.016112665 -0.006351647 -0.0035987212
-0.0042208135 1.156217e-05 0.003512507 -0.0035018541 -0.024398359 -0.008049396 -0.01276144 -0.009021217
-0.012477448 -0.017581036 -0.020227049 -0.008917069 0.003614603 0.024620412 0.0022968394 0.002178361
0.012227895 0.0056276876 -0.020045877 -0.024328347 -0.015385161 -0.005177831 -0.016835816 0.018619107
-0.007814675 -0.011680907 -0.017681558 -0.010939767 -0.018830707 0.020892676 0.006672901 -0.021500047
0.024454422 -0.0048715705 0.008390211 -0.0038991761 -0.0045577586 0.013880442 0.021868065 0.00945038
0.02460193 0.024002422 -0.00139842 -0.0022707502 -0.0018501338 -0.0056134313 -0.009202057 -0.020592226
-0.02397346 -0.009892627 -0.00959727 -0.024372492 -0.0055055576 0.016250307 -0.0036953064 -0.0110754995
-0.0004977598 0.01644025 -0.01121779 -0.010308783 -0.0015457943 -0.0008939159 0.023141202 -0.021935487

conv2.bias f4 [32]
00000000: a95d 16bc 23d9 c5bc bc1e 8bbb 3811 7e3c
00000010: 44bd e03c bf70 aa3c 01b6 71bc 6a6b 1c3d
00000020: f1fe 523b dccd 3cbc 6848 efbb 5f96 793b
00000030: d836 023d d6a1 dd3c 5930 b3bb 5664 1cbc
00000040: 2ee5 84bc 303e 92bc ef5d cd3c c107 b13c
00000050: 403e fd39 961f 023b f356 b9bb c5af c8b8
00000060: 5329 403c 59e1 2dbc 96da 5b3c b053 e33c
00000070: 9c7a ca3b a6bf 88bc 713a a8bb d67f 9bbb
-0.009177604 -0.02415139 -0.004245607 0.015507035 0.027433999 0.020805715 -0.014752866 0.038188376
0.0032195414 -0.01152369 -0.0073023327 0.0038084013 0.031790584 0.027054708 -0.00546841 -0.009545406
-0.016222563 -0.017851919 0.025069205 0.021610143 0.000483023 0.0019855252 -0.005656117 -9.569483e-05
0.011728602 -0.010612809 0.013418814 0.027749866 0.006179167 -0.016692948 -0.00513392 -0.004745464

conv3.weight f4 [1, 32, 5, 5]
00000000: 6667 9c3c aee4 943c fc2b f3ba 9cd6 c73c
00000010: c9a2 f73c 8c64 efbc 984f c93a 48f3 0abd
00000020: c432 893b 8d1a 283c 4311 10bb 670b e63c
00000030: 9b9f 4b3c 8841 f2bc 7a7a 3ebb bd8e 7cbc
00000040: a952 e8bc 6c90 8f38 3a76 01bd 8cb2 c03c
00000050: 2117 973b 145f 513c 303d a23c d6eb e33c
00000060: afe0 8dbc 8a60 a33b 4f11 f2bc a0a5 2c3c
00000070: e4c8 d93c fbf5 b2bc 0ba0 c03c 6182 3dbc
00000080: 7125 6b3c f751 66bc a0d3 023c 7e78 f1bc
00000090: 14eb 053d 13ac eaba 94fc 133d a875 18bc
000000a0: 6cde 8a3c 7a17 5abc fcac 36bc 927b efbb
000000b0: 26d3 9c3c 688b 7f3c 0457 bf3c 096a 51bb
000000c0: 08ef b43b a9c3 c23c c79d 63bc 567b 3fbc
000000d0: d700 dc3c ebbb f4bc 1dbf 8cbc 2e1a a1bc
000000e0: 7394 f3bb 3abe d4bc 082b 063c fcd4 cabc
000000f0: 4337 7fbc 4f07 0dbd 7e05 c23c ece6 b1bc
00000100: 083d 8dbb ac60 adbc d446 a0bb e4bb dbbb
00000110: 622e 3dbc e039 18ba ec3e 753c 49f6 ed3c
00000120: dfbf d63c 7b42 d7bc 028d 88bb 6c5d e1bc
00000130: f036 963c 1786 c93c fa64 1f3c de6c 413c
00000140: 79db 0f3d c192 62bb d9f1 f6bc 06f2 87bc
00000150: ae77 2bbc ca1d 8a3c 9b6b 743a 55d8 e43c
00000160: 1b49 a13c 0328 27bc 5279 14bc 6f19 41bc
00000170: 516d 02bd 32f6 38bc 92ad 86bc c2c9 dbbb
00000180: 0e0b 00bc b098 59bc 170c 86bc 37a6 b93b
00000190: 0e25 bb3b 73cf 293c d3ea 9e3c e27e 12ba
000001a0: 3547 a03b ef61 d9bb 903f 133d b08e e83b
000001b0: d374 f33c dcd3 94bc 6a5f c3bc d0bc 373c
000001c0: dbb8 b6bc e7c2 df3c e60e cb3c f099 073d
000001d0: 42d5 1b3d 042c 9a3c c1c7 963c a19a cbba
000001e0: f0a2 0e3d 7048 9a3c 06ea 8bbb d2ec f9bc
000001f0: 697a d13b c805 db3b d927 e63c 8b2f bd3c
00000200: e468 0a3d 9774 c63b 1abc 553c ca0d e6bc
00000210: fd87 993b 577f 0f3c 63a8 a0bc 3443 8abc
00000220: 8030 6d3c 628b abbc c233 61bc 2230 ce3c
00000230: cf84 d93c 3c0d 01bd 6fb9 08bd eb9b b03c
00000240: 4e33 2fbc 8d59 1d3b 6a4c cfbc ff1d 84bc
00000250: 86c4 de3c aae6 b0bc 7d7f 523c 65e2 bc3a
00000260: 29d0 323c 5852 c93a 20f2 f6bb 7bf1 4c3c
00000270: 94ce 1e3c 05a3 55bb 2df5 c13c efad 003d
00000280: c742 973c 3eb6 22bc eeb0 d1bc c5e1 c3bc
00000290: 7dba 8cbc bce2 3bbb 0918 943c e9bc 1c3c
000002a0: f521 013d f9fc 0abd 886e 9fbc dd37 053d
000002b0: 29da cebc b2c8 b83c 3900 cd3a 71bc 04bb
000002c0: e5b7 f13c 8136 223d 681a 1ebc 8e90 903a
000002d0: 2a4b 0f3d 255d 0f3d 3588 ed3c 21b1 6fbc
000002e0: a341 a0bc cb97 0c3d 18da 093d c8c8 9e3c
000002f0: 9231 463d 71cc 0f3d 5d6b b0bb f75d a43c
00000300: bdec 423d 0a18 da3c 66d2 5ebc c274 12bd
00000310: 8f9d 183c b019 a33c bdea 05bd f4e6 d73b
00000320: 27c4 b2bc 5ad6 6b3c 5ae9 88bc b46c dabc
00000330: 6dd3 0b3d fd27 ad3c d73b 66bc 81c4 cbbc
00000340: 0f38 c63c d7bb b3bc 988e 2bbc b07e 7cbc
00000350: b02e 3b3c 85ba e9ba 80a6 5b3c 2951 a2bc
00000360: 5f70 d73c 439d 9b3b 5f80 c5bc 935f d2bc
00000370: cdc3 af3c 9d2d 77bc 9553 2b3c 2c6c 973a
00000380: 2a9c 85bc 0132 223d 5f63 34bc 257b a83c
00000390: d11e ea3c b602 913c f2da 123d 3527 ccbc
000003a0: 097f ff3b d8f8 933b cba8 bc3c d389 90bc
000003b0: 1c15 d7bc 906b dbbc fa7c dd3c 12c8 693c
000003c0: 3055 1bbd a8e7 22bc a19c 00bd f200 eebc
000003d0: 1155 c63c f9f5 92bc 6d26 933c f7f0 0d3d
000003e0: 727f 0c3c 2c0e a53c 022b fcbc a1ac 74bc
000003f0: 7bfc eaba 8cbb fb3b d524 6c3c 3a82 9d3c
0.019092273 0.01817545 -0.0018552537 0.024394326 0.03022899 -0.02922275 0.0015358804 -0.033923417
0.00418696 0.010260236 -0.0021982945 0.028081609 0.01242819 -0.029572263 -0.00290647 -0.015414891
-0.028359728 6.845672e-05 -0.03160689 0.023522638 0.0046109115 0.012779016 0.019804567 0.027822416
-0.017319052 0.0049858736 -0.029549269 0.010537535 0.02658505 -0.021845808 0.023513814 -0.011566729
0.014352188 -0.014057628 0.007985026 -0.0294764 0.03269489 -0.0017904065 0.03612955 -0.009305395
0.016951762 -0.013311261 -0.011149641 -0.007308432 0.019143652 0.015597202 0.023356922 -0.003195407
0.005521659 0.023774939 -0.0138925975 -0.01168712 0.02685587 -0.029874763 -0.017180974 -0.019665804
-0.007433468 -0.025969613 0.00818897 -0.024759762 -0.01557714 -0.0344308 0.02368426 -0.021716557
-0.004310254 -0.02116426 -0.004891256 -0.006705748 -0.011546703 -0.0005806964 0.014968615 0.029048102
0.026214538 -0.026276818 -0.0041672 -0.027510367 0.018336743 0.024600072 0.0097286645 0.011805741
0.035121415 -0.0034572335 -0.030144619 -0.016594898 -0.010465546 0.016859908 0.0009323896 0.027935186
0.01968818 -0.010202411 -0.009062128 -0.011785849 -0.031842533 -0.011289166 -0.016440187 -0.006707401
-0.007815136 -0.013281032 -0.016363187 0.0056655663 0.0057112044 0.010364401 0.019399082 -0.0005588365
0.004891301 -0.006633989 0.03594929 0.007097088 0.029718792 -0.018167429 -0.023849208 0.01121445
-0.022304943 0.027314616 0.024787378 0.03310579 0.038045175 0.018819816 0.018405797 -0.0015533754
0.034823358 0.018833369 -0.004269841 -0.030508433 0.0063927663 0.006684039 0.028095173 0.02309396
0.033791438 0.006056379 0.013045335 -0.028082747 0.0046854005 0.0087583875 -0.019611543 -0.016877748
0.014476895 -0.020940486 -0.01374525 0.025169436 0.026552586 -0.031506762 -0.03337997 0.021558722
-0.010693384 0.0024009675 -0.025304992 -0.016127585 0.027193319 -0.021594364 0.012847778 0.0014410733
0.010913887 0.0015359623 -0.007536188 0.012508745 0.009692807 -0.0032598388 0.02367648 0.031415876
0.01846446 -0.009931145 -0.025597062 -0.023911366 -0.017178768 -0.002866908 0.018077867 0.009566524
0.031526525 -0.03393266 -0.019461885 0.03252398 -0.025250511 0.022556636 0.0015640325 -0.0020253921
0.029506633 0.03960276 -0.00964985 0.0011029409 0.03498379 0.03500094 0.028995613 -0.014629633
-0.019562548 0.03432445 0.033655256 0.01938285 0.048387118 0.03510708 -0.0053838925 0.020064337
0.047589052 0.02662279 -0.013599968 -0.03575588 0.009314909 0.01990971 -0.032694567 0.006588811
-0.021822048 0.014394367 -0.016712833 -0.026663162 0.03413718 0.021137232 -0.014052353 -0.024873974
0.024196653 -0.021940155 -0.010471009 -0.015411064 0.011424705 -0.0017832076 0.013406396 -0.01981409
0.0262987 0.0047489717 -0.024109064 -0.025680339 0.02145567 -0.015086559 0.010456939 0.0011552623
-0.016309816 0.03959847 -0.01101002 0.020566532 0.028579148 0.017701488 0.035853334 -0.02492104
0.007797126 0.0045157485 0.023029706 -0.017643845 -0.026255183 -0.026784688 0.027037133 0.014268892
-0.037923038 -0.0099429265 -0.031399373 -0.029053185 0.024210485 -0.017939555 0.017962659 0.03465363
0.008575307 0.02014836 -0.030782226 -0.014933736 -0.0017928028 0.0076822694 0.014413078 0.019227136
