outputs/x3/epoch_98.pth (torch, 231327 bytes, 5 tensors)

conv1.weight f4 [64, 1, 9, 9]
0	0xbd18dce5	-0.037320036
1	0x3c27dab9	0.010245019
2	0xbd440f18	-0.047865957
3	0x3d473dfe	0.048643105
4	0xbdb7639c	-0.08954546
5	0x3dae17e4	0.085006505
6	0xbd9f34c1	-0.07773734
7	0xbdb0089d	-0.08595393
8	0xbd8d7207	-0.069065146
9	0x3d656b96	0.056010805
10	0xbd135e9f	-0.03597891
11	0x3d48e53f	0.04904675
12	0xbdb0e043	-0.086365245
13	0xbd7b029e	-0.061281793
14	0xbd19d7f0	-0.03755945
15	0xbca1e549	-0.019762652
16	0xbdaacfc4	-0.083404094
17	0x3d94da04	0.07268146
18	0xbca265bf	-0.019823907
19	0x3d2dbd76	0.042417012
20	0x3db7f565	0.08982352
21	0x3d0ee1ff	0.034883495
22	0x3d3495aa	0.044088043
23	0x3deeff5b	0.11669799
24	0xbd3281f1	-0.043580953
25	0x3d21f773	0.039542627
26	0xbd4388c4	-0.04773785
27	0x3db1e77a	0.08686729
28	0x3dc6299d	0.09675906
29	0xbdb600f5	-0.08886901
30	0x3de86160	0.11346698
31	0x3d95d96a	0.07316859
32	0x3d837b42	0.06419994
33	0x3d6ca60f	0.057775553
34	0x3dcdaa96	0.10042302
35	0xbc321c88	-0.01087106
36	0xbdb11802	-0.08647157
37	0xbcc952ad	-0.024575556
38	0xbd87e28f	-0.066350095
39	0x3cc6a097	0.024246497
40	0xba95f241	-0.0011439995
41	0xbd2f4680	-0.042791843
42	0x3b697fb4	0.0035629096
43	0x3dea84f6	0.114511415
44	0xbb96aae3	-0.004598008
45	0x3c47ab68	0.0121868625
46	0xbc2a1ce2	-0.010382863
47	0x3cd82dff	0.02638912
48	0x3de17edc	0.11010525
49	0x3da5f734	0.08103791
50	0x3d530b1a	0.05152426
51	0x3d0f80ec	0.03503506
52	0x3d0a8e82	0.033827312
53	0x3d3e4c09	0.04645923
54	0xbba084ea	-0.004898657
55	0xbdc5f2ba	-0.09665437
56	0xbd7e3b23	-0.062068116
57	0x3dcfd995	0.10148922
58	0x3c601c46	0.013678616
59	0xbdaad6f0	-0.08341777
60	0x3cc58b6a	0.02411433
61	0x3dc625c3	0.09675171
62	0xbdd17ee7	-0.10229283
63	0xbd848a66	-0.0647171
64	0xbd182eaf	-0.037153896
65	0x3c359831	0.011083649
66	0xbca37b57	-0.019956274
67	0xbbe5e2a6	-0.007015544
68	0xbdd4fec5	-0.10400156
69	0x3d66e77b	0.0563731
70	0x3dcf5365	0.10123328
71	0x3d91170f	0.07084476
72	0xbd8c1093	-0.06839099
73	0xbda7ec6b	-0.0819939
74	0x3d5a0c25	0.05323424
75	0x3c13dd88	0.009024985
76	0x3d51ac09	0.051189456
77	0xbdd546a3	-0.104138635
78	0xbb2f68d2	-0.0026765359
79	0x3da78b87	0.081809096
80	0x3d6014e5	0.054707427
81	0x3b877527	0.0041338387
82	0x3cab10cc	0.020882033
83	0xbc3e33ee	-0.011609061
84	0xbd7be26d	-0.061495233
85	0xbd2bac59	-0.04191241
86	0xbd89d003	-0.06729128
87	0x3dc05d91	0.093928464
88	0x3d7ded5f	0.061993953
89	0x3d1a70e1	0.037705306
90	0xbdac49ae	-0.08412491
91	0x3db0155b	0.08597823
92	0x3d108052	0.035278626
93	0x3d9fbf52	0.07800163
94	0xbd2dac77	-0.042400803
95	0x3ccc749b	0.024957946
96	0x3de4b6c5	0.11167673
97	0x3d9e7ee8	0.07739049
98	0x3db6dace	0.089284524
99	0xbcb3766f	-0.02190706
100	0x3dafcbc8	0.0858379
101	0xbdad8cc9	-0.08474118
102	0x3c514862	0.012773605
103	0xbd76f6b1	-0.060293857
104	0xbccdaf19	-0.025107907
105	0xbcd3cb1c	-0.025853686
106	0x3c33ea6a	0.010981182
107	0x3dd05d48	0.10174042
108	0x3d66d6e8	0.056357294
109	0x3abe9a89	0.0014541905
110	0x3daa72e4	0.08322695
111	0xbd518d58	-0.051160187
112	0x3d7a34bf	0.06108546
113	0xbc26878d	-0.010164154
114	0xbc96b160	-0.018395126
115	0x3c6d38a5	0.014478837
116	0xbdad64bf	-0.084664814
117	0x3c5d9bf1	0.013525949
118	0x3d1ea7a9	0.038734112
119	0x3dcb8342	0.09937145
120	0xbce61cb3	-0.028089857
121	0x3d374f4a	0.04475335
122	0x3de49e5f	0.111630194
123	0xbd40789d	-0.046990026
124	0x3dda7c13	0.106681965
125	0xbd5fdd06	-0.054654144
126	0x3d48e9e1	0.04905117
127	0x3d3208bb	0.043465357
128	0x3d07211a	0.032990552
129	0x3dbc83c6	0.09204821
130	0xbd277c84	-0.04089023
131	0x3cfc34e1	0.030786933
132	0x3b1a010e	0.0023499164
133	0xbda82835	-0.08210794
134	0xbcd77979	-0.02630304
135	0xbd992733	-0.0747818
136	0x3d41f801	0.047355656
137	0x3c0aa829	0.008462944
138	0x3c2e24ad	0.010628861
139	0xbd0793b5	-0.03309985
140	0x3a8f21b2	0.0010920076
141	0xbd08173a	-0.033225276
142	0x3d056de5	0.032575507
143	0x3ddc5654	0.10758653
144	0x3c8057d0	0.015666872
145	0xbd552e3c	-0.052046046
146	0xbd92b362	-0.07163121
147	0x3ba15ea4	0.004924612
148	0xbdae8c2a	-0.08522828
149	0xbdae8316	-0.085210964
150	0xbd94f5bb	-0.07273432
151	0xbd1e9a1f	-0.0387212
152	0x3bd7bab8	0.006583538
153	0x3d9d2889	0.07673747
154	0x3d2c2c78	0.042034596
155	0x3daac0d4	0.0833756
156	0xbd9269f2	-0.07149114
157	0x3c02717b	0.007961626
158	0xbdcbd28e	-0.099522695
159	0x3d82f3fd	0.06394193
160	0x3cba4d70	0.022742003
161	0x3dda631e	0.10663436
162	0xbda1d34e	-0.07901631
163	0x3db67c03	0.08910372
164	0x3dc01815	0.09379593
165	0x3db7f9ef	0.08983218
166	0x3c81bfef	0.015838591
167	0x3dceeb9a	0.10103531
168	0x3d97f798	0.07420272
169	0x3da9c46d	0.08289418
170	0xbbed58db	-0.0072432584
171	0xbdae9ec1	-0.08526374
172	0xbab92395	-0.0014124984
173	0x3caa4c13	0.020788228
174	0xbd9b0307	-0.07568937
175	0xbd828856	-0.0637366
176	0xbdda29ad	-0.1065248
177	0xbd1f9374	-0.03895898
178	0x3dc63729	0.0967849
179	0x3c9b81ba	0.018982757
180	0xbbde5086	-0.0067845015
181	0x3b9116bf	0.0044277604
182	0x3d8de165	0.06927756
183	0xbdc8f3d2	-0.0981213
184	0xbdaf9521	-0.08573366
185	0xbd17513a	-0.036942698
186	0xbd82f4b4	-0.0639433
187	0x3d6ac13f	0.0573132
188	0x3da0cdd2	0.07851757
189	0xbddcc97f	-0.1078062
190	0xbdc121a5	-0.09430245
191	0xbddd9b89	-0.108206816
192	0x3d2ba2a0	0.04190314
193	0x3db72515	0.0894262
194	0xbdb06f98	-0.08615035
195	0xbd52b102	-0.05143834
196	0x3d10dfac	0.03536956
197	0xbd9490fe	-0.072542176
198	0x3dc14a50	0.09438002
199	0x3cd3e717	0.025867028
200	0xbcfdd802	-0.03098679
201	0x3beaa6ac	0.007160982
202	0x3d0dd2bd	0.034624804
203	0xbd20fd80	-0.039304256
204	0xbdb05425	-0.08609799
205	0x3a40f0a2	0.0007360076
206	0x3b04da3b	0.0020271677
207	0x3b125353	0.0022327497
208	0xbc853895	-0.016262332
209	0x3d9212db	0.07132503
210	0xbcfe8eb9	-0.031073915
211	0xbc315db8	-0.010825567
212	0x3d3b09cb	0.045663636
213	0xbd8f3f6e	-0.0699452
214	0x3cf372cb	0.029717823
215	0xbcc97323	-0.024591034
216	0x3d5a4ae5	0.05329408
217	0xbd76e68c	-0.06027846
218	0x3b863513	0.0040956824
219	0x3c31f1ec	0.010860901
220	0xbdb71784	-0.08940032
221	0xbda57767	-0.08079415
222	0x3d2e87f2	0.042610116
223	0xbd04768a	-0.03233961
224	0x3d87252e	0.06598888
225	0xbde0cafc	-0.10976216
226	0xbd60f8b8	-0.054924697
227	0xbdbb6dd6	-0.09151809
228	0x3d35cdf7	0.044385877
229	0xbb52fb60	-0.0032193288
230	0xbca9c12d	-0.020721996
231	0xbc976892	-0.01848248
232	0xbdb1de45	-0.08684973
233	0x3d011490	0.03151375
234	0x3b35ea77	0.002775816
235	0xbd9d09bc	-0.07667872
236	0x3d2b417f	0.04181051
237	0xbb12a18b	-0.002237412
238	0xbddc1454	-0.10746065
239	0x3d74d193	0.059770178
240	0x3d737072	0.059433408
241	0xbcab74aa	-0.020929653
242	0xbd9d1cbc	-0.07671496
243	0x3b8223c6	0.0039715497
244	0x3da889c2	0.082294
245	0x3dce2782	0.10066129
246	0xbda982f6	-0.08276932
247	0xbd482465	-0.048862834
248	0x3db1f414	0.08689132
249	0x3d5ca010	0.053863585
250	0x3d8a51ec	0.067539066
251	0xbd6b5fd2	-0.05746443
252	0x3dc4afd7	0.09603851
253	0xbdbc3009	-0.091888495
254	0xbbb9a20b	-0.005665069
255	0x3b6fec71	0.0036609436

conv1.bias f4 [64]
0	0xbc60f667	-0.013730622
1	0xbd884c47	-0.06655174
2	0xbb9b5863	-0.004740761
3	0xbd829184	-0.06375411
4	0x3d08a196	0.033357225
5	0xbcce8c30	-0.025213331
6	0x3d800a0e	0.06251918
7	0x3d64ae58	0.05583033
8	0x3de02223	0.10944011
9	0xbd94f2e4	-0.0727289
10	0xbb7deb25	-0.0038744893
11	0x3ad655a4	0.0016352427
12	0xbd941b40	-0.0723176
13	0x3dc6d5a7	0.0970872
14	0x3d839a08	0.064258635
15	0x3d8f190b	0.069871984
16	0xbd13d52b	-0.036091965
17	0xbd57067a	-0.05249641
18	0x3d8744e7	0.06604939
19	0x3c852e7b	0.016257515
20	0x3c74a3e2	0.014931651
21	0xbcaf4bb2	-0.021398399
22	0xbdd2fa23	-0.10301616
23	0x3d844bdb	0.06459781
24	0xbd410497	-0.047123518
25	0x3d7db146	0.06193664
26	0xbce224d6	-0.027605455
27	0xbbe64d1e	-0.007028236
28	0x3cf1b036	0.02950297
29	0x3d0b9925	0.034081597
30	0x3dfa7fe4	0.122314245
31	0xbd2809a7	-0.04102483
32	0x3d216ed8	0.03941235
33	0x3d30b0b0	0.043137252
34	0xbc87293a	-0.01649915
35	0xbdbb9b15	-0.09160439
36	0xbc8a797d	-0.016903633
37	0x3d9b52f4	0.075841814
38	0xbdc114af	-0.09427773
39	0x3c53356d	0.012891156
40	0xbd685bad	-0.056728054
41	0xbd62659e	-0.05527269
42	0x3dbd9407	0.092567496
43	0x3b18232e	0.0023214328
44	0x3d11691d	0.035500634
45	0x3c88ab31	0.016683193
46	0xbda29995	-0.0793945
47	0xbde37b1e	-0.11107467
48	0xbd8f46a6	-0.06995897
49	0xbbea9a80	-0.007159531
50	0xbd437df3	-0.047727536
51	0xbcbdc306	-0.023164283
52	0x3d1656f0	0.036704004
53	0xbbdce0b6	-0.006740655
54	0x3bfe22b3	0.0077556013
55	0xbd5f6037	-0.054535117
56	0x3d9b4d47	0.07583099
57	0xbd5e50b7	-0.054276194
58	0xbbd5fd1b	-0.0065304167
59	0x3dc40084	0.09570411
60	0x3dd3ed2c	0.10347971
61	0xbd709aef	-0.058741506
62	0xbdca5812	-0.09880079
63	0xbd9ef1dd	-0.077609755

conv2.weight f4 [32, 64, 5, 5]
0	0x3ba178c9	0.004927729
1	0x3c285c78	0.0102759525
2	0xbc3d4fa3	-0.011554631
3	0xbca3abbb	-0.019979348
4	0xbba37faa	-0.004989584
5	0xbbce7327	-0.0063003483
6	0xbc82482b	-0.015903553
7	0xbcc33f9e	-0.023834046
8	0xbc8ea8f0	-0.01741454
9	0xba8922e3	-0.0010462668
10	0x3c5c2dc1	0.013438643
11	0xbc9b4be0	-0.018957078
12	0xbc1c4181	-0.009537102
13	0xbc9edda7	-0.019392801
14	0x3c3e71ab	0.01162378
15	0xbaf464a2	-0.0018645714
16	0x3c81552d	0.015787685
17	0x3b3a86da	0.0028461725
18	0xbba73cfa	-0.0051037045
19	0x3cb03156	0.0215079
20	0x3c8501a0	0.016236126
21	0x3cbf9d71	0.023390504
22	0xbc8f8a04	-0.017521866
23	0x3c3b85b1	0.011445449
24	0xbc833a5a	-0.016019035
25	0xbc806366	-0.015672397
26	0x3c96fb7e	0.018430468
27	0x3c34cc17	0.011034987
28	0xbc6e5ef3	-0.014549005
29	0xbc88c596	-0.016695779
30	0xbc5b3d0c	-0.013381254
31	0x3c9b53d7	0.018960876
32	0x3c084baf	0.008318826
33	0x3a870847	0.001030215
34	0xbc8d3834	-0.017238714
35	0x3bfdce0a	0.007745509
36	0xbbbb29ae	-0.0057117557
37	0x3c707d28	0.014678277
38	0x3bba122f	0.005678437
39	0x3c345c8b	0.011008392
40	0xbc0ccd35	-0.008593847
41	0xba13abec	-0.00056332233
42	0xbc649dce	-0.013953639
43	0x3bb2a75e	0.0054520806
44	0xbb1442e6	-0.0022622882
45	0xbcb21125	-0.02173669
46	0x3c5ad464	0.013356302
47	0x3c1de88d	0.009637964
48	0x3c6a4a5e	0.014299957
49	0x3c2adacb	0.010428141
50	0x3b1e9e67	0.0024203302
51	0x3c91a41b	0.017778447
52	0xbcb1926f	-0.02167627
53	0x3be205fa	0.006897685
54	0x3ca315c3	0.019907838
55	0xbb8af15c	-0.004240198
56	0x3c9e5f31	0.0193325
57	0x3c29e098	0.010368489
58	0x3cad536c	0.021157943
59	0x3cafaa54	0.021443523
60	0x3c3acfb3	0.011402058
61	0x3b130c5b	0.0022437784
62	0xbcade579	-0.021227585
63	0xbc1581a0	-0.009125143
64	0xbcb62625	-0.022234986
65	0xbb833c34	-0.0040049795
66	0x3c78986a	0.015173057
67	0x3c5dcd2b	0.013537685
68	0x3af323f2	0.0018550141
69	0xbcc5a904	-0.024128444
70	0x3c5a402f	0.013320967
71	0x3c189108	0.009311922
72	0xbc5028aa	-0.012705008
73	0xbcbbeb05	-0.022939214
74	0xbc636c5a	-0.0138808135
75	0x3c08f097	0.008358142
76	0xbc5d7cfd	-0.013518569
77	0xbc8e4f32	-0.017371748
78	0xbca35833	-0.019939518
79	0xbc758381	-0.014984966
80	0xbb816c91	-0.0039497097
81	0x3c96d1e8	0.018410638
82	0xbc7cd45b	-0.015431489
83	0xbcb5a4ce	-0.022173312
84	0x3ca78657	0.0204498
85	0x3c5d998e	0.01352538
86	0x3c00c175	0.007858624
87	0xbc88c9fe	-0.01669788
88	0x3c8ecadd	0.017430717
89	0x3c25899b	0.0101036085
90	0x3b6d8f01	0.0036248567
91	0x3c973572	0.018458102
92	0x3bf258f1	0.0073958565
93	0x3c7e7394	0.015530486
94	0xbbf2c70c	-0.007408982
95	0x3c7ca263	0.015419575
96	0xbc460cb8	-0.012087993
97	0x3bca7c1e	0.0061793467
98	0xbc7e7630	-0.015531108
99	0xbcbc6c47	-0.02300085
100	0xbcabd734	-0.02097664
101	0xbc97c926	-0.018528532
102	0x3c5c6264	0.0134511925
103	0x3cc55639	0.024088966
104	0x3c77d3fb	0.015126224
105	0xba4cef8a	-0.00078176765
106	0xba05d559	-0.00051053386
107	0x3b4f13b2	0.0031597433
108	0x3cc1e15d	0.023667032
109	0x3c54146c	0.012944322
110	0xbc7b5779	-0.015340679
111	0xbc67e516	-0.014153739
112	0x3ca415eb	0.020029983
113	0x3c582825	0.013193165
114	0xbcc98ea2	-0.024604145
115	0xbcab123b	-0.020882716
116	0x3c4fe4d0	0.0126888305
117	0xbc484573	-0.012223589
118	0x3c984a21	0.018590035
119	0x3c8337d5	0.016017834
120	0xbca2d6cd	-0.019877816
121	0x3bb8c9e8	0.0056393035
122	0xbb90b509	-0.0044161123
123	0xbcc7e38b	-0.024400493
124	0x3bf68349	0.0075229746
125	0x3b366b33	0.0027834892
126	0x3b97fd18	0.0046383254
127	0xbca5ae2f	-0.020224659
128	0xbbb4db6a	-0.0055193203
129	0xbb95d31f	-0.0045722867
130	0xbcb19a10	-0.021679908
131	0x3c9f11a7	0.019417597
132	0xbbe1852d	-0.006882331
133	0x3c41a8cf	0.011820032
134	0xbbda0e89	-0.0066545648
135	0xbc9fcadf	-0.019505916
136	0xbbdad5ff	-0.0066783424
137	0x3b9bd4da	0.0047555985
138	0x3ca22f5e	0.019797977
139	0x3b80236c	0.0039104726
140	0x3c8bc2fb	0.017060747
141	0x3c415290	0.01179947
142	0xbc8c6905	-0.017139921
143	0x3a552d26	0.0008132033
144	0x3cb5be0a	0.022185344
145	0xbbf72e6a	-0.007543375
146	0x3c335165	0.010944699
147	0x3cb42230	0.021988958
148	0xbab2b9f9	-0.0013635746
149	0xbc1402bd	-0.009033856
150	0xbc6eae5d	-0.014567939
151	0xbab10391	-0.0013505091
152	0xbc855a93	-0.01627854
153	0x3ccc68d0	0.024952322
154	0xbcac6948	-0.021046296
155	0x3caf6865	0.021412084
156	0x3c844900	0.01614809
157	0xbcb543b5	-0.022127012
158	0xbc7bbe44	-0.015365187
159	0x3cb9ff39	0.022704707
160	0xbb6ad089	-0.0035829863
161	0xbc929b40	-0.017896295
162	0x39ce0e84	0.00039302197
163	0xbbd47c48	-0.006484542
164	0x3b2203f9	0.0024721606
165	0x3c19dffe	0.009391783
166	0xbcb0729f	-0.02153903
167	0xbc58cade	-0.013231961
168	0xbaa63458	-0.0012680395
169	0x3cb95684	0.022624262
170	0xbca03941	-0.01955855
171	0xbc608c06	-0.013705259
172	0x3c5d4689	0.013505586
173	0x3cbc868e	0.02301338
174	0x3b116a17	0.0022188479
175	0x39e5b521	0.00043813235
176	0x3c37684c	0.0111943
177	0xbba0aaed	-0.0049031884
178	0x3c72ae1a	0.014812017
179	0x3ccb17f5	0.024791697
180	0x3c9295b5	0.017893652
181	0xbcc9cf5a	-0.024635006
182	0x3c9dbfc9	0.01925649
183	0x3cc0aaec	0.023519002
184	0x3c292f55	0.010326226
185	0xbc065af7	-0.008200399
186	0xbb5ca708	-0.0033668894
187	0xbc87e722	-0.016589705
188	0xbb88ce85	-0.0041750097
189	0x3c822503	0.01588679
190	0xbbdd5f12	-0.006755718
191	0xbb807900	-0.0039206743
192	0xbb936149	-0.0044976813
193	0xb9601646	-0.00021370602
194	0x3b58972d	0.0033049092
195	0xbb76bb0b	-0.0037648107
196	0xbcc9dff9	-0.024642931
197	0xbc083842	-0.008314194
198	0xbc54f626	-0.0129981395
199	0xbc17932b	-0.009251396
200	0xbc4cf750	-0.012510136
201	0xbc903b6f	-0.017606465
202	0xbca5c5fc	-0.020236008
203	0xbc123a79	-0.008925074
204	0x3b6c4f95	0.0036058177
205	0x3cc97ba2	0.024595086
206	0x3b139b32	0.0022522924
207	0x3b0d833a	0.002159311
208	0x3c4836d5	0.012220104
209	0x3bb7c968	0.0056087263
210	0xbca44cf4	-0.020056225
211	0xbcc7bce4	-0.024382062
212	0xbc7cc30a	-0.01542736
213	0xbbaa2644	-0.00519255
214	0xbc89f9a5	-0.016842673
215	0x3c985de3	0.018599456
216	0xbc0123f9	-0.007882112
217	0xbc40a20f	-0.011757388
218	0xbc913415	-0.01772503
219	0xbc33bba9	-0.010970035
220	0xbc9a0cfb	-0.018805018
221	0x3cab349b	0.020899108
222	0x3bd9ba8b	0.006644552
223	0xbcb052f6	-0.021523934
224	0x3cc84330	0.0244461
225	0xbb9ed5c2	-0.0048472593
226	0x3c0a45d2	0.008439498
227	0xbb7bab5b	-0.0038401696
228	0xbb93de5f	-0.0045125927
229	0x3c63f7d1	0.0139140645
230	0x3cb202a4	0.021729775
231	0x3c18bc9f	0.0093223145
232	0x3cc8a14b	0.024490973
233	0x3cc3b81d	0.023891503
234	0xbac7f56f	-0.001525564
235	0xbb20582d	-0.002446662
236	0xbb046567	-0.0020202042
237	0xbbbc97c2	-0.0057553956
238	0xbc18def8	-0.009330504
239	0xbca9bea4	-0.020720787
240	0xbcc51e73	-0.02406237
241	0xbc237f12	-0.009979026
242	0xbc1e43cd	-0.00965972
243	0xbcc7fe3e	-0.024413224
244	0xbbb5acc8	-0.005544279
245	0x3c84edb1	0.016226621
246	0xbb7527df	-0.0037407798
247	0xbc360d71	-0.011111603
248	0xba07ae35	-0.00051758
249	0x3c869b3c	0.016431443
250	0xbc37cbc0	-0.011218011
251	0xbc28e774	-0.010309089
252	0xbacaa037	-0.0015459125
253	0xba6a5270	-0.0008938676
254	0x3cbd9268	0.023141101
255	0xbcb39fa2	-0.021926705

conv2.bias f4 [32]
0	0xbc2cd4e1	-0.010548801
1	0xbcc758c0	-0.024334311
2	0xbb8241c6	-0.003975126
3	0x3c751e7f	0.014960884
4	0x3cdbab44	0.026815064
5	0x3cabc502	0.020967964
6	0xbc6ec3db	-0.014573063
7	0x3d18594b	0.03719453
8	0x3b4c2dd1	0.0031155238
9	0xbc3863a8	-0.011254229
10	0xbbedd4da	-0.00725804
11	0x3b808bc8	0.003922913
12	0x3d00b436	0.031421863
13	0x3cdc4f98	0.026893422
14	0xbbafffae	-0.0053710556
15	0xbc1d5ba5	-0.009604369
16	0xbc818bbf	-0.015813706
17	0xbc92173b	-0.017833343
18	0x3ccf9de3	0.025343841
19	0x3cd4945c	0.02594965
20	0x3aa415d2	0.001251871
21	0x3aa77ece	0.001277888
22	0xbb852585	-0.0040633106
23	0x39033998	0.00012514589
24	0x3c427b47	0.011870212
25	0xbc2dd289	-0.0106092775
26	0x3c69d8c8	0.014272876
27	0x3ce7426d	0.028229916
28	0x3bade97e	0.0053073755
29	0xbc88a847	-0.016681803
30	0xbbcc368f	-0.00623209
31	0xbbc14695	-0.0058983066

conv3.weight f4 [1, 32, 5, 5]
0	0x3c9be44d	0.01902976
1	0x3c943805	0.018093118
2	0xbafa2e03	-0.0019087199
3	0x3cc78a04	0.024357803
4	0x3cf7707c	0.030205004
5	0xbceff2f8	-0.029290661
6	0x3ac2fcfd	0.0014876422
7	0xbd0af870	-0.033928335
8	0x3b88c792	0.0041741813
9	0x3c279897	0.010229251
10	0xbb12efaa	-0.0022420683
11	0x3ce6496c	0.028111182
12	0x3c4ca3e9	0.012490251
13	0xbcf20a1b	-0.029545834
14	0xbb40ff9f	-0.0029449237
15	0xbc7c8c7b	-0.0154143525
16	0xbce7755f	-0.02825421
17	0x3964ce15	0.00021820546
18	0xbd0117db	-0.03151689
19	0x3cc0bf4f	0.023528723
20	0x3b955c9d	0.0045581595
21	0x3c5143fc	0.012772556
22	0x3ca274b3	0.019831037
23	0x3ce3f14d	0.027825022
24	0xbc8e12b9	-0.017342912
25	0x3ba63bfa	0.0050730677
26	0xbcf2d14c	-0.029640816
27	0x3c29c4e6	0.010361886
28	0x3cd98bca	0.026555914
29	0xbcb1e73d	-0.021716708
30	0x3cc07be3	0.023496574
31	0xbc42fc8d	-0.011901033
32	0x3c629d0b	0.013831387
33	0xbc69fd62	-0.014281603
34	0x3c0297fd	0.007970807
35	0xbcf2b902	-0.029629234
36	0x3d03e43c	0.032200083
37	0xbb2455b0	-0.0025075488
38	0x3d1262b9	0.03573868
39	0xbc1c7f58	-0.0095518455
40	0x3c8b43e2	0.017000142
41	0xbc5c55f7	-0.01344823
42	0xbc3b2355	-0.011421998
43	0xbbf43e88	-0.0074537434
44	0x3c9b35d4	0.018946566
45	0x3c80dade	0.015729364
46	0x3cbfe50c	0.023424648
47	0xbb4c7422	-0.003119715
48	0x3bb82dca	0.005620693
49	0x3cc2da89	0.023785846
50	0xbc639dc7	-0.0138925975
51	0xbc3f7b56	-0.01168712
52	0x3cdc00d7	0.02685587
53	0xbcf4bbeb	-0.029874763
54	0xbc8cbf1d	-0.017180974
55	0xbca11a2e	-0.019665804
56	0xbbf3948b	-0.007433479
57	0xbcd4be3a	-0.025969613
58	0x3c062b08	0.00818897
59	0xbccad4fc	-0.024759762
60	0xbc7f3744	-0.015577141
61	0xbd0d074f	-0.0344308
62	0x3cc20574	0.02368424
63	0xbcb1e6ec	-0.021716557
64	0xbb8d3d08	-0.004310254
65	0xbcad60ac	-0.02116426
66	0xbba04aca	-0.004891728
67	0xbbdbe06f	-0.006710104
68	0xbc3d2e62	-0.011546703
69	0xba1839bd	-0.00058069435
70	0x3c753eec	0.014968615
71	0x3cedf649	0.029048102
72	0x3cd6bfdf	0.026214538
73	0xbcd7427b	-0.026276818
74	0xbb888d02	-0.0041672
75	0xbce16efd	-0.027518744
76	0x3c95cb76	0.018285494
77	0x3cc948d7	0.024570866
78	0x3c1ee473	0.009698021
79	0x3c413df1	0.011794553
80	0x3d0fac89	0.03507665
81	0xbb68d6ca	-0.0035528415
82	0xbcf75613	-0.03019241
83	0xbc881fae	-0.016616669
84	0xbc2bdce7	-0.010489679
85	0x3c8917f6	0.016735058
86	0x3a58c4ee	0.0008269091
87	0x3ce456d1	0.027873429
88	0x3ca13dfa	0.019682873
89	0xbc276925	-0.0102179395
90	0xbc169be3	-0.00919244
91	0xbc42a08c	-0.011879098
92	0xbd029c33	-0.031887244
93	0xbc390920	-0.0112936795
94	0xbc86ccc6	-0.016455065
95	0xbbde00a0	-0.006774977
96	0xbc006159	-0.0078357095
97	0xbc59319f	-0.0132564595
98	0xbc8589da	-0.016301084
99	0x3bbbae7f	0.0057275887
100	0x3bcf9c97	0.0063358056
101	0x3c2db818	0.010602973
102	0x3c9d900a	0.019233722
103	0xb9f332fc	-0.00046386558
104	0x3ba71c6c	0.0050998237
105	0xbbcd47dc	-0.00626467
106	0x3d130a98	0.035898775
107	0x3bd59314	0.006517777
108	0x3cf0b518	0.029383227
109	0xbc95c92e	-0.018284407
110	0xbcc4c6b9	-0.02402054
111	0x3c3065d6	0.010766467
112	0xbcbe029f	-0.02319461
113	0x3cda75fa	0.026667584
114	0x3cc8057c	0.024416678
115	0x3d05a587	0.032628562
116	0x3d1a110b	0.03761391
117	0x3c9643ca	0.018342871
118	0x3c9468c6	0.018116366
119	0xbaee9499	-0.0018202245
120	0x3d0e1da4	0.034696236
121	0x3c9a1bfe	0.018812176
122	0xbb868664	-0.004105376
123	0xbcf7a08a	-0.030227918
124	0x3bd61e97	0.0065344083
125	0x3bce90c9	0.006303881
126	0x3ce3aa1f	0.027791081
127	0x3cb96995	0.022633353
128	0x3d07f232	0.03318996
129	0x3bb9c6c3	0.005669446
130	0x3c4d1648	0.012517519
131	0xbce7093e	-0.02820265
132	0x3b9c7c3b	0.0047755516
133	0x3c0ef89b	0.008726264
134	0xbca09a04	-0.01960469
135	0xbc8b1e40	-0.016982198
136	0x3c7483d1	0.014924006
137	0xbca5fb2d	-0.020261372
138	0xbc5a1e2b	-0.013312857
139	0x3cd02dde	0.025412496
140	0x3cdab7d4	0.026698984
141	0xbcfd4b5f	-0.030919729
142	0xbd05f821	-0.032707337
143	0x3cb1ed6e	0.02171966
144	0xbc3297e2	-0.0109004695
145	0x3b2b2b2e	0.0026118266
146	0xbccbb513	-0.024866616
147	0xbc813100	-0.015770435
148	0x3cddf33e	0.027093526
149	0xbcb3f134	-0.0219656
150	0x3c527f7d	0.012847778
151	0x3abce32b	0.0014410963
152	0x3c32d029	0.010913887
153	0x3ac95323	0.001535986
154	0xbbf6f219	-0.0075361845
155	0x3c4cf22e	0.012508912
156	0x3c1ed0b2	0.0096933115
157	0xbb560548	-0.0032656956
158	0x3cc1f5fb	0.023676863
159	0x3d00adef	0.031415876
160	0x3c9742c8	0.018464461
161	0xbc22b554	-0.009930927
162	0xbcd1b0e8	-0.02559705
163	0xbcc3e1bf	-0.023911355
164	0xbc8cba7d	-0.017178768
165	0xbb3bd63d	-0.0028661632
166	0x3c941809	0.018077867
167	0x3c1cbd15	0.009566565
168	0x3d0121f5	0.031526525
169	0xbd0afcf9	-0.03393266
170	0xbc9f6e88	-0.019461885
171	0x3d0537dd	0.03252398
172	0xbcceda29	-0.025250511
173	0x3cb8c8b2	0.022556636
174	0x3accf5e9	0.0015637252
175	0xbb058fe4	-0.0020379955
176	0x3ced33de	0.028955396
177	0x3d1eeafb	0.038798314
178	0xbc1eb2ec	-0.009686213
179	0x3aa54ff9	0.0012612335
180	0x3d0e3dcd	0.034726907
181	0x3d0b0149	0.033936772
182	0x3ce079ef	0.027401892
183	0xbc79ad0c	-0.0152390115
184	0xbca1da3a	-0.019757379
185	0x3d091a55	0.033472378
186	0x3d022f69	0.031783495
187	0x3c896040	0.016769528
188	0x3d40ec54	0.04710038
189	0x3d0de74d	0.034644414
190	0xbbb331b4	-0.0054685716
191	0x3c9f1f78	0.019424185
192	0x3d3e601a	0.04647837
193	0x3cd79eb0	0.026320785
194	0xbc5a39a1	-0.013319404
195	0xbd0ff85c	-0.035148963
196	0x3c1d5941	0.009603799
197	0x3ca1ee05	0.019766817
198	0xbd05bb6b	-0.03264944
199	0x3be1b05a	0.006887478
200	0xbcb2c427	-0.021822048
201	0x3c6bd431	0.014393852
202	0xbc88bcca	-0.016691584
203	0xbcda531e	-0.026650961
204	0x3d0bd3ab	0.03413741
205	0x3cad27fd	0.021137232
206	0xbc664576	-0.014054647
207	0xbccbafc5	-0.024864087
208	0x3cc64875	0.024204472
209	0xbcb3b96c	-0.021939002
210	0xbc2b8e6d	-0.010470969
211	0xbc7ccd23	-0.015429768
212	0x3c3a5cc2	0.011374654
213	0xbaeccc49	-0.0018066253
214	0x3c5b4a00	0.013384342
215	0xbca25129	-0.01981409
216	0x3cd77038	0.026298627
217	0x3b9af454	0.004728833
218	0xbcc5866e	-0.024111953
219	0xbcd27312	-0.025689635
220	0x3cafc3cd	0.02145567
221	0xbc772fa7	-0.015087045
222	0x3c2b1822	0.010442765
223	0x3a96a05b	0.0011491881
224	0xbc85ae4e	-0.016318467
225	0x3d212d5a	0.03934989
226	0xbc357960	-0.011076301
227	0x3ca5c025	0.020233223
228	0x3ce78f1a	0.028266478
229	0x3c92cfad	0.017921293
230	0x3d127e7a	0.03576515
231	0xbccacdb8	-0.024756297
232	0x3bf68976	0.007523711
233	0x3b84bd18	0.004050862
234	0x3cbb2e4c	0.022849225
235	0xbc8b356f	-0.016993253
236	0xbccfd16e	-0.025368419
237	0xbcd91f0e	-0.026504066
238	0x3cdbccb5	0.02683101
239	0x3c656023	0.013999972
240	0xbd183bc6	-0.03716638
241	0xbc151bdb	-0.00910088
242	0xbcfefc96	-0.031126302
243	0xbcefb4df	-0.02926105
244	0x3cc3dd69	0.023909288
245	0xbc8f4243	-0.01748765
246	0x3c9616cd	0.01832142
247	0x3d0d672e	0.034522228
248	0x3c081d39	0.0083077485
249	0x3ca468ce	0.020069506
250	0xbcfc2b02	-0.030782226
251	0xbc74aca1	-0.014933736
252	0xbaeafd4a	-0.0017928269
253	0x3bfbbb8c	0.0076822694
254	0x3c6c24d5	0.014413078
255	0x3c9d823a	0.019227136
