outputs/x3/epoch_144.pth (torch, 231335 bytes, 5 tensors)

conv1.weight f4 [64, 1, 9, 9]
0	0xbd1610b5	-0.036637027
1	0x3c31a20f	0.01084186
2	0xbd421155	-0.04737981
3	0x3d473a91	0.048639838
4	0xbdb8ba67	-0.090199284
5	0x3dacaed8	0.08431786
6	0xbd9fbd96	-0.077998325
7	0xbdb0348b	-0.08603772
8	0xbd8dcbc0	-0.06923628
9	0x3d672d43	0.05643965
10	0xbd12514d	-0.035722066
11	0x3d4a004d	0.049316693
12	0xbdb12c91	-0.086510785
13	0xbd7e9d23	-0.062161576
14	0xbd1e70d1	-0.03868181
15	0xbca6d2cc	-0.020364188
16	0xbdab0d44	-0.083521396
17	0x3d94dd0f	0.07268726
18	0xbca04a6b	-0.019566735
19	0x3d2e839f	0.042605992
20	0x3db962ea	0.090520695
21	0x3d130881	0.03589678
22	0x3d376364	0.04477252
23	0x3deee73e	0.116652
24	0xbd32fe0a	-0.0436993
25	0x3d22537a	0.03963039
26	0xbd43243f	-0.04764199
27	0x3db1bc61	0.086785085
28	0x3dc5eacd	0.09663925
29	0xbdb463e6	-0.088081166
30	0x3dec3dd2	0.11535229
31	0x3d9a2c33	0.075279616
32	0x3d85a8cf	0.06526338
33	0x3d6edd1b	0.05831633
34	0x3dcdeb3e	0.100546345
35	0xbc35dd9d	-0.0111002
36	0xbdb1bf4d	-0.08679066
37	0xbccd016b	-0.02502509
38	0xbd873668	-0.06602174
39	0x3cd29a0b	0.025708219
40	0x3a43c8cb	0.000746858
41	0xbd2ab7be	-0.041679136
42	0x3b8a9941	0.004229695
43	0x3deab09f	0.11459469
44	0xbba96cce	-0.005170441
45	0x3c49070f	0.012269749
46	0xbc2d215e	-0.010567037
47	0x3cd82c52	0.026388321
48	0x3de1ee48	0.11031777
49	0x3da668dc	0.08125469
50	0x3d52ea37	0.051492896
51	0x3d1050e1	0.035233382
52	0x3d0aad74	0.033856824
53	0x3d3cd20a	0.046098746
54	0xbb98c849	-0.0046625477
55	0xbdc5ff61	-0.0966785
56	0xbd7ea466	-0.0621685
57	0x3dcf0c25	0.10109738
58	0x3c527456	0.012845119
59	0xbdacb2c4	-0.08432534
60	0x3cc2e6d8	0.023791716
61	0x3dc607c0	0.09669447
62	0xbdd17527	-0.10227423
63	0xbd850150	-0.06494391
64	0xbd195ede	-0.037443988
65	0x3c3203d6	0.010865172
66	0xbca69d9a	-0.020338822
67	0xbc01aa68	-0.007914163
68	0xbdd73001	-0.10507203
69	0x3d646390	0.055759013
70	0x3dced050	0.10098326
71	0x3d9140e7	0.07092457
72	0xbd8d4dcd	-0.06899605
73	0xbda8f84a	-0.082504824
74	0x3d58ae34	0.052900508
75	0x3c10008f	0.008789196
76	0x3d4fab00	0.050700188
77	0xbdd6b0c9	-0.10482938
78	0xbb54e883	-0.003248722
79	0x3da6ab14	0.08138099
80	0x3d5f579b	0.054526906
81	0x3b982b8e	0.004643864
82	0x3caeb274	0.021325327
83	0xbc3b13af	-0.011418267
84	0xbd7bbfd7	-0.06146225
85	0xbd2b7d59	-0.041867588
86	0xbd8933e2	-0.06699349
87	0x3dc19b67	0.09453469
88	0x3d801287	0.06253534
89	0x3d1ac8a8	0.037789017
90	0xbdabaec0	-0.0838294
91	0x3db03ef2	0.08605756
92	0x3d0f9239	0.03505156
93	0x3d9efc2d	0.077629425
94	0xbd2eeac2	-0.04270435
95	0x3ccd9314	0.025094546
96	0x3de67276	0.112523004
97	0x3da058d8	0.078294456
98	0x3db72ecd	0.089444734
99	0xbcb3e66e	-0.021960463
100	0x3daf2e89	0.08553798
101	0xbdae4421	-0.08509088
102	0x3c4c955b	0.012486781
103	0xbd7896bb	-0.060690623
104	0xbcd0a7e2	-0.025470678
105	0xbccff031	-0.025383087
106	0x3c410963	0.011782023
107	0x3dd0d253	0.10196366
108	0x3d65e66f	0.05612796
109	0x3a960bae	0.0011447573
110	0x3daad55a	0.08341475
111	0xbd4eeee1	-0.05052078
112	0x3d7b5ba7	0.061366703
113	0xbc307d3c	-0.010772046
114	0xbc98cc77	-0.018652184
115	0x3c7132a8	0.01472155
116	0xbdad09a6	-0.08449106
117	0x3c59c633	0.013291883
118	0x3d1da5b9	0.038488124
119	0x3dcca2e3	0.09992006
120	0xbcdb122d	-0.026742065
121	0x3d3bbf08	0.04583648
122	0x3de426fa	0.11140247
123	0xbd4225a2	-0.04739917
124	0x3dda5574	0.1066083
125	0xbd5f75ae	-0.054555587
126	0x3d4911fc	0.049089417
127	0x3d311d15	0.043240625
128	0x3d079f57	0.033110943
129	0x3dbe16b5	0.09281675
130	0xbd2376c7	-0.039908197
131	0x3cfe97c5	0.031078229
132	0x3b1f9b5c	0.0024354076
133	0xbda7ce7d	-0.081936814
134	0xbcd51ed4	-0.026015677
135	0xbd9814f4	-0.074258715
136	0x3d4241c9	0.04742602
137	0x3c06b440	0.008221686
138	0x3c2ae969	0.010431626
139	0xbd06d070	-0.032913625
140	0x3ac0047b	0.0014649773
141	0xbd061e47	-0.03274372
142	0x3d075205	0.033037204
143	0x3ddd545b	0.10807105
144	0x3c86780a	0.016414661
145	0xbd538bc1	-0.05164695
146	0xbd9315e1	-0.071819074
147	0x3b8c4b56	0.0042814417
148	0xbdaf9778	-0.08573812
149	0xbdae70eb	-0.08517631
150	0xbd942c52	-0.07235016
151	0xbd1ccfef	-0.03828424
152	0x3be93cf2	0.007117861
153	0x3d9e5434	0.07730904
154	0x3d2e62bd	0.042574633
155	0x3dab301f	0.08358788
156	0xbd92df00	-0.0717144
157	0x3bfb1dd7	0.0076634693
158	0xbdcbcffd	-0.0995178
159	0x3d835feb	0.06414779
160	0x3cbc0e27	0.022955967
161	0x3ddb1755	0.106978096
162	0xbda1d2a5	-0.079015054
163	0x3db67c0a	0.08910377
164	0x3dc0171d	0.093794085
165	0x3db7f90a	0.08983047
166	0x3c81bf29	0.015838223
167	0x3dceecde	0.101037726
168	0x3d97f8af	0.074204795
169	0x3da9c55a	0.08289595
170	0xbbed57ca	-0.0072431313
171	0xbdae9e00	-0.0852623
172	0xbab9f3fb	-0.0014187092
173	0x3caa2d8a	0.020773668
174	0xbd9b0399	-0.075690456
175	0xbd82884a	-0.06373651
176	0xbdda28f1	-0.1065234
177	0xbd1f8f21	-0.038954858
178	0x3dc638c7	0.09678798
179	0x3c9b8a94	0.018986978
180	0xbbde1b1b	-0.0067781336
181	0x3b90d71d	0.0044201748
182	0x3d8de12a	0.06927712
183	0xbdc8f417	-0.098121814
184	0xbdaf9562	-0.085734144
185	0xbd174e98	-0.036940187
186	0xbd82f3aa	-0.063941315
187	0x3d6acaca	0.0573223
188	0x3da0d027	0.07852202
189	0xbddcc981	-0.10780621
190	0xbdc121be	-0.09430264
191	0xbddd9bba	-0.10820718
192	0x3d2b9fff	0.04190063
193	0x3db724fa	0.089425996
194	0xbdb06fad	-0.086150505
195	0xbd52acb7	-0.051434245
196	0x3d10e9f1	0.035379354
197	0xbd948e53	-0.07253709
198	0x3dc149b8	0.09437889
199	0x3cd3d3f5	0.025857905
200	0xbcfdf6d4	-0.031001486
201	0x3bea0cf1	0.007142656
202	0x3d0dcf18	0.034621328
203	0xbd210081	-0.03930712
204	0xbdb0548e	-0.086098775
205	0x3a41b010	0.0007388601
206	0x3b05726d	0.0020362393
207	0x3b12b0a8	0.0022383127
208	0xbc854abd	-0.01627099
209	0x3d921184	0.07132247
210	0xbcfeb006	-0.031089794
211	0xbc31a810	-0.010843292
212	0x3d3b0653	0.045660328
213	0xbd8f4070	-0.06994712
214	0x3cf36d00	0.029715061
215	0xbcc96f4d	-0.024589205
216	0x3d5a4a7b	0.053293686
217	0xbd76e710	-0.060278952
218	0x3b864378	0.0040973984
219	0x3c31f107	0.010860688
220	0xbdb71785	-0.08940033
221	0xbda57768	-0.080794156
222	0x3d2e877f	0.042609688
223	0xbd0476db	-0.032339912
224	0x3d87252e	0.06598888
225	0xbde0cafc	-0.10976216
226	0xbd60f8b8	-0.054924697
227	0xbdbb6dd6	-0.09151809
228	0x3d35cdee	0.044385843
229	0xbb52ec0e	-0.0032184157
230	0xbca9c131	-0.020722004
231	0xbc9768a3	-0.018482512
232	0xbdb1de45	-0.08684973
233	0x3d01146c	0.031513616
234	0x3b35f79b	0.0027765993
235	0xbd9d09bc	-0.07667872
236	0x3d2b4172	0.04181046
237	0xbb12bb67	-0.0022389533
238	0xbddc1454	-0.10746065
239	0x3d74d193	0.059770178
240	0x3d737072	0.059433408
241	0xbcab74dc	-0.020929746
242	0xbd9d1cbc	-0.07671496
243	0x3b790c59	0.0038001745
244	0x3da85448	0.082192004
245	0x3dce2554	0.100657135
246	0xbda8df88	-0.0824576
247	0xbd45f032	-0.04832477
248	0x3db2c64d	0.08729229
249	0x3d5d7bd9	0.05407319
250	0x3d8a823d	0.06763122
251	0xbd6c9bb2	-0.05776567
252	0x3dc46bfe	0.095909104
253	0xbdbc3f9e	-0.091918215
254	0xbbbccf15	-0.005761991
255	0x3b6bba03	0.0035969026

conv1.bias f4 [64]
0	0xbc65906a	-0.014011482
1	0xbd86a5ff	-0.0657463
2	0xbb9b87f5	-0.004746432
3	0xbd7f07c5	-0.06226327
4	0x3d093b0e	0.033503585
5	0xbcc8d056	-0.024513405
6	0x3d80c153	0.06286874
7	0x3d626ca3	0.055279385
8	0x3dddd3d8	0.108314216
9	0xbd96589a	-0.07341118
10	0xbb43362d	-0.002978693
11	0x3b0b464a	0.0021251612
12	0xbd8d0325	-0.068853654
13	0x3dcb4402	0.09925081
14	0x3d80a2d1	0.06281055
15	0x3d8c9f7e	0.06866358
16	0xbd0a110f	-0.033707675
17	0xbd4fa2dd	-0.050692428
18	0x3d897a00	0.06712723
19	0x3c847056	0.016166847
20	0x3c7888a8	0.0151693
21	0xbcb05990	-0.021527082
22	0xbdd5ea03	-0.10445025
23	0x3d82f648	0.06394631
24	0xbd3c86aa	-0.046026863
25	0x3d750fe8	0.059829623
26	0xbce06ae1	-0.027394714
27	0xbb3ecac3	-0.0029112555
28	0x3cf54d7b	0.029944172
29	0x3d133ee3	0.035948645
30	0x3dfedb1d	0.12444136
31	0xbd2745f8	-0.04083821
32	0x3d1e5b1e	0.038661115
33	0x3d2e8e46	0.04261615
34	0xbc955a95	-0.01823167
35	0xbdb81268	-0.08987886
36	0xbc7f8cf5	-0.015597572
37	0x3d98ffa2	0.07470633
38	0xbdc115ac	-0.09427962
39	0x3c4a6a34	0.012354422
40	0xbd6725de	-0.056432597
41	0xbd62657f	-0.055272575
42	0x3dbe772e	0.093000755
43	0x3ad196c6	0.0015990369
44	0x3d142573	0.036168527
45	0x3c80d1b1	0.015724989
46	0xbda29894	-0.07939258
47	0xbde37b1e	-0.11107467
48	0xbd8f6411	-0.07001508
49	0xbbb0351b	-0.0053774244
50	0xbd4207b6	-0.047370635
51	0xbcc1a9d1	-0.023640545
52	0x3d129ee4	0.03579606
53	0xbbcbdecf	-0.006221629
54	0x3be860ca	0.0070916163
55	0xbd60169b	-0.05470906
56	0x3d9bdda8	0.07610637
57	0xbd5a8246	-0.053346895
58	0xbbce83b4	-0.0063023213
59	0x3dc932fa	0.09824176
60	0x3dd6b3c8	0.10483509
61	0xbd6f82af	-0.05847424
62	0xbdc9e524	-0.09858158
63	0xbd99e6a5	-0.07514695

conv2.weight f4 [32, 64, 5, 5]
0	0x3ba436d9	0.005011421
1	0x3c2a3956	0.0103896465
2	0xbc3ab8cd	-0.011396599
3	0xbca27702	-0.019832138
4	0xbb9f3efa	-0.0048598023
5	0xbbcdc762	-0.006279872
6	0xbc8199f5	-0.015820483
7	0xbcc266ba	-0.023730624
8	0xbc8e2747	-0.017352713
9	0xba7d5153	-0.00096633023
10	0x3c60bda0	0.013717085
11	0xbc98a158	-0.018631622
12	0xbc173715	-0.009229441
13	0xbc9c80d1	-0.019104393
14	0x3c4476f6	0.011991253
15	0xbabdcc04	-0.0014480357
16	0x3c84d484	0.016214617
17	0x3b52272e	0.003206681
18	0xbb9bb090	-0.0047512725
19	0x3cb3b0fc	0.021934979
20	0x3c88db39	0.016706096
21	0x3cc36d4a	0.023855824
22	0xbc8c3ad4	-0.017117895
23	0x3c41c3ff	0.011826514
24	0xbc7fad7c	-0.015605327
25	0xbc817805	-0.0158043
26	0x3c964dd6	0.018347662
27	0x3c33573c	0.010946091
28	0xbc700058	-0.014648519
29	0xbc8973fa	-0.016778935
30	0xbc5b94b3	-0.013402152
31	0x3c9b3fc0	0.018951297
32	0x3c07c36a	0.008286336
33	0x3a7d308f	0.000965842
34	0xbc8d84d6	-0.017275255
35	0x3bfe428d	0.0077593983
36	0xbbbbe6e9	-0.0057343137
37	0x3c6fd62e	0.014638467
38	0x3bb7c212	0.005607852
39	0x3c33494d	0.010942769
40	0xbc0aefc8	-0.00848002
41	0xb9fd8161	-0.00048352315
42	0xbc62e765	-0.013849114
43	0x3bb62dec	0.0055596735
44	0xbb0dfa11	-0.0021663944
45	0xbcb1094e	-0.021610882
46	0x3c5cc190	0.013473883
47	0x3c207372	0.009793149
48	0x3c6d3cea	0.014479855
49	0x3c2d90b2	0.01059358
50	0x3b1e902b	0.0024194818
51	0x3c91a41b	0.017778447
52	0xbcb1926f	-0.02167627
53	0x3be2058f	0.0068976353
54	0x3ca315c3	0.019907838
55	0xbb8af5a2	-0.0042407075
56	0x3c9e5f39	0.019332515
57	0x3c29e508	0.010369547
58	0x3cad5376	0.021157961
59	0x3cafaa54	0.021443523
60	0x3c3acdb7	0.011401585
61	0x3b1308e3	0.0022435717
62	0xbcade4f3	-0.021227336
63	0xbc157ac2	-0.009123506
64	0xbcb623ab	-0.022233805
65	0xbb833d19	-0.004005086
66	0x3c7896de	0.015172688
67	0x3c5dd5dd	0.0135397585
68	0x3af3ada9	0.0018591183
69	0xbcc5a42d	-0.024126137
70	0x3c5a382c	0.0133190565
71	0x3c1879d6	0.009306392
72	0xbc503fe5	-0.012710546
73	0xbcbbedfd	-0.02294063
74	0xbc6370bf	-0.013881861
75	0x3c055c7f	0.008139729
76	0xbc6172c5	-0.013760273
77	0xbc907ba4	-0.017637081
78	0xbca5121c	-0.020150237
79	0xbc778d74	-0.015109409
80	0xbb7e7bfd	-0.0038831227
81	0x3c973962	0.01845998
82	0xbc7cd69e	-0.015432028
83	0xbcb560e1	-0.022140922
84	0x3ca89885	0.02058054
85	0x3c5d6883	0.013513687
86	0x3bffdbfc	0.0078082066
87	0xbc89a5d1	-0.0168027
88	0x3c8de970	0.017323226
89	0x3c24c7c1	0.010057391
90	0x3b7c3821	0.0038485604
91	0x3c98da4f	0.018658785
92	0x3bf69765	0.007525372
93	0x3c7fc0a2	0.015609892
94	0xbbeee69c	-0.0072906744
95	0x3c7d3e32	0.015456723
96	0xbc454108	-0.01203943
97	0x3bcab81f	0.0061864997
98	0xbc7f10df	-0.015567987
99	0xbcbc44a2	-0.022981945
100	0xbcab4bb3	-0.02091012
101	0xbc976167	-0.018479062
102	0x3c5d460b	0.013505469
103	0x3cc5abe0	0.024129808
104	0x3c78b964	0.015180919
105	0xba21bb29	-0.00061695516
106	0xb9a1e317	-0.00030877508
107	0x3b5bdb20	0.0033547357
108	0x3cc2bb7b	0.023771038
109	0x3c551dfb	0.013007636
110	0xbc77c392	-0.015122311
111	0xbc62f5a3	-0.01385251
112	0x3ca6c3b4	0.02035699
113	0x3c5c3045	0.013439243
114	0xbcc84c9e	-0.024450596
115	0xbcaa45cc	-0.020785235
116	0x3c52d712	0.01286866
117	0xbc443412	-0.011975305
118	0x3c9a9822	0.01887137
119	0x3c85381c	0.016262107
120	0xbca0fdff	-0.019652365
121	0x3bc072ce	0.005873061
122	0xbb874e8c	-0.0041292366
123	0xbcc4a842	-0.024006013
124	0x3c01f34f	0.007931544
125	0x3b35dd22	0.0027750214
126	0x3b9786bc	0.004624216
127	0xbca5c56e	-0.020235743
128	0xbbb4dd43	-0.0055195405
129	0xbb954469	-0.0045552743
130	0xbcb151e1	-0.021645488
131	0x3c9f4f7b	0.019447079
132	0xbbe0362f	-0.0068423967
133	0x3c429e05	0.011878495
134	0xbbd78f2c	-0.0065783467
135	0xbca04d48	-0.0195681
136	0xbbdd53a8	-0.0067543574
137	0x3b992f74	0.0046748463
138	0x3ca19eac	0.019728981
139	0x3b7aaf59	0.0038251488
140	0x3c8ba732	0.017047498
141	0x3c40fb55	0.011778672
142	0xbc8c91c8	-0.017159358
143	0x3a557594	0.00081428257
144	0x3cb54eb5	0.022132257
145	0xbbfce8da	-0.0077181878
146	0x3c305267	0.010761834
147	0x3cb292ef	0.021798579
148	0xbac9bdb8	-0.0015391624
149	0xbc17fd1e	-0.009276656
150	0xbc75d04d	-0.015003276
151	0xbae1cf21	-0.0017227867
152	0xbc87f9cb	-0.016598603
153	0x3cca0656	0.024661224
154	0xbcaf20b4	-0.021377899
155	0x3cb31e22	0.021864954
156	0x3c88f14b	0.01671662
157	0xbcafbe7a	-0.021453131
158	0xbc70f76f	-0.01470743
159	0x3cbe7e31	0.023253532
160	0xbb51de4b	-0.0032023366
161	0xbc8f1929	-0.017468052
162	0x3a792756	0.00095044577
163	0xbbbfd02e	-0.0058536744
164	0x3b469937	0.0030303726
165	0x3c20dc8d	0.009818208
166	0xbcad6a28	-0.021168783
167	0xbc517c56	-0.012785992
168	0xba2f4d3e	-0.000668723
169	0x3cbeaa3c	0.023274533
170	0xbc9b0e88	-0.018927827
171	0xbc5855db	-0.013204063
172	0x3c64ccde	0.01396486
173	0x3cc1485b	0.023594072
174	0x3b3e31ea	0.002902145
175	0x3947d8db	0.00019058904
176	0x3c34b8c6	0.011030382
177	0xbb9f02df	-0.004852637
178	0x3c73ac1a	0.014872575
179	0x3ccb43c7	0.024812592
180	0x3c944b6f	0.018102376
181	0xbcc7d3cb	-0.024392983
182	0x3ca08cd0	0.019598395
183	0x3cc37272	0.023858283
184	0x3c2e9038	0.010654502
185	0xbbfde17c	-0.007747827
186	0xbb463252	-0.0030242396
187	0xbc85508c	-0.01627376
188	0xbb80b1f6	-0.0039274646
189	0x3c83fd31	0.016111942
190	0xbbce1a53	-0.006289759
191	0xbb6a0e06	-0.0035713925
192	0xbb89716e	-0.00419443
193	0x37b79860	2.1886255e-05
194	0x3b66f5bf	0.003524169
195	0xbb63dc86	-0.0034768893
196	0xbcc7c183	-0.024384266
197	0xbc03378a	-0.008008847
198	0xbc508062	-0.012725921
199	0xbc1312fc	-0.008976694
200	0xbc4c4567	-0.012467719
201	0xbc8ff987	-0.017575039
202	0xbca5b435	-0.020227531
203	0xbc121b80	-0.008917689
204	0x3b6ceb7c	0.0036151102
205	0x3cc9c0ea	0.024628121
206	0x3b176c39	0.0023105277
207	0x3b0ef3b5	0.0021812741
208	0x3c48542e	0.012227101
209	0x3bb891d9	0.005632621
210	0xbca4311b	-0.020042947
211	0xbcc725d4	-0.02431003
212	0xbc7bdb8e	-0.01537217
213	0xbba99f43	-0.005176456
214	0xbc89eb9c	-0.01683598
215	0x3c989309	0.0186248
216	0xbbff612a	-0.0077935653
217	0xbc3efc09	-0.01165677
218	0xbc90bfb0	-0.017669529
219	0xbc332132	-0.010933207
220	0xbc9a53cb	-0.018838784
221	0x3cab21e3	0.020890182
222	0x3bdaf98c	0.0066825803
223	0xbcb0125e	-0.021493133
224	0x3cc85516	0.024454635
225	0xbba04ef7	-0.004892226
226	0x3c08f999	0.00836029
227	0xbb80d846	-0.003932032
228	0xbb962e08	-0.004583124
229	0x3c631820	0.013860732
230	0x3cb348b1	0.021885248
231	0x3c1b0f60	0.009464115
232	0x3cc999e0	0.024609506
233	0x3cc4b5ce	0.024012472
234	0xbab4d846	-0.0013797365
235	0xbb1237be	-0.0022311057
236	0xbaedb2a8	-0.0018134909
237	0xbbb71fb7	-0.0055884975
238	0xbc166ce9	-0.00918124
239	0xbca881b8	-0.020569667
240	0xbcc42ea7	-0.023948027
241	0xbc21b1c4	-0.009869043
242	0xbc1d07ed	-0.009584409
243	0xbcc7a133	-0.024368858
244	0xbbb444bb	-0.0055013574
245	0x3c85323e	0.016259309
246	0xbb7128dd	-0.0036798038
247	0xbc354954	-0.011064846
248	0xba01acbe	-0.00049467
249	0x3c86aee5	0.016440818
250	0xbc37c9a9	-0.011217513
251	0xbc28e49b	-0.01030841
252	0xbaca88a3	-0.0015452098
253	0xba6a356f	-0.0008934354
254	0x3cbd92c7	0.023141278
255	0xbcb3b7d4	-0.021938242

conv2.bias f4 [32]
0	0xbc118552	-0.008881884
1	0xbcc5cf09	-0.024146574
2	0xbb8cc5af	-0.0042960267
3	0x3c809271	0.015694829
4	0x3ce076a9	0.027400332
5	0x3caa510a	0.020790596
6	0xbc7283c3	-0.014801922
7	0x3d1b6776	0.037940465
8	0x3b57794a	0.003287869
9	0xbc3d62fb	-0.011559243
10	0xbbef6f35	-0.007306958
11	0x3b77a431	0.0037787075
12	0x3d0200ff	0.03173923
13	0x3cdd4b52	0.027013455
14	0xbbb3b215	-0.0054838755
15	0xbc1c0e1b	-0.009524847
16	0xbc864271	-0.016389104
17	0xbc9288c1	-0.017887475
18	0x3ccd7034	0.025077917
19	0x3cae325a	0.021264244
20	0x397ade34	0.00023924635
21	0x3b0c5332	0.0021411893
22	0xbbcab8a3	-0.006186561
23	0x37b0f9c9	2.109715e-05
24	0x3c3fa4b8	0.011696987
25	0xbc2de5ce	-0.010613872
26	0x3c579b78	0.013159625
27	0x3ce4913f	0.02790129
28	0x3bcb2fba	0.006200758
29	0xbc88c4b0	-0.01669535
30	0xbb9e03e9	-0.0048222435
31	0xbb9764b4	-0.004620159

conv3.weight f4 [1, 32, 5, 5]
0	0x3c9ca559	0.019121813
1	0x3c9533c1	0.018213155
2	0xbaf07a41	-0.0018346981
3	0x3cc7f1d1	0.0244073
4	0x3cf7aed7	0.030234737
5	0xbcef152a	-0.029184896
6	0x3acd0b6c	0.0015643663
7	0xbd0aebef	-0.03391641
8	0x3b897fa7	0.0041961255
9	0x3c2855ef	0.010274394
10	0xbb0ef78d	-0.0021815032
11	0x3ce5ecd5	0.028067032
12	0x3c4b22c6	0.012398427
13	0xbcf25c76	-0.029585104
14	0xbb3d7adf	-0.0028912348
15	0xbc7c8c9d	-0.015414384
16	0xbce8ae3f	-0.0284034
17	0x36bd782d	5.6466292e-06
18	0xbd019db1	-0.031644527
19	0x3cc0bc04	0.023527153
20	0x3b97d3de	0.004633411
21	0x3c5178ae	0.01278512
22	0x3ca22b69	0.01979609
23	0x3ce3f02f	0.02782449
24	0xbc8dc1e5	-0.01730437
25	0x3ba2c465	0.0049672597
26	0xbcf1df79	-0.029525505
27	0x3c2d762e	0.010587258
28	0x3cd9dd54	0.026594795
29	0xbcb32b0f	-0.021871118
30	0x3cc091d8	0.023507044
31	0xbc3c5f03	-0.011497262
32	0x3c6d2500	0.0144741535
33	0xbc65b4d9	-0.014020168
34	0x3c02abbf	0.007975518
35	0xbcf13d81	-0.029448273
36	0x3d065903	0.032799732
37	0xbad565f0	-0.001628099
38	0x3d144623	0.0361997
39	0xbc17b091	-0.009258405
40	0x3c8a8d50	0.016913086
41	0xbc5a4f17	-0.013324521
42	0xbc3677a6	-0.011136925
43	0xbbf009b6	-0.0073253764
44	0x3c9d02cf	0.019166378
45	0x3c7eddea	0.015555838
46	0x3cbeeeb6	0.023307186
47	0xbb55d48f	-0.0032627915
48	0x3bb2bf05	0.0054549
49	0x3cc29f2f	0.023757545
50	0xbc639dc7	-0.0138925975
51	0xbc3f7b56	-0.01168712
52	0x3cdc00d7	0.02685587
53	0xbcf4bbeb	-0.029874763
54	0xbc8cbf1d	-0.017180974
55	0xbca11a2e	-0.019665804
56	0xbbf39473	-0.007433468
57	0xbcd4be3a	-0.025969613
58	0x3c062b08	0.00818897
59	0xbccad4fc	-0.024759762
60	0xbc7f3743	-0.01557714
61	0xbd0d074f	-0.0344308
62	0x3cc2057e	0.02368426
63	0xbcb1e6ec	-0.021716557
64	0xbb8d3d08	-0.004310254
65	0xbcad60ac	-0.02116426
66	0xbba046d0	-0.004891254
67	0xbbdbba3b	-0.00670555
68	0xbc3d2e62	-0.011546703
69	0xba1839e8	-0.00058069685
70	0x3c753eec	0.014968615
71	0x3cedf649	0.029048102
72	0x3cd6bfdf	0.026214538
73	0xbcd7427b	-0.026276818
74	0xbb888d02	-0.0041672
75	0xbce15460	-0.027506053
76	0x3c965e66	0.01835556
77	0x3cc9a201	0.024613382
78	0x3c1f9540	0.009740174
79	0x3c417fe4	0.011810277
80	0x3d0fee22	0.03513921
81	0xbb609732	-0.0034269807
82	0xbcf6d281	-0.030129673
83	0xbc87e1e4	-0.016587205
84	0xbc2b53f3	-0.010457027
85	0x3c8a744c	0.016901158
86	0x3a7d18bf	0.00096548715
87	0x3ce50149	0.027954714
88	0x3ca14ccd	0.019689942
89	0xbc27147d	-0.010197756
90	0xbc13fa61	-0.009031863
91	0xbc40d3fe	-0.011769293
92	0xbd026bcb	-0.03184108
93	0xbc391e73	-0.011298764
94	0xbc86ba21	-0.016446175
95	0xbbdaef6e	-0.0066813743
96	0xbbffba2e	-0.007804177
97	0xbc599c89	-0.01328195
98	0xbc8620d1	-0.01637307
99	0x3bb95a2c	0.0056565013
100	0x3bb66947	0.0055667493
101	0x3c28c076	0.0102997925
102	0x3c9f2972	0.019428942
103	0xba21cebf	-0.000617247
104	0x3b9e21c4	0.0048258025
105	0xbbdd021f	-0.0067446376
106	0x3d132593	0.035924505
107	0x3bebfe1c	0.007201923
108	0x3cf3b029	0.029747086
109	0xbc94d183	-0.01816631
110	0xbcc342bd	-0.023835534
111	0x3c38aa78	0.011271112
112	0xbcb56591	-0.022143157
113	0x3ce08a10	0.027409583
114	0x3ccb8fab	0.02484878
115	0x3d080018	0.033203214
116	0x3d1c0721	0.038092736
117	0x3c9a70e0	0.018852651
118	0x3c96a751	0.01839033
119	0xbac77a44	-0.0015218933
120	0x3d0ec875	0.03485914
121	0x3c9a1459	0.01880853
122	0xbb8f775f	-0.004378244
123	0xbcfb127a	-0.030648459
124	0x3bcfcdc2	0.006341667
125	0x3bdd8eae	0.0067613935
126	0x3ce695db	0.028147629
127	0x3cbdf1a3	0.02318651
128	0x3d0aff63	0.033934962
129	0x3bc9739e	0.006147816
130	0x3c57e3fd	0.013176915
131	0xbce5fbf3	-0.02807424
132	0x3b97888d	0.0046244324
133	0x3c0f45cf	0.008744671
134	0xbca0caa9	-0.019627886
135	0xbc89e0fb	-0.016830912
136	0x3c6b2fb6	0.014354637
137	0xbcad2ccf	-0.02113953
138	0xbc630ad9	-0.013857567
139	0x3ccdcd90	0.025122434
140	0x3cd93d33	0.02651844
141	0xbd01bf3e	-0.031676523
142	0xbd098f23	-0.03358377
143	0x3cb04edb	0.021521976
144	0xbc2dde04	-0.010612015
145	0x3b1aa379	0.0023595972
146	0xbcd0396e	-0.02541801
147	0xbc84eca0	-0.016226113
148	0x3cdf2c54	0.027242817
149	0xbcafbf06	-0.021453392
150	0x3c527f7d	0.012847778
151	0x3abce243	0.0014410693
152	0x3c32d029	0.010913887
153	0x3ac95227	0.0015359566
154	0xbbf6f220	-0.007536188
155	0x3c4cf15f	0.012508719
156	0x3c1ece06	0.0096926745
157	0xbb558dc3	-0.0032585717
158	0x3cc1f511	0.023676427
159	0x3d00adef	0.031415876
160	0x3c9742c7	0.01846446
161	0xbc22b664	-0.009931181
162	0xbcd1b0ef	-0.025597064
163	0xbcc3e1c7	-0.02391137
164	0xbc8cba7d	-0.017178768
165	0xbb3be4fc	-0.002867042
166	0x3c941809	0.018077867
167	0x3c1cbce7	0.009566522
168	0x3d0121f5	0.031526525
169	0xbd0afcf9	-0.03393266
170	0xbc9f6e88	-0.019461885
171	0x3d0537dd	0.03252398
172	0xbcceda29	-0.025250511
173	0x3cb8c8b2	0.022556636
174	0x3acd02c5	0.0015641084
175	0xbb04cbee	-0.0020263153
176	0x3cf29479	0.029611813
177	0x3d22c2f3	0.0397367
178	0xbc1f52dc	-0.009724345
179	0x3a886571	0.0010406208
180	0x3d0f4cfd	0.03498553
181	0x3d101565	0.035176653
182	0x3cefd353	0.029275572
183	0xbc6f8c43	-0.014620843
184	0xbca07d1c	-0.019590907
185	0x3d0d3b23	0.034480225
186	0x3d0b7275	0.0340447
187	0x3ca353ac	0.019937359
188	0x3d46eaf5	0.048563916
189	0x3d0fe09f	0.035126325
190	0xbbb11662	-0.0054042796
191	0x3ca50575	0.020144204
192	0x3d4398e7	0.04775324
193	0x3cd99742	0.026561383
194	0xbc615e41	-0.013755382
195	0xbd132a78	-0.035929173
196	0x3c16701b	0.009182001
197	0x3ca29d50	0.019850403
198	0xbd065934	-0.032799914
199	0x3bd42914	0.0064746235
200	0xbcb2c427	-0.021822048
201	0x3c6bd6d5	0.014394482
202	0xbc88fbbb	-0.016721597
203	0xbcda7aa9	-0.026669817
204	0x3d0bd34e	0.034137063
205	0x3cad27fd	0.021137232
206	0xbc663a3b	-0.014051969
207	0xbccbcfcb	-0.024879357
208	0x3cc62de8	0.024191812
209	0xbcb3bd83	-0.021940952
210	0xbc2b8ea8	-0.010471024
211	0xbc7c6c54	-0.015406687
212	0x3c3b68ab	0.011438529
213	0xbae938e3	-0.0017793443
214	0x3c5bb8d4	0.013410766
215	0xbca25129	-0.01981409
216	0x3cd77066	0.026298713
217	0x3b9bd20c	0.004755264
218	0xbcc58038	-0.024108991
219	0xbcd25c64	-0.02567882
220	0x3cafc3cd	0.02145567
221	0xbc772cff	-0.0150864115
222	0x3c2b6866	0.010461902
223	0x3a976bd8	0.0011552526
224	0xbc859927	-0.01630838
225	0x3d22930b	0.039691012
226	0xbc3414ce	-0.010991288
227	0x3ca8f863	0.020626253
228	0x3cea8ed9	0.028632568
229	0x3c9059a1	0.017620863
230	0x3d12fba6	0.035884522
231	0xbcccbcf1	-0.024992438
232	0x3bffdd57	0.007808368
233	0x3b960218	0.0045778863
234	0x3cbca71e	0.023028906
235	0xbc91c0bf	-0.017792104
236	0xbcd91111	-0.026497396
237	0xbcdc519c	-0.026894383
238	0x3cddb6db	0.027064731
239	0x3c6ada93	0.014334339
240	0xbd1c31bb	-0.038133364
241	0xbc26dc00	-0.010184288
242	0xbd01119b	-0.03151093
243	0xbcedd3c1	-0.029031636
244	0x3cc6dac7	0.024274243
245	0xbc93dba6	-0.018049072
246	0x3c928bff	0.017889021
247	0x3d0e1ee5	0.034697432
248	0x3c0db3b3	0.008648801
249	0x3ca54a92	0.02017716
250	0xbcfc2b02	-0.030782226
251	0xbc74aca1	-0.014933736
252	0xbaeafc56	-0.0017927985
253	0x3bfbbb8c	0.0076822694
254	0x3c6c24d5	0.014413078
255	0x3c9d823a	0.019227136
