outputs/x3/epoch_96.pth (torch, 231327 bytes, 5 tensors)

conv1.weight f4 [64, 1, 9, 9]
0	0xbd18f041	-0.0373385
1	0x3c279cf1	0.010230289
2	0xbd441c56	-0.047878586
3	0x3d4745a2	0.04865039
4	0xbdb75229	-0.08951218
5	0x3dae25ac	0.08503279
6	0xbd9f3224	-0.077732354
7	0xbdb00986	-0.085955665
8	0xbd8d6b39	-0.06905217
9	0x3d656954	0.05600865
10	0xbd135e2a	-0.035978474
11	0x3d48d9f4	0.04903598
12	0xbdb0e02b	-0.08636507
13	0xbd7ae390	-0.061252177
14	0xbd19b111	-0.03752238
15	0xbca1c3fe	-0.019746777
16	0xbdaad127	-0.08340674
17	0x3d94dc94	0.072686344
18	0xbca24ec6	-0.019812953
19	0x3d2dc21f	0.042421456
20	0x3db7e2df	0.08978819
21	0x3d0ea0be	0.034821264
22	0x3d345d92	0.044034548
23	0x3deef3c0	0.116675854
24	0xbd329024	-0.043594494
25	0x3d21e7f7	0.03952786
26	0xbd4386a2	-0.047735818
27	0x3db1f6e9	0.086896725
28	0x3dc633e5	0.09677867
29	0xbdb61569	-0.088908024
30	0x3de82b3a	0.1133637
31	0x3d9598ad	0.07304511
32	0x3d835165	0.06412009
33	0x3d6c7046	0.05772426
34	0x3dcd9fbc	0.100402325
35	0xbc31d62b	-0.010854284
36	0xbdb102e6	-0.08643131
37	0xbcc9062e	-0.02453908
38	0xbd87e943	-0.06636288
39	0x3cc5fe8b	0.024169227
40	0xbaa46aef	-0.0012544076
41	0xbd2f9ea1	-0.04287589
42	0x3b658641	0.0035022649
43	0x3dea7a1d	0.114490725
44	0xbb959b0d	-0.0045656026
45	0x3c47e148	0.012199707
46	0xbc29c7d0	-0.01036258
47	0x3cd838d4	0.026394285
48	0x3de177d1	0.11009181
49	0x3da5e886	0.08100991
50	0x3d52ed42	0.051495798
51	0x3d0f5ac7	0.03499868
52	0x3d0a7eb6	0.033812247
53	0x3d3e66c1	0.046484713
54	0xbba0ae0b	-0.00490356
55	0xbdc5ef66	-0.09664802
56	0xbd7e3184	-0.06205894
57	0x3dcfe3c1	0.101508625
58	0x3c609518	0.013707422
59	0xbdaacbf3	-0.083396815
60	0x3cc584e3	0.024111217
61	0x3dc6244b	0.09674891
62	0xbdd1777a	-0.102278665
63	0xbd84833d	-0.06470344
64	0xbd181c92	-0.03713662
65	0x3c35dd48	0.011100121
66	0xbca3441e	-0.019929942
67	0xbbe46424	-0.0069699455
68	0xbdd4e6c6	-0.10395579
69	0x3d670497	0.05640086
70	0x3dcf5e78	0.1012544
71	0x3d91234f	0.07086813
72	0xbd8bf7dd	-0.068343855
73	0xbda7d5cc	-0.081950754
74	0x3d5a33a3	0.0532719
75	0x3c147bfc	0.009062763
76	0x3d51e04b	0.051239293
77	0xbdd529f8	-0.104083955
78	0xbb2bf2d0	-0.0026237257
79	0x3da7a809	0.08186347
80	0x3d60519c	0.05476533
81	0x3b86e92b	0.0041171513
82	0x3caaf9bd	0.020871038
83	0xbc3e2390	-0.011605158
84	0xbd7bd8ea	-0.061486162
85	0xbd2ba8cb	-0.04190902
86	0xbd89d5b4	-0.06730214
87	0x3dc04e94	0.093899876
88	0x3d7dd6a7	0.061972287
89	0x3d1a7884	0.03771259
90	0xbdac4cc3	-0.08413079
91	0x3db01792	0.08598246
92	0x3d1094d8	0.0352982
93	0x3d9fcbf9	0.078025766
94	0xbd2d9a30	-0.042383373
95	0x3ccc6f2f	0.02495536
96	0x3de4a394	0.111640126
97	0x3d9e6bef	0.077354304
98	0x3db6dd28	0.08928901
99	0xbcb36749	-0.021899836
100	0x3dafd39d	0.08585284
101	0xbdad844c	-0.08472499
102	0x3c517c18	0.012785934
103	0xbd76e4c1	-0.06027675
104	0xbccd870d	-0.025088811
105	0xbcd3f339	-0.025872814
106	0x3c336835	0.010950138
107	0x3dd05df5	0.10174171
108	0x3d66e7b7	0.056373324
109	0x3ac034d0	0.0014664177
110	0x3daa6be0	0.08321357
111	0xbd51b0b8	-0.051193923
112	0x3d7a251c	0.061070547
113	0xbc26060f	-0.01013328
114	0xbc96913d	-0.018379802
115	0x3c6d28f5	0.014475097
116	0xbdad6156	-0.08465831
117	0x3c5df0cc	0.01354618
118	0x3d1eb466	0.03874626
119	0x3dcb7495	0.09934346
120	0xbce6a481	-0.028154613
121	0x3d371b1d	0.04470359
122	0x3de4a5ee	0.11164461
123	0xbd406102	-0.046967514
124	0x3dda81f4	0.10669318
125	0xbd5fd02c	-0.054641888
126	0x3d48f4b6	0.0490615
127	0x3d32184e	0.04348021
128	0x3d071b11	0.032984797
129	0x3dbc6f9e	0.09200977
130	0xbd27ae58	-0.04093775
131	0x3cfc1cff	0.030775545
132	0x3b19e94e	0.0023485008
133	0xbda82844	-0.08210805
134	0xbcd770fd	-0.026298994
135	0xbd992e6b	-0.07479557
136	0x3d41fc5a	0.0473598
137	0x3c0aea84	0.008478764
138	0x3c2e4a34	0.010637809
139	0xbd079e8f	-0.033110198
140	0x3a8d1d3e	0.0010766161
141	0xbd082b30	-0.03324431
142	0x3d0560e3	0.0325631
143	0x3ddc53eb	0.107581936
144	0x3c802699	0.015643405
145	0xbd55340a	-0.05205158
146	0xbd92a70d	-0.07160769
147	0x3ba2b66f	0.0049655954
148	0xbdae7b4f	-0.08519613
149	0xbdae7e77	-0.08520215
150	0xbd94f8d7	-0.07274025
151	0xbd1e9d79	-0.038724396
152	0x3bd7b8ea	0.006583323
153	0x3d9d1f9f	0.07672047
154	0x3d2c1fd1	0.04202253
155	0x3daac515	0.08338372
156	0xbd925baf	-0.071463935
157	0x3c02e8ff	0.007990121
158	0xbdcbca7d	-0.09950731
159	0x3d82f759	0.06394834
160	0x3cba648e	0.022753026
161	0x3dda6926	0.10664587
162	0xbda1d356	-0.07901637
163	0x3db67bff	0.08910369
164	0x3dc0181d	0.09379599
165	0x3db7f9f7	0.08983224
166	0x3c81bff1	0.015838595
167	0x3dceeb8b	0.1010352
168	0x3d97f789	0.074202605
169	0x3da9c45a	0.08289404
170	0xbbed5b26	-0.0072435318
171	0xbdae9eca	-0.0852638
172	0xbab91995	-0.0014122004
173	0x3caa4d98	0.020788953
174	0xbd9b0300	-0.075689316
175	0xbd82885b	-0.06373664
176	0xbdda29bc	-0.106524915
177	0xbd1f93c7	-0.03895929
178	0x3dc63711	0.09678472
179	0x3c9b80d4	0.018982328
180	0xbbde5356	-0.0067848368
181	0x3b911980	0.0044280887
182	0x3d8de166	0.06927757
183	0xbdc8f3d0	-0.098121285
184	0xbdaf9520	-0.08573365
185	0xbd175163	-0.03694285
186	0xbd82f4ca	-0.06394346
187	0x3d6ac09a	0.057312585
188	0x3da0cda3	0.07851722
189	0xbddcc97f	-0.1078062
190	0xbdc121a4	-0.094302446
191	0xbddd9b86	-0.10820679
192	0x3d2ba2bf	0.041903254
193	0x3db72515	0.0894262
194	0xbdb06f9a	-0.08615036
195	0xbd52b134	-0.051438525
196	0x3d10df09	0.035368953
197	0xbd949132	-0.07254256
198	0x3dc14a55	0.09438006
199	0x3cd3e7e2	0.025867406
200	0xbcfdd6a2	-0.030986134
201	0x3beaad38	0.0071617626
202	0x3d0dd2e8	0.034624964
203	0xbd20fd5f	-0.039304134
204	0xbdb05421	-0.08609796
205	0x3a40e081	0.00073576724
206	0x3b04d035	0.0020265703
207	0x3b124e5b	0.0022324536
208	0xbc8537a9	-0.016261892
209	0x3d9212ed	0.07132516
210	0xbcfe8d1a	-0.031073142
211	0xbc315a0d	-0.010824692
212	0x3d3b09f4	0.04566379
213	0xbd8f3f60	-0.0699451
214	0x3cf372f4	0.0297179
215	0xbcc97396	-0.024591248
216	0x3d5a4ae9	0.053294096
217	0xbd76e685	-0.060278434
218	0x3b863469	0.0040956032
219	0x3c31f1fd	0.010860917
220	0xbdb71784	-0.08940032
221	0xbda57767	-0.08079415
222	0x3d2e87f7	0.042610135
223	0xbd047691	-0.032339636
224	0x3d87252e	0.06598888
225	0xbde0cafc	-0.10976216
226	0xbd60f8b8	-0.054924697
227	0xbdbb6dd6	-0.09151809
228	0x3d35cdf9	0.044385884
229	0xbb52fc11	-0.00321937
230	0xbca9c12d	-0.020721996
231	0xbc976895	-0.018482486
232	0xbdb1de45	-0.08684973
233	0x3d01148f	0.031513747
234	0x3b35e987	0.0027757601
235	0xbd9d09bc	-0.07667872
236	0x3d2b417f	0.04181051
237	0xbb12a03b	-0.0022373337
238	0xbddc1454	-0.10746065
239	0x3d74d193	0.059770178
240	0x3d737072	0.059433408
241	0xbcab74ae	-0.02092966
242	0xbd9d1cbc	-0.07671496
243	0x3b8300c1	0.0039978926
244	0x3da895a9	0.082316704
245	0x3dce30bc	0.10067889
246	0xbda98352	-0.082770005
247	0xbd483575	-0.048879106
248	0x3db1ed92	0.08687891
249	0x3d5c9d1a	0.05386076
250	0x3d8a55ee	0.06754671
251	0xbd6b3e42	-0.05743242
252	0x3dc4bc16	0.09606187
253	0xbdbc268a	-0.09187038
254	0xbbb8f8d3	-0.0056448965
255	0x3b70d43d	0.0036747598

conv1.bias f4 [64]
0	0xbc61bfc9	-0.013778635
1	0xbd885f2d	-0.06658778
2	0xbb9b5897	-0.0047407853
3	0xbd82c667	-0.063854985
4	0x3d085bde	0.033290736
5	0xbccecb7e	-0.025243517
6	0x3d7feb16	0.062480055
7	0x3d649e06	0.055814765
8	0x3de0510e	0.1095296
9	0xbd94e661	-0.07270504
10	0xbb8120fd	-0.0039407
11	0x3ac9f634	0.0015408457
12	0xbd946d55	-0.07247416
13	0x3dc6ab61	0.09700657
14	0x3d83b3aa	0.064307526
15	0x3d8f3313	0.069921635
16	0xbd147052	-0.03623993
17	0xbd5759a6	-0.05257573
18	0x3d874091	0.06604112
19	0x3c8543fa	0.016267765
20	0x3c73c11b	0.014877583
21	0xbcaf4713	-0.021396196
22	0xbdd2c87d	-0.10292146
23	0x3d84325b	0.06454917
24	0xbd4170ac	-0.047226593
25	0x3d7e1f35	0.06204148
26	0xbce235ce	-0.027613547
27	0xbbed5f5a	-0.007244033
28	0x3cf123f1	0.029436084
29	0x3d0b3244	0.033983484
30	0x3dfa627b	0.12225815
31	0xbd280f6d	-0.041030336
32	0x3d2158f6	0.03939148
33	0x3d30cfa5	0.043166775
34	0xbc8664c6	-0.016405474
35	0xbdbbe37b	-0.09174248
36	0xbc8b93c4	-0.017038234
37	0x3d9b55b7	0.07584708
38	0xbdc11498	-0.09427756
39	0x3c5389e4	0.012911294
40	0xbd687da7	-0.056760456
41	0xbd6265a2	-0.055272706
42	0x3dbd79eb	0.0925177
43	0x3b1c5a9b	0.0023857716
44	0x3d1123ad	0.035434414
45	0x3c88f8ed	0.01672026
46	0xbda29944	-0.07939389
47	0xbde37b1e	-0.11107467
48	0xbd8f4527	-0.06995612
49	0xbbeccc92	-0.007226535
50	0xbd4390a4	-0.047745362
51	0xbcbdb1d0	-0.023156077
52	0x3d168b74	0.036754087
53	0xbbdcabb9	-0.006734338
54	0x3bfe0737	0.007752325
55	0xbd5f586c	-0.054527685
56	0x3d9b48af	0.07582223
57	0xbd5eb3e6	-0.054370783
58	0xbbd67313	-0.0065444796
59	0x3dc3db72	0.0956334
60	0x3dd3c873	0.10340967
61	0xbd70a81d	-0.058754075
62	0xbdca610a	-0.0988179
63	0xbd9f2342	-0.07770397

conv2.weight f4 [32, 64, 5, 5]
0	0x3ba172e3	0.0049270256
1	0x3c285eb8	0.010276489
2	0xbc3d4882	-0.011552932
3	0xbca3a645	-0.019976744
4	0xbba368a0	-0.0049868375
5	0xbbcea078	-0.0063057505
6	0xbc825174	-0.01590798
7	0xbcc344f0	-0.023836583
8	0xbc8eab4c	-0.017415665
9	0xba8947c4	-0.0010473658
10	0x3c5bdf11	0.013419882
11	0xbc9b70b8	-0.018974647
12	0xbc1c8030	-0.009552047
13	0xbc9ef961	-0.019406023
14	0x3c3e3a6f	0.011610611
15	0xbaf7cb9d	-0.0018905286
16	0x3c8121c0	0.015763164
17	0x3b3923a7	0.002825001
18	0xbba7dd05	-0.005122783
19	0x3cb00a5b	0.021489313
20	0x3c84cf41	0.016212108
21	0x3cbf6c32	0.023367021
22	0xbc8fb506	-0.017542373
23	0x3c3b38c2	0.011427106
24	0xbc835e5e	-0.016036209
25	0xbc806127	-0.015671326
26	0x3c96fc40	0.018430829
27	0x3c34cb09	0.0110347355
28	0xbc6e6248	-0.014549799
29	0xbc88c7ba	-0.0166968
30	0xbc5b5009	-0.013385781
31	0x3c9b4a04	0.018956192
32	0x3c0836e5	0.008313869
33	0x3a865f2b	0.0010251751
34	0xbc8d42e9	-0.01724382
35	0x3bfd9643	0.00773886
36	0xbbbb5ed6	-0.0057180924
37	0x3c706206	0.014671808
38	0x3bb9dc2e	0.0056719994
39	0x3c344302	0.011002304
40	0xbc0ce9cd	-0.008600664
41	0xba157507	-0.00057013374
42	0xbc64bcf5	-0.0139610665
43	0x3bb2665d	0.0054443316
44	0xbb14bebb	-0.0022696692
45	0xbcb22d81	-0.021750214
46	0x3c5a9af8	0.0133426115
47	0x3c1dac6e	0.00962363
48	0x3c6a0b5b	0.014284934
49	0x3c2a9bf9	0.010413163
50	0x3b1e9e85	0.0024203372
51	0x3c91a41b	0.017778447
52	0xbcb1926f	-0.02167627
53	0x3be205fe	0.006897687
54	0x3ca315c3	0.019907838
55	0xbb8af190	-0.0042402223
56	0x3c9e5f31	0.0193325
57	0x3c29e071	0.010368452
58	0x3cad536c	0.021157943
59	0x3cafaa54	0.021443523
60	0x3c3acfb1	0.011402057
61	0x3b130be6	0.0022437512
62	0xbcade57c	-0.02122759
63	0xbc1581e1	-0.009125204
64	0xbcb62634	-0.022235014
65	0xbb833c4d	-0.004004991
66	0x3c789879	0.015173071
67	0x3c5dcd03	0.013537648
68	0x3af32022	0.0018549005
69	0xbcc5a922	-0.0241285
70	0x3c5a4033	0.01332097
71	0x3c189152	0.009311991
72	0xbc50281e	-0.012704877
73	0xbcbbeaef	-0.022939174
74	0xbc636c22	-0.013880761
75	0x3c08eac7	0.0083567565
76	0xbc5d7cb5	-0.013518502
77	0xbc8e4bef	-0.017370192
78	0xbca35380	-0.019937277
79	0xbc757af4	-0.014982928
80	0xbb81aba5	-0.003957229
81	0x3c96c53b	0.018404594
82	0xbc7ce4cc	-0.015435409
83	0xbcb5aaba	-0.022176135
84	0x3ca77fd9	0.020446705
85	0x3c5d8a3f	0.01352173
86	0x3c00b759	0.0078562135
87	0xbc88caf9	-0.016698347
88	0x3c8ecd9b	0.017432025
89	0x3c2591e1	0.010105581
90	0x3b6cddf2	0.0036143032
91	0x3c9720f5	0.018448332
92	0x3bf21823	0.007388131
93	0x3c7e5c56	0.015524944
94	0xbbf2ed07	-0.00741351
95	0x3c7c769c	0.015409138
96	0xbc463932	-0.012098597
97	0x3bca2e24	0.006170051
98	0xbc7e95f2	-0.015538679
99	0xbcbc79f8	-0.023007378
100	0xbcabdad1	-0.020978363
101	0xbc97cbe2	-0.018529836
102	0x3c5c5fb7	0.013450555
103	0x3cc55699	0.024089145
104	0x3c77d6a9	0.015126863
105	0xba4f59cf	-0.0007909806
106	0xba082c85	-0.0005194622
107	0x3b4e9009	0.0031518957
108	0x3cc1d436	0.02366076
109	0x3c53fc45	0.012938564
110	0xbc7b914b	-0.015354465
111	0xbc681fbb	-0.014167721
112	0x3ca3fa51	0.020016821
113	0x3c57f6d8	0.013181411
114	0xbcc9a5c9	-0.024615185
115	0xbcab3126	-0.02089746
116	0x3c4fa59d	0.012673763
117	0xbc4882d5	-0.012238224
118	0x3c982b99	0.018575476
119	0x3c831878	0.016002879
120	0xbca2fb84	-0.019895323
121	0x3bb83833	0.005621934
122	0xbb913de8	-0.0044324286
123	0xbcc8061e	-0.02441698
124	0x3bf5f3f4	0.007505888
125	0x3b366db3	0.0027836382
126	0x3b98000d	0.004638678
127	0xbca5ad57	-0.020224256
128	0xbbb4dc73	-0.0055194437
129	0xbb95d746	-0.0045727817
130	0xbcb19aab	-0.021680197
131	0x3c9f1142	0.019417409
132	0xbbe18951	-0.0068828245
133	0x3c41a4b9	0.011819058
134	0xbbda1cf0	-0.0066562817
135	0xbc9fcb10	-0.019506007
136	0xbbdad3c9	-0.006678079
137	0x3b9bd85d	0.004756017
138	0x3ca23056	0.019798439
139	0x3b8024c9	0.003910635
140	0x3c8bc2c9	0.017060654
141	0x3c415296	0.011799475
142	0xbc8c68aa	-0.017139751
143	0x3a553fcf	0.00081348134
144	0x3cb5bf50	0.022185951
145	0xbbf72d82	-0.0075432668
146	0x3c33526c	0.010944944
147	0x3cb42318	0.02198939
148	0xbab295ff	-0.0013625025
149	0xbc13fafb	-0.009032006
150	0xbc6eaec4	-0.014568035
151	0xbab112cd	-0.0013509631
152	0xbc855c83	-0.016279465
153	0x3ccc6636	0.024951082
154	0xbcac6b99	-0.0210474
155	0x3caf34f4	0.021387555
156	0x3c8414e4	0.016123243
157	0xbcb5784d	-0.02215209
158	0xbc7c2635	-0.015389969
159	0x3cb9cbc4	0.02268017
160	0xbb6c17b1	-0.0036024863
161	0xbc92c364	-0.017915435
162	0x39c3dc26	0.00037357322
163	0xbbd51f95	-0.006504009
164	0x3b20b4d9	0.0024521856
165	0x3c198983	0.009371164
166	0xbcb09af8	-0.02155827
167	0xbc591892	-0.013250487
168	0xbaa8a8e4	-0.0012867716
169	0x3cb92bbf	0.022603868
170	0xbca06856	-0.019581001
171	0xbc60e39f	-0.013726144
172	0x3c5cf6fc	0.01348662
173	0x3cbc601a	0.022995044
174	0x3b1020bc	0.0021992167
175	0x39e5011a	0.00043679104
176	0x3c3766cb	0.011193941
177	0xbba0abdc	-0.0049032997
178	0x3c72b09a	0.014812613
179	0x3ccb19d9	0.024792599
180	0x3c927535	0.017878154
181	0xbcc9ec6a	-0.024648864
182	0x3c9da5a2	0.019244019
183	0x3cc09223	0.023507183
184	0x3c28fedc	0.010314669
185	0xbc06b8e5	-0.008222793
186	0xbb5df2d3	-0.0033866658
187	0xbc880a0d	-0.016606355
188	0xbb8950d4	-0.0041905437
189	0x3c82065b	0.015872171
190	0xbbde0b73	-0.006776267
191	0xbb811594	-0.00393934
192	0xbb93e0ed	-0.004512897
193	0xb96eae5e	-0.00022762406
194	0x3b57c51f	0.003292389
195	0xbb77a152	-0.0037785363
196	0xbcc9fce8	-0.024656728
197	0xbc0869ab	-0.008325974
198	0xbc55230d	-0.013008845
199	0xbc17ba00	-0.009260654
200	0xbc4cface	-0.012510968
201	0xbc903d81	-0.017607452
202	0xbca5c70f	-0.02023652
203	0xbc123bdd	-0.008925405
204	0x3b6c4aef	0.0036055406
205	0x3cc97ad2	0.024594698
206	0x3b1385fb	0.0022510279
207	0x3b0d7588	0.0021584947
208	0x3c483523	0.0122197
209	0x3bb7c6bc	0.005608408
210	0xbca44c9e	-0.020056065
211	0xbcc7bf1a	-0.024383117
212	0xbc7cc7fb	-0.015428538
213	0xbbaa2c6c	-0.005193284
214	0xbc89fa02	-0.016842846
215	0x3c985e9f	0.018599806
216	0xbc012978	-0.007883422
217	0xbc40a927	-0.011759079
218	0xbc9135b7	-0.017725809
219	0xbc33bd95	-0.010970493
220	0xbc9a0a57	-0.018803759
221	0x3cab360c	0.020899795
222	0x3bd9b7ce	0.0066442257
223	0xbcb0540e	-0.021524455
224	0x3cc842a1	0.024445834
225	0xbb9edd8b	-0.0048481873
226	0x3c0a448f	0.008439197
227	0xbb7bab42	-0.0038401638
228	0xbb93de2f	-0.0045125703
229	0x3c63f7e2	0.01391408
230	0x3cb1f232	0.021721933
231	0x3c189d8e	0.009314908
232	0x3cc892e7	0.024484111
233	0x3cc3aabc	0.023885123
234	0xbac8c9bb	-0.001531891
235	0xbb20e1d9	-0.0024548678
236	0xbb04ea6c	-0.0020281328
237	0xbbbcd3de	-0.005762561
238	0xbc18fa13	-0.009336966
239	0xbca9cb62	-0.020726863
240	0xbcc52629	-0.024066048
241	0xbc238e8a	-0.009982714
242	0xbc1e509f	-0.009662776
243	0xbcc802a9	-0.024415331
244	0xbbb5bfce	-0.0055465465
245	0x3c84ed1a	0.01622634
246	0xbb753ad4	-0.0037419097
247	0xbc361157	-0.011112533
248	0xba07ddfb	-0.0005182919
249	0x3c869acb	0.016431233
250	0xbc37cbc1	-0.011218012
251	0xbc28e770	-0.010309085
252	0xbaca9fe4	-0.0015459028
253	0xba6a5170	-0.0008938527
254	0x3cbd9268	0.023141101
255	0xbcb39eaf	-0.021926252

conv2.bias f4 [32]
0	0xbc2d9fd6	-0.01059719
1	0xbcc7b90d	-0.024380231
2	0xbb8184c1	-0.003952593
3	0x3c74add3	0.014934021
4	0x3cdab017	0.026695294
5	0x3cabf066	0.020988654
6	0xbc6e91a6	-0.0145610925
7	0x3d17b15b	0.037034374
8	0x3b4c02cc	0.0031129597
9	0xbc383626	-0.011243379
10	0xbbeda82d	-0.007252714
11	0x3b80ca4a	0.0039303647
12	0x3d0070de	0.03135764
13	0x3cdc5372	0.026895259
14	0xbbafb33e	-0.0053619435
15	0xbc1d69cb	-0.009607743
16	0xbc8194e5	-0.015818069
17	0xbc9279be	-0.017880317
18	0x3ccfdae4	0.02537293
19	0x3cd7bc60	0.026334941
20	0x3aa6d359	0.0012727781
21	0x3aa20f86	0.0012364245
22	0xbb831f08	-0.004001502
23	0x3918f8ba	0.00014588507
24	0x3c42acfc	0.011882063
25	0xbc2dd19e	-0.010609059
26	0x3c6a0b6b	0.014284949
27	0x3ce8274e	0.028339054
28	0x3ba94664	0.005165862
29	0xbc88a610	-0.016680747
30	0xbbcece65	-0.0063112252
31	0xbbc66f7a	-0.0060557695

conv3.weight f4 [1, 32, 5, 5]
0	0x3c9be4ed	0.019030059
1	0x3c943860	0.018093288
2	0xbafa3015	-0.0019087816
3	0x3cc78a6a	0.024357993
4	0x3cf770b6	0.030205112
5	0xbceff1bb	-0.02929007
6	0x3ac30c68	0.0014881017
7	0xbd0af84c	-0.0339282
8	0x3b88caf1	0.004174583
9	0x3c27995f	0.010229438
10	0xbb12e608	-0.0022414941
11	0x3ce64b0c	0.028111957
12	0x3c4ca6b4	0.012490917
13	0xbcf20972	-0.02954552
14	0xbb40f9a5	-0.0029445675
15	0xbc7c89ce	-0.015413715
16	0xbce771f9	-0.028252589
17	0x3966e741	0.00022020658
18	0xbd011797	-0.031516638
19	0x3cc0c06e	0.023529258
20	0x3b955d87	0.0045582685
21	0x3c514762	0.012773367
22	0x3ca275e5	0.019831607
23	0x3ce3f16d	0.027825082
24	0xbc8e1268	-0.017342761
25	0x3ba674d7	0.0050798464
26	0xbcf2df52	-0.029647503
27	0x3c299165	0.010349606
28	0x3cd9834a	0.026551861
29	0xbcb1e03f	-0.021713374
30	0x3cc07d26	0.023497175
31	0xbc435cc2	-0.011923971
32	0x3c620724	0.013795648
33	0xbc6a4c44	-0.01430041
34	0x3c02778e	0.007963074
35	0xbcf2c7df	-0.029636322
36	0x3d03c0ce	0.032166295
37	0xbb279af4	-0.0025574537
38	0x3d124210	0.035707533
39	0xbc1ce11b	-0.009575154
40	0x3c8b4863	0.01700229
41	0xbc5c99ab	-0.013464372
42	0xbc3b9a5a	-0.0114503745
43	0xbbf4f0a2	-0.0074749747
44	0x3c9b02b6	0.018922191
45	0x3c80e842	0.01573575
46	0x3cbfdc07	0.023420347
47	0xbb4cfb5a	-0.0031277747
48	0x3bb7efd0	0.0056133047
49	0x3cc2bf47	0.023772849
50	0xbc639dc7	-0.0138925975
51	0xbc3f7b56	-0.01168712
52	0x3cdc00d7	0.02685587
53	0xbcf4bbeb	-0.029874763
54	0xbc8cbf1d	-0.017180974
55	0xbca11a2e	-0.019665804
56	0xbbf3949d	-0.0074334876
57	0xbcd4be3a	-0.025969613
58	0x3c062b08	0.00818897
59	0xbccad4fc	-0.024759762
60	0xbc7f3744	-0.015577141
61	0xbd0d074f	-0.0344308
62	0x3cc2056c	0.023684226
63	0xbcb1e6ec	-0.021716557
64	0xbb8d3d08	-0.004310254
65	0xbcad60ac	-0.02116426
66	0xbba04c20	-0.0048918873
67	0xbbdbe5b3	-0.006710732
68	0xbc3d2e62	-0.011546703
69	0xba1839bb	-0.00058069424
70	0x3c753eec	0.014968615
71	0x3cedf649	0.029048102
72	0x3cd6bfdf	0.026214538
73	0xbcd7427b	-0.026276818
74	0xbb888d02	-0.0041672
75	0xbce16f97	-0.02751903
76	0x3c95c62a	0.018282969
77	0x3cc94651	0.024569662
78	0x3c1ede75	0.009696593
79	0x3c413c33	0.011794138
80	0x3d0faa79	0.035074685
81	0xbb69328d	-0.003558311
82	0xbcf75c2c	-0.030195318
83	0xbc88226d	-0.016617978
84	0xbc2be1df	-0.010490864
85	0x3c890bfe	0.016729351
86	0x3a57713f	0.0008218474
87	0x3ce450fa	0.027870644
88	0x3ca13f1d	0.019683415
89	0xbc2768bd	-0.010217843
90	0xbc16b644	-0.009198729
91	0xbc42b3fb	-0.011883731
92	0xbd029e0a	-0.031889
93	0xbc390670	-0.011293039
94	0xbc86cc46	-0.016454827
95	0xbbde232a	-0.006779094
96	0xbc00684d	-0.007837367
97	0xbc592d03	-0.013255361
98	0xbc85821b	-0.01629739
99	0x3bbbcf98	0.005731534
100	0x3bd11dbd	0.006381719
101	0x3c2df73b	0.010618026
102	0x3c9d73a2	0.019220177
103	0xb9f4bb3d	-0.0004667881
104	0x3ba71a5a	0.005099577
105	0xbbcc53f8	-0.006235596
106	0x3d1304ad	0.03589313
107	0x3bd42904	0.006474616
108	0x3cf06f26	0.029349875
109	0xbc95f8d9	-0.018307136
110	0xbcc4df30	-0.024032205
111	0x3c2fc237	0.010727457
112	0xbcbe99f4	-0.02326677
113	0x3cd9f566	0.026606273
114	0x3cc7a6ea	0.024371583
115	0x3d0583bb	0.03259633
116	0x3d19e6b2	0.037573524
117	0x3c95d98a	0.018292207
118	0x3c940f0b	0.01807358
119	0xbaf3e723	-0.0018608313
120	0x3d0e10eb	0.034684103
121	0x3c99fc72	0.018797133
122	0xbb86e3a9	-0.0041164947
123	0xbcf7b08b	-0.03023555
124	0x3bd5999c	0.006518556
125	0x3bcd9260	0.006273553
126	0x3ce37bcf	0.027768997
127	0x3cb929fa	0.022603024
128	0x3d07caf0	0.03315252
129	0x3bb91bf3	0.0056490838
130	0x3c4c6b24	0.012476716
131	0xbce7244b	-0.028215548
132	0x3b9c8476	0.0047765328
133	0x3c0ee7e1	0.008722276
134	0xbca093b9	-0.01960169
135	0xbc8b3f1b	-0.016997864
136	0x3c74d912	0.014944332
137	0xbca5afd3	-0.020225441
138	0xbc59b5b4	-0.01328795
139	0x3cd05657	0.025431795
140	0x3cdab825	0.026699135
141	0xbcfd0c62	-0.030889694
142	0xbd05d0c7	-0.03266981
143	0x3cb204e1	0.021730842
144	0xbc32aca4	-0.010905419
145	0x3b2b3158	0.002612194
146	0xbccb8f44	-0.024848588
147	0xbc810ffb	-0.01575469
148	0x3cdde3ce	0.027086165
149	0xbcb4154f	-0.021982817
150	0x3c527f7d	0.012847778
151	0x3abce346	0.0014410994
152	0x3c32d029	0.010913887
153	0x3ac95335	0.0015359881
154	0xbbf6f217	-0.0075361836
155	0x3c4cf244	0.0125089325
156	0x3c1ed0cf	0.009693339
157	0xbb560c71	-0.0032661224
158	0x3cc1f614	0.02367691
159	0x3d00adef	0.031415876
160	0x3c9742ca	0.018464465
161	0xbc22b541	-0.00993091
162	0xbcd1b0e7	-0.025597049
163	0xbcc3e1bd	-0.023911351
164	0xbc8cba7b	-0.017178765
165	0xbb3bd565	-0.0028661129
166	0x3c94180a	0.018077869
167	0x3c1cbd1a	0.00956657
168	0x3d0121f5	0.031526525
169	0xbd0afcf9	-0.03393266
170	0xbc9f6e88	-0.019461885
171	0x3d0537dd	0.03252398
172	0xbcceda29	-0.025250511
173	0x3cb8c8b2	0.022556636
174	0x3accf580	0.001563713
175	0xbb054a12	-0.0020338339
176	0x3ceceab4	0.028920509
177	0x3d1eaf90	0.03874165
178	0xbc1ee0a6	-0.009697115
179	0x3aa52334	0.0012598992
180	0x3d0e2741	0.034705404
181	0x3d0aadac	0.033857033
182	0x3cdf7da5	0.027281592
183	0xbc7ab10c	-0.015301
184	0xbca22685	-0.019793758
185	0x3d08dc4d	0.03341322
186	0x3d01a546	0.031651758
187	0x3c87d962	0.016583148
188	0x3d407a25	0.046991486
189	0x3d0da9f4	0.034585908
190	0xbbb3c05a	-0.0054855766
191	0x3c9e9fbf	0.019363282
192	0x3d3df805	0.046379108
193	0x3cd72f67	0.02626772
194	0xbc5a86b2	-0.013337778
195	0xbd0fddc8	-0.035123616
196	0x3c1d53e4	0.009602521
197	0x3ca1a299	0.019730853
198	0xbd05d83e	-0.032676928
199	0x3be13439	0.0068726805
200	0xbcb2c427	-0.021822048
201	0x3c6bd403	0.014393809
202	0xbc88bacf	-0.01669064
203	0xbcda5174	-0.026650168
204	0x3d0bd3b7	0.034137454
205	0x3cad27fd	0.021137232
206	0xbc664699	-0.014054918
207	0xbccbaf34	-0.024863817
208	0x3cc6494a	0.024204869
209	0xbcb3b938	-0.021938905
210	0xbc2b8e69	-0.010470965
211	0xbc7cd36a	-0.015431264
212	0x3c3a4f2d	0.011371416
213	0xbaed0133	-0.0018082022
214	0x3c5b4453	0.013382989
215	0xbca25129	-0.01981409
216	0x3cd7702f	0.02629861
217	0x3b9aea92	0.00472767
218	0xbcc586d0	-0.024112135
219	0xbcd2740c	-0.025690101
220	0x3cafc3cd	0.02145567
221	0xbc772fc6	-0.015087074
222	0x3c2b1574	0.010442127
223	0x3a969a7c	0.0011490132
224	0xbc85af28	-0.016318873
225	0x3d2113f8	0.039325684
226	0xbc35b90e	-0.011091484
227	0x3ca57abf	0.020200131
228	0x3ce75c32	0.028242204
229	0x3c92f8c1	0.01794088
230	0x3d126e4a	0.03574971
231	0xbccad66b	-0.024760446
232	0x3bf56dad	0.007489881
233	0x3b837dfb	0.004012821
234	0x3cbb1be6	0.022840451
235	0xbc8afd05	-0.016966352
236	0xbccf82b2	-0.025330875
237	0xbcd9233b	-0.026506057
238	0x3cdb9c01	0.026807787
239	0x3c6524c4	0.013985816
240	0xbd181fee	-0.037139826
241	0xbc149634	-0.009069014
242	0xbcff031b	-0.03112941
243	0xbcefe713	-0.02928499
244	0x3cc3b8ff	0.023891924
245	0xbc8f35dc	-0.017481737
246	0x3c961e8c	0.018325113
247	0x3d0d4dfb	0.034498196
248	0x3c07b7db	0.008283581
249	0x3ca466ba	0.020068515
250	0xbcfc2b02	-0.030782226
251	0xbc74aca1	-0.014933736
252	0xbaeafd5f	-0.0017928294
253	0x3bfbbb8c	0.0076822694
254	0x3c6c24d5	0.014413078
255	0x3c9d823a	0.019227136
