outputs/x3/epoch_117.pth (torch, 231335 bytes, 5 tensors)

conv1.weight f4 [64, 1, 9, 9]
-0.037210748 0.01031007 -0.0478336 0.048479795 -0.08997042 0.08458058 -0.077979624 -0.08610757
-0.06927316 0.05603155 -0.03601774 0.049060225 -0.08649175 -0.0617027 -0.038090248 -0.020089643
-0.08352702 0.07258282 -0.01983562 0.042407915 0.090101875 0.03535241 0.044445187 0.11673258
-0.043607216 0.03958294 -0.047743533 0.086744584 0.09665799 -0.08851102 0.11435498 0.07419686
0.064782426 0.05811001 0.10054558 -0.010963451 -0.08669613 -0.024828708 -0.06621666 0.024919463
-0.00022601827 -0.042181406 0.003967804 0.11462992 -0.004827192 0.012135654 -0.010546374 0.026327627
0.11017547 0.081178896 0.051594686 0.035191465 0.033875264 0.04628061 -0.0048551215 -0.096737586
-0.06218709 0.10126277 0.013318308 -0.08377757 0.02399315 0.096716136 -0.10234191 -0.06486291
-0.037345584 0.010907448 -0.020207854 -0.007459888 -0.10450296 0.056056008 0.10105763 0.07077785
-0.068710215 -0.08228681 0.05300465 0.008824309 0.050887212 -0.10452708 -0.0030278498 0.08151435
0.05449392 0.004303256 0.021011164 -0.011605097 -0.061552573 -0.04193906 -0.06718785 0.09418343
0.062216356 0.037714876 -0.08406055 0.085950665 0.03511508 0.07778406 -0.042571783 0.024982043
0.112011254 0.077747196 0.08931405 -0.021959636 0.08570144 -0.084892705 0.012651853 -0.06046271
-0.025272127 -0.02566426 0.011307786 0.10181406 0.056266215 0.0013691441 0.08336859 -0.05083173
0.061245635 -0.010399688 -0.01848245 0.014599546 -0.08458539 0.013414231 0.038662747 0.09965756
-0.027469028 0.04524213 0.11154894 -0.047142275 0.10666815 -0.05461419 0.04902047 0.04336162
0.033057712 0.092400424 -0.040455826 0.030916456 0.0023954625 -0.082034454 -0.026201736 -0.07462286
0.04734057 0.008328249 0.01053258 -0.033026222 0.0012394732 -0.03303294 0.032747626 0.10774989
0.015924785 -0.051940214 -0.07178424 0.0045915004 -0.085490346 -0.0852384 -0.07261539 -0.038591944
0.006741814 0.0769159 0.04218884 0.08336687 -0.07168351 0.0077495896 -0.09959913 0.06395045
0.022742791 0.106682844 -0.07901575 0.0891037 0.09379496 0.08983124 0.015837781 0.10103641
0.074203715 0.08289507 -0.00724316 -0.08526315 -0.001415793 0.020781523 -0.075689845 -0.06373656
-0.10652403 -0.03895735 0.09678645 0.018984646 -0.0067819236 0.004424093 0.06927735 -0.09812152
-0.08573385 -0.03694174 -0.06394236 0.05731721 0.078519806 -0.10780622 -0.09430255 -0.10820701
0.041901957 0.0894261 -0.08615042 -0.05143653 0.035374053 -0.07253966 0.09437957 0.025862936
-0.030993264 0.0071530016 0.03462321 -0.039305568 -0.08609833 0.0007371318 0.0020311403 0.002234982
-0.016266303 0.07132387 -0.031081168 -0.010833603 0.04566207 -0.06994604 0.029716428 -0.024590332
0.05329391 -0.06027869 0.004096251 0.010860679 -0.08940033 -0.080794156 0.042609897 -0.032339733
0.06598888 -0.10976216 -0.054924697 -0.09151809 0.044385847 -0.003219037 -0.020722007 -0.018482493
-0.08684973 0.03151371 0.0027761455 -0.07667872 0.041810498 -0.0022381716 -0.10746065 0.059770178
0.059433408 -0.020929672 -0.07671496 0.0038180214 0.08216926 0.10059245 -0.08269212 -0.04867483
0.08704304 0.053926576 0.06754943 -0.05763864 0.095884755 -0.09200135 -0.0057945005 0.0035594772
00000000: 4c6a 18bd 91eb 283c 2aed 43bd c092 463d
00000010: 6942 b8bd 9538 ad3d c8b3 9fbd 2a59 b0bd
00000020: 16df 8dbd 5781 653d 5687 13bd 60f3 483d
00000030: 9622 b1bd f8bb 7cbd 8504 1cbd 0993 a4bc
00000040: 3710 abbd 4da6 943d 4f7e a2bc ecb3 2d3d
00000050: 5587 b83d b0cd 103d 280c 363d 7e11 ef3d
00000060: 7b9d 32bd b921 223d b98e 43bd 25a7 b13d
00000070: a0f4 c53d 4445 b5bd f232 ea3d 86f4 973d
00000080: a6ac 843d c304 6e3d d7ea cd3d 0ca0 33bc
00000090: be8d b1bd 9365 cbbc 9a9c 87bd e723 cc3c
000000a0: 51ff 6cb9 69c6 2cbd 5a04 823b 17c3 ea3d
000000b0: 6c2d 9ebb 9fd4 463c b3ca 2cbc 09ad d73c
000000c0: ada3 e13d 1f41 a63d f354 533d ed24 103d
000000d0: cac0 0a3d bd90 3d3d b617 9fbb 5b1e c6bd
000000e0: e4b7 7ebd db62 cf3d 0835 5a3c 9393 abbd
000000f0: 488d c43c 1c13 c63d a398 d1bd d8d6 84bd
00000100: aff7 18bd 27b5 323c f18a a5bc 1372 f4bb
00000110: a605 d6bd fc9a 653d 4df7 ce3d faf3 903d
00000120: f1b7 8cbd fd85 a8bd 671b 593d d693 103c
00000130: 1c6f 503d 4b12 d6bd e46e 46bb fff0 a63d
00000140: 0435 5f3d 5402 8d3b 9b1f ac3c 4e23 3ebc
00000150: 8d1e 7cbd 4bc8 2bbd c999 89bd 3ee3 c03d
00000160: 94d6 7e3d ea7a 1a3d f027 acbd e706 b03d
00000170: d5d4 0f3d 404d 9f3d c05f 2ebd 24a7 cc3c
00000180: 2866 e53d ec39 9f3d 49ea b63d b2e4 b3bc
00000190: 3d84 af3d 3adc adbd b849 4f3c bfa7 77bd
000001a0: 7e07 cfbc db3d d2bc 4b44 393c e483 d03d
000001b0: 6777 663d da74 b33a 27bd aa3d ef34 50bd
000001c0: b4dc 7a3d 7463 2abc 8268 97bc ef32 6f3c
000001d0: 1b3b adbd 5dc7 5b3c d45c 1e3d 4319 cc3d
000001e0: ba06 e1bc d04f 393d c573 e43d 4218 41bd
000001f0: d574 da3d 21b3 5fbd b0c9 483d f49b 313d
00000200: 8667 073d 6f3c bd3d 02b5 25bd 8244 fd3c
00000210: 31fd 1c3b ae01 a8bd 06a5 d6bc dfd3 98bd
00000220: 2fe8 413d 3573 083c d890 2c3c 8146 07bd
00000230: d275 a23a 8c4d 07bd 6022 063d f9ab dc3d
00000240: b274 823c 43bf 54bd 9e03 93bd 4c74 963b
00000250: 9015 afbd 7891 aebd 61b7 94bd 9612 1ebd
00000260: 6fea dc3b 1586 9d3d 35ce 2c3d 40bc aa3d
00000270: cece 92bd 45f0 fd3b a1fa cbbd 74f8 823d
00000280: 174f ba3c 897c da3d 02d3 a1bd 007c b63d
00000290: 9217 c03d 71f9 b73d 3cbe 813c 2dec ce3d
000002a0: 1ef8 973d e4c4 a93d 0858 edbb 729e aebd
000002b0: 2192 b9ba 033e aa3c 4703 9bbd 5088 82bd
000002c0: 4529 dabd be91 1fbd f937 c63d b085 9b3c
000002d0: e63a debb fbf7 903b 49e1 8d3d eff3 c8bd
000002e0: 3b95 afbd 3950 17bd 36f4 82bd 73c5 6a3d
000002f0: fece a03d 82c9 dcbd b221 c1bd a39b ddbd
00000300: 63a1 2b3d 0825 b73d a26f b0bd 1caf 52bd
00000310: 62e4 103d ac8f 94bd 134a c13d 82de d33c
00000320: 96e5 fdbc ba63 ea3b 11d1 0d3d e0fe 20bd
00000330: 5254 b0bd 143c 413a e11c 053b c778 123b
00000340: e940 85bc 4012 923d ef9d febc 6d7f 31bc
00000350: 2708 3b3d df3f 8fbd de6f f33c aa71 c9bc
00000360: b74a 5a3d cae6 76bd d839 863b fdf0 313c
00000370: 8517 b7bd 6877 a5bd b787 2e3d ab76 04bd
00000380: 2e25 873d fcca e0bd b8f8 60bd d66d bbbd
00000390: efcd 353d 7bf6 52bb 33c1 a9bc 9968 97bc
000003a0: 45de b1bd 8514 013d feef 353b bc09 9dbd
000003b0: 7c41 2b3d 4aae 12bb 5414 dcbd 93d1 743d
000003c0: 7270 733d b474 abbc bc1c 9dbd c537 7a3b
000003d0: 5b48 a83d 6a03 ce3d 7c5a a9bd 425f 47bd
000003e0: 9f43 b23d 1de2 5c3d 5b57 8a3d 7f16 6cbd
000003f0: 3a5f c43d 346b bcbd cbdf bdbb 1e46 693b

conv1.bias f4 [64]
-0.013811622 -0.06619611 -0.0047436845 -0.063130155 0.03351661 -0.024900883 0.06273057 0.055612054
0.10878576 -0.072935276 -0.003388821 0.0019408396 -0.0707297 0.09799324 0.0637059 0.06938019
-0.03497297 -0.05166102 0.0663216 0.016215783 0.015150893 -0.021428315 -0.1036956 0.06444314
-0.046614885 0.060965538 -0.027497333 -0.0050781467 0.029824436 0.034920104 0.12323594 -0.04095387
0.03915656 0.04289788 -0.017216193 -0.09073566 -0.016258039 0.075395346 -0.09427795 0.012671263
-0.056609303 -0.05527262 0.09289384 0.0020808824 0.035870496 0.016410047 -0.07939483 -0.11107467
-0.06998408 -0.0063682944 -0.0475698 -0.023294397 0.036313195 -0.0065302895 0.0076007578 -0.05460689
0.07592937 -0.053728554 -0.006441175 0.096674815 0.10422419 -0.058603607 -0.09863808 -0.07654855
00000000: 244a 62bc d391 87bd e970 9bbb 624a 81bd
00000010: b648 093d f0fc cbbc e378 803d 77c9 633d
00000020: 12cb de3d 175f 95bd fb16 5ebb c563 fe3a
00000030: bcda 90bd aeb0 c83d 3d78 823d 3317 8e3d
00000040: d13f 0fbd 819a 53bd 9ed3 873d f6d6 843c
00000050: 733b 783c 6f8a afbc 5c5e d4bd c4fa 833d
00000060: 40ef 3ebd 00b7 793d 1642 e1bc 9566 a6bb
00000070: 6052 f43c 6208 0f3d 2063 fc3d 3fbf 27bd
00000080: a162 203d b0b5 2f3d f908 8dbc 9ed3 b9bd
00000090: 942f 85bc e068 9a3d cc14 c1bd 219b 4f3c
000000a0: 28df 67bd 8b65 62bd 203f be3d 6a5f 083b
000000b0: f1ec 123d 5d6e 863c c299 a2bd 1e7b e3bd
000000c0: d053 8fbd 20ad d0bb 8dd8 42bd e4d3 bebc
000000d0: 25bd 143d 0afc d5bb c70f f93b 79ab 5fbd
000000e0: dc80 9b3d 7912 5cbd 7e10 d3bb 72fd c53d
000000f0: 7e73 d53d 560a 70bd c302 cabd 7cc5 9cbd

conv2.weight f4 [32, 64, 5, 5]
0.0049710223 0.01031615 -0.011511126 -0.019940292 -0.004952331 -0.0062341103 -0.01583442 -0.023775764
-0.01737264 -0.000998465 0.013675054 -0.018721817 -0.009327482 -0.01920091 0.011830752 -0.0015388431
0.016104018 0.0031209232 -0.0048493696 0.021771617 0.016562743 0.0237107 -0.01723855 0.011704083
-0.01576594 -0.015681876 0.018434465 0.0110424105 -0.014539353 -0.016681205 -0.01332118 0.019023143
0.008378535 0.0010846106 -0.017177915 0.007825815 -0.005641773 0.01474555 0.00573849 0.011068436
-0.008484682 -0.00046117033 -0.013843234 0.0055633807 -0.0021555147 -0.021558423 0.013534837 0.009826867
0.014495582 0.010619239 0.0024200855 0.017778447 -0.02167627 0.0068976637 0.019907838 -0.004240223
0.01933251 0.010368906 0.02115795 0.021443523 0.011401986 0.002243869 -0.021227488 -0.009124469
-0.022234501 -0.004004825 0.015173061 0.013538495 0.0018565953 -0.024127543 0.013320558 0.009310272
-0.012706891 -0.02293971 -0.013881178 0.008334435 -0.013558313 -0.017426593 -0.019985272 -0.015010708
-0.0038581553 0.01848437 -0.015384558 -0.022127656 0.020519152 0.013571632 0.007884955 -0.01669856
0.01741521 0.010097164 0.003782518 0.018602485 0.007507903 0.015613793 -0.007324416 0.015544898
-0.011960302 0.0062859277 -0.015449051 -0.022917679 -0.020923832 -0.018484892 0.01348963 0.024119964
0.015158388 -0.00064984517 -0.0003744807 0.0032845843 0.023761274 0.013028255 -0.015157463 -0.013951332
0.020229757 0.013363306 -0.024456723 -0.020711625 0.01288096 -0.012023533 0.018791154 0.016213233
-0.019658767 0.0058613215 -0.004192091 -0.024158813 0.0077693854 0.0027810202 0.0046337787 -0.020228649
-0.005518863 -0.0045656012 -0.021668434 0.01942757 -0.0068686195 0.0118407635 -0.006625974 -0.01952245
-0.0066996687 0.0047324416 0.019777656 0.0038880482 0.0170586 0.011794711 -0.017145023 0.0008119207
0.022171339 -0.007581788 0.010903802 0.021945111 -0.0014089961 -0.009097412 -0.014607749 -0.0013741329
-0.016288567 0.024948671 -0.021061659 0.021756254 0.01651853 -0.021731412 -0.014976304 0.023067476
-0.0032935839 -0.017597461 0.0007237921 -0.0061391606 0.0028061972 0.009705885 -0.021244258 -0.012924323
-0.0009287468 0.022985999 -0.019184269 -0.013367517 0.013822599 0.023348132 0.0025850786 0.00041462484
0.011180714 -0.004874119 0.014839825 0.024809962 0.018090433 -0.024442542 0.019457707 0.023715872
0.010520576 -0.007897262 -0.0031021757 -0.016354306 -0.0039628525 0.016088713 -0.0064652925 -0.003666289
-0.00427906 -2.0909378e-05 0.003481882 -0.0035559477 -0.024440764 -0.008120773 -0.012822338 -0.0090888655
-0.012493093 -0.017591124 -0.02022806 -0.00891815 0.003612178 0.024607515 0.0022753298 0.002172113
0.01222732 0.0056186877 -0.020051848 -0.024356853 -0.015405495 -0.005181698 -0.016837467 0.018607982
-0.0078493925 -0.011719387 -0.017702045 -0.010952955 -0.018818691 0.020895282 0.006657708 -0.021511193
0.024452295 -0.0048449966 0.008430144 -0.0038548098 -0.0045233546 0.013906979 0.021828376 0.009415623
0.024575861 0.023973096 -0.001439271 -0.0023369438 -0.001912702 -0.005660376 -0.009243834 -0.02063562
-0.024010843 -0.009928269 -0.009619127 -0.024381872 -0.005515208 0.01623827 -0.003717448 -0.011091789
-0.00050424197 0.0164379 -0.011217993 -0.01030907 -0.0015461283 -0.0008941417 0.023141094 -0.021931486
00000000: f5e3 a23b 1205 293c 2999 3cbc d359 a3bc
00000010: 2a47 a2bb 8247 ccbb 30b7 81bc 64c5 c2bc
00000020: 1151 8ebc edde 82ba 550d 603c 7f5e 99bc
00000030: 4cd2 18bc 3a4b 9dbc c5d5 413c 02b3 c9ba
00000040: 93ec 833c 6788 4c3b 76e7 9ebb 645a b23c
00000050: 97ae 873c f13c c23c dc37 8dbc 7bc2 3f3c
00000060: 9327 81bc 4777 80bc e003 973c 3aeb 343c
00000070: 7736 6ebc 06a7 88bc 1441 5abc 6cd6 9b3c
00000080: 1f46 093c 7e29 8e3a b3b8 8cbc d937 003c
00000090: 9fde b8bb 5297 713c f109 bc3b 6358 353c
000000a0: 5603 0bbc 3cc9 f1b9 bbce 62bc 054d b63b
000000b0: 8943 0dbb 4a9b b0bc 39c1 5d3c de00 213c
000000c0: e17e 6d3c 51fc 2d3c 4c9a 1e3b 1ba4 913c
000000d0: 6f92 b1bc cc05 e23b c315 a33c 92f1 8abb
000000e0: 365f 9e3c 58e2 293c 7053 ad3c 54aa af3c
000000f0: 65cf 3a3c e00d 133b 45e5 adbc cc7e 15bc
00000100: 2125 b6bc e83a 83bb 6e98 783c 90d0 5d3c
00000110: 0059 f33a 20a7 c5bc 783e 5a3c 1c8a 183c
00000120: 9030 50bc 0fec bbbc e16d 63bc 278d 083c
00000130: b023 5ebc 37c2 8ebc 27b8 a3bc 79ef 75bc
00000140: 1bd9 7cbb 896c 973c 830f 7cbc 0f45 b5bc
00000150: c817 a83c 8d5b 5e3c e62f 013c 6bcb 88bc
00000160: 58aa 8e3c 936e 253c 1fe4 773b 3d64 983c
00000170: db04 f63b ffd0 7f3c a801 f0bb 07b0 7e3c
00000180: 24f5 43bc 2ffa cd3b 041e 7dbc dbbd bbbc
00000190: 7568 abbc a16d 97bc 9c03 5d3c 3b97 c53c
000001a0: e35a 783c 5f5a 2aba f355 c4b9 2e42 573b
000001b0: 01a7 c23c 7674 553c 0257 78bc 2194 64bc
000001c0: e0b8 a53c c5f1 5a3c 7759 c8bc 6dab a9bc
000001d0: a90a 533c 5afe 44bc e8ef 993c 9dd1 843c
000001e0: 6c0b a1bc 5410 c03b cf5d 89bb b4e8 c5bc
000001f0: 5496 fe3b c741 363b f4d6 973b 8db6 a5bc
00000200: 94d7 b4bb 0a9b 95bb 0082 b1bc 9126 9f3c
00000210: 2812 e1bb c3ff 413c b31e d9bb 8ced 9fbc
00000220: e588 dbbb 9912 9b3b c004 a23c a0ce 7e3b
00000230: 7abe 8b3c 9b3e 413c b873 8cbc 13d7 543a
00000240: aba0 b53c a670 f8bb dca5 323c 3cc6 b33c
00000250: 10ae b8ba 500d 15bc 5755 6fbc 401c b4ba
00000260: 9a6f 85bc 2861 cc3c 8089 acbc 2c3a b23c
00000270: de51 873c 1306 b2bc 2c5f 75bc 01f8 bc3c
00000280: 2bd9 57bb 8d28 90bc debc 3d3a 032b c9bb
00000290: 2de8 373b 6f05 1f3c 7008 aebc 8ac0 53bc
000002a0: 2577 73ba 224d bc3c 5428 9dbc 6e03 5bbc
000002b0: 2f78 623c 9544 bf3c 6c6a 293b 0162 d939
000002c0: 502f 373c 13b7 9fbb bd22 733c 433e cb3c
000002d0: 6332 943c ba3b c8bc c565 9f3c ca47 c23c
000002e0: 7e5e 2c3c 8563 01bc df4d 4bbb 77f9 85bc
000002f0: d1da 81bb 7acc 833c ceda d3bb 1f46 70bb
00000300: 5b37 8cbb 8c66 afb7 4930 643b e70a 69bb
00000310: ff37 c8bc fe0c 05bc c914 52bc 77e9 14bc
00000320: d4af 4cbc 431b 90bc 51b5 a5bc 6f1d 12bc
00000330: 4aba 6c3b b395 c93c b31d 153b 025a 0e3b
00000340: 1955 483c f81c b83b c643 a4bc 0688 c7bc
00000350: 5467 7cbc 3ccb a9bb baee 89bc c46f 983c
00000360: bd9a 00bc ac02 40bc e103 91bc 0674 33bc
00000370: a829 9abc 952c ab3c e728 da3b 3e38 b0bc
00000380: 2e50 c83c c7c2 9ebb 961e 0a3c faa0 7cbb
00000390: a638 94bb 19da 633c 6cd1 b23c fc43 1a3c
000003a0: 5153 c93c 3a63 c43c eca5 bcba 6927 19bb
000003b0: a1b3 faba ad7a b9bb 7373 17bc 080c a9bc
000003c0: 63b2 c4bc 2eaa 22bc 8b99 1dbc 7ebc c7bc
000003d0: ebb8 b4bb 1f06 853c 6ea0 73bb 56ba 35bc
000003e0: 1b2f 04ba c6a8 863c accb 37bc 60e7 28bc
000003f0: 75a7 caba d564 6aba 6492 bd3c a9a9 b3bc

conv2.bias f4 [32]
-0.009671402 -0.024154557 -0.004148294 0.015218648 0.027407056 0.020822909 -0.01467645 0.038232192
0.003142451 -0.011472544 -0.007290285 0.0038566787 0.03178367 0.02700138 -0.00543544 -0.009573408
-0.01596661 -0.017766098 0.025120283 0.022808388 0.00091326894 0.0016933315 -0.0049085123 -0.00012294723
0.011782478 -0.01061123 0.013858234 0.027671108 0.006068671 -0.01668871 -0.0055974172 -0.0050106365
00000000: cd74 1ebc c7df c5bc 6aee 87bb a357 793c
00000010: c384 e03c ce94 aa3c 7e75 70bc 5c99 1c3d
00000020: 94f1 4d3b 56f7 3bbc 58e3 eebb 55c0 7c3b
00000030: 982f 023d 0032 dd3c c71b b2bb c9d9 1cbc
00000040: 68cc 82bc 358a 91bc 0dc9 cd3c a8d8 ba3c
00000050: 7168 6f3a c7f2 dd3a 96d7 a0bb 65eb 00b9
00000060: 4b0b 413c b9da 2dbc a50d 633c 85ae e23c
00000070: b4db c63b c3b6 88bc 8a6a b7bb 4430 a4bb

conv3.weight f4 [1, 32, 5, 5]
0.019051047 0.018121988 -0.0018864216 0.024373211 0.030216753 -0.02927317 0.0014997388 -0.033929225
0.004177117 0.010240355 -0.0022269648 0.028099887 0.012469922 -0.029554736 -0.0029307143 -0.015417661
-0.028297978 0.0001599641 -0.031550318 0.02351989 0.0045767496 0.0127715245 0.01982014 0.027822882
-0.017337983 0.0050151637 -0.02958783 0.010461303 0.026571065 -0.021794736 0.023513217 -0.011690335
0.014148864 -0.0141313365 0.007997004 -0.02953486 0.032507934 -0.002068388 0.035994425 -0.00938678
0.016991884 -0.01332579 -0.011211716 -0.0073176622 0.019098071 0.01566018 0.023417598 -0.0031173602
0.005607089 0.023808802 -0.0138925975 -0.01168712 0.02685587 -0.029874763 -0.017180974 -0.019665804
-0.007433468 -0.025969613 0.00818897 -0.024759762 -0.01557714 -0.0344308 0.02368426 -0.021716557
-0.004310254 -0.02116426 -0.0048912866 -0.0067065964 -0.011546703 -0.00058069546 0.014968615 0.029048102
0.026214538 -0.026276818 -0.0041672 -0.027515186 0.018311668 0.024584297 0.00971329 0.011799654
0.035098664 -0.0035009151 -0.03016611 -0.016605226 -0.010477463 0.016799383 0.00088218745 0.02790519
0.019683791 -0.010211507 -0.009113765 -0.011819086 -0.031852756 -0.011282613 -0.016438523 -0.0067434134
-0.007829364 -0.01327595 -0.016342677 0.0056857294 0.0059537613 0.010469621 0.019344173 -0.00048849435
0.005001452 -0.0064742756 0.035961226 0.006896279 0.02963296 -0.018174173 -0.023899235 0.0110821435
-0.022610405 0.02711789 0.024687536 0.032930285 0.037929475 0.01870893 0.018377408 -0.0016018355
0.03477557 0.018865421 -0.0041305437 -0.030316735 0.0064961277 0.006549813 0.027991263 0.022925507
0.03355251 0.0058991937 0.012841527 -0.028108671 0.004758549 0.008767001 -0.019598514 -0.016924258
0.014674042 -0.020634899 -0.013562736 0.025253482 0.02662723 -0.03123967 -0.033070352 0.021625327
-0.010805048 0.0024953745 -0.025113776 -0.015968638 0.027134443 -0.021790333 0.012847778 0.0014410812
0.010913887 0.0015359716 -0.007536188 0.012508799 0.009693009 -0.0032621427 0.023676591 0.031415876
0.01846446 -0.009931071 -0.025597058 -0.023911366 -0.017178768 -0.0028666423 0.018077867 0.009566536
0.031526525 -0.03393266 -0.019461885 0.03252398 -0.025250511 0.022556636 0.0015638932 -0.0020317058
0.029304333 0.039327793 -0.009599484 0.0012010272 0.0349285 0.034640566 0.0284464 -0.014756546
-0.019555386 0.03402428 0.032959674 0.018407887 0.047992315 0.035028696 -0.0053748037 0.019881481
0.047248136 0.02663378 -0.013374219 -0.035480887 0.0094936015 0.019945176 -0.032581348 0.006779233
-0.021822048 0.014394156 -0.016701384 -0.026656281 0.03413729 0.021137232 -0.014053055 -0.024867652
0.024201429 -0.021939507 -0.01047099 -0.015418126 0.011403738 -0.0017914479 0.013397625 -0.01981409
0.02629868 0.00474033 -0.024109699 -0.025683653 0.02145567 -0.015086769 0.010450513 0.0011536761
-0.016312953 0.039485466 -0.011032038 0.020457786 0.028473051 0.017807897 0.03582859 -0.024816835
0.007745188 0.0043758303 0.022993207 -0.017372191 -0.025864542 -0.026625313 0.026977139 0.014158649
-0.0375759 -0.009557778 -0.031236537 -0.029107235 0.024095051 -0.017735617 0.01811412 0.03460801
0.008465487 0.020103604 -0.030782226 -0.014933736 -0.0017928109 0.0076822694 0.014413078 0.019227136
00000000: f110 9c3c 9074 943c ce41 f7ba 54aa c73c
00000010: 2089 f73c 49ce efbc e292 c43a 5ff9 0abd
00000020: 32e0 883b 29c7 273c 45f2 11bb bc31 e63c
00000030: a54e 4c3c c61c f2bc 3a11 40bb 5b9a 7cbc
00000040: 29d1 e7bc 09bc 2739 e83a 01bd c9ac c03c
00000050: 8ff8 953b a83f 513c d95d a23c d0ec e33c
00000060: 6308 8ebc 3e56 a43b 2d62 f2bc e365 2b3c
00000070: 90ab d93c e08a b2bc ca9e c03c d288 3fbc
00000080: a3d0 673c 1f87 67bc de05 033c 17f3 f1bc
00000090: 0a27 053d cb8d 07bb e46e 133d 02cb 19bc
000000a0: 9032 8b3c 6a54 5abc 58b1 37bc 00c9 efbb
000000b0: 8f73 9c3c c749 803c 43d6 bf3c a04c 4cbb
000000c0: acbb b73b ad0a c33c c79d 63bc 567b 3fbc
000000d0: d700 dc3c ebbb f4bc 1dbf 8cbc 2e1a a1bc
000000e0: 7394 f3bb 3abe d4bc 082b 063c fcd4 cabc
000000f0: 4337 7fbc 4f07 0dbd 7e05 c23c ece6 b1bc
00000100: 083d 8dbb ac60 adbc 1647 a0bb 02c3 dbbb
00000110: 622e 3dbc d039 18ba ec3e 753c 49f6 ed3c
00000120: dfbf d63c 7b42 d7bc 028d 88bb 8767 e1bc
00000130: 5a02 963c 0265 c93c 7e24 1f3c 5653 413c
00000140: 9ec3 0f3d 9c6f 65bb eb1e f7bc af07 88bc
00000150: aaa9 2bbc dc9e 893c 9942 673a 6d99 e43c
00000160: e73f a13c 2a4e 27bc e751 15bc d7a4 41bc
00000170: 0978 02bd b5da 38bc 15aa 86bc daf7 dcbb
00000180: bc46 00bc 5f83 59bc 14e1 85bc 5b4f ba3b
00000190: c517 c33b c688 2b3c ac77 9e3c 4d0e 00ba
000001a0: 38e3 a33b 2926 d4bb 144c 133d 2efa e13b
000001b0: d2c0 f23c 01e2 94bc 54c8 c3bc e191 353c
000001c0: 7539 b9bc 5626 de3c 843d ca3c e8e1 063d
000001d0: f05b 1b3d 7843 993c 388c 963c aef4 d1ba
000001e0: d470 0e3d a88b 9a3c 8359 87bb cd5a f8bc
000001f0: 78dd d43b d09f d63b ef4d e53c 46ce bb3c
00000200: 5b6e 093d 064e c13b 4565 523c 2844 e6bc
00000210: 9aed 9b3b 78a3 0f3c 108d a0bc bea4 8abc
00000220: 656b 703c 850a a9bc 3d36 5ebc 64e0 ce3c
00000230: 5921 da3c 56ea ffbc c774 07bd 9927 b13c
00000240: a807 31bc 7089 233b 68bb cdbc a9d0 82bc
00000250: 0d49 de3c a481 b2bc 7d7f 523c a9e2 bc3a
00000260: 29d0 323c a852 c93a 20f2 f6bb b5f1 4c3c
00000270: 6dcf 1e3c acc9 55bb 69f5 c13c efad 003d
00000280: c742 973c eeb5 22bc ecb0 d1bc c5e1 c3bc
00000290: 7dba 8cbc 47de 3bbb 0918 943c f6bc 1c3c
000002a0: f521 013d f9fc 0abd 886e 9fbc dd37 053d
000002b0: 29da cebc b2c8 b83c 8cfb cc3a 5e26 05bb
000002c0: a40f f03c 2e16 213d 2747 1dbc c96b 9d3a
000002d0: 3011 0f3d 44e3 0d3d 6d08 e93c 71c5 71bc
000002e0: 9e32 a0bc 0b5d 0b3d b900 073d 23cc 963c
000002f0: 9793 443d 407a 0f3d 1f1f b0bb 7dde a23c
00000300: 4387 413d 162f da3c 8a1f 5bbc 6854 11bd
00000310: 0d8b 1b3c 1164 a33c 0574 05bd 5424 de3b
00000320: 27c4 b2bc 77d5 6b3c 57d1 88bc 465e dabc
00000330: 8bd3 0b3d fd27 ad3c c93e 66bc 3fb7 cbbc
00000340: 1342 c63c 7bba b3bc 848e 2bbc 4f9c 7cbc
00000350: bed6 3a3c 04cf eaba b681 5b3c 2951 a2bc
00000360: 5470 d73c c554 9b3b b481 c5bc 8666 d2bc
00000370: cdc3 af3c 7f2e 77bc a138 2b3c f236 973a
00000380: bea2 85bc 83bb 213d b9bf 34bc 1697 a73c
00000390: 5140 e93c dee1 913c 00c1 123d ad4c cbbc
000003a0: 59cb fd3b 2063 8f3b 405c bc3c 2050 8ebc
000003b0: e0e1 d3bc 541d dabc 29ff dc3c aef9 673c
000003c0: 30e9 19bd 3a98 1cbc c4e3 ffbc 4c72 eebc
000003d0: fc62 c53c 494a 91bc 1064 943c 21c1 0d3d
000003e0: d3b2 0a3c 50b0 a43c 022b fcbc a1ac 74bc
000003f0: c0fc eaba 8cbb fb3b d524 6c3c 3a82 9d3c
