outputs/x3/epoch_76.pth (torch, 231327 bytes, 5 tensors)

conv1.weight f4 [64, 1, 9, 9]
000000 dd d5 1b bd db 97 1d 3c 52 2b 46 bd 33 72 46 3d
       -0.038045753 0.009618725 -0.048381157 0.048448753
000010 a7 08 b7 bd eb 46 ae 3d 73 9a 9f bd d8 b2 b0 bd
       -0.08937197 0.0850962 -0.07793131 -0.08627862
000020 e4 e7 8d bd 47 97 63 3d 73 e4 14 bd de 21 47 3d
       -0.06928995 0.05556419 -0.03635068 0.048616283
000030 0f 50 b1 bd 35 21 7a bd c1 80 18 bd f0 6c a1 bc
       -0.08657848 -0.061066825 -0.037232164 -0.019705266
000040 ee 3d ab bd bb 67 94 3d e8 9a a3 bc 61 00 2d 3d
       -0.083614215 0.072463475 -0.019971326 0.04223669
000050 29 cd b6 3d 87 b9 0b 3d 78 49 32 3d 12 aa ee 3d
       0.0892585 0.03411248 0.043527097 0.11653532
000060 9c e2 32 bd b5 43 21 3d d5 d8 43 bd 08 40 b2 3d
       -0.043673143 0.03937121 -0.04781421 0.08703619
000070 13 61 c6 3d c2 fc b6 bd 28 24 e6 3d b2 5e 93 3d
       0.09686484 -0.089349285 0.11237365 0.07195796
000080 42 14 82 3d 9f 09 6b 3d 31 74 cd 3d d9 61 2e bc
       0.0635152 0.057382222 0.100319274 -0.010643446
000090 73 80 b0 bd f0 dc c6 bc f1 35 88 bd 90 5c c0 3c
       -0.0861825 -0.024275273 -0.066509135 0.023481637
0000a0 c3 70 0f bb 3c 46 32 bd 0c ce 48 3b cc 54 ea 3d
       -0.002188728 -0.043524012 0.0030640392 0.11441955
0000b0 e4 a2 88 bb 4b 2c 46 3c 1f 08 29 bc 9d 4f d8 3c
       -0.0041698087 0.012095521 -0.010316878 0.02640515
0000c0 c9 5d e1 3d b5 a9 a5 3d 6a 67 52 3d d0 61 0e 3d
       0.11004216 0.0808901 0.051368155 0.03476125
0000d0 4f 52 0a 3d 10 a8 3f 3d fe 42 ae bb 6a 61 c6 bd
       0.0337699 0.046791136 -0.0053180447 -0.09686549
0000e0 2f 66 7e bd 07 4a d0 3d c6 b6 66 3c 6f 37 aa bd
       -0.06210917 0.101703696 0.0140816625 -0.08311354
0000f0 6d 90 c5 3c 7d 1f c6 3d 1b 3f d1 bd 18 4e 85 bd
       0.02411672 0.09673975 -0.102171145 -0.06509036
000100 4c 39 19 bd 22 8a 33 3c f5 61 a2 bc e8 14 d7 bb
       -0.03740816 0.010958226 -0.0198221 -0.0065637715
000110 12 14 d4 bd 98 cb 67 3d 80 93 cf 3d 9f 47 91 3d
       -0.103553906 0.056590647 0.10135555 0.07093739
000120 4f 4f 8c bd 6c 21 a8 bd 97 e3 59 3d 4f a2 15 3c
       -0.068510644 -0.082095 0.053195562 0.009132936
000130 ba 22 53 3d de 6d d4 bd 0c 65 17 bb e1 47 a8 3d
       0.05154679 -0.10372518 -0.0023101 0.08216835
000140 a9 7f 61 3d 0e ac 7d 3b 93 92 a9 3c 29 0d 3e bc
       0.055053387 0.003870729 0.020699775 -0.011599817
000150 cb 8d 7b bd a3 9f 2b bd c5 24 8a bd 92 aa bf 3d
       -0.06141452 -0.04190029 -0.067452945 0.093587056
000160 6f d8 7c 3d c8 87 1a 3d 9b 9c ac bd 3c 04 b0 3d
       0.061729845 0.037727147 -0.084283076 0.08594558
000170 9b 27 11 3d 35 38 a0 3d 72 02 2d bd 67 e0 cb 3c
       0.03543816 0.07823221 -0.04223866 0.024887277
000180 34 cf e3 3d 2d 94 9d 3d 76 c2 b6 3d 5b 33 b3 bc
       0.11123505 0.07694278 0.08923809 -0.021875074
000190 92 09 b0 3d b2 3e ad bd 56 89 53 3c fd 19 76 bd
       0.085955754 -0.08459224 0.012911161 -0.060083378
0001a0 b7 ca cb bc 2c 5d d5 bc fe 28 2e 3c db 3f d0 3d
       -0.024876935 -0.026045404 0.0106298905 0.101684295
0001b0 8b bf 67 3d 71 b2 d4 3a 2d 3e aa 3d 41 bd 52 bd
       0.056579154 0.0016227496 0.0831264 -0.051450018
0001c0 ca ff 79 3d 7b 07 1f bc 5a 63 94 bc 3e ca 6d 3c
       0.061034955 -0.009706373 -0.01811378 0.01451355
0001d0 52 3a ad bd ca 48 62 3c ae 64 1f 3d a7 ff ca 3d
       -0.08458389 0.0138113 0.038914375 0.09912043
0001e0 e9 37 eb bc ef 8d 35 3d 2d 30 e5 3d 39 04 3f bd
       -0.028713183 0.04432481 0.111908294 -0.046634886
0001f0 ce df da 3d b9 4c 5f bd 74 77 49 3d 3f bb 32 3d
       0.106872186 -0.054516528 0.049186185 0.043635603
000200 a5 e9 06 3d 00 b4 bb 3d 47 72 29 bd e7 81 fb 3c
       0.032937665 0.09165192 -0.04136875 0.03070159
000210 ea 69 1b 3b 33 24 a8 bd 5d 78 d7 bc 3c 82 99 bd
       0.0023714253 -0.082100295 -0.02630251 -0.07495543
000220 67 0b 42 3d e8 38 0d 3c 33 90 2f 3c 71 16 08 bd
       0.047374155 0.008619525 0.010715532 -0.033224527
000230 ec ed 6b 3a 14 07 09 bd df bb 04 3d 7b 11 dc 3d
       0.00089999917 -0.033454016 0.03240573 0.10745522
000240 1b 9c 7a 3c a8 d7 55 bd 61 55 92 bd 67 b3 ad 3b
       0.0152960075 -0.05220762 -0.07145191 0.0053009274
000250 4a fe ad bd 9b 84 ae bd 83 4b 95 bd cd 2e 1f bd
       -0.084957674 -0.08521386 -0.07289793 -0.038862992
000260 c7 a3 d2 3b de 58 9c 3d 10 d9 2a 3d ae 9b aa 3d
       0.006428215 0.076341376 0.041710913 0.08330475
000270 82 1c 92 bd 4f 06 05 3c 3e d5 cb bd c1 bf 82 3d
       -0.07134344 0.00811918 -0.09952782 0.063842304
000280 36 d0 b9 3c ca 2d da 3d f9 d3 a1 bd b0 7b b6 3d
       0.02268229 0.10653265 -0.07901759 0.0891031
000290 2f 18 c0 3d f6 f9 b7 3d 44 bc 81 3c f6 e9 ce 3d
       0.09379613 0.08983223 0.015836842 0.10103218
0002a0 a9 f5 97 3d 54 c2 a9 3d 40 80 ed bb 45 9f ae bd
       0.07419903 0.08289018 -0.0072479546 -0.08526472
0002b0 a9 d7 b8 ba 1a 59 aa 3c fb 02 9b bd c8 88 82 bd
       -0.0014102358 0.02079444 -0.07568928 -0.06373745
0002c0 b9 2a da bd 40 98 1f bd 0d 35 c6 3d 59 74 9b 3c
       -0.1065268 -0.038963556 0.096780874 0.018976377
0002d0 c4 73 de bb bb 2e 91 3b 70 e1 8d 3d d0 f3 c8 bd
       -0.0067887027 0.0044306195 0.069277644 -0.098121285
0002e0 37 95 af bd fa 53 17 bd e0 f5 82 bd b5 b9 6a 3d
       -0.08573382 -0.03694532 -0.06394553 0.05730601
0002f0 38 cb a0 3d 7e c9 dc bd 9b 21 c1 bd 75 9b dd bd
       0.07851261 -0.10780619 -0.09430238 -0.10820667
000300 86 a3 2b 3d 18 25 b7 3d a5 6f b0 bd 80 b4 52 bd
       0.041903995 0.08942622 -0.086150445 -0.05144167
000310 2b d8 10 3d 91 93 94 bd 7f 4a c1 3d f3 ee d3 3c
       0.035362404 -0.072547086 0.09438037 0.025870776
000320 89 ca fd bc e6 e7 ea 3b 2e d4 0d 3d 70 fc 20 bd
       -0.030980365 0.0071687577 0.03462618 -0.039303243
000330 0e 54 b0 bd 66 17 40 3a 8e 61 04 3b 62 16 12 3b
       -0.08609782 0.00073277054 0.0020199749 0.0022291173
000340 b0 2f 85 bc 81 13 92 3d 90 7d fe bc 1f 37 31 bc
       -0.01625809 0.07132626 -0.031065732 -0.010816365
000350 84 0b 3b 3d 03 3f 8f bd 5c 74 f3 3c ba 77 c9 bc
       0.04566528 -0.069944404 0.02971857 -0.024593223
000360 f3 4a 5a 3d 63 e6 76 bd 94 2b 86 3b 39 f1 31 3c
       0.053294133 -0.060278308 0.0040945504 0.010860735
000370 84 17 b7 bd 67 77 a5 bd 21 88 2e 3d c0 76 04 bd
       -0.08940032 -0.08079415 0.04261029 -0.03233981
000380 23 25 87 3d fc ca e0 bd b8 f8 60 bd d6 6d bb bd
       0.0659888 -0.10976216 -0.054924697 -0.09151809
000390 0b ce 35 3d 42 05 53 bb 51 c1 a9 bc ca 68 97 bc
       0.04438595 -0.0032199179 -0.020722063 -0.018482585
0003a0 45 de b1 bd 85 14 01 3d e5 dc 35 3b bc 09 9d bd
       -0.08684973 0.03151371 0.0027750072 -0.07667872
0003b0 7d 41 2b 3d 09 93 12 bb 54 14 dc bd 93 d1 74 3d
       0.0418105 -0.0022365472 -0.10746065 0.059770178
0003c0 72 70 73 3d 04 75 ab bc bc 1c 9d bd 7a ca 84 3b
       0.059433408 -0.02092982 -0.07671496 0.0040524574
0003d0 02 c4 a8 3d 68 5d ce 3d c2 a5 a9 bd 66 10 49 bd
       0.082405105 0.100764096 -0.08283569 -0.049087904
0003e0 3b 82 b1 3d 7a fb 5b 3d d8 29 8a 3d 2b c2 6a bd
       0.086674176 0.053706624 0.06746262 -0.05731408
0003f0 ab b3 c4 3d 1b 23 bc bd 8c 4b b6 bb 14 23 74 3b
       0.096045814 -0.09186383 -0.005563205 0.0037252354

conv1.bias f4 [64]
000000 49 b5 6b bc b6 da 88 bd 52 75 9b bb 48 d6 84 bd
       -0.0143864835 -0.06682341 -0.0047442103 -0.064861834
000010 e1 90 06 3d 92 0f d0 bc ad 72 7f 3d d2 b2 63 3d
       0.03285301 -0.02539805 0.062365223 0.05559046
000020 be a1 e0 3d 12 70 93 bd 53 00 96 bb 0c ab 2e 39
       0.1096835 -0.0719911 -0.0045776754 0.00016657653
000030 12 7f 97 bd 50 71 c4 3d 9b fe 84 3d 32 97 90 3d
       -0.073972836 0.09591925 0.06493875 0.07060088
000040 98 49 19 bd d3 37 5a bd 4a 87 86 3d 82 72 86 3c
       -0.0374237 -0.053275894 0.06568773 0.016412023
000050 b9 41 6e 3c 07 0a af bc 86 e5 d0 bd 92 18 83 3d
       0.014542037 -0.021367086 -0.10200028 0.06401171
000060 f1 be 46 bd f6 8d 81 3d f7 6c e1 bc ba 1f 1a bc
       -0.04852194 0.06325905 -0.027517779 -0.009406978
000070 42 65 ef 3c 5e 3d 06 3d 46 07 f9 3d 21 f2 27 bd
       0.029223088 0.032773368 0.121595904 -0.041002396
000080 21 be 20 3d e9 72 32 3d 8b 85 78 bc 85 15 be bd
       0.03924382 0.043566618 -0.015168558 -0.09281448
000090 16 88 96 bc b3 10 9c 3d b1 12 c1 bd bf 95 55 3c
       -0.018375438 0.076203726 -0.09427393 0.0130361905
0000a0 ca fa 6a bd ce 65 62 bd 3b e4 bc 3d 70 c5 52 3b
       -0.057368077 -0.05527287 0.09223219 0.003216114
0000b0 37 b9 0f 3d 01 7b 8d 3c 46 83 a2 bd 1e 7b e3 bd
       0.035088744 0.017270567 -0.07935195 -0.11107467
0000c0 4d 35 8f bd 0d 16 07 bc 30 52 44 bd 7e 3c bd bc
       -0.06992588 -0.008245003 -0.047929943 -0.023100134
0000d0 ef 33 1a 3d 19 f7 de bb f4 f5 01 3c 5f 0d 5f bd
       0.037647184 -0.0068043587 0.007932175 -0.05445611
0000e0 ae 1a 9b 3d 91 4a 61 bd 4e ce de bb 3b 4d c1 3d
       0.07573448 -0.055002753 -0.006799496 0.09438559
0000f0 04 b8 d2 3d 64 1e 71 bd df 89 ca bd 25 fa a0 bd
       0.102890044 -0.058866873 -0.09889578 -0.07860211

conv2.weight f4 [32, 64, 5, 5]
000000 3d 5a a1 3b 30 7d 28 3c 84 ff 3c bc 37 6f a3 bc
       0.0049240873 0.010283753 -0.011535529 -0.019950492
000010 ad 72 a2 bb 57 7d cf bb 1d 75 82 bc 21 50 c3 bc
       -0.004957518 -0.0063320803 -0.015924985 -0.02384192
000020 b8 a1 8e bc f9 7d 88 ba 40 5b 5a 3c 43 1e 9c bc
       -0.017411098 -0.0010413519 0.01332742 -0.019057399
000030 be 9c 1d bc 2d 70 9f bc 60 57 3d 3c ce 1c 04 bb
       -0.00961989 -0.01946267 0.011556476 -0.002015877
000040 7d 32 80 3c b2 f0 32 3b c4 87 aa bb 96 69 af 3c
       0.015649075 0.002730411 -0.005204173 0.021412652
000050 95 d7 83 3c ec 7b be 3c a9 80 90 bc ca db 39 3c
       0.016094008 0.02325245 -0.017639475 0.011343906
000060 ea fa 83 bc 07 3a 80 bc d7 17 97 3c ce e9 34 3c
       -0.016110856 -0.01565267 0.018443985 0.0110420715
000070 08 58 6e bc f9 c6 88 bc c3 8b 5b bc 1a 29 9b 3c
       -0.0145473555 -0.01669644 -0.013400021 0.018940497
000080 df e7 07 3c 19 b9 83 3a 91 6c 8d bc e6 c2 fc 3b
       0.0082950285 0.001004967 -0.017263683 0.0077136634
000090 c4 20 bc bb 96 f9 6f 3c a0 08 b9 3b 44 e3 33 3c
       -0.0057412107 0.014646908 0.00564678 0.010979477
0000a0 00 50 0d bc bf ed 1b ba cc 3a 65 bc 85 4d b1 3b
       -0.0086250305 -0.00059482077 -0.013991069 0.0054108524
0000b0 df cd 16 bb 35 8e b2 bc 55 d8 59 3c 7e d2 1c 3c
       -0.0023010892 -0.021796325 0.0132962065 0.00957167
0000c0 8c 16 69 3c 95 9d 29 3c f9 9e 1e 3b 1b a4 91 3c
       0.014226567 0.010352512 0.0024203642 0.017778447
0000d0 6f 92 b1 bc 24 06 e2 3b c3 15 a3 3c 3e f4 8a bb
       -0.02167627 0.0068977047 0.019907838 -0.0042405417
0000e0 27 5f 9e 3c d0 de 29 3c 67 53 ad 3c 52 aa af 3c
       0.019332482 0.010368064 0.021157933 0.02144352
0000f0 e5 ce 3a 3c 4b 06 13 3b b2 e5 ad bc 6a 84 15 bc
       0.011401867 0.002243417 -0.021227691 -0.009125808
000100 c0 26 b6 bc 6c 3d 83 bb 8d 98 78 3c 7e cb 5d 3c
       -0.022235274 -0.004005125 0.01517309 0.013537286
000110 15 fd f2 3a 3d aa c5 bc 59 40 5a 3c 9e 93 18 3c
       0.0018538559 -0.024129028 0.013321006 0.009312538
000120 2a 23 50 bc b1 e9 bb bc 1e 6a 63 bc 75 c4 08 3c
       -0.012703696 -0.022938581 -0.013880281 0.00834762
000130 af 72 5d bc 8d 2c 8e bc e1 24 a3 bc fe 1d 75 bc
       -0.013516112 -0.017355228 -0.019915046 -0.014960764
000140 0e f9 82 bb e8 8a 96 3c 9a 1d 7d bc 2c b3 b5 bc
       -0.003996975 0.018376783 -0.015448952 -0.022180162
000150 ce 75 a7 3c b4 30 5d 3c 11 82 00 3c 19 c8 88 bc
       0.020441916 0.013500381 0.00784351 -0.016696976
000160 c8 ec 8e 3c 87 eb 25 3c 93 52 69 3b 6b bb 96 3c
       0.01744689 0.010126955 0.0035602197 0.018399915
000170 82 f0 f0 3b 28 09 7e 3c 39 4e f3 bb 4e b4 7b 3c
       0.0073528895 0.015505113 -0.0074250964 0.015362812
000180 8b 05 47 bc 0b d3 c8 3b 6b 12 7f bc 2b a7 bc bc
       -0.012147318 0.006128674 -0.015568356 -0.02302893
000190 24 f0 ab bc ce d8 97 bc 67 5a 5c 3c 28 64 c5 3c
       -0.020988531 -0.018535998 0.013449288 0.02409561
0001a0 64 06 78 3c 90 9c 5a ba 9f a3 12 ba c5 63 4c 3b
       0.015138242 -0.00083393697 -0.00055938395 0.0031187397
0001b0 3b a6 c1 3c 58 b7 53 3c 6e 9b 7c bc fc 2c 69 bc
       0.023638835 0.0129221305 -0.015417917 -0.0142319165
0001c0 0d 7b a3 3c c7 20 57 3c fc 02 ca bc 56 b7 ab bc
       0.019956136 0.013130373 -0.024659626 -0.020961445
0001d0 d5 8e 4e 3c 2c 9e 49 bc 2b 9c 97 3c 90 85 82 3c
       0.012607296 -0.0123057775 0.018507084 0.015932828
0001e0 06 90 a3 bc f6 f1 b5 3b 1b 69 93 bb a4 95 c8 bc
       -0.019966137 0.0055525256 -0.0044986135 -0.024485417
0001f0 15 9f f3 3b 4f 7b 36 3b 3c 17 98 3b b7 a5 a5 bc
       0.0074347355 0.0027844494 0.0046414416 -0.02022062
000200 ed e6 b4 bb df fa 95 bb 5b a0 b1 bc d4 0c 9f 3c
       -0.0055206926 -0.0045770253 -0.021682909 0.019415297
000210 5c b3 e1 bb b5 7d 41 3c 0d a0 da bb f0 cb 9f bc
       -0.0068878364 0.011809756 -0.0066719116 -0.019506425
000220 bb c0 da bb 2c f8 9b 3b ba 3a a2 3c 03 36 80 3b
       -0.0066758073 0.004759809 0.019803394 0.0039126887
000230 4f c1 8b 3c 4b 52 41 3c 34 66 8c bc 8a dd 55 3a
       0.01705995 0.011799405 -0.017138578 0.0008158317
000240 b7 ca b5 3c 29 29 f7 bb cd 58 33 3c 6e 2a b4 3c
       0.022191389 -0.0075427485 0.010946465 0.021992888
000250 77 6a b1 ba fb b7 13 bc 02 87 6e bc 9a 20 b0 ba
       -0.0013535757 -0.009016032 -0.014558556 -0.001343745
000260 69 54 85 bc ad 67 cc 3c 77 67 ac bc fc 55 ae 3c
       -0.016275601 0.02495178 -0.02104543 0.021281235
000270 18 34 83 3c c2 5f b6 bc ca f4 7d bc 56 e9 b8 3c
       0.016016051 -0.022262458 -0.015500257 0.0225722
000280 31 61 71 bb 04 64 93 bc 3c 67 9a 39 f4 c7 d7 bb
       -0.0036831612 -0.017992027 0.00029450085 -0.0065851156
000290 90 2d 1b 3b 4c 22 18 3c 8e 36 b1 bc ce 3d 5a bc
       0.002367828 0.009285521 -0.021632459 -0.013320399
0002a0 1d 32 b2 ba c2 7b b8 3c c3 33 a1 bc 15 47 62 bc
       -0.0013595257 0.02251995 -0.019678002 -0.013810893
0002b0 66 c7 5b 3c f7 d0 bb 3c 61 24 0b 3b 88 b2 e1 39
       0.0134142395 0.02292679 0.00212314 0.0004304836
0002c0 52 6d 37 3c a8 8b a0 bb 7b dc 72 3c 61 36 cb 3c
       0.011195498 -0.004899461 0.014823074 0.024806203
0002d0 63 db 91 3c 37 6c ca bc 2b 34 9d 3c fb 2d c0 3c
       0.017804807 -0.024709804 0.019189915 0.023459425
0002e0 4c 42 28 3c dc 96 08 bc cc 1e 64 bb 3b a6 88 bc
       0.010269713 -0.008336749 -0.0034808395 -0.016680827
0002f0 43 7a 8b bb c3 8a 81 3c ec a0 e1 bb 5f 3c 84 bb
       -0.004256518 0.015813237 -0.0068856385 -0.004035517
000300 8a 46 96 bb ba 19 98 b9 e3 4f 54 3b d1 fb 7b bb
       -0.0045860456 -0.00029010867 0.003239625 -0.0038449655
000310 d1 8d ca bc 1b 59 09 bc e7 eb 55 bc 96 5b 18 bc
       -0.024725826 -0.008383061 -0.013056732 -0.00929918
000320 09 0e 4d bc e1 4a 90 bc ef cc a5 bc c5 41 12 bc
       -0.012515553 -0.01761383 -0.020239322 -0.0089268135
000330 e2 33 6c 3b 8b 79 c9 3c 37 f5 12 3b f9 19 0d 3b
       0.0036041667 0.024594089 0.0022423991 0.0021530373
000340 65 2c 48 3c 23 bb b7 3b 01 45 a4 bc a2 cc c7 bc
       0.012217616 0.005607025 -0.020052435 -0.024389569
000350 18 ea 7c bc 72 55 aa bb 5f fb 89 bc e5 6c 98 3c
       -0.015436672 -0.005198174 -0.016843496 0.018606612
000360 7f 43 01 bc 1a d4 40 bc bd 3d 91 bc 5d c3 33 bc
       -0.0078896275 -0.011769319 -0.017729634 -0.010971871
000370 ec f0 99 bc 8a 46 ab 3c 63 b5 d9 3b 5f 59 b0 bc
       -0.018791638 0.02090766 0.0066439374 -0.02152699
000380 5d 40 c8 3c 64 13 9f bb ea 3c 0a 3c c9 a9 7b bb
       0.024444753 -0.0048546065 0.008437375 -0.003840076
000390 f6 dc 93 bb 43 f8 63 3c f1 9c b1 3c b1 01 18 3c
       -0.0045124246 0.013914171 0.02168128 0.009277747
0003a0 7d 4e c8 3c 53 6d c3 3c ff 93 cc ba f3 c0 23 bb
       0.024451489 0.02385584 -0.0015608071 -0.0024986833
0003b0 5a 9b 07 bb e6 f8 bd bb fc 75 19 bc 33 02 aa bc
       -0.0020691962 -0.0057974933 -0.009366509 -0.020753002
0003c0 00 4c c5 bc dc e8 23 bc 30 93 1e bc 19 0f c8 bc
       -0.024084091 -0.0100042485 -0.009678647 -0.024421262
0003d0 28 17 b6 bb 16 ed 84 3c 9b b5 75 bb 02 27 36 bc
       -0.0055569597 0.016226333 -0.0037492278 -0.011117699
0003e0 56 e9 08 ba 2d 99 86 3c d5 cb 37 bc 70 e7 28 bc
       -0.0005222758 0.016430462 -0.011218031 -0.010309085
0003f0 fd 9b ca ba 44 46 6a ba 68 92 bd 3c f0 95 b3 bc
       -0.0015457865 -0.0008936862 0.023141101 -0.021922082

conv2.bias f4 [32]
000000 97 32 31 bc b5 ff c8 bc 5a ae 71 bb 96 cd 71 3c
       -0.010815284 -0.024535993 -0.0036877603 0.014758488
000010 81 b6 d5 3c 74 2e ac 3c 75 3e 6c bc f9 20 16 3d
       0.026088001 0.021018244 -0.014419188 0.03665254
000020 5b 6f 45 3b b1 3b 38 bc fb 29 ea bb a1 7e 83 3b
       0.0030126187 -0.0112447 -0.0071461177 0.004012898
000030 b0 01 ff 3c 7c 77 db 3c 42 fd ab bb 93 07 1e bc
       0.031128734 0.026790373 -0.0052486965 -0.0096453605
000040 b9 df 80 bc 08 9d 92 bc 64 84 d0 3c 41 96 e9 3c
       -0.01573168 -0.017897144 0.025453754 0.02851403
000050 2b e2 b5 3a d4 88 58 3a 40 7d 60 bb 4e e0 43 39
       0.0013876607 0.0008260135 -0.0034254342 0.00018680209
000060 ef 56 45 3c 6c c8 2d bc 49 b3 6f 3c e9 f3 ea 3c
       0.012044652 -0.010606866 0.014630147 0.028680759
000070 8c 48 91 3b 51 86 88 bc c3 dc e9 bb 91 dc de bb
       0.004433697 -0.01666561 -0.0071369126 -0.006801196

conv3.weight f4 [1, 32, 5, 5]
000000 53 eb 9b 3c 9a 3c 94 3c e9 e3 f9 ba 7d 8e c7 3c
       0.01903311 0.018095303 -0.0019065115 0.024359936
000010 af 73 f7 3c fa e5 ef bc e1 d3 c3 3a 39 f7 0a bd
       0.03020653 -0.029284466 0.0014940464 -0.033927176
000020 ac ef 88 3b 06 a4 27 3c a5 74 12 bb 60 59 e6 3c
       0.0041789617 0.010231977 -0.0022347358 0.02811879
000030 26 be 4c 3c 7c 04 f2 bc 58 ab 40 bb 47 76 7c bc
       0.012496507 -0.029543154 -0.0029399004 -0.015409059
000040 44 5c e7 bc 29 43 75 39 7a 16 01 bd d4 c7 c0 3c
       -0.028242238 0.0002339004 -0.031515576 0.023532785
000050 0e 69 95 3b 6f 64 51 3c 49 7f a2 3c e9 f2 e3 3c
       0.0045596426 0.012780293 0.019836085 0.02782579
000060 a1 0f 8e bc 0f d6 a7 3b 80 67 f3 bc e4 db 27 3c
       -0.017341437 0.0051219533 -0.029712439 0.010245297
000070 90 50 d9 3c b3 a2 b1 bc 16 bc c0 3c 0d 5a 46 bc
       0.026527673 -0.021684026 0.023527186 -0.012106431
000080 ef 2a 5d 3c f3 5c 6c bc 90 f4 01 3c 75 f1 f2 bc
       0.013499006 -0.014426458 0.007931843 -0.029656151
000090 fb a9 02 3d 1c eb 42 bb d3 58 11 3d a0 67 1f bc
       0.031900387 -0.0029742187 0.0354851 -0.009729296
0000a0 a9 19 8c 3c 20 9d 5d bc 14 70 3e bc f0 e6 f7 bb
       0.01710208 -0.013526231 -0.011623401 -0.0075653717
0000b0 f0 f7 99 3c 01 03 82 3c 63 53 c0 3c 85 b4 4a bb
       0.018794984 0.015870573 0.023477262 -0.0030930352
0000c0 63 b3 b9 3b 3d b1 c2 3c c7 9d 63 bc 56 7b 3f bc
       0.0056671365 0.023766154 -0.0138925975 -0.01168712
0000d0 d7 00 dc 3c eb bb f4 bc 1d bf 8c bc 2e 1a a1 bc
       0.02685587 -0.029874763 -0.017180974 -0.019665804
0000e0 d1 9e f3 bb 3a be d4 bc 08 2b 06 3c fc d4 ca bc
       -0.007434704 -0.025969613 0.00818897 -0.024759762
0000f0 6d 37 7f bc 4f 07 0d bd 86 02 c2 3c ec e6 b1 bc
       -0.015577179 -0.0344308 0.023682844 -0.021716557
000100 08 3d 8d bb ac 60 ad bc 85 70 a0 bb de 2f dc bb
       -0.004310254 -0.02116426 -0.004896226 -0.0067195734
000110 62 2e 3d bc a7 39 18 ba ec 3e 75 3c 49 f6 ed 3c
       -0.011546703 -0.0005806931 0.014968615 0.029048102
000120 df bf d6 3c 7b 42 d7 bc 02 8d 88 bb 7f 73 e1 bc
       0.026214538 -0.026276818 -0.0041672 -0.027520893
000130 5c 97 95 3c f1 2f c9 3c 8e a5 1e 3c ff 29 41 3c
       0.01826065 0.024558993 0.009683026 0.011789798
000140 85 9b 0f 3d 99 b4 6c bb 99 9b f7 bc f0 3f 88 bc
       0.035060424 -0.0036118387 -0.030225562 -0.01663205
000150 32 17 2c bc 42 a2 88 3c 93 f3 4a 3a eb 16 e4 3c
       -0.010503577 0.016678933 0.0007741984 0.02784296
000160 01 48 a1 3c b3 69 27 bc 68 7e 17 bc 73 47 43 bc
       0.019687654 -0.010218072 -0.009246446 -0.01191889
000170 b9 a8 02 bd 35 c8 38 bc 44 b2 86 bc 0d fa df bb
       -0.031899188 -0.011278202 -0.016442426 -0.0068352283
000180 58 fb 00 bc 89 50 59 bc 08 59 85 bc 92 a3 bc 3b
       -0.007872425 -0.01326383 -0.016277805 0.005756804
000190 29 d1 de 3b 9d dc 30 3c 39 0b 9d 3c 82 5b d4 b9
       0.006799836 0.010794786 0.01917039 -0.0004050397
0001a0 72 36 a9 3b 40 b3 c1 bb e1 30 13 3d 5b e4 ca 3b
       0.005163961 -0.005911261 0.035935286 0.006191773
0001b0 08 ef ee 3c 76 c4 96 bc a7 39 c5 bc 7d 89 2b 3c
       0.029166713 -0.018404227 -0.024075342 0.0104697915
0001c0 28 16 c3 bc cb 5c d6 3c 91 46 c5 3c 1f b9 04 3d
       -0.023814276 0.026167294 0.0240815 0.032403108
0001d0 48 fe 18 3d 58 77 93 3c d0 43 92 3c 5b c6 07 bb
       0.037351876 0.018001243 0.017854601 -0.0020717594
0001e0 86 f4 0d 3d cb e8 99 3c 92 f5 84 bb ac 08 f7 bc
       0.034657024 0.018787762 -0.0040575946 -0.030155502
0001f0 d4 d9 d4 3b 0f 11 c7 3b a6 c5 e2 3c 8d cd b7 3c
       0.0064956937 0.0060750316 0.027682137 0.022436881
000200 6f ad 06 3d 60 bd b3 3b 87 1a 47 3c d8 55 e7 bc
       0.032880243 0.0054852217 0.012152321 -0.028239176
000210 73 70 a0 3b d3 98 0f 3c 78 29 a0 bc 5f 3c 8c bc
       0.0048962175 0.0087644635 -0.019551024 -0.01711863
000220 6f f2 78 3c 67 54 a2 bc e0 26 55 bc 4f b8 d1 3c
       0.015194519 -0.019815637 -0.013009757 0.02560058
000230 47 51 db 3c fa f2 f9 bc ff f3 03 bd 3a 6f b3 3c
       0.026772154 -0.030511368 -0.032215115 0.021903623
000240 b7 4d 33 bc 03 1c 2c 3b de ea c9 bc 73 30 7f bc
       -0.010943822 0.0026261813 -0.024648126 -0.015575516
000250 4e 4a dd 3c 2c e2 b5 bc 8e 7f 52 3c 2a e5 bc 3a
       0.02701297 -0.022202574 0.012847794 0.0014411558
000260 39 d0 32 3c 91 54 c9 3a f4 f1 f6 bb 6f f3 4c 3c
       0.010913902 0.0015360286 -0.0075361673 0.012509211
000270 a5 d0 1e 3c 4a 5a 56 bb df f7 c1 3c f3 ad 00 3d
       0.009693299 -0.0032707625 0.023677764 0.03141589
000280 e3 42 97 3c e1 b3 22 bc b4 b0 d1 bc 69 e1 c3 bc
       0.018464511 -0.009930582 -0.025596954 -0.023911195
000290 53 ba 8c bc 81 ce 3b bb 1c 18 94 3c c0 bd 1c 3c
       -0.01717869 -0.0028657021 0.018077902 0.009566724
0002a0 f6 21 01 3d f9 fc 0a bd 88 6e 9f bc dd 37 05 3d
       0.03152653 -0.03393266 -0.019461885 0.03252398
0002b0 29 da ce bc b2 c8 b8 3c 7d f3 cc 3a 12 c8 f8 ba
       -0.025250511 0.022556636 0.001563653 -0.0018980524
0002c0 e0 b2 eb 3c 0a 62 1d 3d ef fb 1c bc fb b7 b8 3a
       0.028771818 0.038423575 -0.00958155 0.0014092916
0002d0 07 0c 0e 3d 71 9a 08 3d c0 5c d8 3c 4a d9 7f bc
       0.03467944 0.03335041 0.026411414 -0.015615771
0002e0 69 18 a3 bc 25 70 07 3d 40 4d fb 3c 0e 6c 77 3c
       -0.0199091 0.033065934 0.030676484 0.015101446
0002f0 e9 76 3d 3d b6 7f 0c 3d 82 fe b3 bb 7e d2 9b 3c
       0.04625598 0.034301482 -0.005492986 0.019021269
000300 31 32 3b 3d e8 2e d5 3c 91 c4 59 bc ad 71 0e bd
       0.045702163 0.026023343 -0.013291494 -0.03477638
000310 3d 77 20 3c 10 cc a0 3c 7f 0e 06 bd 9a 9a e1 3b
       0.009794054 0.019628555 -0.03272867 0.006884885
000320 27 c4 b2 bc 29 d2 6b 3c 75 a4 88 bc 42 39 da bc
       -0.021822048 0.014393368 -0.016679982 -0.02663863
000330 02 d4 0b 3d fd 27 ad 3c a4 55 66 bc b3 a7 cb bc
       0.034137733 0.021137232 -0.014058504 -0.024860239
000340 47 56 c6 3c e4 b5 b3 bc 41 8e 2b bc 8b 17 7d bc
       0.024211062 -0.021937318 -0.010470928 -0.015447508
000350 ab cc 39 3c 16 a7 ee ba 81 16 5b 3c 29 51 a2 bc
       0.011340301 -0.0018207754 0.013372065 -0.01981409
000360 ed 6f d7 3c b7 9f 9a 3b 62 87 c5 bc b7 78 d2 bc
       0.026298488 0.0047187465 -0.024112407 -0.025692327
000370 cd c3 af 3c 1d 31 77 bc 16 0a 2b 3c 3a 0f 97 3a
       0.02145567 -0.015087393 0.010439416 0.0011524924
000380 8c b2 85 bc 46 f1 1f 3d 5b ea 37 bc 73 0e a3 3c
       -0.01632049 0.039048456 -0.011225308 0.01990435
000390 86 9f e5 3c 5d 64 94 3c 2f ea 11 3d 99 90 ca bc
       0.028030168 0.018114263 0.035623726 -0.024727153
0003a0 6f 44 ed 3b b6 16 74 3b 0e bc ba 3c d7 ee 88 bc
       0.007240824 0.0037244982 0.02279475 -0.01671545
0003b0 d7 36 cc bc b0 f1 d8 bc 54 22 da 3c e9 eb 62 3c
       -0.024928493 -0.026482433 0.026627697 0.013850191
0003c0 35 e1 16 bd 51 9f 0d bc ac 2b fe bc 6f c1 f0 bc
       -0.036835868 -0.008643941 -0.031026684 -0.029389111
0003d0 22 f5 c2 3c dd e5 8e bc 21 f0 96 3c c0 b7 0c 3d
       0.023798529 -0.017443592 0.01842505 0.034354925
0003e0 20 36 05 3c ab 82 a4 3c 02 2b fc bc a1 ac 74 bc
       0.00813058 0.020081839 -0.030782226 -0.014933736
0003f0 37 ff ea ba 8c bb fb 3b d5 24 6c 3c 3a 82 9d 3c
       -0.0017928843 0.0076822694 0.014413078 0.019227136
