outputs/x3/epoch_26.pth (torch, 231327 bytes, 5 tensors)

conv1.weight f4 [64, 1, 9, 9]
000000 3e 59 29 bd 92 9b dd 3b 38 53 50 bd ce 63 40 3d
       -0.041344874 0.00676293 -0.050860614 0.04697018
000010 2e 78 b7 bd 07 5d ae 3d d5 3d a0 bd 62 02 b2 bd
       -0.08958469 0.08513837 -0.078242935 -0.08691861
000020 12 b9 8f bd 49 0d 5b 3d 5b 1d 1d bd 5c 4b 3d 3d
       -0.07017721 0.053479467 -0.038358074 0.046214446
000030 a2 11 b5 bd 65 99 7b bd 3d fa 15 bd 06 de 9c bc
       -0.08841254 -0.061425585 -0.0366156 -0.019148838
000040 e1 f6 aa bd 3f f9 93 3d c2 41 ac bc 8a 2d 27 3d
       -0.0834787 0.07225274 -0.02102745 0.040814914
000050 82 fe b0 3d 8a 4a fb 3c 3a e1 27 3d 3a f4 ec 3d
       0.086422935 0.030675191 0.040986277 0.1157002
000060 a8 d7 32 bd 29 36 22 3d 31 70 42 bd 73 e3 b1 3d
       -0.043662697 0.039602432 -0.047470275 0.086859606
000070 b1 2c c5 3d 06 14 bc bd b3 ac dd 3d 55 c6 8a 3d
       0.09627665 -0.09183507 0.108239554 0.0677611
000080 58 55 7a 3d b2 80 66 3d 81 a2 cd 3d 2f 05 1f bc
       0.061116546 0.056275077 0.10040761 -0.009705826
000090 83 9a b0 bd fa 70 c7 bc be 2d 8b bd d4 3e a7 3c
       -0.08623221 -0.024345864 -0.06795834 0.020415701
0000a0 4e a2 c2 bb 3e 9b 3d bd 5c 96 a9 3a dc b9 e9 3d
       -0.0059397584 -0.04629063 0.0012938487 0.11412403
0000b0 b0 3e 4c bb f2 e1 31 3c 53 e5 31 bc 06 8b d3 3c
       -0.0031165294 0.010857092 -0.010857898 0.025823127
0000c0 56 b5 df 3d c5 42 a3 3d 62 77 4d 3d 3b 7e 09 3d
       0.10923259 0.0797172 0.05016268 0.03356765
0000d0 c7 4b 09 3d 78 9d 42 3d 3f 0a 03 bc ab 8e c9 bd
       0.033519533 0.047513455 -0.007998048 -0.09841665
0000e0 3d b0 80 bd 16 66 d0 3d 5e 2c 6d 3c e4 18 aa bd
       -0.06283615 0.10175721 0.01447591 -0.08305529
0000f0 99 7d c1 3c 6b 9a c5 3d 98 5c d1 bd 65 39 8c bd
       0.02361946 0.096485935 -0.10222739 -0.06846885
000100 5f b6 22 bd 79 cd 1c 3c d9 99 a5 bc a4 85 c8 bb
       -0.039724704 0.009570473 -0.020214962 -0.006119447
000110 b4 57 d3 bd 9a 61 67 3d 50 19 cf 3d 59 03 90 3d
       -0.103194624 0.056489564 0.1011225 0.070318885
000120 1f fb 92 bd ad 19 ad bd 47 45 53 3d db da 08 3c
       -0.07176804 -0.08452163 0.05157974 0.00835296
000130 ba 66 53 3d 7c 04 d4 bd 73 96 0f bb bc 5b a8 3d
       0.05161164 -0.10352418 -0.0021909743 0.08220622
000140 f5 a4 5f 3d a8 71 5f 3b 87 50 a9 3c 20 c1 34 bc
       0.054600675 0.0034094844 0.020668281 -0.011032373
000150 1f f2 78 bd e9 6c 2a bd 61 85 8a bd 81 45 be 3d
       -0.06077778 -0.04160777 -0.06763721 0.092906006
000160 5e 03 7b 3d f5 7d 1b 3d b1 52 ad bd a3 16 b0 3d
       0.061282508 0.03796192 -0.08463038 0.085980676
000170 dd 69 13 3d 93 9d a1 3d 9d fc 2a bd 92 49 cc 3c
       0.03598963 0.07891383 -0.041744817 0.024937425
000180 bc 26 e2 3d df f8 9b 3d cb f2 b6 3d 76 b5 b3 bc
       0.11042544 0.07615828 0.08933028 -0.021937113
000190 c5 19 b0 3d a5 01 ad bd b7 6a 56 3c 66 e6 73 bd
       0.08598665 -0.08447579 0.013086966 -0.059545897
0001a0 53 f1 c4 bc 67 1a d6 bc 6c e3 26 3c 0f 94 d0 3d
       -0.024040854 -0.026135636 0.010186058 0.1018449
0001b0 06 c8 68 3d 98 6e c5 3a 42 bc a8 3d c8 a2 56 bd
       0.056831382 0.0015062867 0.08239032 -0.052401334
0001c0 6e e2 79 3d dc c3 07 bc a2 2b 8c bc 66 fd 73 3c
       0.061006956 -0.008286443 -0.01711065 0.014891958
0001d0 1f 60 ac bd 09 42 68 3c ef c9 1e 3d 38 b8 c8 3d
       -0.08416771 0.0141759 0.038766798 0.09800762
0001e0 67 29 f9 bc 77 0c 32 3d fe 13 e7 3d ff 2f 3b bd
       -0.03041525 0.04346892 0.1128311 -0.04570007
0001f0 15 c2 db 3d a1 40 5e bd 8c 05 4a 3d 19 a2 32 3d
       0.107303776 -0.054260854 0.049321696 0.04361162
000200 59 a7 04 3d ba 39 b9 3d f5 26 2e bd 2a 08 fa 3c
       0.032386158 0.090442136 -0.04251762 0.030521471
000210 6a 8e 14 3b 36 89 a8 bd 8a ef d8 bc ce 66 9a bd
       0.0022667893 -0.08229296 -0.026481409 -0.0753914
000220 1e 91 41 3d 08 6c 10 3c e3 7c 2f 3c 0a 01 0a bd
       0.047257535 0.008814819 0.010710928 -0.033692397
000230 0d 3e 85 39 ec 72 0c bd 75 25 02 3d ea 24 db 3d
       0.00025413968 -0.034289286 0.031774003 0.107004
000240 f1 e3 6b 3c 04 5b 57 bd c6 53 91 bd a8 71 c8 3b
       0.014397607 -0.052577034 -0.07096057 0.0061170645
000250 76 20 ad bd c8 1b af bd d2 b9 96 bd af 3a 21 bd
       -0.08453457 -0.08550221 -0.07359661 -0.039362606
000260 bd d5 c4 3b 44 fa 99 3d d3 5c 27 3d 8a 5f aa 3d
       0.006006925 0.075184375 0.04086001 0.08319004
000270 e7 92 91 bd 44 b4 06 3c 5b 91 cc bd b3 89 81 3d
       -0.071080975 0.00822169 -0.09988662 0.06325092
000280 e4 06 b7 3c 45 68 d9 3d c1 d5 a1 bd de 7a b6 3d
       0.022342153 0.10615591 -0.079020984 0.08910154
000290 a3 18 c0 3d 3a fa b7 3d 7a c2 81 3c dc e7 ce 3d
       0.09379699 0.08983274 0.015839804 0.101028174
0002a0 d4 f3 97 3d 0f c0 a9 3d 55 72 ed bb 4d a0 ae bd
       0.074195534 0.082885854 -0.0072462955 -0.08526669
0002b0 f0 c3 b7 ba 46 7d aa 3c 93 02 9b bd 2e 89 82 bd
       -0.0014020186 0.020811688 -0.0756885 -0.06373821
0002c0 ca 2b da bd ce 9a 1f bd ec 32 c6 3d 7d 70 9b 3c
       -0.10652883 -0.038965993 0.09677681 0.018974537
0002d0 9b a6 de bb 5f 85 91 3b c2 e1 8d 3d 8c f3 c8 bd
       -0.0067947633 0.004440948 0.069278255 -0.09812078
0002e0 1b 95 af bd 96 56 17 bd 05 f7 82 bd 78 b0 6a 3d
       -0.085733615 -0.03694781 -0.063947715 0.0572972
0002f0 86 c7 a0 3d 78 c9 dc bd 7c 21 c1 bd 3b 9b dd bd
       0.07850556 -0.107806146 -0.09430215 -0.108206235
000300 65 a6 2b 3d 31 25 b7 3d 9c 6f b0 bd c6 b8 52 bd
       0.041906733 0.089426406 -0.08615038 -0.051445745
000310 ea cc 10 3d 5b 97 94 bd ed 4a c1 3d a7 08 d4 3c
       0.03535167 -0.07255431 0.09438119 0.025883032
000320 ab a1 fd bc 7f 9f eb 3b 6c d8 0d 3d b7 f8 20 bd
       -0.030960878 0.0071906443 0.034630224 -0.039299693
000330 ba 53 b0 bd 8e 06 40 3a 0c d7 03 3b d8 e2 11 3b
       -0.086097196 0.00073251955 0.0020117192 0.0022260454
000340 0d 11 85 bc 6a 15 92 3d ef 48 fe bc 24 c1 30 bc
       -0.016243482 0.07132991 -0.031040637 -0.010788236
000350 c1 11 3b 3d db 3d 8f bd fd 85 f3 3c 2e 72 c9 bc
       0.04567123 -0.0699422 0.029726977 -0.024590578
000360 3c 4b 5a 3d aa e5 76 bd 26 35 86 3b 19 f9 31 3c
       0.053294405 -0.06027762 0.0040956913 0.010862612
000370 82 17 b7 bd 67 77 a5 bd da 88 2e 3d 22 77 04 bd
       -0.08940031 -0.08079415 0.04261098 -0.032340176
000380 05 25 87 3d fc ca e0 bd b8 f8 60 bd d6 6d bb bd
       0.06598858 -0.10976216 -0.054924697 -0.09151809
000390 3e ce 35 3d 27 04 53 bb 31 c2 a9 bc 09 6a 97 bc
       0.04438614 -0.003219852 -0.02072248 -0.018483179
0003a0 45 de b1 bd 37 14 01 3d a9 be 35 3b bc 09 9d bd
       -0.08684973 0.03151342 0.002773205 -0.07667872
0003b0 80 41 2b 3d b8 54 12 bb 54 14 dc bd 8e d1 74 3d
       0.041810513 -0.0022328328 -0.10746065 0.05977016
0003c0 6c 70 73 3d 11 77 ab bc bc 1c 9d bd b6 d7 6b 3b
       0.059433386 -0.020930799 -0.07671496 0.0035986728
0003d0 cc 9f a8 3d 5d 70 ce 3d d2 56 aa bd a0 ee 4b bd
       0.08233604 0.10080025 -0.08317341 -0.049788117
0003e0 5b e8 af 3d c1 1c 58 3d 2d b7 87 3d 9a ee 6e bd
       0.0858924 0.052761797 0.06626735 -0.058333017
0003f0 7f bf c3 3d 24 66 bc bd 04 25 b0 bb ac 0e 7e 3b
       0.09558009 -0.09199169 -0.0053755064 0.003876607

conv1.bias f4 [64]
000000 92 e2 9c bc d8 9b 8a bd 44 2f 9b bb 14 a6 8e bd
       -0.019151006 -0.06768006 -0.004735859 -0.06965271
000010 2d 5b f4 3c 82 b3 d4 bc 29 3b 7b 3d f3 ad 55 3d
       0.029828632 -0.025964502 0.061335716 0.052167844
000020 2b 1b e1 3d d0 46 8a bd 3e 72 cc bb 5b 2f 5a bb
       0.1099151 -0.06751788 -0.0062392047 -0.0033292386
000030 8d 5b a2 bd bb 33 bc 3d 9f 3c 89 3d 0a f7 95 3d
       -0.07927618 0.09189554 0.06701016 0.073225096
000040 1a db 27 bd ce 41 62 bd 27 11 81 3d d0 84 8b 3c
       -0.040980436 -0.055238537 0.063021 0.017031103
000050 da 28 44 3c a1 50 b0 bc 50 ea cb bd b9 ca 75 3d
       0.01197263 -0.021522822 -0.09956801 0.060007785
000060 7e 86 66 bd 37 0d 8c 3d af a8 db bc 39 af 86 bc
       -0.056280605 0.06838458 -0.026813833 -0.016440975
000070 0b 13 df 3c b3 14 f0 3c bb d9 f2 3d 09 6c 26 bd
       0.02723076 0.029306745 0.11857935 -0.040630374
000080 95 4f 1a 3d 77 65 3c 3d e4 e1 1b bc 66 82 c8 bd
       0.03767355 0.045995202 -0.009514306 -0.097904965
000090 bd 3c cb bc 82 fa 9b 3d 30 04 c1 bd 16 d0 5c 3c
       -0.024809236 0.0761614 -0.09424627 0.013477346
0000a0 04 1e 71 bd 5f 66 62 bd e9 8b ba 3d ea 6f b4 3b
       -0.058866516 -0.05527341 0.09108717 0.0055065053
0000b0 57 8e 06 3d b9 67 9a 3c 7e 1e a2 bd 1f 7b e3 bd
       0.03285059 0.018848287 -0.07915972 -0.11107468
0000c0 5a 0c 8f bd 4b f3 43 bc 8b 53 46 bd 3d 11 be bc
       -0.06984778 -0.011959861 -0.048419517 -0.02320158
0000d0 2c 12 29 3d bd 64 da bb 42 5a fa 3b 3f 37 5e bd
       0.041277096 -0.006664841 0.007640154 -0.054251906
0000e0 08 64 9a 3d ca 42 6a bd 93 e3 05 bc 3a 7f b4 3d
       0.07538611 -0.0571926 -0.008171934 0.08813329
0000f0 a3 1f d0 3d 77 ed 71 bd 07 e6 c9 bd 41 98 a7 bd
       0.10162284 -0.059064355 -0.09858327 -0.08183337

conv2.weight f4 [32, 64, 5, 5]
000000 cd 0a a1 3b 18 9a 28 3c 04 a2 3c bc c0 21 a3 bc
       0.0049146176 0.010290645 -0.011513237 -0.019913554
000010 00 30 a1 bb ab 6e d0 bb 46 86 82 bc fc 42 c3 bc
       -0.004919052 -0.006360849 -0.015933167 -0.023835652
000020 80 76 8e bc f5 c0 85 ba a6 e6 58 3c f7 a7 9c bc
       -0.01739049 -0.00102046 0.013238585 -0.01912306
000030 c7 5e 1e bc 15 ae 9f bc ff eb 3c 3c 55 c9 0b bb
       -0.009666151 -0.019492188 0.011530875 -0.002132972
000040 f5 ea 7e 3c 37 1d 2f 3b d1 c6 ab bb 59 2b af 3c
       0.015558948 0.0026720294 -0.0052422066 0.021382974
000050 fd d3 82 3c 9b 8f bd 3c 72 2d 91 bc 60 e1 38 3c
       0.015970225 0.023139765 -0.017721865 0.011284202
000060 57 59 84 bc 4e 05 80 bc f5 33 97 3c 47 ee 34 3c
       -0.016155882 -0.01562753 0.018457392 0.011043138
000070 7e 7a 6e bc 5d df 88 bc 03 cd 5b bc 72 04 9b 3c
       -0.014555572 -0.01670807 -0.013415578 0.018923018
000080 0f 7e 07 3c b0 01 80 3a d7 a2 8d bc 0b c9 fb 3b
       0.008269801 0.0009766128 -0.017289562 0.0076838783
000090 87 fc bc bb 15 81 6f 3c bf 10 b8 3b 6e 7d 33 3c
       -0.0057674083 0.014618178 0.0056172307 0.010955198
0000a0 d0 bb 0d bc e6 40 23 ba 22 da 65 bc 0c d3 af 3b
       -0.008650735 -0.0006227627 -0.014029058 0.005365735
0000b0 61 85 19 bb 53 99 b2 bc dd b9 59 3c 34 85 1c 3c
       -0.0023425447 -0.021801626 0.013288942 0.0095532425
0000c0 fd 90 68 3c c9 ff 28 3c 1b 9f 1e 3b 1b a4 91 3c
       0.014194724 0.01031489 0.002420372 0.017778447
0000d0 6f 92 b1 bc 90 06 e2 3b c3 15 a3 3c 2d fe 8a bb
       -0.02167627 0.006897755 0.019907838 -0.004241726
0000e0 12 5f 9e 3c 81 da 29 3c 4c 53 ad 3c 51 aa af 3c
       0.019332442 0.010367037 0.021157883 0.021443518
0000f0 ad ca 3a 3c c4 eb 12 3b 71 e6 ad bc 59 8a 15 bc
       0.011400861 0.002241836 -0.021228047 -0.009127223
000100 e1 27 b6 bc 1e 45 83 bb 43 96 78 3c ea c5 5d 3c
       -0.022235813 -0.004006042 0.015172544 0.013535956
000110 90 8e f2 3a 27 ad c5 bc b1 40 5a 3c 8d 97 18 3c
       0.0018505622 -0.024130417 0.013321088 0.009313476
000120 c3 18 50 bc 16 e7 bb bc 14 67 63 bc 20 4d 08 3c
       -0.012701216 -0.022937339 -0.013879556 0.008319169
000130 12 81 5d bc b2 fc 8d bc 42 db a2 bc 45 a4 74 bc
       -0.013519542 -0.017332409 -0.01987994 -0.014931743
000140 f3 eb 84 bb 8b 4c 96 3c 5a 2e 7d bc 0f 90 b5 bc
       -0.0040564477 0.018347045 -0.015452946 -0.022163419
000150 9e 8f a7 3c 6b 59 5c 3c 94 f8 ff 3b 38 ce 88 bc
       0.020454224 0.013449053 0.0078116152 -0.016699895
000160 37 1d 8f 3c a0 79 26 3c 19 55 64 3b ca 3e 96 3c
       0.017469985 0.010160834 0.0034840761 0.018340487
000170 a2 af ef 3b 8e e9 7d 3c 27 09 f3 bb 7c eb 7a 3c
       0.0073146382 0.015497578 -0.0074168625 0.015314933
000180 a3 e5 47 bc b0 7c c7 3b c4 5b 7f bc c6 a4 bc bc
       -0.012200746 0.006087862 -0.0155858435 -0.023027789
000190 65 46 ac bc 9a 1c 98 bc 21 fc 5b 3c 42 58 c5 3c
       -0.02102966 -0.018568326 0.013426811 0.024089936
0001a0 40 14 78 3c 0c 2a 69 ba 80 16 20 ba 8c b5 49 3b
       0.015141547 -0.000889451 -0.00061068684 0.0030778376
0001b0 f5 81 c1 3c 7a a0 53 3c 0d ab 7d bc cd 56 6a bc
       0.023621539 0.012916679 -0.015482676 -0.0143029215
0001c0 0c e9 a2 3c 6f 3d 56 3c db 53 ca bc b6 21 ac bc
       0.019886516 0.01307617 -0.024698189 -0.021012168
0001d0 6c 87 4d 3c 6f da 4a bc 03 f2 96 3c dc d7 81 3c
       0.012544494 -0.01238118 0.018425947 0.01585
0001e0 b0 d5 a3 bc 69 c3 b4 3b 96 ba 94 bb b8 fb c8 bc
       -0.019999355 0.005516459 -0.0045388443 -0.024534091
0001f0 e7 d6 f1 3b 4e 71 36 3b 20 36 98 3b c8 97 a5 bc
       0.0073803547 0.002783853 0.004645124 -0.020213977
000200 4f 1b b5 bb 3e 4d 96 bb e9 b0 b1 bc 5a fa 9e 3c
       -0.005526937 -0.0045868447 -0.021690803 0.019406486
000210 45 4c e2 bb 91 01 41 3c 05 fb db bb 5c d1 9f bc
       -0.0069060647 0.011780159 -0.0067132735 -0.01950901
000220 a6 bd da bb d1 f9 9b 3b 19 3f a2 3c 4b 07 80 3b
       -0.00667544 0.004760005 0.019805478 0.0039071194
000230 09 be 8b 3c d4 49 41 3c d0 69 8c bc 36 dc 54 3a
       0.01705839 0.011797387 -0.0171403 0.0008119972
000240 38 d2 b5 3c 11 25 f7 bb 12 62 33 3c e8 37 b4 3c
       0.022194967 -0.0075422605 0.010948675 0.021999314
000250 bd 74 af ba 5a 3d 13 bc 17 7e 6e bc da fe b0 ba
       -0.0013386231 -0.008986795 -0.014556429 -0.0013503686
000260 06 78 85 bc 82 2f cc 3c 82 97 ac bc d0 af ad 3c
       -0.016292583 0.024924997 -0.021068338 0.021201998
000270 18 85 82 3c 32 2b b7 bc e9 aa 7f bc e7 17 b8 3c
       0.015932605 -0.022359464 -0.015604713 0.022472335
000280 c4 e7 74 bb cc c3 93 bc ba 08 78 39 54 21 da bb
       -0.0037369588 -0.0180377 0.00023654374 -0.006656805
000290 42 d6 15 3b c1 31 17 3c 0e 79 b1 bc 38 b4 5a bc
       0.0022863303 0.009228171 -0.021664169 -0.013348632
0002a0 04 9c b7 ba 38 ef b7 3c c8 cf a1 bc 37 0b 63 bc
       -0.0014008288 0.022452936 -0.019752398 -0.013857654
0002b0 27 5f 5b 3c a7 a3 bb 3c d6 83 08 3b 6d 11 da 39
       0.013389385 0.022905184 0.0020830533 0.00041593183
0002c0 96 72 37 3c da 7b a0 bb 88 0e 73 3c 5b 57 cb 3c
       0.011196753 -0.0048975768 0.0148350075 0.024821928
0002d0 2c 51 91 3c 72 bb ca bc 66 f6 9c 3c 23 04 c0 3c
       0.017738901 -0.024747584 0.01916046 0.023439473
0002e0 8f f6 27 3c 94 ab 0a bc b7 85 69 bb fe 06 89 bc
       0.010251655 -0.008463759 -0.0035632679 -0.016726967
0002f0 8d 8c 8c bb cd 61 81 3c 87 6c e6 bb 9a f6 87 bb
       -0.004289216 0.015793705 -0.0070319804 -0.0041492702
000300 c9 69 98 bb 58 1a af b9 82 86 52 3b 5d e2 80 bb
       -0.0046512824 -0.0003339823 0.003212363 -0.0039332346
000310 60 44 cb bc c4 5c 0a bc 37 8f 56 bc 46 bf 18 bc
       -0.024812877 -0.008444969 -0.0130956685 -0.009322947
000320 55 35 4d bc 5d 64 90 bc 02 d7 a5 bc 9b 46 12 bc
       -0.012524922 -0.017625982 -0.020244125 -0.0089279665
000330 3d 1a 6c 3b 7a 78 c9 3c 84 d7 11 3b b6 70 0c 3b
       0.0036026381 0.02459358 0.0022253701 0.0021429486
000340 72 21 48 3c 74 af b7 3b 52 32 a4 bc 08 e6 c7 bc
       0.012215005 0.0056056324 -0.020043526 -0.02440168
000350 6b 2a 7d bc bb 9c aa bb 15 fd 89 bc 0d 96 98 3c
       -0.015452008 -0.005206672 -0.016844312 0.018626237
000360 6d 65 01 bc 42 1c 41 bc 1a 48 91 bc 46 c4 33 bc
       -0.007897717 -0.011786522 -0.017734576 -0.010972088
000370 76 b4 99 bc c6 6f ab 3c 11 be d9 3b 65 60 b0 bc
       -0.018762808 0.020927321 0.006644972 -0.02153034
000380 92 3e c8 3c b4 a7 9f bb 69 29 0a 3c 51 ac 7b bb
       0.024443898 -0.0048722867 0.0084327245 -0.003840227
000390 93 da 93 bb 41 f9 63 3c c0 49 b1 3c 95 71 17 3c
       -0.00451214 0.013914407 0.021641612 0.009243389
0003a0 78 28 c8 3c 97 56 c3 3c 3f f4 ce ba 54 11 27 bb
       0.02443336 0.023845 -0.0015789344 -0.0025492506
0003b0 e2 88 0a bb 2f f9 be bb 1d c4 19 bc dc 0b aa bc
       -0.0021138717 -0.005828045 -0.009385136 -0.020757608
0003c0 fb 75 c5 bc 7a 6d 24 bc a4 e2 1e bc e9 15 c8 bc
       -0.024104109 -0.010035867 -0.00969759 -0.02442451
0003d0 af 59 b6 bb 04 f9 84 3c 4c bf 76 bb b6 59 36 bc
       -0.0055648903 0.016232021 -0.0037650643 -0.011129787
0003e0 61 2d 0b ba 92 96 86 3c 06 cc 37 bc 99 e7 28 bc
       -0.0005309191 0.01642922 -0.011218077 -0.010309123
0003f0 1a 93 ca ba 94 2c 6a ba 68 92 bd 3c ab 82 b3 bc
       -0.0015455217 -0.0008933034 0.023141101 -0.021912893

conv2.bias f4 [32]
000000 fc 32 35 bc 0d 3e cc bc 96 2a 2b bb 16 2b 7d 3c
       -0.011059519 -0.024931932 -0.0026117912 0.015452167
000010 f9 1f c2 3c 56 5a a5 3c ec df 59 bc 4f 3b 14 3d
       0.023696886 0.020184677 -0.013298016 0.036189374
000020 ad a7 28 3b f4 b0 5c bc 6d 0c da bb 5f fd 90 3b
       0.0025734708 -0.013469923 -0.0066543133 0.0044247354
000030 e9 46 f6 3c cf 62 ce 3c 52 0b 9e bb f9 fe 1f bc
       0.03006311 0.0251936 -0.004823127 -0.00976538
000040 6b 73 84 bc 46 aa 9d bc dd 17 c9 3c 57 fc fb 3c
       -0.016168317 -0.019246232 0.024547512 0.030759973
000050 e5 cb af b9 5f 8e bf ba f7 01 2c bb 8f a8 88 39
       -0.00033530514 -0.0014614573 -0.0026246288 0.00026065527
000060 2f 4e 5c 3c 36 89 2d bc 2e d7 7f 3c b7 1a e9 3c
       0.013446375 -0.010591796 0.015615268 0.028455121
000070 96 2c ae 3a cf 43 87 bc 6f 40 2d bc 06 6d 18 bc
       0.0013288434 -0.016511826 -0.010574444 -0.009303337

conv3.weight f4 [1, 32, 5, 5]
000000 17 fb 9b 3c c8 46 94 3c 12 10 f9 ba 2b 96 c7 3c
       0.019040627 0.018100157 -0.0019001982 0.024363598
000010 6f 76 f7 3c 21 ca ef bc 14 1e c6 3a 94 f4 0a bd
       0.03020784 -0.029271187 0.0015115165 -0.033924654
000020 15 36 89 3b 95 b5 27 3c 51 56 11 bb 63 7b e6 3c
       0.0041873553 0.010236164 -0.0022176693 0.028135007
000030 bd f2 4c 3c 5e fa f1 bc 59 07 40 bb e0 54 7c bc
       0.012509045 -0.02953833 -0.0029301255 -0.015401095
000040 40 35 e7 bc bb b1 87 39 7e 14 01 bd 5d d5 c0 3c
       -0.028223634 0.00025881626 -0.031513683 0.02353924
000050 19 6b 95 3b 22 9b 51 3c 04 93 a2 3c 7a f6 e3 3c
       0.004559886 0.012793334 0.019845493 0.02782749
000060 09 0a 8e bc 0a 17 a7 3b e7 1c f5 bc b9 25 27 3c
       -0.01733877 0.005099182 -0.029921008 0.010201865
000070 12 af db 3c 20 c0 ae bc bd a9 c0 3c f5 d7 4f bc
       0.026816878 -0.021331847 0.023518438 -0.0126857655
000080 05 06 52 3c 7e 2e 6e bc 91 cc 03 3c e0 b6 f3 bc
       0.012818818 -0.014537452 0.008044378 -0.029750288
000090 b8 44 fe 3c f2 5e 87 bb a3 1b 0f 3d e9 86 25 bc
       0.031038627 -0.0041311914 0.034938466 -0.010102966
0000a0 9c f1 8f 3c 64 b8 5f bc 1e ed 44 bc b8 24 fb bb
       0.017571263 -0.013654802 -0.012019424 -0.0076642893
0000b0 d1 56 98 3c 8d fb 86 3c 14 7e c2 3c 68 53 3c bb
       0.018596085 0.01647737 0.02374176 -0.0028736237
0000c0 39 4d c4 3b 09 c6 c3 3c c7 9d 63 bc 56 7b 3f bc
       0.005990651 0.023898141 -0.0138925975 -0.01168712
0000d0 d7 00 dc 3c eb bb f4 bc 1d bf 8c bc 2e 1a a1 bc
       0.02685587 -0.029874763 -0.017180974 -0.019665804
0000e0 65 a0 f4 bb 0c dc d4 bc 08 2b 06 3c fc d4 ca bc
       -0.0074654096 -0.025983833 0.00818897 -0.024759762
0000f0 0d 7e 7f bc 7a 09 0d bd f7 63 c1 3c ec e6 b1 bc
       -0.015594018 -0.034432866 0.023607237 -0.021716557
000100 08 3d 8d bb ac 60 ad bc 41 83 a1 bb 90 bd dd bb
       -0.004310254 -0.02116426 -0.0049289768 -0.0067669824
000110 d4 30 3d bc a4 2f 18 ba ce 3e 75 3c 45 f6 ed 3c
       -0.011547286 -0.0005805439 0.014968587 0.029048095
000120 0a b9 d6 3c 9a 42 d7 bc 05 8d 88 bb e1 2f e1 bc
       0.02621128 -0.026276875 -0.0041672015 -0.02748865
000130 71 2e 95 3c ea 85 c8 3c f2 94 1d 3c 11 35 40 3c
       0.018210622 0.024477918 0.009618031 0.011731402
000140 c1 89 0f 3d c0 c7 74 bb 0b 8d f8 bc af ed 88 bc
       0.03504348 -0.0037350506 -0.030340692 -0.016714899
000150 71 d0 2d bc 3b e6 87 3c 5a b1 29 3a 20 06 e3 3c
       -0.010608778 0.016589275 0.0006473266 0.027712882
000160 71 f7 a0 3c bb 90 28 bc 8e 75 19 bc b0 36 45 bc
       0.01964924 -0.010288413 -0.009366406 -0.012036964
000170 dd 06 03 bd f3 9b 38 bc a1 98 86 bc eb 36 e6 bb
       -0.031988967 -0.01126765 -0.016430201 -0.0070255897
000180 d3 8a 03 bc 4c 00 5b bc ce 46 85 bc 3a 36 be 3b
       -0.008028704 -0.01336677 -0.016269114 0.005804804
000190 87 d5 00 3c 2d 1a 35 3c a3 98 9c 3c 43 c3 2a 37
       0.007863409 0.011053604 0.019115752 1.01782525e-05
0001a0 33 94 b5 3b 5c 00 a7 bb a3 9a 12 3d 04 87 b1 3b
       0.0055413484 -0.0050964784 0.035792004 0.0054177064
0001b0 f6 1d ec 3c df ab 97 bc 40 8d c5 bc b7 0b 1e 3c
       0.02882288 -0.018514572 -0.024115205 0.009646348
0001c0 3c 87 ce bc a1 a5 ce 3c 5a 17 c1 3c 24 54 03 3d
       -0.02521097 0.025225462 0.023570705 0.032062665
0001d0 f3 7d 16 3d 7d 32 8e 3c f8 ab 8f 3c 36 09 1a bb
       0.03674121 0.017358059 0.017538056 -0.0023504025
0001e0 1c 81 0e 3d ba 6f 9a 3c 12 b7 6f bb 3e 8c f2 bc
       0.034791097 0.018852104 -0.0036577624 -0.029607888
0001f0 3b bb da 3b 4b 2d ac 3b 99 bf e1 3c 51 a7 b4 3c
       0.0066751516 0.005254423 0.027557181 0.022052439
000200 3c a9 03 3d f2 2c 9c 3b ff bb 38 3c d6 13 e5 bc
       0.032143816 0.0047661 0.0112752905 -0.02796356
000210 e6 09 b5 3b 7e c1 16 3c a6 57 9e bc cc 5a 8e bc
       0.0055248616 0.009201406 -0.019328903 -0.01737728
000220 c9 7d 84 3c 34 20 97 bc 19 f3 42 bc 33 28 d7 3c
       0.01617326 -0.018447973 -0.011898779 0.026264286
000230 a8 ca de 3c c0 64 ee bc 34 6e fb bc aa eb ba 3c
       0.027196243 -0.029100776 -0.030692197 0.022817452
000240 07 f5 2e bc ed 9c 33 3b 8f 89 c3 bc 5f 8e 75 bc
       -0.010678536 0.0027406767 -0.023869304 -0.014987557
000250 77 38 dd 3c 55 ee b9 bc 45 88 52 3c be 62 bd 3a
       0.027004464 -0.022696653 0.012849872 0.0014448983
000260 0c d9 32 3c 0c ac c9 3a 2c e0 f6 bb a3 49 4d 3c
       0.010916006 0.0015386357 -0.0075340476 0.012529763
000270 bb 22 1f 3c 73 08 55 bb f0 78 c2 3c c3 d0 00 3d
       0.00971287 -0.0032506257 0.023739308 0.03144909
000280 e9 5c 97 3c da 61 22 bc 46 84 d1 bc 94 8a c3 bc
       0.01847692 -0.009911025 -0.025575768 -0.02386979
000290 77 7e 8c bc cb ed 3a bb 95 34 94 3c 0b 11 1d 3c
       -0.017150147 -0.0028523083 0.01809148 0.009586583
0002a0 07 34 01 3d 38 f2 0a bd b9 70 9f bc f3 37 05 3d
       0.031543758 -0.033922404 -0.01946293 0.03252406
0002b0 65 d6 ce bc 57 d2 b8 3c f0 64 cd 3a 9d 6f e0 ba
       -0.025248716 0.022561235 0.001567034 -0.0017123107
0002c0 fb 11 e9 3c 7f ea 18 3d bc 99 13 bc 2e 76 08 3b
       0.028450957 0.037333008 -0.009008821 0.0020822394
0002d0 b8 1d 0f 3d 14 8c 05 3d 3e 52 c7 3c 81 9a 81 bc
       0.03494045 0.032604292 0.024331208 -0.015820744
0002e0 d8 e4 a0 bc 43 ed 03 3d f5 5e e9 3c c4 ce 37 3c
       -0.019640371 0.032208692 0.028487662 0.01121873
0002f0 54 00 37 3d 6f 38 0a 3d cf a2 b4 bb c1 c4 97 3c
       0.044678047 0.033745226 -0.0055125724 0.018526437
000300 e8 73 34 3d c5 e0 d3 3c c4 ce 53 bc 2d 68 0a bd
       0.04405585 0.025864014 -0.012927715 -0.033790756
000310 8d e6 31 3c c0 8b a1 3c ee c3 03 bd b3 4a ee 3b
       0.01085819 0.019719958 -0.032169275 0.0072720884
000320 27 c4 b2 bc cf cd 6b 3c a0 b5 88 bc 72 0c da bc
       -0.021822048 0.01439233 -0.016688168 -0.026617263
000330 28 d5 0b 3d fd 27 ad 3c 63 7a 66 bc c8 ee cb bc
       0.03413883 0.021137232 -0.014067265 -0.024894133
000340 9b 67 c6 3c 6c aa b3 bc d9 8d 2b bc 7d bb 7d bc
       0.024219325 -0.02193185 -0.010470831 -0.015486595
000350 95 f9 37 3c 4b 5d f3 ba 3f cf 5a 3c 29 51 a2 bc
       0.011228939 -0.0018567232 0.013355075 -0.01981409
000360 bc 6f d7 3c 02 0e 99 3b 03 88 c5 bc 24 78 d2 bc
       0.026298396 0.0046708593 -0.024112707 -0.025692053
000370 cd c3 af 3c 21 33 77 bc 26 aa 2a 3c 6e eb 98 3a
       0.02145567 -0.015087874 0.010416543 0.0011666843
000380 36 b1 85 bc 82 ff 1b 3d 51 68 3a bc dd a3 99 3c
       -0.016319852 0.038085468 -0.01137741 0.018754894
000390 41 a2 de 3c fd ca 93 3c 36 5c 11 3d 7c d7 c5 bc
       0.027176978 0.018041128 0.03548833 -0.024150603
0003a0 10 36 d3 3b dc 99 43 3b f4 ab b8 3c 61 db 81 bc
       0.0064456537 0.0029846346 0.022542931 -0.015851678
0003b0 92 cc bf bc d6 bf d9 bc a0 c7 d6 3c c4 be 5c 3c
       -0.023412976 -0.026580732 0.026218235 0.013473216
0003c0 80 83 11 bd f2 79 d7 bb 46 a4 f8 bc 43 42 ee bc
       -0.0355258 -0.0065758163 -0.03035177 -0.02908433
0003d0 bb 7f c4 3c 6f 70 8e bc 77 17 9e 3c 5f ca 0b 3d
       0.023986688 -0.017387597 0.019298298 0.034128543
0003e0 b8 8e 01 3c ea 01 a4 3c 02 2b fc bc 19 ad 74 bc
       0.007907562 0.020020444 -0.030782226 -0.014933848
0003f0 78 46 eb ba 08 bb fb 3b d5 24 6c 3c 3a 82 9d 3c
       -0.0017950078 0.007682208 0.014413078 0.019227136
