outputs/x3/epoch_158.pth (torch, 231335 bytes, 5 tensors)

conv1.weight f4 [64, 1, 9, 9]
0	0xbd1488eb	-0.036263388
1	0x3c3734b3	0.011181998
2	0xbd40e496	-0.047092997
3	0x3d47d5d7	0.048787918
4	0xbdb8c986	-0.090228125
5	0x3dac989d	0.08427546
6	0xbd9f981b	-0.07792684
7	0xbdb00300	-0.08594322
8	0xbd8da75a	-0.069166854
9	0x3d6860b9	0.056732867
10	0xbd117285	-0.035509605
11	0x3d4aa7f8	0.049476594
12	0xbdb123a3	-0.08649375
13	0xbd7f5b1e	-0.062342755
14	0xbd1f62c3	-0.038912546
15	0xbca762ce	-0.020432856
16	0xbdaaf0a0	-0.08346677
17	0x3d950f9c	0.07278368
18	0xbc9e95c7	-0.019358529
19	0x3d2f151a	0.042744733
20	0x3db9cc65	0.09072188
21	0x3d140dc9	0.03614596
22	0x3d380b51	0.044932667
23	0x3deedb9b	0.1166298
24	0xbd330e8f	-0.043715056
25	0x3d2285d1	0.0396784
26	0xbd42d3d7	-0.047565307
27	0x3db1e53c	0.08686301
28	0x3dc5f1b8	0.09665245
29	0xbdb4008a	-0.08789165
30	0x3ded2cdb	0.11580821
31	0x3d9b36a7	0.075787835
32	0x3d861dd8	0.06548661
33	0x3d6f42c1	0.05841327
34	0x3dcde9ce	0.1005436
35	0xbc36de85	-0.011161451
36	0xbdb1b9f3	-0.08678045
37	0xbccd8f81	-0.025092842
38	0xbd8705c9	-0.065929
39	0x3cd5af60	0.026084602
40	0x3a9e7e5a	0.0012092099
41	0xbd29c9de	-0.04145228
42	0x3b8e5801	0.004343987
43	0x3deaa314	0.11456886
44	0xbbaee97b	-0.0053378916
45	0x3c4adbb4	0.012381483
46	0xbc2cbba0	-0.01054278
47	0x3cd89a3a	0.026440728
48	0x3de21d26	0.11040716
49	0x3da67e63	0.08129575
50	0x3d52ac60	0.05143392
51	0x3d1064c8	0.035252362
52	0x3d0aa96b	0.033852976
53	0x3d3c7d71	0.046018068
54	0xbb94aefd	-0.004537462
55	0xbdc5e1cf	-0.0966221
56	0xbd7e7ac3	-0.062128793
57	0x3dcef524	0.101053506
58	0x3c4f0bf6	0.012637129
59	0xbdad39df	-0.08458304
60	0x3cc238bd	0.023708696
61	0x3dc60a54	0.09669939
62	0xbdd15fca	-0.102233484
63	0xbd850951	-0.064959176
64	0xbd197f54	-0.037474945
65	0x3c320628	0.010865726
66	0xbca6d5f3	-0.02036569
67	0xbc04aba0	-0.008097559
68	0xbdd7b029	-0.10531647
69	0x3d63eeb8	0.05564758
70	0x3dcec7b5	0.10096685
71	0x3d916777	0.070998125
72	0xbd8d8a12	-0.069111004
73	0xbda92a8a	-0.08260067
74	0x3d587cc2	0.052853353
75	0x3c1003e8	0.008789994
76	0x3d4f6bd1	0.05063993
77	0xbdd6eb53	-0.10494103
78	0xbb59c912	-0.003323142
79	0x3da68f09	0.081327505
80	0x3d5f5f3e	0.05453419
81	0x3b9e2daa	0.004827221
82	0x3cb04aeb	0.021520099
83	0xbc38a584	-0.011269931
84	0xbd7b5f79	-0.061370347
85	0xbd2b366e	-0.041799955
86	0xbd88fac9	-0.066884585
87	0x3dc1f809	0.09471137
88	0x3d806601	0.06269456
89	0x3d1af379	0.03782985
90	0xbdab64a3	-0.08368804
91	0x3db070e4	0.08615282
92	0x3d0fa391	0.0350681
93	0x3d9ee701	0.07758904
94	0xbd2f1453	-0.042743992
95	0x3cce2e47	0.025168551
96	0x3de6ff7c	0.112791985
97	0x3da0ec39	0.07857556
98	0x3db752af	0.089513175
99	0xbcb3ad66	-0.021933269
100	0x3daf11b5	0.08548299
101	0xbdae6cda	-0.085168555
102	0x3c4b7378	0.012417667
103	0xbd78faf9	-0.06078622
104	0xbcd1479c	-0.025546841
105	0xbcce96fe	-0.025218483
106	0x3c452843	0.012033525
107	0x3dd0fd9c	0.10204622
108	0x3d65ab7e	0.05607175
109	0x3a86ca4b	0.0010283677
110	0x3daad75c	0.08341858
111	0xbd4e60ad	-0.050385166
112	0x3d7b9cce	0.061428837
113	0xbc335266	-0.010944938
114	0xbc996640	-0.018725514
115	0x3c722d03	0.014781239
116	0xbdacf55b	-0.08445235
117	0x3c591a95	0.013250967
118	0x3d1d48c7	0.038399484
119	0x3dccddbc	0.1000323
120	0xbcd83d2c	-0.026396357
121	0x3d3d002f	0.046142753
122	0x3de4090c	0.11134538
123	0xbd42a5f7	-0.047521558
124	0x3dda4116	0.106569454
125	0xbd5f641a	-0.054538824
126	0x3d496088	0.049164325
127	0x3d30f812	0.04320533
128	0x3d07c163	0.033143412
129	0x3dbe81c3	0.09302094
130	0xbd2249aa	-0.039621033
131	0x3cff66b4	0.031176902
132	0x3b218a14	0.0024648951
133	0xbda7b50d	-0.081888296
134	0xbcd46333	-0.025926208
135	0xbd97a155	-0.074038185
136	0x3d42974c	0.04750757
137	0x3c064d83	0.008197191
138	0x3c2a4334	0.010391999
139	0xbd068b18	-0.032847494
140	0x3acfc961	0.0015852862
141	0xbd058166	-0.032594107
142	0x3d07ea9c	0.033182725
143	0x3ddda6a5	0.108228005
144	0x3c88ab77	0.016683323
145	0xbd52caa7	-0.051462796
146	0xbd930736	-0.0717911
147	0x3b88352b	0.0041567287
148	0xbdafce9b	-0.08584329
149	0xbdae5b15	-0.08513466
150	0xbd93e113	-0.07220664
151	0xbd1c24fd	-0.038121212
152	0x3bef68b7	0.007306184
153	0x3d9ec1d3	0.07751813
154	0x3d2f4b73	0.042796563
155	0x3dab8260	0.083744764
156	0xbd92d175	-0.07168857
157	0x3bfac2ce	0.007652617
158	0xbdcbaef2	-0.099454775
159	0x3d839f05	0.06426815
160	0x3cbd13bb	0.023080697
161	0x3ddb6787	0.10713106
162	0xbda1d25f	-0.07901453
163	0x3db67c20	0.08910394
164	0x3dc01707	0.09379392
165	0x3db7f8f4	0.08983031
166	0x3c81c17d	0.015839333
167	0x3dceed4c	0.101038545
168	0x3d97f914	0.07420555
169	0x3da9c5ad	0.08289657
170	0xbbed5251	-0.007242479
171	0xbdae9dae	-0.08526169
172	0xbaba0ef0	-0.0014195126
173	0x3caa268d	0.020770336
174	0xbd9b03a8	-0.07569057
175	0xbd82882e	-0.063736305
176	0xbdda28a9	-0.106522866
177	0xbd1f8d35	-0.038953025
178	0x3dc63938	0.09678882
179	0x3c9b8e1a	0.018988658
180	0xbbde098c	-0.0067760404
181	0x3b90cb27	0.004418749
182	0x3d8de120	0.06927705
183	0xbdc8f423	-0.098121904
184	0xbdaf9569	-0.085734196
185	0xbd174d75	-0.036939103
186	0xbd82f357	-0.0639407
187	0x3d6acde6	0.057325266
188	0x3da0d0af	0.07852303
189	0xbddcc985	-0.10780624
190	0xbdc121c5	-0.09430269
191	0xbddd9bc6	-0.10820727
192	0x3d2b9f68	0.04190007
193	0x3db724f3	0.089425944
194	0xbdb06fb0	-0.08615053
195	0xbd52ab40	-0.051432848
196	0x3d10ed0d	0.03538232
197	0xbd948db4	-0.0725359
198	0x3dc14991	0.0943786
199	0x3cd3cf1a	0.02585559
200	0xbcfdfe9e	-0.0310052
201	0x3be9e38a	0.0071377205
202	0x3d0dce30	0.034620464
203	0xbd21013c	-0.039307818
204	0xbdb054b0	-0.08609903
205	0x3a420395	0.00074010465
206	0x3b05a232	0.0020390865
207	0x3b12d08b	0.0022402133
208	0xbc854f0d	-0.016273046
209	0x3d92112a	0.0713218
210	0xbcfeb889	-0.031093853
211	0xbc31baf5	-0.010847797
212	0x3d3b0592	0.04565961
213	0xbd8f40b5	-0.06994764
214	0x3cf36c5d	0.029714758
215	0xbcc96d1d	-0.024588162
216	0x3d5a4a65	0.053293604
217	0xbd76e729	-0.060279045
218	0x3b8649cc	0.0040981527
219	0x3c31f1a8	0.010860838
220	0xbdb71785	-0.08940033
221	0xbda57768	-0.080794156
222	0x3d2e8772	0.04260964
223	0xbd0476e6	-0.032339953
224	0x3d87252e	0.06598888
225	0xbde0cafc	-0.10976216
226	0xbd60f8b8	-0.054924697
227	0xbdbb6dd6	-0.09151809
228	0x3d35cdee	0.044385843
229	0xbb52e4b1	-0.0032179768
230	0xbca9c12a	-0.02072199
231	0xbc9768a5	-0.018482516
232	0xbdb1de45	-0.08684973
233	0x3d011462	0.03151358
234	0x3b35fb89	0.0027768335
235	0xbd9d09bc	-0.07667872
236	0x3d2b416e	0.041810445
237	0xbb12c07c	-0.0022392562
238	0xbddc1454	-0.10746065
239	0x3d74d193	0.059770178
240	0x3d737072	0.059433408
241	0xbcab74ee	-0.02092978
242	0xbd9d1cbc	-0.07671496
243	0x3b791973	0.0038009554
244	0x3da85bed	0.082206585
245	0x3dce36b5	0.10069028
246	0xbda89e33	-0.08233299
247	0xbd452ea0	-0.04814017
248	0x3db3036b	0.08740886
249	0x3d5dc21e	0.054140203
250	0x3d8a90e5	0.06765918
251	0xbd6cdb5a	-0.057826377
252	0x3dc47d01	0.09594155
253	0xbdbc2018	-0.09185809
254	0xbbbb9504	-0.005724551
255	0x3b6f06e9	0.0036472625

conv1.bias f4 [64]
0	0xbc64fcc1	-0.013976277
1	0xbd862296	-0.065495655
2	0xbb9b896d	-0.004746607
3	0xbd7d0877	-0.06177565
4	0x3d095d5f	0.03353631
5	0xbcc769f1	-0.024342509
6	0x3d80e8bc	0.062943906
7	0x3d620239	0.0551779
8	0x3ddd77bc	0.10813853
9	0xbd96d5a8	-0.073649704
10	0xbb388429	-0.0028154945
11	0x3b15e802	0.0022873883
12	0xbd8b5a69	-0.06804354
13	0x3dcc697a	0.099810556
14	0x3d7f6df0	0.062360704
15	0x3d8bdea0	0.06829572
16	0xbd07a4b4	-0.033116058
17	0xbd4ddf83	-0.050261986
18	0x3d8a5c90	0.06755936
19	0x3c8422da	0.0161299
20	0x3c792106	0.015205627
21	0xbcb0d1b2	-0.021584366
22	0xbdd68f84	-0.10476592
23	0x3d82906f	0.06375205
24	0xbd3b3915	-0.045708735
25	0x3d7330ad	0.059372593
26	0xbcdff62c	-0.027339064
27	0xbb02b91e	-0.0019946764
28	0x3cf5ec07	0.030019773
29	0x3d14fd4b	0.03637437
30	0x3dffe7b4	0.12495366
31	0xbd26fe71	-0.040769998
32	0x3d1da36a	0.038485922
33	0x3d2e187f	0.04250383
34	0xbc9959d0	-0.018719584
35	0xbdb72d86	-0.0894423
36	0xbc799448	-0.015233107
37	0x3d987a7e	0.074452385
38	0xbdc11662	-0.09428097
39	0x3c47e4d2	0.012200551
40	0xbd66b0f6	-0.056321107
41	0xbd62657b	-0.05527256
42	0x3dbe81c6	0.09302096
43	0x3aa6b285	0.0012717998
44	0x3d14bca0	0.0363127
45	0x3c7ade4e	0.015311791
46	0xbda2973d	-0.07939003
47	0xbde37b1e	-0.11107467
48	0xbd8f6a2a	-0.07002671
49	0xbba25da8	-0.0049550124
50	0xbd41a5f8	-0.04727742
51	0xbcc30906	-0.023808014
52	0x3d11c8b0	0.03559178
53	0xbbc84d69	-0.0061127436
54	0x3bdf165f	0.0068080868
55	0xbd604d94	-0.054761484
56	0x3d9c0eb2	0.076199904
57	0xbd59bd65	-0.053159136
58	0xbbcb619c	-0.0062067043
59	0x3dcaab01	0.09895898
60	0x3dd710e2	0.10501267
61	0xbd6f566c	-0.058432028
62	0xbdc9e56e	-0.09858213
63	0xbd989224	-0.07449749

conv2.weight f4 [32, 64, 5, 5]
0	0x3ba51d8c	0.0050389227
1	0x3c2af9d7	0.010435543
2	0xbc39953a	-0.011327082
3	0xbca1f037	-0.019767864
4	0xbb9d8361	-0.0048069214
5	0xbbce842f	-0.0063023786
6	0xbc818d4f	-0.015814452
7	0xbcc23111	-0.023705037
8	0xbc8e0e7e	-0.017340895
9	0xba788f02	-0.0009481759
10	0x3c60b102	0.013714077
11	0xbc9881f7	-0.01861666
12	0xbc16c52a	-0.009202281
13	0xbc9c3ea8	-0.019072846
14	0x3c458ee4	0.012057994
15	0xbab92d2a	-0.001412784
16	0x3c851e76	0.016249876
17	0x3b540db5	0.0032356803
18	0xbb9a525b	-0.0047095246
19	0x3cb45838	0.022014722
20	0x3c895d6f	0.016768185
21	0x3cc3da42	0.023907784
22	0xbc8bde6e	-0.017073836
23	0x3c429c0c	0.011878025
24	0xbc7e6697	-0.015527389
25	0xbc81cddf	-0.015845237
26	0x3c961cb2	0.01832423
27	0x3c32d56e	0.010915143
28	0xbc70a5e2	-0.014687987
29	0xbc89b899	-0.016811656
30	0xbc5c40ee	-0.013443215
31	0x3c9af7ce	0.01891699
32	0x3c0702b6	0.008240392
33	0x3a6ccfdf	0.0009033661
34	0xbc8df452	-0.017328415
35	0x3bfdb4e6	0.007742512
36	0xbbbcdd9f	-0.005763724
37	0x3c6f3d44	0.014602009
38	0x3bb61b54	0.005557457
39	0x3c32757f	0.010892271
40	0xbc0ab562	-0.008466097
41	0xb9fdda95	-0.00048418777
42	0xbc62c3b0	-0.013840601
43	0x3bb67ac9	0.0055688363
44	0xbb0dcba9	-0.0021636283
45	0xbcb12d90	-0.021628171
46	0x3c5c55eb	0.013448219
47	0x3c203e93	0.009780544
48	0x3c6d2388	0.014473803
49	0x3c2d4d62	0.0105775315
50	0x3b1e8a88	0.0024191458
51	0x3c91a41b	0.017778447
52	0xbcb1926f	-0.02167627
53	0x3be20573	0.0068976223
54	0x3ca315c3	0.019907838
55	0xbb8af840	-0.0042410195
56	0x3c9e5f3d	0.019332523
57	0x3c29e66a	0.010369876
58	0x3cad5379	0.021157967
59	0x3cafaa54	0.021443523
60	0x3c3acc27	0.011401213
61	0x3b1304d7	0.0022433305
62	0xbcade4d8	-0.021227285
63	0xbc1578db	-0.0091230525
64	0xbcb622f1	-0.022233458
65	0xbb834125	-0.0040055686
66	0x3c789530	0.015172288
67	0x3c5dd806	0.0135402735
68	0x3af3d37b	0.0018602455
69	0xbcc5a2ef	-0.024125544
70	0x3c5a34b5	0.01331823
71	0x3c1870ea	0.009304265
72	0xbc504814	-0.012712497
73	0xbcbbef08	-0.022941127
74	0xbc637272	-0.013882266
75	0x3c0401eb	0.008057098
76	0xbc62d239	-0.013844066
77	0xbc913165	-0.017723748
78	0xbca5969e	-0.020213421
79	0xbc780860	-0.0151387155
80	0xbb7f7149	-0.0038977435
81	0x3c971d96	0.018446725
82	0xbc7d3885	-0.01545537
83	0xbcb566c8	-0.022143736
84	0x3ca8e2d5	0.020615974
85	0x3c5d33c2	0.01350111
86	0x3bff3815	0.007788668
87	0xbc89e522	-0.016832892
88	0x3c8dc568	0.017306045
89	0x3c24f740	0.010068715
90	0x3b7d92c3	0.0038692213
91	0x3c98f5fa	0.018671978
92	0x3bf67d09	0.0075222296
93	0x3c7f9648	0.015599795
94	0xbbee8286	-0.007278743
95	0x3c7c7708	0.015409239
96	0xbc46173d	-0.012090501
97	0x3bc8cc86	0.0061278967
98	0xbc80125a	-0.01563375
99	0xbcbc84af	-0.023012487
100	0xbcab353d	-0.02089941
101	0xbc974d20	-0.018469393
102	0x3c5d9de1	0.013526411
103	0x3cc5d892	0.02415112
104	0x3c792e50	0.015208796
105	0xba1d2c15	-0.00059956434
106	0xb991a8a6	-0.00027782208
107	0x3b5e6dfd	0.003394007
108	0x3cc2d145	0.023781428
109	0x3c54f0d9	0.012996876
110	0xbc7763e4	-0.015099499
111	0xbc6232ce	-0.013806058
112	0x3ca74bbd	0.020421857
113	0x3c5ce2c4	0.0134817995
114	0xbcc8514a	-0.024452824
115	0xbcaa7045	-0.020805487
116	0x3c52ca5d	0.01286563
117	0xbc43bbd6	-0.011946639
118	0x3c9b0352	0.018922482
119	0x3c85740f	0.016290693
120	0xbca0d4b7	-0.01963268
121	0x3bc0ad06	0.005880001
122	0xbb863a21	-0.004096285
123	0xbcc3f002	-0.023918156
124	0x3c036a83	0.008021
125	0x3b358b86	0.002770157
126	0x3b974df2	0.004617446
127	0xbca5cf4b	-0.020240447
128	0xbbb4e52f	-0.005520485
129	0xbb951946	-0.004550132
130	0xbcb14745	-0.02164043
131	0x3c9f5589	0.019449966
132	0xbbe0011b	-0.0068360693
133	0x3c42cf82	0.011890294
134	0xbbd6fe9b	-0.006561113
135	0xbca06158	-0.019577667
136	0xbbddce0f	-0.006768949
137	0x3b98aa7d	0.0046589957
138	0x3ca185fc	0.019717209
139	0x3b796284	0.0038053105
140	0x3c8ba146	0.017044675
141	0x3c40e41a	0.011773134
142	0xbc8c9ab2	-0.017163608
143	0x3a569fac	0.0008187245
144	0x3cb52734	0.02211342
145	0xbbfeb342	-0.007772834
146	0x3c2f623e	0.010704575
147	0x3cb21764	0.02173967
148	0xbad0074d	-0.0015871316
149	0xbc193f59	-0.009353482
150	0xbc790644	-0.015199248
151	0xbaf8a4a7	-0.0018969969
152	0xbc893d33	-0.016752815
153	0x3cc8e0bb	0.024521222
154	0xbcb06186	-0.021530878
155	0x3cb3548e	0.021890905
156	0x3c8982d3	0.016786015
157	0xbcaee9c8	-0.02135171
158	0xbc6f552e	-0.014607711
159	0x3cbeec9e	0.023306187
160	0xbb4dc542	-0.0031398092
161	0xbc8e734f	-0.017388968
162	0x3a8c5406	0.0010706193
163	0xbbbace2c	-0.005700847
164	0x3b4df1d4	0.0031424658
165	0x3c21be5c	0.009872045
166	0xbcad2e53	-0.021140253
167	0xbc509ee5	-0.012733196
168	0xba0f1380	-0.0005457923
169	0x3cbfbcba	0.023405422
170	0xbc9a2b45	-0.01881946
171	0xbc577248	-0.013149805
172	0x3c656696	0.014001509
173	0x3cc21d53	0.023695624
174	0x3b46f1a9	0.0030356443
175	0x38b3973d	8.5635555e-05
176	0x3c33a68d	0.010965002
177	0xbb9e153f	-0.00482431
178	0x3c742a37	0.014902643
179	0x3ccb59b3	0.024823045
180	0x3c943258	0.018090412
181	0xbcc7d480	-0.02439332
182	0x3ca10538	0.019655809
183	0x3cc3e82f	0.023914425
184	0x3c2f45e2	0.010697814
185	0xbbfbc75c	-0.0076836776
186	0xbb451cdb	-0.0030077014
187	0xbc851730	-0.016246408
188	0xbb80947c	-0.0039239507
189	0x3c83f063	0.016105836
190	0xbbcb5010	-0.0062046126
191	0xbb67e4fc	-0.0035384288
192	0xbb882cc9	-0.0041557294
193	0x382a5114	4.060667e-05
194	0x3b6871a3	0.0035468123
195	0xbb61707f	-0.0034399328
196	0xbcc79eb0	-0.02436766
197	0xbc0246b5	-0.007951428
198	0xbc4fa6c2	-0.0126740355
199	0xbc11f801	-0.008909226
200	0xbc4c1591	-0.012456314
201	0xbc8feb93	-0.017568385
202	0xbca5b70f	-0.02022889
203	0xbc1222b9	-0.008919411
204	0x3b6ce6a9	0.0036148226
205	0x3cc9d32f	0.024636833
206	0x3b187b33	0.0023266792
207	0x3b0f1838	0.0021834504
208	0x3c484914	0.012224454
209	0x3bb8b369	0.0056366217
210	0xbca42b8d	-0.020040298
211	0xbcc6f753	-0.024287855
212	0xbc7b9b4a	-0.015356848
213	0xbba99d4a	-0.005176221
214	0xbc89f0e6	-0.016838502
215	0x3c989dec	0.01862999
216	0xbbfe9cc7	-0.007770154
217	0xbc3e8947	-0.011629409
218	0xbc90a619	-0.017657327
219	0xbc3310f9	-0.01092934
220	0xbc9a68fa	-0.018848885
221	0x3cab19ef	0.02088639
222	0x3bdb5666	0.006693649
223	0xbcb0020b	-0.02148535
224	0x3cc85150	0.024452835
225	0xbba137cc	-0.0049199816
226	0x3c0854b0	0.008320972
227	0xbb823fd8	-0.003974896
228	0xbb974276	-0.004616077
229	0x3c62abd2	0.0138349105
230	0x3cb36529	0.021898823
231	0x3c1b35bc	0.0094732605
232	0x3cc999fa	0.024609555
233	0x3cc4bc55	0.024015585
234	0xbab3167f	-0.001366332
235	0xbb0eb0f9	-0.0021772964
236	0xbae73ef4	-0.0017642663
237	0xbbb60e36	-0.0055558933
238	0xbc1602ec	-0.00915597
239	0xbca848fe	-0.020542618
240	0xbcc3d90c	-0.023907207
241	0xbc211660	-0.009831995
242	0xbc1caf0a	-0.009563217
243	0xbcc79062	-0.02436084
244	0xbbb3fbc2	-0.0054926584
245	0x3c85509e	0.016273793
246	0xbb6fb3fe	-0.003657579
247	0xbc350c97	-0.011050365
248	0xba00c2b4	-0.00049118255
249	0x3c86aeed	0.016440833
250	0xbc37c788	-0.011217006
251	0xbc28e212	-0.010307806
252	0xbaca637d	-0.0015441027
253	0xba69f4ca	-0.0008924721
254	0x3cbd92eb	0.023141345
255	0xbcb3bf10	-0.021941692

conv2.bias f4 [32]
0	0xbc0b71da	-0.008511031
1	0xbcc5964d	-0.02411952
2	0xbb8e78de	-0.0043479046
3	0x3c826824	0.015918799
4	0x3ce011a9	0.027352171
5	0x3caa12d3	0.02076093
6	0xbc73795f	-0.01486048
7	0x3d19c1ef	0.037538465
8	0x3b5d3e50	0.0033759065
9	0xbc3e6df9	-0.011622899
10	0xbbef8b19	-0.007310283
11	0x3b756968	0.003744686
12	0x3d01a907	0.031655338
13	0x3cdc7e86	0.0269158
14	0xbbb42069	-0.0054970277
15	0xbc1b9d9b	-0.009498025
16	0xbc878671	-0.016543599
17	0xbc92a59e	-0.017901238
18	0x3ccd9a13	0.025097882
19	0x3cad5472	0.02115843
20	0xb7412765	-1.1512869e-05
21	0x3b17baa2	0.0023152013
22	0xbbd9faf7	-0.006652232
23	0x39575919	0.00020537189
24	0x3c3f0ffb	0.011661525
25	0xbc2deb7f	-0.010615229
26	0x3c52d5fb	0.0128684
27	0x3ce63ea0	0.028106034
28	0x3bcbd731	0.006220721
29	0xbc88ca98	-0.016698167
30	0xbb91dd23	-0.0044514104
31	0xbb92e762	-0.0044831494

conv3.weight f4 [1, 32, 5, 5]
0	0x3c9cf60c	0.019160293
1	0x3c9597d0	0.018260866
2	0xbaed49f0	-0.00181037
3	0x3cc80fa5	0.024421522
4	0x3cf7b87f	0.030239342
5	0xbceeadde	-0.02913564
6	0x3ad1f4c8	0.0016018385
7	0xbd0ae070	-0.033905447
8	0x3b89e62e	0.0042083478
9	0x3c289dc6	0.010291522
10	0xbb0dc3b3	-0.0021631538
11	0x3ce5c1a6	0.02804644
12	0x3c4a8303	0.012360337
13	0xbcf27ff4	-0.029602028
14	0xbb3c516c	-0.0028735055
15	0xbc7c91e7	-0.015415645
16	0xbce924ef	-0.028459994
17	0xb89a4f0d	-7.3580166e-05
18	0xbd01cf31	-0.031691734
19	0x3cc0cab1	0.02353415
20	0x3b98b56c	0.004660299
21	0x3c519aa7	0.01279322
22	0x3ca21905	0.01978732
23	0x3ce3f82e	0.027828302
24	0xbc8d9a97	-0.017285628
25	0x3ba1edf7	0.0049416977
26	0xbcf1a45b	-0.029497316
27	0x3c2e86ce	0.010652257
28	0x3cd9fb18	0.026608989
29	0xbcb368bf	-0.021900533
30	0x3cc078e1	0.02349514
31	0xbc3b0be0	-0.011416405
32	0x3c6f9855	0.014623721
33	0xbc64fc4f	-0.013976171
34	0x3c027591	0.0079626
35	0xbcf0ff9d	-0.02941876
36	0x3d06d740	0.032920122
37	0xbabc17c8	-0.0014350349
38	0x3d14993e	0.036278956
39	0xbc16cc51	-0.009203986
40	0x3c8a2030	0.016861051
41	0xbc5abf40	-0.013351262
42	0xbc366689	-0.011132845
43	0xbbf0fece	-0.007354594
44	0x3c9d3b67	0.019193364
45	0x3c7e1764	0.015508506
46	0x3cbe6aae	0.023244228
47	0xbb5b8340	-0.003349498
48	0x3bb00ae5	0.0053723925
49	0x3cc28065	0.023742864
50	0xbc639dc7	-0.0138925975
51	0xbc3f7b56	-0.01168712
52	0x3cdc00d7	0.02685587
53	0xbcf4bbeb	-0.029874763
54	0xbc8cbf1d	-0.017180974
55	0xbca11a2e	-0.019665804
56	0xbbf39473	-0.007433468
57	0xbcd4be3a	-0.025969613
58	0x3c062b08	0.00818897
59	0xbccad4fc	-0.024759762
60	0xbc7f3743	-0.01557714
61	0xbd0d074f	-0.0344308
62	0x3cc2057e	0.02368426
63	0xbcb1e6ec	-0.021716557
64	0xbb8d3d08	-0.004310254
65	0xbcad60ac	-0.02116426
66	0xbba046ca	-0.004891251
67	0xbbdbb93b	-0.006705431
68	0xbc3d2e62	-0.011546703
69	0xba1839e8	-0.00058069685
70	0x3c753eec	0.014968615
71	0x3cedf649	0.029048102
72	0x3cd6bfdf	0.026214538
73	0xbcd7427b	-0.026276818
74	0xbb888d02	-0.0041672
75	0xbce14671	-0.02749941
76	0x3c9692b7	0.018380506
77	0x3cc9ca2f	0.024632541
78	0x3c1fd576	0.009755483
79	0x3c4197fd	0.011816022
80	0x3d100815	0.035163958
81	0xbb5e0e62	-0.0033883085
82	0xbcf6a9cf	-0.030110268
83	0xbc87ccd6	-0.016577166
84	0xbc2b271b	-0.010446335
85	0x3c8ae19d	0.016953284
86	0x3a83ee6f	0.0010065566
87	0x3ce5349e	0.027979191
88	0x3ca15117	0.019691987
89	0xbc270004	-0.010192875
90	0xbc1364a4	-0.008996163
91	0xbc4089cd	-0.011751604
92	0xbd026bf6	-0.03184124
93	0xbc3956a9	-0.011312165
94	0xbc86cc75	-0.016454915
95	0xbbd9e888	-0.0066500343
96	0xbbff5285	-0.0077918195
97	0xbc599feb	-0.013282756
98	0xbc86360f	-0.016383199
99	0x3bb91286	0.00564796
100	0x3bb0eb72	0.005399161
101	0x3c279429	0.010228195
102	0x3c9f815a	0.01947086
103	0xba343cd7	-0.0006875521
104	0x3b9b9786	0.0047482876
105	0xbbe18b44	-0.006883057
106	0x3d12ffef	0.03588861
107	0x3beffa49	0.0073235375
108	0x3cf3ed30	0.029776186
109	0xbc94cb85	-0.018163452
110	0xbcc334b6	-0.023828845
111	0x3c399947	0.011328048
112	0xbcb3df72	-0.021957133
113	0x3ce173b8	0.027521
114	0x3ccc3d60	0.02493161
115	0x3d087676	0.0333161
116	0x3d1c396c	0.0381407
117	0x3c9aaa8f	0.018880157
118	0x3c9674a4	0.018366165
119	0xbac10d64	-0.0014728722
120	0x3d0efd52	0.034909554
121	0x3c99df71	0.018783303
122	0xbb93d3cc	-0.004511332
123	0xbcfc72c1	-0.030816438
124	0x3bce483f	0.0062952335
125	0x3be08cc4	0.006852718
126	0x3ce71498	0.028208062
127	0x3cbeda26	0.02329738
128	0x3d0bb91d	0.034112085
129	0x3bcd0bf1	0.006257527
130	0x3c5a893e	0.013338385
131	0xbce5e9fb	-0.028065672
132	0x3b94fc38	0.0045466684
133	0x3c0f0500	0.008729219
134	0xbca0fc5a	-0.01965158
135	0xbc8957a8	-0.01676543
136	0x3c68c634	0.014207412
137	0xbcaf2ba3	-0.021383112
138	0xbc653565	-0.013989781
139	0x3ccd56d4	0.025065817
140	0x3cd8fa67	0.026486589
141	0xbd0295ac	-0.03188102
142	0xbd0a94b5	-0.033833224
143	0x3caffd37	0.021483047
144	0xbc2c34ea	-0.010510663
145	0x3b1823f0	0.002321478
146	0xbcd14efd	-0.02555036
147	0xbc85e6bd	-0.016345376
148	0x3cdfb55f	0.027308164
149	0xbcae52d1	-0.021279724
150	0x3c527f7d	0.012847778
151	0x3abce21e	0.001441065
152	0x3c32d029	0.010913887
153	0x3ac951ef	0.0015359501
154	0xbbf6f220	-0.007536188
155	0x3c4cf147	0.012508697
156	0x3c1ecd7a	0.009692544
157	0xbb5577ba	-0.0032572583
158	0x3cc1f4ff	0.023676394
159	0x3d00adef	0.031415876
160	0x3c9742c7	0.01846446
161	0xbc22b67d	-0.009931204
162	0xbcd1b0ef	-0.025597064
163	0xbcc3e1c7	-0.02391137
164	0xbc8cba7d	-0.017178768
165	0xbb3be72f	-0.0028671732
166	0x3c941809	0.018077867
167	0x3c1cbce7	0.009566522
168	0x3d0121f5	0.031526525
169	0xbd0afcf9	-0.03393266
170	0xbc9f6e88	-0.019461885
171	0x3d0537dd	0.03252398
172	0xbcceda29	-0.025250511
173	0x3cb8c8b2	0.022556636
174	0x3acd054e	0.001564184
175	0xbb054110	-0.002033297
176	0x3cf38b59	0.029729532
177	0x3d2366a8	0.039892823
178	0xbc20edcc	-0.00982232
179	0x3a7e6227	0.0009703957
180	0x3d0f3efc	0.034972176
181	0x3d10dd98	0.03536758
182	0x3cf2759b	0.029597094
183	0xbc6facab	-0.01462857
184	0xbca0c247	-0.019623889
185	0x3d0dee73	0.03465123
186	0x3d0d4a46	0.03449466
187	0x3ca8b3d8	0.020593569
188	0x3d47b668	0.04875794
189	0x3d0ff641	0.035146955
190	0xbbb22bb0	-0.005437337
191	0x3ca5afc6	0.020225417
192	0x3d445d07	0.04794028
193	0x3cd8e0d8	0.026474401
194	0xbc6467a2	-0.013940724
195	0xbd1408d0	-0.036141217
196	0x3c13a873	0.009012329
197	0x3ca1f819	0.019771622
198	0xbd06e611	-0.032934252
199	0x3bcfc85c	0.0063410234
200	0xbcb2c427	-0.021822048
201	0x3c6bd76b	0.014394621
202	0xbc8915a0	-0.016733944
203	0xbcda8dbf	-0.026678918
204	0x3d0bd31c	0.034136876
205	0x3cad27fd	0.021137232
206	0xbc663849	-0.014051505
207	0xbccbe11f	-0.02488762
208	0x3cc61ef3	0.02418468
209	0xbcb3bfdd	-0.021942073
210	0xbc2b8ebf	-0.010471045
211	0xbc7c5622	-0.015401395
212	0x3c3bb070	0.01145564
213	0xbae8a56a	-0.0017749493
214	0x3c5bcdd9	0.013415777
215	0xbca25129	-0.01981409
216	0x3cd7706d	0.026298726
217	0x3b9c1824	0.00476362
218	0xbcc57fce	-0.024108794
219	0xbcd25877	-0.025676949
220	0x3cafc3cd	0.02145567
221	0xbc772c2b	-0.015086214
222	0x3c2b84b2	0.010468649
223	0x3a976d01	0.0011552871
224	0xbc859569	-0.016306596
225	0x3d231502	0.039814956
226	0xbc33b1d2	-0.010967689
227	0x3ca98901	0.020695211
228	0x3ceb10d5	0.02869455
229	0x3c8f9456	0.017526787
230	0x3d132e3b	0.03593276
231	0xbccd7cb7	-0.025083883
232	0x3bffe336	0.007809068
233	0x3b980414	0.004639158
234	0x3cbc9564	0.023020454
235	0xbc93247a	-0.01796173
236	0xbcdb7fe1	-0.026794376
237	0xbcdd801c	-0.027038626
238	0x3cdde4e2	0.027086679
239	0x3c6c19db	0.014410461
240	0xbd1d3966	-0.038384818
241	0xbc2bae3e	-0.010478554
242	0xbd01a843	-0.031654608
243	0xbcedb532	-0.029017065
244	0x3cc76e5c	0.024344616
245	0xbc94df24	-0.018172808
246	0x3c91e715	0.017810384
247	0x3d0e5da5	0.034757275
248	0x3c0f1db0	0.008735105
249	0x3ca58e2a	0.02020939
250	0xbcfc2b02	-0.030782226
251	0xbc74aca1	-0.014933736
252	0xbaeafc2b	-0.0017927935
253	0x3bfbbb8c	0.0076822694
254	0x3c6c24d5	0.014413078
255	0x3c9d823a	0.019227136
