outputs/x3/epoch_64.pth (torch, 231327 bytes, 5 tensors)

conv1.weight f4 [64, 1, 9, 9]
-0.03859624 0.009142479 -0.048772026 0.048274424 -0.08930001 0.085152335 -0.0780362 -0.08649081
-0.06950364 0.055217616 -0.03666007 0.04826699 -0.086782314 -0.06097914 -0.037022118 -0.019626543
-0.083707705 0.072309576 -0.02009787 0.042072587 0.08885365 0.033606716 0.043191418 0.11649158
-0.043649368 0.039339993 -0.04783642 0.08711615 0.09689445 -0.08966986 0.1117218 0.071278706
0.06318131 0.057233747 0.10033227 -0.010475491 -0.08604673 -0.024130903 -0.06662298 0.023044592
-0.0027667973 -0.043904405 0.0028252725 0.114414394 -0.0039082565 0.011981917 -0.010311867 0.026412845
0.11003256 0.08083296 0.051306177 0.034635626 0.03377249 0.046987653 -0.005683614 -0.097064026
-0.062156253 0.10184232 0.01432871 -0.08292829 0.02412749 0.096741855 -0.102124594 -0.06552045
-0.037718292 0.010786046 -0.019792812 -0.006336165 -0.10333014 0.056679793 0.10137898 0.07090439
-0.06884952 -0.082376845 0.053008348 0.009087488 0.051676646 -0.103554785 -0.0021725935 0.08228089
0.05511192 0.0037242796 0.02062792 -0.0115479445 -0.061325006 -0.04186822 -0.0675329 0.09341189
0.061600436 0.037753966 -0.08437128 0.085943915 0.03555187 0.078387804 -0.0421278 0.024866737
0.11101498 0.07671669 0.089222334 -0.021859832 0.08601712 -0.08451143 0.012997886 -0.059943076
-0.024713686 -0.02610572 0.010473228 0.101674475 0.05671393 0.0017128104 0.08306614 -0.05159191
0.06105467 -0.00939232 -0.017892301 0.014583742 -0.08450498 0.013983479 0.03900885 0.09897654
-0.029036665 0.044139843 0.112116426 -0.046394363 0.10700025 -0.05443315 0.049270604 0.043721575
0.032894634 0.09143139 -0.04161809 0.030667916 0.0023878084 -0.082106374 -0.026316527 -0.07504556
0.04738346 0.008700646 0.010754001 -0.033306777 0.000773928 -0.033602048 0.0322896 0.107361674
0.015074563 -0.052303214 -0.07135297 0.00549899 -0.08483553 -0.08525252 -0.07302206 -0.038968455
0.006318046 0.07606243 0.041490678 0.08324076 -0.07129336 0.008156691 -0.09959098 0.0637316
0.022601066 0.10642586 -0.079018235 0.08910286 0.09379645 0.08983252 0.0158363 0.10103097
0.07419768 0.082888536 -0.007249952 -0.08526512 -0.0014088464 0.02079797 -0.075689025 -0.06373751
-0.10652738 -0.038965385 0.09677941 0.018973645 -0.0067908424 0.004432409 0.069277756 -0.09812111
-0.0857337 -0.036946326 -0.063946076 0.05730267 0.07851043 -0.107806176 -0.09430231 -0.108206555
0.041904613 0.08942629 -0.0861504 -0.05144306 0.035359107 -0.07254909 0.09438062 0.025873058
-0.030976595 0.0071731526 0.034627058 -0.039302465 -0.08609766 0.0007315389 0.0020166214 0.0022273802
-0.016255386 0.071327075 -0.03106072 -0.0108108455 0.045666352 -0.06994389 0.029719535 -0.024593815
0.05329416 -0.0602782 0.0040941387 0.01086074 -0.08940032 -0.08079415 0.04261041 -0.03233986
0.06598878 -0.10976216 -0.054924697 -0.09151809 0.044386 -0.0032201435 -0.02072213 -0.018482674
-0.08684973 0.031513687 0.002774517 -0.07667872 0.04181051 -0.0022359313 -0.10746065 0.059770178
0.059433408 -0.02093 -0.07671496 0.0040180893 0.08241555 0.10078393 -0.082904495 -0.04924485
0.086506166 0.053541515 0.06729549 -0.057385873 0.095964685 -0.0919059 -0.0055464744 0.0037294857
00000000: 1717 1ebd 56ca 153c 2dc5 47bd 67bb 453d
00000010: ece2 b6bd 5964 ae3d 71d1 9fbd 1822 b1bd
00000020: ed57 8ebd de2b 623d df28 16bd 9bb3 453d
00000030: edba b1bd 43c5 79bd 81a4 17bd d8c7 a0bc
00000040: f26e abbd 0b17 943d 4aa4 a4bc 4e54 2c3d
00000050: e7f8 b53d 32a7 093d 7ce9 303d 2393 ee3d
00000060: aec9 32bd f922 213d 1ff0 43bd f469 b23d
00000070: 9970 c63d d5a4 b7bd 66ce e43d 92fa 913d
00000080: 3465 813d ef6d 6a3d 017b cd3d 65a1 2bbc
00000090: 4539 b0bd 2cae c5bc a171 88bd 03c8 bc3c
000000a0: 2853 35bb 1bd5 33bd 3528 393b 1852 ea3d
000000b0: d510 80bb cd4f 443c 1bf3 28bc c05f d83c
000000c0: c058 e13d c08b a53d 6d26 523d 16de 0d3d
000000d0: 0655 0a3d 2076 403d 9c3d babb 81c9 c6bd
000000e0: 8e97 7ebd b592 d03d f7c2 6a3c 4fd6 a9bd
000000f0: 04a7 c53c 9820 c63d b326 d1bd 962f 86bd
00000100: 7f7e 1abd f5b7 303c 8924 a2bc 9b9f cfbb
00000110: c19e d3bd 1229 683d c89f cf3d 5236 913d
00000120: fa00 8dbd 31b5 a8bd 481f 593d b0e3 143c
00000130: e4aa 533d 8814 d4bd 1262 0ebb e282 a83d
00000140: 09bd 613d 0b13 743b e2fb a83c 9733 3dbc
00000150: ee2f 7bbd 037e 2bbd b04e 8abd bc4e bf3d
00000160: bd50 7c3d e7a3 1a3d daca acbd 5d03 b03d
00000170: d69e 113d c989 a03d 338e 2cbd 54b5 cb3c
00000180: d25b e33d a41d 9d3d 33ba b63d 6413 b3bc
00000190: be29 b03d 5414 adbd 16f5 543c df86 75bd
000001a0: 5b74 cabc aadb d5bc e797 2b3c b53a d03d
000001b0: de4c 683d 6180 e03a 951e aa3d 0a52 53bd
000001c0: 7614 7a3d 3fe2 19bc e092 92bc a6f0 6e3c
000001d0: f210 adbd f61a 653c bec7 1f3d 36b4 ca3d
000001e0: 4dde edbc fbcb 343d 4c9d e53d 0408 3ebd
000001f0: f222 db3d 4bf5 5ebd f9cf 493d 6515 333d
00000200: 86bc 063d 6140 bb3d bb77 2abd 483b fb3c
00000210: c77c 1c3b 6327 a8bd c295 d7bc 7db1 99bd
00000220: 2915 423d 288d 0e3c 8d31 303c b06c 08bd
00000230: 6ee1 4a3a 4da2 09bd 1a42 043d 70e0 db3d
00000240: 4dfb 763c e53b 56bd 8221 92bd df30 b43b
00000250: 40be adbd e098 aebd 978c 95bd 639d 1fbd
00000260: 9c07 cf3b 9fc6 9b3d 21f2 293d 227a aa3d
00000270: 4102 92bd a4a3 053c 5bf6 cbbd b785 823d
00000280: df25 b93c cdf5 d93d 50d4 a1bd 8f7b b63d
00000290: 5a18 c03d 1dfa b73d 21bb 813c 53e9 ce3d
000002a0: f4f4 973d 77c1 a93d 0191 edbb 7b9f aebd
000002b0: 0aa9 b8ba 8160 aa3c d902 9bbd d088 82bd
000002c0: 072b dabd 2b9a 1fbd 4934 c63d 9e6e 9b3c
000002d0: b785 debb be3d 913b 7fe1 8d3d b8f3 c8bd
000002e0: 2695 afbd 0855 17bd 29f6 82bd 34b6 6a3d
000002f0: 14ca a03d 7cc9 dcbd 9221 c1bd 669b ddbd
00000300: 2ca4 2b3d 2125 b73d 9f6f b0bd f5b5 52bd
00000310: b6d4 103d 9e94 94bd a04a c13d bcf3 d33c
00000320: a1c2 fdbc c40c eb3b 1ad5 0d3d 9ffb 20bd
00000330: f853 b0bd bfc4 3f3a 4b29 043b 3df9 113b
00000340: 042a 85bc ee13 923d 0d73 febc f91f 31bc
00000350: a40c 3b3d be3e 8fbd 6276 f33c f878 c9bc
00000360: fa4a 5a3d 46e6 76bd 2028 863b 3ff1 313c
00000370: 8417 b7bd 6777 a5bd 4188 2e3d cd76 04bd
00000380: 2025 873d fcca e0bd b8f8 60bd d66d bbbd
00000390: 18ce 353d 0b09 53bb 75c1 a9bc fa68 97bc
000003a0: 45de b1bd 7f14 013d acd4 353b bc09 9dbd
000003b0: 7f41 2b3d b488 12bb 5414 dcbd 93d1 743d
000003c0: 7270 733d 6475 abbc bc1c 9dbd 2daa 833b
000003d0: 7cc9 a83d ce67 ce3d d5c9 a9bd f8b4 49bd
000003e0: 252a b13d 594e 5b3d 38d2 893d 730d 6bbd
000003f0: 2289 c43d 2939 bcbd 33bf b5bb 636a 743b

conv1.bias f4 [64]
-0.0148536945 -0.0669448 -0.0047454564 -0.065610714 0.032544628 -0.025507249 0.062323116 0.055295624
0.10970697 -0.07136149 -0.0049738092 -0.00058886217 -0.07493249 0.09514872 0.065395914 0.07110141
-0.038177136 -0.05367834 0.06532971 0.01650807 0.014303449 -0.021350639 -0.101416856 0.06357489
-0.04959062 0.06417365 -0.027411534 -0.010800101 0.02908908 0.03187139 0.12111148 -0.040954925
0.03914785 0.04388376 -0.014225492 -0.093536794 -0.019290868 0.076430015 -0.09427129 0.013131841
-0.057622902 -0.055273004 0.092082605 0.0037785831 0.03484325 0.017589059 -0.07931146 -0.11107467
-0.06990802 -0.009030713 -0.048042964 -0.023018342 0.038343374 -0.006912143 0.00802749 -0.054411132
0.075678885 -0.05538147 -0.0069656773 0.093392916 0.1025633 -0.05895216 -0.09895116 -0.07919927
00000000: e95c 73bc 5b1a 89bd c67f 9bbb e95e 86bd
00000010: 844d 053d 94f4 d0bc 8646 7f3d aa7d 623d
00000020: 0cae e03d f925 92bd 56fb a2bb df5d 1aba
00000030: 3576 99bd 55dd c23d 4bee 853d 9e9d 913d
00000040: a15f 1cbd d2dd 5bbd 95cb 853d ef3b 873c
00000050: 0359 6a3c 89e7 aebc a4b3 cfbd 8d33 823d
00000060: 891f 4bbd 7a6d 833d 278e e0bc e8f2 30bc
00000070: 394c ee3c 938b 023d 4c09 f83d 5ac0 27bd
00000080: 7f59 203d 75bf 333d 0a12 69bc 3890 bfbd
00000090: e207 9ebc 5787 9c3d 4e11 c1bd ef26 573c
000000a0: fe05 6cbd f265 62bd ce95 bc3d 1ba2 773b
000000b0: ccb7 0e3d ee16 903c 0c6e a2bd 1e7b e3bd
000000c0: f02b 8fbd 8ef5 13bc b3c8 44bd f690 bcbc
000000d0: f10d 1d3d 427f e2bb bc85 033c 35de 5ebd
000000e0: 88fd 9a3d aed7 62bd 5640 e4bb c944 bf3d
000000f0: b50c d23d d277 71bd e8a6 cabd 3a33 a2bd

conv2.weight f4 [32, 64, 5, 5]
0.004922029 0.0102865575 -0.011528363 -0.019939313 -0.004945403 -0.0063409223 -0.01592829 -0.023841392
-0.017406823 -0.0010369793 0.013299155 -0.019080348 -0.009637377 -0.019475792 0.01154426 -0.0020528345
0.015618326 0.0027077082 -0.0052216 0.021397147 0.016057016 0.023217468 -0.017666908 0.011322353
-0.016128821 -0.015644943 0.01844882 0.011043986 -0.014547731 -0.016697666 -0.013404319 0.018935665
0.008288386 0.0009976584 -0.017270248 0.007705728 -0.0057482463 0.014639095 0.005638832 0.010972943
-0.008631857 -0.00060208555 -0.014001018 0.005399131 -0.0023118167 -0.021802155 0.01329007 0.009562582
0.014214004 0.010338444 0.0024203728 0.017778447 -0.02167627 0.0068977163 0.019907838 -0.004240786
0.019332474 0.010367839 0.021157918 0.02144352 0.011401679 0.002243161 -0.021227723 -0.009126136
-0.022235475 -0.004005264 0.015173052 0.013537067 0.0018532127 -0.024129324 0.013321027 0.009312811
-0.012703054 -0.022938253 -0.01388004 0.008341425 -0.0135161895 -0.01734876 -0.019905224 -0.014951632
-0.0040122387 0.018368611 -0.015450986 -0.022177288 0.020443948 0.013488934 0.007836625 -0.01669682
0.017453548 0.01013657 0.0035403052 0.018383687 0.007342128 0.015501694 -0.0074247015 0.015349251
-0.012162212 0.0061168624 -0.015574766 -0.023031069 -0.020996109 -0.018541567 0.013445855 0.024096197
0.01514104 -0.00084833853 -0.00057242974 0.0031080826 0.023633461 0.012919472 -0.015436782 -0.01425159
0.019936824 0.01311482 -0.024671786 -0.020977892 0.012588868 -0.012326914 0.018484412 0.015909325
-0.019980315 0.0055382927 -0.0045131994 -0.024501914 0.0074164676 0.002784556 0.0046425904 -0.02021887
-0.0055219256 -0.004579569 -0.02168445 0.019413708 -0.0068914187 0.011803604 -0.0066813855 -0.01950676
-0.006674942 0.0047611296 0.019805402 0.003912869 0.017059594 0.011799227 -0.017138392 0.0008162176
0.022193583 -0.0075425375 0.010947108 0.021994619 -0.0013492235 -0.009008029 -0.014556019 -0.0013426564
-0.016276732 0.024948414 -0.021048198 0.02125353 0.015987877 -0.022293353 -0.015532533 0.022540923
-0.0037029237 -0.018009475 0.00027486635 -0.006607249 0.0023434046 0.009264409 -0.021647291 -0.01333399
-0.0013757192 0.022497574 -0.019703694 -0.013830174 0.013400467 0.022914048 0.0021061404 0.000426518
0.0111958245 -0.0048984215 0.014827263 0.024811756 0.017782537 -0.024725126 0.019177029 0.02344953
0.01026077 -0.008375275 -0.0035085697 -0.016699372 -0.004270879 0.01580215 -0.006926627 -0.00406903
-0.004607682 -0.0003061446 0.0032279333 -0.0038689799 -0.024750281 -0.008401714 -0.013069971 -0.009308347
-0.012517911 -0.017616903 -0.020240558 -0.00892721 0.003603709 0.024593823 0.0022380059 0.0021503852
0.012216837 0.005606598 -0.02005043 -0.024392655 -0.015440679 -0.00520045 -0.016843736 0.018610703
-0.00789224 -0.011774059 -0.017731167 -0.010972168 -0.018785158 0.02091213 0.006644022 -0.021528007
0.024444373 -0.0048583187 0.008436415 -0.0038400742 -0.004512343 0.01391422 0.021669505 0.009267111
0.024444837 0.023851125 -0.001567304 -0.002513342 -0.002082079 -0.005806994 -0.009373016 -0.020755762
-0.024089873 -0.010012166 -0.009683283 -0.024421966 -0.0055590835 0.016226865 -0.0037528917 -0.01112012
-0.000524015 0.016430238 -0.011218042 -0.0103090955 -0.001545733 -0.00089360727 0.023141101 -0.021920001
00000000: f948 a13b f388 283c 76e1 3cbc c557 a3bc
00000010: 0c0d a2bb 83c7 cfbb 0c7c 82bc 064f c3bc
00000020: c198 8ebc 40eb 87ba b3e4 593c 644e 9cbc
00000030: 17e6 1dbc b28b 9fbc 2324 3d3c d988 06bb
00000040: 02e4 7f3c ce73 313b f519 abbb 1249 af3c
00000050: 018a 833c 8f32 be3c 31ba 90bc 6481 393c
00000060: 9720 84bc d329 80bc fb21 973c d6f1 343c
00000070: 9b59 6ebc 8bc9 88bc ca9d 5bbc f81e 9b3c
00000080: 03cc 073c dcc3 823a 567a 8dbc 5580 fc3b
00000090: c95b bcbb d1d8 6f3c f4c5 b83b dcc7 333c
000000a0: a26c 0dbc 47d5 1dba 8764 65bc 32eb b03b
000000b0: d981 17bb 6f9a b2bc 98be 593c 60ac 1c3c
000000c0: dbe1 683c 9462 293c 1e9f 1e3b 1ba4 913c
000000d0: 6f92 b1bc 3d06 e23b c315 a33c 4bf6 8abb
000000e0: 235f 9e3c dedd 293c 5f53 ad3c 52aa af3c
000000f0: 1cce 3a3c ff01 133b c3e5 adbc ca85 15bc
00000100: 2c27 b6bc 973e 83bb 6598 783c 93ca 5d3c
00000110: 80e7 f23a dcaa c5bc 7040 5a3c c394 183c
00000120: 7820 50bc 01e9 bbbc 1b69 63bc 79aa 083c
00000130: 0273 5dbc fd1e 8ebc 4810 a3bc b1f7 74bc
00000140: 1979 83bb c579 963c 2226 7dbc 25ad b5bc
00000150: 117a a73c b100 5d3c 3065 003c c5c7 88bc
00000160: befa 8e3c db13 263c 7704 683b 6399 963c
00000170: 3c96 f03b d1fa 7d3c e94a f3bb 6d7b 7b3c
00000180: 0444 47bc f66f c83b 4e2d 7fbc a7ab bcbc
00000190: 0800 acbc 7ce4 97bc 014c 5c3c 6365 c53c
000001a0: 2012 783c 0963 5eba 1c0f 16ba f9b0 4b3b
000001b0: f69a c13c 31ac 533c 8eea 7cbc 807f 69bc
000001c0: 8d52 a33c 8bdf 563c 7c1c cabc d4d9 abbc
000001d0: 8a41 4e3c d3f6 49bc 9f6c 973c 4654 823c
000001e0: c2ad a3bc 917a b53b 76e3 93bb 3db8 c8bc
000001f0: d705 f33b 197d 363b df20 983b 0ba2 a5bc
00000200: 45f1 b4bb 3610 96bb 96a3 b1bc 7f09 9f3c
00000210: 69d1 e1bb e763 413c 86ef dabb a4cc 9fbc
00000220: 79b9 dabb 4003 9c3b f03e a23c 8637 803b
00000230: 90c0 8b3c 8c51 413c d065 8cbc 70f7 553a
00000240: 51cf b53c 6427 f7bb 805b 333c 0f2e b43c
00000250: 6ed8 b0ba 6996 13bc 5e7c 6ebc 13fc afba
00000260: c856 85bc 9e60 cc3c 456d acbc e21b ae3c
00000270: 02f9 823c 8da0 b6bc 2a7c 7ebc bea7 b83c
00000280: c0ac 72bb 9b88 93bc f01b 9039 9f81 d8bb
00000290: ce93 193b bfc9 173c a955 b1bc cf76 5abc
000002a0: 7a51 b4ba d54c b83c a469 a1bc f497 62bc
000002b0: a28d 5b3c 3eb6 bb3c 2c07 0a3b 479e df39
000002c0: b16e 373c f082 a0bb 0cee 723c 0642 cb3c
000002d0: afac 913c 598c cabc 2519 9d3c 3b19 c03c
000002e0: ca1c 283c 7338 09bc 08f0 65bb 1fcd 88bc
000002f0: bbf2 8bbb 8373 813c c2f8 e2bb 7f55 85bb
00000300: 0afc 96bb 0882 a0b9 bc8b 533b b68e 7dbb
00000310: 1ac1 cabc 58a7 09bc 6f23 56bc 0982 18bc
00000320: ed17 4dbc 5351 90bc 87cf a5bc 6f43 12bc
00000330: 342c 6c3b fc78 c93c 82ab 123b 7aed 0c3b
00000340: 2129 483c 8eb7 b73b cd40 a4bc 1bd3 c7bc
00000350: e7fa 7cbc 8968 aabb e0fb 89bc 7975 983c
00000360: 744e 01bc fce7 40bc f440 91bc 9cc4 33bc
00000370: 55e3 99bc ea4f ab3c 19b6 d93b 815b b0bc
00000380: 913f c83c 8832 9fbb e438 0a3c c1a9 7bbb
00000390: 47dc 93bb 78f8 633c 3f84 b13c 15d5 173c
000003a0: 8a40 c83c 6f63 c33c ff6d cdba e2b6 24bb
000003b0: 7d73 08bb 9948 bebb 4791 19bc fd07 aabc
000003c0: 2058 c5bc 110a 24bc a2a6 1ebc 9310 c8bc
000003d0: f928 b6bb 34ee 843c 13f3 75bb 2a31 36bc
000003e0: 0d5e 09ba b598 863c e1cb 37bc 7be7 28bc
000003f0: 319a caba f840 6aba 6892 bd3c 9391 b3bc

conv2.bias f4 [32]
-0.010888156 -0.02461745 -0.003490928 0.014831936 0.025747871 0.02094292 -0.014302266 0.03659062
0.0029182096 -0.0115037 -0.0070407963 0.0040722494 0.031029625 0.026624223 -0.0051665637 -0.009670274
-0.015574171 -0.017903741 0.025441607 0.029476477 0.0014598995 0.0005104464 -0.0031434107 0.00016635371
0.012226603 -0.0106054265 0.014956563 0.028767552 0.0039956775 -0.016652377 -0.0076561044 -0.0072044106
00000000: 3c64 32bc 89aa c9bc 0ec8 64bb a601 733c
00000010: 33ed d23c 7d90 ab3c 0d54 6abc 0ce0 153d
00000020: 6f3f 3f3b 047a 3cbc 7bb6 e6bb 8170 853b
00000030: d731 fe3c 0b1b da3c 474c a9bb 1270 1ebc
00000040: cf2a 7fbc deaa 92bc eb6a d03c a778 f13c
00000050: 195a bf3a 7acf 053a ae01 4ebb 3c6f 2e39
00000060: 1752 483c 62c2 2dbc 5f0c 753c eea9 eb3c
00000070: 2cee 823b 916a 88bc 0fe0 fabb fa12 ecbb

conv3.weight f4 [1, 32, 5, 5]
0.01903463 0.018096177 -0.001905353 0.024360718 0.030206962 -0.029281622 0.0014974723 -0.03392682
0.0041808495 0.010233 -0.0022310538 0.02812223 0.012498877 -0.029542316 -0.0029377544 -0.015407087
-0.028237844 0.00023983758 -0.031515334 0.023534166 0.0045599686 0.0127834445 0.019838056 0.027825968
-0.017341005 0.0051283324 -0.029758042 0.01019303 0.026529416 -0.021656778 0.023541028 -0.012215897
0.013333106 -0.014481601 0.007931763 -0.02966538 0.031739805 -0.0032193759 0.035366427 -0.009805789
0.01718373 -0.01354692 -0.011709315 -0.00759143 0.01875083 0.01597838 0.02353711 -0.0030436295
0.0057370346 0.02380276 -0.0138925975 -0.01168712 0.02685587 -0.029874763 -0.017180974 -0.019665804
-0.007438452 -0.025969613 0.00818897 -0.024759762 -0.015577417 -0.0344308 0.023677614 -0.021716557
-0.004310254 -0.02116426 -0.0049014823 -0.006726719 -0.011546703 -0.00058069016 0.014968615 0.029048102
0.026214538 -0.026276818 -0.0041672 -0.02752232 0.018245256 0.024548782 0.00967284 0.011784078
0.035049837 -0.003646501 -0.03024701 -0.016645277 -0.010515262 0.01664748 0.00074107805 0.02782032
0.01968341 -0.010226194 -0.0092708655 -0.01193821 -0.03190444 -0.0112669775 -0.01643252 -0.006876882
-0.00790265 -0.013277453 -0.016272228 0.005767168 0.0070513817 0.010911899 0.0191752 -0.00032340613
0.005248007 -0.0057011396 0.035983145 0.006062347 0.029106345 -0.018405445 -0.024081953 0.010340251
-0.024104202 0.025952203 0.023969118 0.032328516 0.03726672 0.01788499 0.017787457 -0.0021220488
0.03468237 0.018832017 -0.003963031 -0.030047676 0.0065448266 0.005962953 0.027660988 0.022365341
0.03272982 0.0053696777 0.011974458 -0.028215092 0.00500762 0.008821022 -0.019518796 -0.017180128
0.015369555 -0.019543575 -0.012819062 0.025701374 0.02684947 -0.030244496 -0.031905107 0.022044994
-0.010948213 0.0026372264 -0.024519296 -0.015464948 0.026969517 -0.022350969 0.012847814 0.001441231
0.01091392 0.001536075 -0.0075361356 0.012509639 0.009692676 -0.0032735895 0.02367915 0.031415954
0.018464565 -0.009930183 -0.025596786 -0.023910875 -0.017178582 -0.0028654414 0.018077938 0.0095670065
0.031526547 -0.03393264 -0.019461885 0.03252398 -0.025250511 0.022556636 0.0015636405 -0.0017956282
0.028733458 0.038281977 -0.009442466 0.0015706163 0.03470978 0.03311905 0.025953038 -0.015726525
-0.019896582 0.032904148 0.030165693 0.014277165 0.045890745 0.03420764 -0.0054591573 0.018890547
0.045368847 0.025958467 -0.013187429 -0.034544215 0.009975253 0.019636245 -0.032687142 0.0069502336
-0.021822048 0.0143931005 -0.016676355 -0.026632257 0.034137953 0.021137232 -0.0140608745 -0.024861058
0.024213992 -0.021936174 -0.01047089 -0.015457444 0.011319736 -0.0018288032 0.013366526 -0.01981409
0.026298443 0.0047122445 -0.02411252 -0.02569265 0.02145567 -0.015087567 0.010437517 0.0011552484
-0.016320588 0.038871553 -0.011290539 0.019720828 0.027898908 0.018198483 0.035579376 -0.02465927
0.0071136327 0.0035810517 0.022785509 -0.016544202 -0.024650285 -0.026455248 0.026544448 0.013785763
-0.036618207 -0.008318364 -0.030907959 -0.02938669 0.023794707 -0.01742994 0.018528478 0.034308027
0.008077935 0.020109178 -0.030782226 -0.014933736 -0.0017930032 0.0076822694 0.014413078 0.019227136
00000000: 83ee 9b3c 6f3e 943c 0abd f9ba 2190 c73c
00000010: 9774 f73c 03e0 efbc d546 c43a d9f6 0abd
00000020: 82ff 883b 50a8 273c df36 12bb 9760 e63c
00000030: 17c8 4c3c ba02 f2bc 5787 40bb 026e 7cbc
00000040: 0d53 e7bc e97c 7b39 3916 01bd b9ca c03c
00000050: ca6b 953b a771 513c 6b83 a23c 49f3 e33c
00000060: b90e 8ebc 920b a83b 23c7 f3bc ab00 273c
00000070: 3854 d93c 8e69 b1bc 1dd9 c03c 3025 48bc
00000080: 1a73 5a3c 3d44 6dbc 3af4 013c d004 f3bc
00000090: 9901 023d 2afc 52bb 63dc 103d 76a8 20bc
000000a0: e5c4 8c3c e7f3 5dbc 6dd8 3fbc 88c1 f8bb
000000b0: 579b 993c 17e5 823c e6d0 c03c a177 47bb
000000c0: bcfd bb3b 01fe c23c c79d 63bc 567b 3fbc
000000d0: d700 dc3c ebbb f4bc 1dbf 8cbc 2e1a a1bc
000000e0: 42be f3bb 3abe d4bc 082b 063c fcd4 cabc
000000f0: 6c38 7fbc 4f07 0dbd 8ef7 c13c ece6 b1bc
00000100: 083d 8dbb ac60 adbc 9d9c a0bb cf6b dcbb
00000110: 622e 3dbc 7539 18ba ec3e 753c 49f6 ed3c
00000120: dfbf d63c 7b42 d7bc 028d 88bb 7d76 e1bc
00000130: 1377 953c 871a c93c d57a 1e3c 0112 413c
00000140: 6b90 0f3d 23fa 6ebb 94c8 f7bc ad5b 88bc
00000150: 3548 2cbc 4c60 883c e844 423a 71e7 e33c
00000160: 1a3f a13c c48b 27bc d4e4 17bc 7b98 43bc
00000170: 3bae 02bd 2199 38bc 7e9d 86bc 7857 e1bb
00000180: 1e7a 01bc ad89 59bc 564d 85bc 83fa bc3b
00000190: 470f e73b d2c7 323c 4f15 9d3c d68e a9b9
000001a0: 79f7 ab3b a0d0 babb 1063 133d a7a6 c63b
000001b0: 6e70 ee3c 04c7 96bc 8447 c5bc 286a 293c
000001c0: 2d76 c5bc b799 d43c e25a c43c e86a 043d
000001d0: fda4 183d 8b83 923c 00b7 913c 1212 0bbb
000001e0: 1a0f 0e3d 9a45 9a3c 50dc 81bb 8b26 f6bc
000001f0: fc75 d63b e064 c33b 4c99 e23c 8537 b73c
00000200: b40f 063d 1ff4 af3b 8430 443c 5623 e7bc
00000210: f616 a43b 0c86 103c e2e5 9fbc 57bd 8cbc
00000220: 96d0 7b3c d919 a0bc 0b07 52bc b08b d23c
00000230: 6bf3 db3c 4ec3 f7bc eeae 02bd b497 b43c
00000240: 2260 33bc 51d5 2c3b b1dc c8bc b160 7dbc
00000250: 2def dc3c 6119 b7bc a37f 523c b0e7 bc3a
00000260: 4cd0 323c 2056 c93a b0f1 f6bb 3bf5 4c3c
00000270: 08ce 1e3c b889 56bb c7fa c13c 04ae 003d
00000280: 0043 973c 35b2 22bc 5ab0 d1bc bde0 c3bc
00000290: 19ba 8cbc 21ca 3bbb 2f18 943c efbe 1c3c
000002a0: fb21 013d f4fc 0abd 886e 9fbc dd37 053d
000002b0: 29da cebc b2c8 b83c 12f3 cc3a 495b ebba
000002c0: 6e62 eb3c 90cd 1c3d 93b4 1abc 23dd cd3a
000002d0: d82b 0e3d d7a7 073d 779b d43c ead4 80bc
000002e0: 28fe a2bc 80c6 063d 0b1e f73c c5ea 693c
000002f0: eff7 3b3d 4f1d 0c3d bbe2 b2bb 59c0 9a3c
00000300: afd4 393d daa6 d43c 1610 58bc 3c7e 0dbd
00000310: 3e6f 233c 31dc a03c f4e2 05bd c9be e33b
00000320: 27c4 b2bc 0ad1 6b3c da9c 88bc e42b dabc
00000330: 3dd4 0b3d fd27 ad3c 955f 66bc 6ba9 cbbc
00000340: 6c5c c63c 7eb3 b3bc 198e 2bbc 3841 7dbc
00000350: 6a76 393c 74b4 efba 46ff 5a3c 2951 a2bc
00000360: d56f d73c 2c69 9a3b 9f87 c5bc 6479 d2bc
00000370: cdc3 af3c d831 77bc 1f02 2b3c b46b 973a
00000380: c1b2 85bc c737 1f3d f4fb 38bc 938d a13c
00000390: 408c e43c fc14 953c aebb 113d 3d02 cabc
000003a0: 7a19 e93b 14b0 6a3b ada8 ba3c b587 87bc
000003b0: 65ef c9bc adb8 d8bc be73 d93c aedd 613c
000003c0: f9fc 15bd bf49 08bc b032 fdbc 5bbc f0bc
000003d0: 1eed c23c 3cc9 8ebc 09c9 973c 9386 0c3d
000003e0: 5159 043c 01bc a43c 022b fcbc a1ac 74bc
000003f0: 3403 ebba 8cbb fb3b d524 6c3c 3a82 9d3c
