outputs/x3/epoch_186.pth (torch, 231335 bytes, 5 tensors)

conv1.weight f4 [64, 1, 9, 9]
00000000: d15f 11bd 2abe 423c 1675 3ebd 5f44 493d
00000010: d8b2 b8bd a6a0 ac3d bb29 9fbd 3788 afbd
00000020: ba48 8dbd e7f3 6a3d 6490 0fbd fafb 4b3d
00000030: 7806 b1bd 6e44 80bd 82e1 20bd 4de1 a7bc
00000040: 499b aabd a48d 953d 2dcd 9abc 9850 303d
00000050: fd8c ba3d dae7 153d ab57 393d b1d8 ee3d
00000060: 8d03 33bd 9c14 233d d301 42bd 9b51 b23d
00000070: 0d0c c63d b74f b3bd 2be5 ee3d 7330 9d3d
00000080: 0700 873d 980c 703d 86f3 cd3d d703 38bc
00000090: 4a98 b1bd af67 cebc f2aa 86bd 638f db3c
000000a0: a535 093b f40e 28bd 2513 953b ef90 ea3d
000000b0: 010a b8bb cbb9 4e3c 9a97 2bbc 0b9c d93c
000000c0: 7287 e23d b2b0 a63d a82d 523d 3884 103d
000000d0: cdb9 0a3d 8703 3c3d 6571 8cbb 96a0 c5bd
000000e0: 5807 7ebd 57e7 ce3d ad5a 493c 7a2f aebd
000000f0: c918 c13c 7e21 c63d b027 d1bd 2110 85bd
00000100: c1b5 19bd 6a56 323c ffdc a6bc b464 09bc
00000110: 298a d8bd 9738 633d e0c6 ce3d a3b4 913d
00000120: 50e3 8dbd b67e a9bd ad28 583d 9483 103c
00000130: b12d 4f3d 243b d7bd 511b 60bb 4f66 a63d
00000140: b06f 5f3d e992 a93b 15ac b33c a9da 32bc
00000150: d05e 7abd f47c 2abd ef7f 88bd 94ac c23d
00000160: b702 813d 1a4e 1b3d c6cc aabd 0aec b03d
00000170: 6705 103d 0cda 9e3d e739 2fbd 7c9f cf3c
00000180: 051b e83d e509 a23d 2a9e b73d c6ea b2bc
00000190: c8f1 ae3d bfaa aebd a7b7 493c 8f91 79bd
000001a0: b803 d2bc 4e86 cbbc e8a3 4d3c d560 d13d
000001b0: 205e 653d baa0 553a a7d0 aa3d 445f 4dbd
000001c0: 4033 7c3d 71e6 37bc 3928 9abc 296d 743c
000001d0: 0fc2 acbd f893 583c 67a6 1c3d 5343 cd3d
000001e0: a0e4 d2bc 9190 3f3d 98ee e33d 1074 43bd
000001f0: d91e da3d 6e2f 5fbd 453a 4a3d 6de1 303d
00000200: 930d 083d 7f4f bf3d 17e8 1fbd 49aa 003d
00000210: ea5f 273b 987d a7bd a3cb d2bc cbaa 96bd
00000220: 1573 433d ae1f 063c ea33 293c c2fc 05bd
00000230: 923a f03a e344 04bd a415 093d bf49 de3d
00000240: 0f17 8d3c 6a23 51bd b9cb 92bd 29c5 813b
00000250: cc2b b0bd 8925 aebd 9343 93bd e2c7 1abd
00000260: 7bbf fb3b 2e95 9f3d 9f27 313d fc3e ac3d
00000270: 9999 92bd 7e80 fb3b 915c cbbd 582a 843d
00000280: f33e bf3c 5908 dc3d ccd1 a1bd 6d7c b63d
00000290: 0317 c03d 00f9 b73d cac8 813c 6bee ce3d
000002a0: 13fa 973d 77c6 a93d 753f edbb 029d aebd
000002b0: 6320 baba 391b aa3c af03 9bbd ce87 82bd
000002c0: d327 dabd 9f88 1fbd 503a c63d b396 9b3c
000002d0: 21e5 ddbb 02bb 903b 28e1 8d3d 21f4 c8bd
000002e0: 5a95 afbd e34a 17bd 91f2 82bd 96d4 6a3d
000002f0: cad1 a03d 83c9 dcbd c521 c1bd cf9b ddbd
00000300: 969e 2b3d f424 b73d a86f b0bd 1ca8 52bd
00000310: a8f3 103d 7f8c 94bd 5e49 c13d 9dc6 d33c
00000320: bc0d febc b198 e93b 9dcc 0d3d 7e02 21bd
00000330: d854 b0bd 2cde 423a 2a0b 063b 0913 133b
00000340: c556 85bc 7f10 923d f6c7 febc 6fdd 31bc
00000350: 4304 3b3d 2a41 8fbd 0c6c f33c fe67 c9bc
00000360: 524a 5a3d 32e7 76bd 9057 863b a5f3 313c
00000370: 8517 b7bd 6877 a5bd 6987 2e3d f176 04bd
00000380: 2e25 873d fcca e0bd b8f8 60bd d66d bbbd
00000390: eecd 353d 0bd5 52bb 1cc1 a9bc bc68 97bc
000003a0: 45de b1bd 4814 013d cb02 363b bc09 9dbd
000003b0: 6641 2b3d f9c8 12bb 5414 dcbd 93d1 743d
000003c0: 7270 733d 2375 abbc bc1c 9dbd a30f 7b3b
000003d0: 5775 a83d 7165 ce3d 820b a8bd 258a 43bd
000003e0: b185 b33d 634d 5e3d 30a9 8a3d 6d3a 6dbd
000003f0: 80ab c43d 7fd6 bbbd d1ab b7bb ba04 7a3b
-0.03549177 0.011886159 -0.04649838 0.04913747 -0.09018487 0.08429079 -0.07771631 -0.08570903
-0.06898637 0.05736151 -0.03504981 0.04980085 -0.08643812 -0.06263052 -0.03927756 -0.020493174
-0.083303995 0.073024064 -0.018896664 0.04304561 0.09108923 0.036598064 0.045249622 0.11662424
-0.04370456 0.039814577 -0.04736502 0.08706971 0.09670267 -0.08755439 0.11664804 0.076752566
0.06591802 0.05860576 0.10056214 -0.011231384 -0.08671625 -0.025195925 -0.06575574 0.02680177
0.0020936516 -0.041029885 0.0045494013 0.11453425 -0.005616427 0.012617539 -0.010473156 0.026563665
0.110609904 0.08139171 0.051313072 0.035282344 0.0338686 0.0459018 -0.0042859786 -0.0964977
-0.062018722 0.10102718 0.012289685 -0.08505149 0.023571389 0.09674357 -0.10212648 -0.06497217
-0.03752685 0.0108848605 -0.020369051 -0.008385826 -0.10573227 0.05547389 0.10096526 0.07114532
-0.06928122 -0.08276121 0.052773166 0.008820433 0.050580684 -0.10509327 -0.003419597 0.081249826
0.054549873 0.0051749838 0.021932641 -0.01091639 -0.061125576 -0.04162307 -0.066650264 0.09505573
0.06299346 0.03791628 -0.08339839 0.08638771 0.035161402 0.07756433 -0.04277983 0.025344603
0.113332786 0.079120435 0.08965714 -0.021840464 0.0854221 -0.08528661 0.012311853 -0.06092983
-0.025636539 -0.024844315 0.012551285 0.10223547 0.055997968 0.00081492553 0.083405785 -0.05013968
0.061572313 -0.011224375 -0.018818008 0.014918604 -0.08435451 0.013218872 0.03824463 0.10022607
-0.025743783 0.04676873 0.111294925 -0.047718108 0.10650415 -0.05448859 0.049371976 0.043183733
0.03321607 0.093413346 -0.039039697 0.031412397 0.0025539347 -0.08178252 -0.025731867 -0.07356795
0.047717173 0.008186264 0.010327319 -0.03271175 0.0018328002 -0.032292258 0.033467904 0.1085391
0.01722291 -0.051059164 -0.07167763 0.003960271 -0.086021036 -0.08503253 -0.07190623 -0.03778828
0.0076827384 0.07792126 0.043250676 0.08410451 -0.07158203 0.0076752296 -0.09929765 0.06453389
0.023345446 0.1074378 -0.07901344 0.08910451 0.09379389 0.0898304 0.015842814 0.10104068
0.07420745 0.08289807 -0.0072402307 -0.085260406 -0.0014200326 0.020764934 -0.07569062 -0.06373559
-0.10652127 -0.03894865 0.09679091 0.018992757 -0.006771699 0.0044168243 0.06927711 -0.09812189
-0.085734084 -0.036936652 -0.06393922 0.057331644 0.07852514 -0.10780623 -0.09430269 -0.10820734
0.041899286 0.08942595 -0.08615047 -0.051429853 0.03538862 -0.0725336 0.09437822 0.025851542
-0.031012408 0.007128798 0.034618963 -0.039309017 -0.08609933 0.0007433619 0.0020453432 0.0022441766
-0.016276726 0.07132053 -0.031101208 -0.010856017 0.04565836 -0.06994851 0.029714607 -0.02458572
0.053293534 -0.06027908 0.0040997937 0.010861312 -0.08940033 -0.080794156 0.042609606 -0.032339994
0.06598888 -0.10976216 -0.054924697 -0.09151809 0.044385843 -0.003217044 -0.020721965 -0.018482558
-0.08684973 0.031513482 0.002777266 -0.07667872 0.041810416 -0.002239762 -0.10746065 0.059770178
0.059433408 -0.020929879 -0.07671496 0.003830888 0.08225506 0.10077942 -0.0820532 -0.047739167
0.08765734 0.05427302 0.06770551 -0.057917047 0.096030235 -0.09171771 -0.005605199 0.003814979

conv1.bias f4 [64]
00000000: 925e 61bc f1fc 84bd 5a78 9bbb dada 78bd
00000010: d3b0 093d 1f16 c5bc 7142 813d 7837 613d
00000020: 7ef1 dc3d edc5 97bd 12fc 27bb 8798 2f3b
00000030: 8587 88bd 5665 ce3d e700 7c3d d76a 8a3d
00000040: fe25 03bd 98d4 4abd d9f1 8b3d e277 833c
00000050: 7b76 7a3c eed2 b1bc 0491 d7bd a9f2 813d
00000060: ecb8 38bd 211a 703d 010c dfbc c1dc f6b9
00000070: 4d59 f73c d5aa 173d bde0 003e dd82 26bd
00000080: aaa3 1c3d 9b52 2d3d 39a0 a0bc a47f b5bd
00000090: 01ae 6dbc 20a6 973d eb17 c1bd 79b7 433c
000000a0: 45ce 65bd 7765 62bd 368f be3d 7b00 153a
000000b0: bcdb 153d 7e95 6c3c f492 a2bd 1e7b e3bd
000000c0: 6f72 8fbd caed 8cbb d0f2 40bd b977 c5bc
000000d0: d467 103d 5aac c3bb ca3a cc3b a9b2 60bd
000000e0: 3f6d 9c3d 5547 58bd 4e8a c4bb fe35 cd3d
000000f0: 4a97 d73d ec23 6fbd b5f9 c9bd 6426 96bd
-0.0137554575 -0.06493557 -0.0047445716 -0.060755588 0.0336159 -0.0240584 0.06311501 0.05498454
0.107882485 -0.07410798 -0.0025632423 0.0026793794 -0.06666473 0.10077922 0.061524298 0.06758659
-0.032018654 -0.04951915 0.06833238 0.016048376 0.015287037 -0.021707024 -0.105257064 0.06345112
-0.04509823 0.05861867 -0.027227404 -0.0004708525 0.03019395 0.037028152 0.12585731 -0.040652145
0.03824202 0.042315107 -0.01960765 -0.08862236 -0.014506818 0.07404733 -0.0942839 0.011945599
-0.056104917 -0.055272546 0.09304659 0.00056839705 0.03658651 0.014439939 -0.07938185 -0.11107467
-0.07004248 -0.0043008076 -0.047106564 -0.02410494 0.03525527 -0.0059714736 0.006232594 -0.054857884
0.076380245 -0.052802403 -0.0059979325 0.10020064 0.10526903 -0.058383867 -0.09862081 -0.07331541

conv2.weight f4 [32, 64, 5, 5]
00000000: 1e82 a73b 98d5 2c3c 7102 37bc facd a0bc
00000010: 4cd3 99bb 8ff5 cfbb e58a 81bc 50ea c1bc
00000020: e70e 8ebc 9edd 72ba 71ee 5f3c c6c5 98bc
00000030: c1bd 16bc 8a11 9cbc 3435 473c 2320 b1ba
00000040: c15e 853c 45eb 553b b033 98bb fa96 b53c
00000050: 1e71 8a3c f885 c43c e242 8bbc b93d 443c
00000060: f2a1 7bbc c915 82bc 0221 963c 1b88 323c
00000070: f946 71bc c4e8 89bc 9e4a 5dbc 059f 9a3c
00000080: 09eb 053c bd14 513a 5cb7 8ebc 6cda fd3b
00000090: 835d bdbb 13c9 6e3c ec13 b43b cc48 313c
000000a0: c6ab 09bc 10d2 eab9 fad5 61bc 5348 b83b
000000b0: f4d7 0bbb a149 b1bc b1c0 5b3c 8e0c 203c
000000c0: e800 6d3c b08b 2c3c 7f7e 1e3b 1ba4 913c
000000d0: 6f92 b1bc 2b05 e23b c315 a33c 12fe 8abb
000000e0: 465f 9e3c dbe8 293c 7e53 ad3c 54aa af3c
000000f0: 2cc8 3a3c ebf9 123b a7e4 adbc 4d75 15bc
00000100: 7e21 b6bc 454c 83bb 8990 783c d0db 5d3c
00000110: ab18 f43a b0a0 c5bc b42d 5a3c 295e 183c
00000120: 0359 50bc 10f1 bbbc 4476 63bc 81e5 013c
00000130: 16e3 64bc 5746 92bc 5f4f a6bc 2c58 78bc
00000140: 4d45 80bb f8f9 963c 53d3 7dbc 7e58 b5bc
00000150: 8295 a93c 4944 5d3c 2019 ff3b 360e 8abc
00000160: 55e7 8d3c 5136 263c 7a6b 7f3b 1efc 983c
00000170: 27a0 f53b 38fa 7e3c 6a20 eebb 56eb 7a3c
00000180: 5824 48bc cc48 c43b 6d47 81bc a408 bdbc
00000190: 5edb aabc dcea 96bc 22d4 5e3c 2b7a c63c
000001a0: 09b9 7a3c 4781 12ba 355a 69b9 934b 633b
000001b0: 41f0 c23c ab53 543c ae4a 76bc e7c1 60bc
000001c0: d750 a83c 4e44 5e3c 577f c8bc 826b aabc
000001d0: a8bc 523c ead9 42bc 34ec 9b3c 8fea 853c
000001e0: b037 a0bc 5ee9 c03b 5d62 84bb de6a c2bc
000001f0: 427c 063c 72c5 343b 06cc 963b 82e5 a5bc
00000200: c601 b5bb a1c2 94bb 1e37 b1bc 915b 9f3c
00000210: 69b4 dfbb 391a 433c 0b03 d6bb 8269 a0bc
00000220: 8946 debb b71e 983b 526e a13c 658e 773b
00000230: cba3 8b3c 9acf 403c cc9c 8cbc da42 5a3a
00000240: a2de b43c 61e1 00bc 80c4 2d3c 3144 b13c
00000250: 040b daba 3b7f 1bbc 2c23 7fbc a212 12bb
00000260: 57ae 8bbc 7aa9 c63c d0c2 b2bc 3373 b33c
00000270: 7448 8a3c b5dc adbc 4339 6dbc a11f bf3c
00000280: ceef 40bb 08a1 8cbc 1066 b03a 3299 afbb
00000290: 55b7 5d3b 9b09 243c c39e acbc 7d28 4fbc
000002a0: 859e 9db9 33ca c13c 5e5d 98bc 40ee 55bc
000002b0: 5bf6 653c 9ba7 c33c 4307 573b bd3a eeb8
000002c0: e8bd 313c 2baf 9bbb ca63 753c 8e96 cb3c
000002d0: ddc7 933c e347 c8bc e2a9 a13c 3a88 c43c
000002e0: 2bcc 2f3c 8787 f7bb d2dc 44bb 02c5 84bc
000002f0: 32d7 80bb acac 833c 282f c5bb 6267 64bb
00000300: 8972 85bb 4368 b838 d0c9 6c3b 59cb 5bbb
00000310: 266e c7bc 1235 00bc 29a1 4dbc ec2c 0fbc
00000320: efbe 4bbc 88d3 8fbc 0bc1 a5bc ee3b 12bc
00000330: 0eb1 6c3b e5f2 c93c 735c 1a3b 4600 0f3b
00000340: 6919 483c 2fad b83b cc24 a4bc 679f c6bc
00000350: 252a 7bbc 22ce a9bb 260f 8abc cbab 983c
00000360: 7d69 fdbb eed0 3dbc d588 90bc 093f 33bc
00000370: db90 9abc 4506 ab3c c1e9 db3b 6de8 afbc
00000380: 8331 c83c af49 a3bb 81ec 063c 8f4a 85bb
00000390: c8a2 99bb 4eb6 613c 5670 b33c 4a24 1b3c
000003a0: f262 c93c ac91 c43c 9381 b3ba 4df2 06bb
000003b0: 717b d9ba c5ef b3bb eb5b 15bc a0ee a7bc
000003c0: 3601 c3bc c798 1fbc d0dd 1bbc 236e c7bc
000003d0: 5269 b3bb 839b 853c 6b88 6cbb e99f 34bc
000003e0: 6757 01ba a599 863c 2ac0 37bc c0d9 28bc
000003f0: 7cf2 c9ba e826 69ba ff93 bd3c 85cc b3bc
0.0051119467 0.010548972 -0.011170016 -0.019629467 -0.004694378 -0.0063464115 -0.0158133 -0.0236713
-0.01734109 -0.0009264591 0.013667689 -0.018648993 -0.009200514 -0.019051332 0.012158681 -0.0013513606
0.016280534 0.0032641452 -0.0046448335 0.022166718 0.016899642 0.023989663 -0.016999666 0.011977606
-0.015358435 -0.015879529 0.018326286 0.010896708 -0.014726394 -0.016834624 -0.01350656 0.018874655
0.0081737125 0.00079758075 -0.017421417 0.007746985 -0.0057789697 0.014574307 0.005495539 0.010820579
-0.00840277 -0.00044788467 -0.013783926 0.005623856 -0.0021338435 -0.021641554 0.01341264 0.009768618
0.014465548 0.010531351 0.0024184284 0.017778447 -0.02167627 0.0068975887 0.019907838 -0.0042417133
0.01933254 0.0103704585 0.021157976 0.021443523 0.011400264 0.0022426795 -0.021227194 -0.009122205
-0.022232767 -0.004006895 0.015171179 0.013541177 0.0018623074 -0.024124473 0.013316561 0.009299793
-0.012716535 -0.022942096 -0.013883177 0.007928253 -0.013970157 -0.017855806 -0.020301519 -0.015157741
-0.0039145113 0.018429741 -0.015492278 -0.022136923 0.020701174 0.01350505 0.0077849776 -0.01685248
0.017322222 0.010144786 0.0038973973 0.018674906 0.0074958983 0.0155625865 -0.0072670477 0.0153148975
-0.012215696 0.0059901234 -0.015781129 -0.02307541 -0.020856556 -0.018422537 0.013600381 0.024228176
0.015302905 -0.0005588722 -0.00022254216 0.0034682497 0.023796203 0.012959401 -0.015032453 -0.013718105
0.02054636 0.01356609 -0.024474783 -0.020803217 0.012862362 -0.011892775 0.019033529 0.016347198
-0.019557804 0.0058871945 -0.004040046 -0.023732599 0.008208336 0.0027583507 0.004601958 -0.02025104
-0.005523893 -0.004539803 -0.021632727 0.019452842 -0.0068269265 0.011908107 -0.0065311245 -0.01958156
-0.006783311 0.0046423334 0.019705925 0.0037774083 0.017045876 0.011768246 -0.01716461 0.00083260017
0.022078816 -0.0078662345 0.010605931 0.021638962 -0.0016635363 -0.009490783 -0.0155723505 -0.0022288938
-0.017050905 0.024250735 -0.02182141 0.021905517 0.016880251 -0.021223405 -0.014478984 0.023330512
-0.002943981 -0.01716663 0.0013458151 -0.0053588385 0.0033831198 0.010012056 -0.021071797 -0.0126439305
-0.0003006348 0.023655986 -0.018599208 -0.0130572915 0.0140357865 0.023883631 0.0032810725 -0.00011359665
0.0108485 -0.0047511063 0.014977405 0.024852064 0.018039638 -0.02444834 0.019734327 0.02399074
0.01072983 -0.007553998 -0.0030038846 -0.016207222 -0.0039319033 0.016073547 -0.0060175844 -0.003485166
-0.0040724915 8.793224e-05 0.0036131032 -0.0033537953 -0.024344515 -0.007825153 -0.012550631 -0.008738738
-0.012435659 -0.01755692 -0.020233652 -0.008925421 0.0036116275 0.024651954 0.002355364 0.0021820231
0.0122130895 0.0056358795 -0.020037077 -0.02424593 -0.015329872 -0.0051820436 -0.016852926 0.018636605
-0.0077335224 -0.011585457 -0.017643372 -0.010940322 -0.0188679 0.020877013 0.0067112152 -0.021473134
0.024437672 -0.004983149 0.008235098 -0.004067726 -0.0046885945 0.013776375 0.021904152 0.009469101
0.024583314 0.023995243 -0.0013695232 -0.00205912 -0.0016592575 -0.0054912292 -0.009116153 -0.020499527
-0.023804288 -0.009741015 -0.009513333 -0.02434451 -0.0054752016 0.016309505 -0.0036092054 -0.011024454
-0.00049339834 0.016430685 -0.011215249 -0.010305822 -0.0015407349 -0.0008894042 0.02314186 -0.021948108

conv2.bias f4 [32]
00000000: e299 febb 1cbb c4bc 8df9 90bb 309b 853c
00000010: 1a49 df3c c38a a93c ba2e 75bc 189d 153d
00000020: 03ea 683b abf7 40bc 8e9d efbb 1c94 713b
00000030: 78d5 003d 31af d93c 0a64 b4bb 16b7 1abc
00000040: 299a 88bc 6036 92bc d6ff cd3c 1b6a af3c
00000050: c288 bdb9 499b 2b3b 0ede ebbb 1c55 263a
00000060: 490f 3e3c 06f7 2dbc 004c 4a3c 17d6 e93c
00000070: a508 cd3b 15d4 88bc 3f61 78bb a1f4 8abb
-0.007769809 -0.024015002 -0.00442428 0.01630935 0.027256537 0.02069605 -0.014964754 0.03652677
0.0035539872 -0.011777799 -0.007312483 0.0036861962 0.03145358 0.026572796 -0.0055050896 -0.009443065
-0.016675072 -0.017848194 0.025146406 0.0214129 -0.00036150782 0.0026185086 -0.007198102 0.000634508
0.011600324 -0.010617977 0.012347221 0.028544469 0.006257134 -0.016702691 -0.003789976 -0.004240588

conv3.weight f4 [1, 32, 5, 5]
00000000: a5a6 9d3c 8f66 963c 0181 e7ba c340 c83c
00000010: 04be f73c 13dd edbc c2c4 db3a a6ca 0abd
00000020: 799f 8a3b ab13 293c 8d03 0cbb 5158 e53c
00000030: f530 493c 70ca f2bc 3c38 3abb acb8 7cbc
00000040: 9320 eabc 308b 74b9 0830 02bd cdf1 c03c
00000050: f14c 9a3b 4bdf 513c adfe a13c 320f e43c
00000060: 7049 8dbc a5d9 9f3b 1945 f1bc 07ae 303c
00000070: 7041 da3c e6e5 b3bc 6735 c03c 63aa 38bc
00000080: d24b 743c c39d 63bc e1f2 013c fda2 f0bc
00000090: f5b3 073d 2f10 8eba 3626 153d 005a 15bc
000000a0: 7e46 893c d2e3 5bbc 36b1 36bc 7457 f3bb
000000b0: b39e 9d3c e8d5 7c3c 6c70 bd3c 6cec 66bb
000000c0: 7ef1 aa3b 9c60 c23c c79d 63bc 567b 3fbc
000000d0: d700 dc3c ebbb f4bc 1dbf 8cbc 2e1a a1bc
000000e0: 7394 f3bb 3abe d4bc 082b 063c fcd4 cabc
000000f0: 4337 7fbc 4f07 0dbd 7e05 c23c ece6 b1bc
00000100: 083d 8dbb ac60 adbc ca46 a0bb 94b8 dbbb
00000110: 622e 3dbc e839 18ba ec3e 753c 49f6 ed3c
00000120: dfbf d63c 7b42 d7bc 028d 88bb 5823 e1bc
00000130: 4703 973c cc27 ca3c 1e5d 203c 99c1 413c
00000140: c440 103d 25ee 58bb 3f55 f6bc 6ba2 87bc
00000150: 93d2 2abc 61b6 8b3c 3817 8e3a d396 e53c
00000160: c754 a13c 1de8 26bc bb53 12bc e716 40bc
00000170: f26f 02bd 63c8 39bc 48f1 86bc 503c d8bb
00000180: 23dc febb aeba 59bc 055d 86bc f99f b83b
00000190: bb57 a73b 1ead 253c 883b a03c 27f1 54ba
000001a0: 23fa 963b 9a35 eabb c5aa 123d 16c8 f63b
000001b0: 064b f43c cbb7 94bc 1045 c3bc 18d8 3a3c
000001c0: ec4a b1bc fb1c e33c fdb3 cd3c b64a 093d
000001d0: b680 1c3d 9bcd 9a3c a308 963c 4f8b b0ba
000001e0: b870 0f3d d38c 993c 6b66 9cbb e9f9 febc
000001f0: 1da9 cc3b d922 e63b 9505 e83c a795 c03c
00000200: fe20 0d3d 47eb d33b cba0 5f3c acc0 e5bc
00000210: cd21 903b 54a7 0e3c 1462 a1bc f631 88bc
00000220: 054e 643c f1f5 b2bc 162f 69bc 0270 cc3c
00000230: 0bc1 d83c 8816 04bd 9e7a 0cbd 5587 af3c
00000240: d7f7 28bc dc6d 153b e239 d3bc fabf 87bc
00000250: 9bbb e03c bab5 abbc 7d7f 523c c9e1 bc3a
00000260: 29d0 323c 7e51 c93a 20f2 f6bb 55f1 4c3c
00000270: a7cc 1e3c f25e 55bb edf4 c13c efad 003d
00000280: c742 973c 98b6 22bc efb0 d1bc c7e1 c3bc
00000290: 7dba 8cbc fae9 3bbb 0918 943c e5bc 1c3c
000002a0: f521 013d f9fc 0abd 886e 9fbc dd37 053d
000002b0: 29da cebc b2c8 b83c e608 cd3a 5f55 07bb
000002c0: 1514 f53c b880 243d e103 24bc 59c6 603a
000002d0: ae07 0f3d d71b 123d bffd f63c b261 70bc
000002e0: 231f a1bc 4b17 0f3d da7c 103d 5a55 b23c
000002f0: 2007 493d ba20 103d 69e9 b4bb 2c85 a63c
00000300: 5f9c 453d 624b d73c 6502 6abc 24b0 15bd
00000310: 54f4 0d3c 0182 a03c 5b00 08bd a9ac c73b
00000320: 27c4 b2bc afd8 6b3c 3753 89bc 53b7 dabc
00000330: ccd2 0b3d fd27 ad3c 6734 66bc e60d ccbc
00000340: c5fb c53c d0c2 b3bc f78e 2bbc fc29 7cbc
00000350: ae36 3c3c a4af e7ba 59fe 5b3c 2951 a2bc
00000360: 9270 d73c f8a3 9c3b 327f c5bc 824c d2bc
00000370: cdc3 af3c 6a2a 77bc c6bf 2b3c bc6f 973a
00000380: 968a 85bc 5d23 243d 92d3 32bc a996 aa3c
00000390: 8ef5 eb3c e542 8e3c dbb2 133d 93d4 cebc
000003a0: 755d ff3b afb4 9a3b 215b bc3c bf88 95bc
000003b0: 8910 e0bc aff5 dfbc 6bd6 dd3c 7700 6e3c
000003c0: c60d 1fbd 8769 34bc 2dce 02bd 28d3 edbc
000003d0: 5a44 c83c 0b86 96bc 0900 913c c1e1 0e3d
000003e0: 1f3f 113c c1ca a53c 022b fcbc a1ac 74bc
000003f0: dafb eaba 8cbb fb3b d524 6c3c 3a82 9d3c
0.019244501 0.01835945 -0.0017662348 0.024444943 0.030241974 -0.02903608 0.0016767012 -0.033884667
0.0042304364 0.010319631 -0.002136442 0.027996214 0.012279739 -0.029637545 -0.0028414866 -0.015424889
-0.028579986 -0.00023321505 -0.031784087 0.0235528 0.004708879 0.012809585 0.01977476 0.027839277
-0.017246932 0.00487824 -0.029451894 0.010783679 0.026642531 -0.02196021 0.023462964 -0.011271092
0.014910655 -0.013892594 0.007931442 -0.029374594 0.033130605 -0.0010838563 0.036413394 -0.009115696
0.016757246 -0.013421016 -0.011150649 -0.0074261967 0.019240713 0.015431859 0.023124896 -0.0035236133
0.0052167764 0.023727708 -0.0138925975 -0.01168712 0.02685587 -0.029874763 -0.017180974 -0.019665804
-0.007433468 -0.025969613 0.00818897 -0.024759762 -0.01557714 -0.0344308 0.02368426 -0.021716557
-0.004310254 -0.02116426 -0.004891251 -0.006705353 -0.011546703 -0.00058069685 0.014968615 0.029048102
0.026214538 -0.026276818 -0.0041672 -0.027482674 0.01843418 0.02467718 0.009787826 0.011825942
0.035218015 -0.003310093 -0.030069945 -0.01655694 -0.010426181 0.017054738 0.001084066 0.02802602
0.019693745 -0.010187176 -0.008931096 -0.01172421 -0.03184504 -0.01133928 -0.016472474 -0.0065989867
-0.007777707 -0.013289137 -0.016401777 0.0056343046 0.005106894 0.010112075 0.019559637 -0.00081230927
0.0046074553 -0.007147503 0.03580739 0.0075311763 0.02982093 -0.018154046 -0.023836643 0.01140406
-0.02164217 0.02772378 0.02511024 0.033518516 0.038208686 0.018896868 0.018314665 -0.0013469252
0.035019606 0.018743908 -0.0047729514 -0.031125026 0.006245746 0.007023197 0.028322974 0.02350886
0.034455292 0.006467256 0.013649176 -0.028045975 0.0043985606 0.008706886 -0.019700088 -0.016625386
0.013934617 -0.02184579 -0.014232418 0.024955753 0.026459238 -0.03224805 -0.034296624 0.021426836
-0.010312996 0.0022801077 -0.025784437 -0.016571034 0.027433207 -0.020960677 0.012847778 0.0014410551
0.010913887 0.001535937 -0.007536188 0.01250871 0.009692348 -0.0032557813 0.02367636 0.031415876
0.01846446 -0.009931229 -0.025597064 -0.02391137 -0.017178768 -0.0028673396 0.018077867 0.00956652
0.031526525 -0.03393266 -0.019461885 0.03252398 -0.025250511 0.022556636 0.0015642911 -0.002065025
0.029916802 0.04016182 -0.01001069 0.0008574478 0.034919433 0.03567108 0.030150292 -0.01467173
-0.019668167 0.034934323 0.035275318 0.021769214 0.04907906 0.03518746 -0.0055209887 0.020327173
0.04824483 0.026281063 -0.014282797 -0.036544934 0.008664209 0.01959324 -0.033203464 0.0060935807
-0.021822048 0.014394923 -0.016763313 -0.026698744 0.03413658 0.021137232 -0.01405058 -0.024908971
0.024167905 -0.02194348 -0.010471097 -0.015390869 0.011487646 -0.0017676246 0.01342734 -0.01981409
0.026298795 0.004780289 -0.024108503 -0.025671247 0.02145567 -0.015085796 0.010482734 0.0011553685
-0.016301434 0.040072788 -0.0109147 0.020823793 0.028803613 0.017365882 0.03605924 -0.025247848
0.0077931234 0.004721246 0.022992672 -0.018253682 -0.027351635 -0.02733883 0.027079782 0.014526478
-0.038831495 -0.011011488 -0.031934906 -0.029031351 0.024446655 -0.018374464 0.017700212 0.034883264
0.008865147 0.020238282 -0.030782226 -0.014933736 -0.0017927841 0.0076822694 0.014413078 0.019227136
