outputs/x3/epoch_66.pth (torch, 231327 bytes, 5 tensors)

conv1.weight f4 [64, 1, 9, 9]
0	0xbd1db36d	-0.038501192
1	0x3c17239a	0.009224797
2	0xbd477e14	-0.04870422
3	0x3d45db5c	0.0483049
4	0xbdb6e965	-0.08931235
5	0x3dae5e0d	0.085140325
6	0xbd9fc9e0	-0.078021765
7	0xbdb110bf	-0.08645772
8	0xbd8e4558	-0.0694682
9	0x3d6269bd	0.05527662
10	0xbd15f02e	-0.036606006
11	0x3d45f507	0.04832938
12	0xbdb1a701	-0.086744316
13	0xbd79d2bf	-0.060992
14	0xbd17cb2e	-0.037059
15	0xbca0ebf0	-0.019643754
16	0xbdab68e5	-0.083696164
17	0x3d94231e	0.072332606
18	0xbca4791d	-0.020077283
19	0x3d2c7303	0.04210187
20	0x3db61efd	0.08892629
21	0x3d0a0602	0.033697136
22	0x3d3128ad	0.043251682
23	0x3dee9707	0.116499
24	0xbd32d0a3	-0.043656003
25	0x3d212445	0.03934123
26	0xbd43effb	-0.047836285
27	0x3db26244	0.08710149
28	0x3dc66e77	0.09689038
29	0xbdb7868d	-0.089612104
30	0x3de50a8f	0.111836545
31	0x3d9238e9	0.07139761
32	0x3d8183b6	0.0632395
33	0x3d6a87bf	0.057258364
34	0x3dcd78a9	0.1003278
35	0xbc2c2315	-0.010506411
36	0xbdb04587	-0.08607011
37	0xbcc5dfc7	-0.024154557
38	0xbd88663a	-0.06660123
39	0x3cbd6a05	0.023121843
40	0xbb2eaabc	-0.0026652059
41	0xbd338e74	-0.043837026
42	0x3b3be780	0.002867192
43	0x3dea526b	0.11441501
44	0xbb8189da	-0.0039532008
45	0x3c44a032	0.012001084
46	0xbc28f8d4	-0.0103132315
47	0x3cd85c6b	0.026411256
48	0x3de159d9	0.11003465
49	0x3da591be	0.08084439
50	0x3d523394	0.05131872
51	0x3d0df579	0.03465793
52	0x3d0a53ca	0.033771314
53	0x3d40521c	0.046953306
54	0xbbb822ee	-0.0056193983
55	0xbdc6b783	-0.09702971
56	0xbd7e8fdb	-0.06214891
57	0x3dd0860c	0.101818174
58	0x3c6a1695	0.014287611
59	0xbda9e60d	-0.08295832
60	0x3cc5a467	0.024126245
61	0x3dc62002	0.09674074
62	0xbdd12b0b	-0.10213288
63	0xbd8605c7	-0.06544071
64	0xbd1a42b2	-0.03766126
65	0x3c313c79	0.01081764
66	0xbca22bfc	-0.019796364
67	0xbbd0d187	-0.006372634
68	0xbdd3b15a	-0.103365615
69	0x3d681b88	0.05666688
70	0x3dcf9e97	0.101376705
71	0x3d913a9b	0.07091256
72	0xbd8cddf3	-0.06878271
73	0xbda89872	-0.08232202
74	0x3d5945a9	0.05304495
75	0x3c15120c	0.009098541
76	0x3d53970a	0.051657714
77	0xbdd4221e	-0.1035807
78	0xbb0fb378	-0.002192704
79	0x3da87a96	0.082265064
80	0x3d61b7c1	0.055106882
81	0x3b758e45	0.0037468832
82	0x3ca90e38	0.020636663
83	0xbc3d68c2	-0.011560621
84	0xbd7b4335	-0.06134339
85	0xbd2b85f3	-0.04187579
86	0xbd8a4870	-0.067520976
87	0x3dbf5d49	0.093439646
88	0x3d7c6555	0.061620075
89	0x3d1a9ce2	0.03774727
90	0xbdacc3f9	-0.08435816
91	0x3db00269	0.0859421
92	0x3d118886	0.03553059
93	0x3da07b0d	0.0783597
94	0xbd2ca33f	-0.04214787
95	0x3ccbb8b5	0.024868349
96	0x3de36dfb	0.111049615
97	0x3d9d3018	0.07675189
98	0x3db6ba36	0.08922236
99	0xbcb319ea	-0.021862943
100	0x3db0244f	0.08600675
101	0xbdad1b49	-0.0845247
102	0x3c54b838	0.012983374
103	0xbd75a05e	-0.05996739
104	0xbccab17b	-0.024742832
105	0xbcd5cbb7	-0.026098115
106	0x3c2bf9c7	0.010496563
107	0x3dd03a0d	0.10167322
108	0x3d683510	0.05669123
109	0x3adeb193	0.0016990177
110	0x3daa24b9	0.083077855
111	0xbd533874	-0.05156751
112	0x3d7a0fdf	0.061050292
113	0xbc1ac7ec	-0.009447079
114	0xbc92e5f2	-0.017931912
115	0x3c6eb514	0.01456954
116	0xbdad192e	-0.08452068
117	0x3c64a29e	0.013954787
118	0x3d1fb8e3	0.03899468
119	0x3dcac1db	0.09900256
120	0xbced6b81	-0.028981926
121	0x3d34eb0b	0.044169467
122	0x3de58a24	0.11207989
123	0xbd3e3370	-0.046435773
124	0x3ddb1775	0.106978334
125	0xbd5f04d0	-0.05444795
126	0x3d49c139	0.049256537
127	0x3d3307e8	0.04370871
128	0x3d06c647	0.032903936
129	0x3dbb5471	0.09146965
130	0xbd2a4bb2	-0.041576095
131	0x3cfb47b1	0.030673834
132	0x3b1c5ba2	0.0023858328
133	0xbda82672	-0.08210458
134	0xbcd7900a	-0.0263138
135	0xbd99aa08	-0.07503134
136	0x3d42135a	0.047381736
137	0x3c0e55af	0.008687421
138	0x3c30195e	0.0107482355
139	0xbd085d8a	-0.03329233
140	0x3a50ad50	0.0007960396
141	0xbd098712	-0.03357608
142	0x3d045729	0.032309685
143	0x3ddbe87b	0.107377015
144	0x3c779353	0.015110808
145	0xbd562c1e	-0.052288167
146	0xbd922ad9	-0.07137079
147	0x3bb317d1	0.0054654856
148	0xbdadc8c3	-0.08485558
149	0xbdae94e5	-0.08524493
150	0xbd95813d	-0.07300041
151	0xbd1f8af8	-0.03895089
152	0x3bcf9ae4	0.006335603
153	0x3d9bdf1b	0.07610913
154	0x3d2a17cf	0.041526612
155	0x3daa7eec	0.0832499
156	0xbd92070c	-0.0713025
157	0x3c058a13	0.008150595
158	0xbdcbf077	-0.099579744
159	0x3d828fae	0.06375061
160	0x3cb94110	0.022614032
161	0x3dd9fea9	0.10644276
162	0xbda1d444	-0.079018146
163	0x3db67b94	0.089102894
164	0x3dc01850	0.09379637
165	0x3db7fa15	0.08983246
166	0x3c81bb47	0.015836371
167	0x3dcee970	0.101031184
168	0x3d97f514	0.07419792
169	0x3da9c1a0	0.08288884
170	0xbbed8ec9	-0.0072496873
171	0xbdae9f71	-0.08526505
172	0xbab8b195	-0.001409101
173	0x3caa5f36	0.020797353
174	0xbd9b02e2	-0.07568909
175	0xbd8288d0	-0.06373751
176	0xbdda2afc	-0.1065273
177	0xbd1f99cf	-0.038965043
178	0x3dc63467	0.09677964
179	0x3c9b6f76	0.018974047
180	0xbbde82ff	-0.0067905183
181	0x3b913b29	0.0044321013
182	0x3d8de17c	0.06927773
183	0xbdc8f3bb	-0.09812113
184	0xbdaf9527	-0.085733704
185	0xbd1754d7	-0.036946144
186	0xbd82f61e	-0.063945994
187	0x3d6ab6d7	0.057303276
188	0x3da0ca44	0.07851079
189	0xbddcc97c	-0.107806176
190	0xbdc12193	-0.09430232
191	0xbddd9b69	-0.10820658
192	0x3d2ba412	0.041904517
193	0x3db72520	0.08942628
194	0xbdb06fa0	-0.08615041
195	0xbd52b5ac	-0.051442787
196	0x3d10d54e	0.035359673
197	0xbd94946f	-0.07254874
198	0x3dc14a9a	0.09438057
199	0x3cd3f2de	0.025872644
200	0xbcfdc401	-0.030977251
201	0x3beb066c	0.0071723964
202	0x3d0dd4fc	0.034626946
203	0xbd20fbb8	-0.039302558
204	0xbdb053fd	-0.086097695
205	0x3a3fd001	0.0007317067
206	0x3b0431f4	0.0020171376
207	0x3b11fdc9	0.0022276512
208	0xbc852b0c	-0.016255878
209	0x3d9213dd	0.07132695
210	0xbcfe74d6	-0.031061571
211	0xbc312411	-0.010811822
212	0x3d3b0c74	0.045666173
213	0xbd8f3ec8	-0.069943964
214	0x3cf375ff	0.02971935
215	0xbcc978d9	-0.024593757
216	0x3d5a4af8	0.053294152
217	0xbd76e64c	-0.060278222
218	0x3b86288d	0.0040941895
219	0x3c31f13a	0.010860736
220	0xbdb71784	-0.08940032
221	0xbda57767	-0.08079415
222	0x3d2e883c	0.042610392
223	0xbd0476c9	-0.032339845
224	0x3d872520	0.06598878
225	0xbde0cafc	-0.10976216
226	0xbd60f8b8	-0.054924697
227	0xbdbb6dd6	-0.09151809
228	0x3d35ce16	0.044385992
229	0xbb530894	-0.0032201158
230	0xbca9c16d	-0.020722115
231	0xbc9768f0	-0.018482655
232	0xbdb1de45	-0.08684973
233	0x3d011481	0.031513695
234	0x3b35d5fa	0.0027745948
235	0xbd9d09bc	-0.07667872
236	0x3d2b417f	0.04181051
237	0xbb128ab7	-0.0022360513
238	0xbddc1454	-0.10746065
239	0x3d74d193	0.059770178
240	0x3d737072	0.059433408
241	0xbcab7550	-0.020929962
242	0xbd9d1cbc	-0.07671496
243	0x3b83e5da	0.004025203
244	0x3da8c8af	0.08241402
245	0x3dce6642	0.10078098
246	0xbda9c393	-0.08289256
247	0xbd4998f6	-0.04921814
248	0x3db1396f	0.08653533
249	0x3d5b6e17	0.053571787
250	0x3d89e36c	0.067328304
251	0xbd6af9e2	-0.057367213
252	0x3dc490a9	0.09597904
253	0xbdbc3579	-0.091898866
254	0xbbb5d9ca	-0.005549644
255	0x3b74577c	0.003728359

conv1.bias f4 [64]
0	0xbc71eae1	-0.014765472
1	0xbd891012	-0.06692518
2	0xbb9b7ebc	-0.0047453325
3	0xbd861797	-0.06547468
4	0x3d058df8	0.032606095
5	0xbcd0cc29	-0.025487976
6	0x3d7f5224	0.062334195
7	0x3d62be85	0.055357475
8	0x3de0aa13	0.10969939
9	0xbd926223	-0.07147624
10	0xbba0c2ea	-0.004906048
11	0xb9f54391	-0.00046780382
12	0xbd991e89	-0.07476527
13	0x3dc323b3	0.095282935
14	0x3d85c521	0.0653174
15	0x3d9170bc	0.071015805
16	0xbd1bd4da	-0.038044788
17	0xbd5b98d9	-0.053612564
18	0x3d85f02b	0.06539949
19	0x3c87193b	0.016491523
20	0x3c6b1ee0	0.014350623
21	0xbcaeec82	-0.02135301
22	0xbdcfe65e	-0.10151361
23	0x3d825ec7	0.063657336
24	0xbd4a51d0	-0.04939443
25	0x3d83186c	0.064011425
26	0xbce0b2c1	-0.027428987
27	0xbc2cf9c4	-0.010557596
28	0x3cee8aed	0.02911898
29	0x3d033389	0.03203157
30	0x3df836fa	0.12119861
31	0xbd27ca05	-0.040964145
32	0x3d206beb	0.03916542
33	0x3d338285	0.043825645
34	0xbc6bcfee	-0.014392836
35	0xbdbf4b62	-0.0934055
36	0xbc9cb801	-0.019130709
37	0x3d9c7512	0.07639517
38	0xbdc11195	-0.09427182
39	0x3c56da06	0.013113504
40	0xbd6bdd94	-0.05758436
41	0xbd6265ee	-0.05527299
42	0x3dbca405	0.09210972
43	0x3b7143e9	0.003681416
44	0x3d0eec74	0.034893468
45	0x3c8fac19	0.017538117
46	0xbda271c9	-0.07931859
47	0xbde37b1e	-0.11107467
48	0xbd8f2d7d	-0.06991098
49	0xbc11a447	-0.008889264
50	0xbd44b4be	-0.04802393
51	0xbcbcaceb	-0.023031672
52	0x3d1c8c31	0.038219634
53	0xbbe1e7d2	-0.00689409
54	0x3c035a5b	0.008017148
55	0xbd5ee637	-0.05441877
56	0x3d9b02a4	0.07568863
57	0xbd629089	-0.05531362
58	0xbbe3467f	-0.006935894
59	0x3dbfa321	0.09357286
60	0x3dd229a4	0.102618486
61	0xbd7167dc	-0.05893694
62	0xbdcaa209	-0.09894187
63	0xbda1fd10	-0.07909596

conv2.weight f4 [32, 64, 5, 5]
0	0x3ba14c3c	0.004922418
1	0x3c288769	0.010286191
2	0xbc3ce5bd	-0.011529383
3	0xbca35b31	-0.019940944
4	0xbba21b7c	-0.004947124
5	0xbbcfbc2e	-0.0063395714
6	0xbc827b0c	-0.015927814
7	0xbcc34f42	-0.023841504
8	0xbc8e9a20	-0.017407477
9	0xba87ffd8	-0.001037593
10	0x3c59f66a	0.013303379
11	0xbc9c4775	-0.019077042
12	0xbc1ddb85	-0.009634857
13	0xbc9f87ce	-0.019473936
14	0x3c3d2b74	0.011546005
15	0xbb062cea	-0.0020473548
16	0x3c7ff6c9	0.015622803
17	0x3b31a93b	0.0027108926
18	0xbbab05ed	-0.0052192123
19	0x3caf4d97	0.021399302
20	0x3c8395b8	0.016062602
21	0x3cbe3d94	0.023222722
22	0xbc90b1ae	-0.01766285
23	0x3c398e73	0.011325466
24	0xbc841b23	-0.016126221
25	0xbc802c0d	-0.015646005
26	0x3c9720d0	0.018448263
27	0x3c34f15c	0.011043873
28	0xbc6e589c	-0.014547493
29	0xbc88c8cf	-0.016697315
30	0xbc5b9a66	-0.013403511
31	0x3c9b20dd	0.018936569
32	0x3c07d0fa	0.00828957
33	0x3a82ee1c	0.0009989175
34	0xbc8d77ff	-0.017269133
35	0x3bfc8bc7	0.0077070924
36	0xbbbc5189	-0.0057470244
37	0x3c6fde74	0.014640439
38	0x3bb8d117	0.00564016
39	0x3c33cc61	0.010974021
40	0xbc0d67c5	-0.008630698
41	0xba1d8216	-0.0006008459
42	0xbc655d78	-0.0139993355
43	0x3bb0fb55	0.005401055
44	0xbb176481	-0.0023100676
45	0xbcb298e4	-0.02180142
46	0x3c59c1f2	0.013290869
47	0x3c1cb1c0	0.009563863
48	0x3c68e97a	0.014215821
49	0x3c296b44	0.0103405155
50	0x3b1e9f1d	0.0024203726
51	0x3c91a41b	0.017778447
52	0xbcb1926f	-0.02167627
53	0x3be20638	0.006897714
54	0x3ca315c3	0.019907838
55	0xbb8af5ef	-0.0042407434
56	0x3c9e5f23	0.019332474
57	0x3c29de09	0.010367879
58	0x3cad5360	0.02115792
59	0x3cafaa52	0.02144352
60	0x3c3ace3f	0.011401712
61	0x3b1302c3	0.0022432066
62	0xbcade5bd	-0.021227712
63	0xbc15858d	-0.009126079
64	0xbcb6271d	-0.022235448
65	0xbb833e60	-0.0040052384
66	0x3c789869	0.015173056
67	0x3c5dcabb	0.013537104
68	0x3af2eb2d	0.0018533223
69	0xbcc5aac3	-0.024129277
70	0x3c5a406c	0.013321023
71	0x3c189495	0.0093127685
72	0xbc5020ec	-0.012703162
73	0xbcbbe91d	-0.022938306
74	0xbc63693f	-0.013880073
75	0x3c08af23	0.008342537
76	0xbc5d7286	-0.013516074
77	0xbc8e20f3	-0.017349696
78	0xbca31378	-0.019906744
79	0xbc74fd1d	-0.014952925
80	0xbb83649c	-0.0040097963
81	0x3c967c73	0.018369889
82	0xbc7d24e5	-0.015450691
83	0xbcb5ae38	-0.0221778
84	0x3ca77964	0.020443626
85	0x3c5d08d9	0.013490879
86	0x3c006a49	0.00783784
87	0xbc88c7a4	-0.016696759
88	0x3c8ef8b0	0.017452568
89	0x3c260de6	0.01013515
90	0x3b68397d	0.0035434656
91	0x3c969eb2	0.018386219
92	0x3bf0a44e	0.0073438054
93	0x3c7dfceb	0.015502195
94	0xbbf34bc6	-0.0074248044
95	0x3c7b8439	0.015351349
96	0xbc473a45	-0.012159889
97	0x3bc87f27	0.0061186734
98	0xbc7f2964	-0.015573833
99	0xbcbcab3b	-0.023030868
100	0xbcabfd14	-0.0209947
101	0xbc97e22f	-0.01854047
102	0x3c5c4f38	0.013446622
103	0x3cc565a6	0.024096321
104	0x3c78113a	0.015140826
105	0xba5dc96c	-0.0008460495
106	0xba158214	-0.0005703282
107	0x3b4bce60	0.003109835
108	0x3cc19cdf	0.023634372
109	0x3c53ae2e	0.012919946
110	0xbc7cde76	-0.015433898
111	0xbc6972bc	-0.014248546
112	0x3ca358e7	0.019939853
113	0x3c56e9fb	0.013117309
114	0xbcca1893	-0.024669921
115	0xbcabd4b9	-0.020975458
116	0x3c4e4d3a	0.012591654
117	0xbc49e8f0	-0.012323603
118	0x3c977423	0.018487995
119	0x3c825c10	0.01591304
120	0xbca3a9c4	-0.019978411
121	0x3bb58b13	0.0055402606
122	0xbb93d1ea	-0.0045111077
123	0xbcc8b2fe	-0.024499413
124	0x3bf31cf1	0.0074192216
125	0x3b367d04	0.0027845511
126	0x3b981f67	0.0046424153
127	0xbca5a29e	-0.020219143
128	0xbbb4ef51	-0.005521693
129	0xbb960ca2	-0.0045791427
130	0xbcb1a305	-0.02168418
131	0x3c9f0a1c	0.019414
132	0xbbe1cc2b	-0.006890794
133	0x3c416861	0.011804671
134	0xbbdae219	-0.006679785
135	0xbc9fcc7b	-0.019506684
136	0xbbdaba73	-0.0066750585
137	0x3b9c01c4	0.0047609527
138	0x3ca23e47	0.019805087
139	0x3b8037e7	0.003912914
140	0x3c8bc0b1	0.017059656
141	0x3c4151b6	0.011799267
142	0xbc8c65c7	-0.017138375
143	0x3a55f728	0.00081621343
144	0x3cb5ceab	0.022193274
145	0xbbf727a3	-0.007542567
146	0x3c335b0f	0.010947003
147	0x3cb42d81	0.021994354
148	0xbab0ef31	-0.0013499019
149	0xbc139bba	-0.009009296
150	0xbc6e7d43	-0.014556232
151	0xbaaffa59	-0.001342605
152	0xbc8555db	-0.01627629
153	0x3ccc625f	0.02494925
154	0xbcac6ba5	-0.021047423
155	0x3cae2477	0.021257622
156	0x3c8301c0	0.015992045
157	0xbcb696bf	-0.022288678
158	0xbc7e6774	-0.015527595
159	0x3cb8b1dd	0.02254575
160	0xbb727c30	-0.003700029
161	0xbc938345	-0.01800693
162	0x3991a50f	0.00027779533
163	0xbbd8651d	-0.0066038505
164	0x3b19d3de	0.002347223
165	0x3c17d6c6	0.009267515
166	0xbcb15150	-0.021645218
167	0xbc5a6ed6	-0.013332089
168	0xbab401f8	-0.0013733497
169	0x3cb85400	0.022500992
170	0xbca1618f	-0.01969984
171	0xbc628c4e	-0.013827397
172	0x3c5b959d	0.01340237
173	0x3cbbb9f6	0.022915822
174	0x3b0a30e1	0.0021086263
175	0x39dffb12	0.00042720936
176	0x3c376e98	0.011195801
177	0xbba083b3	-0.0048985123
178	0x3c72eb98	0.014826678
179	0x3ccb406c	0.024810992
180	0x3c91b3a9	0.017785864
181	0xbcca87d8	-0.024722978
182	0x3c9d1ce6	0.019178819
183	0x3cc01c23	0.023450917
184	0x3c2821fa	0.010262007
185	0xbc091fa5	-0.008369361
186	0xbb65ab09	-0.0035044572
187	0xbc88c79c	-0.016696744
188	0xbb8be24d	-0.0042689205
189	0x3c817695	0.015803615
190	0xbbe2c2bd	-0.0069201873
191	0xbb852a1b	-0.0040638573
192	0xbb96e120	-0.0046044737
193	0xb99f4dad	-0.00030384716
194	0x3b53a6d9	0.0032295494
195	0xbb7d4ec8	-0.0038651694
196	0xbccab914	-0.024746455
197	0xbc099b6a	-0.00839887
198	0xbc561b48	-0.013068028
199	0xbc187c96	-0.009307047
200	0xbc4d1631	-0.012517498
201	0xbc905044	-0.017616399
202	0xbca5cf1c	-0.020240359
203	0xbc124331	-0.0089271525
204	0x3b6c2d66	0.0036037802
205	0x3cc97924	0.024593897
206	0x3b12b79c	0.0022387272
207	0x3b0cf4c2	0.0021508192
208	0x3c4829a0	0.012216955
209	0x3bb7b820	0.005606666
210	0xbca44175	-0.020050744
211	0xbcc7d202	-0.024392132
212	0xbc7cf81f	-0.015440016
213	0xbbaa656d	-0.005200079
214	0xbc89fbc9	-0.016843693
215	0x3c98740e	0.018610027
216	0xbc014ca7	-0.0078918105
217	0xbc40e4bb	-0.011773284
218	0xbc91406d	-0.017730916
219	0xbc33c46e	-0.010972125
220	0xbc99e58a	-0.01878621
221	0x3cab4e6b	0.020911416
222	0x3bd9b616	0.006644021
223	0xbcb05b2c	-0.02152785
224	0x3cc83fb2	0.024444435
225	0xbb9f2d44	-0.004857691
226	0x3c0a3985	0.008436565
227	0xbb7ba9d0	-0.0038400777
228	0xbb93dc6c	-0.0045123603
229	0x3c63f86e	0.013914211
230	0x3cb187e1	0.021671237
231	0x3c17dba6	0.009268677
232	0x3cc84257	0.024445696
233	0x3cc36499	0.02385168
234	0xbacd5024	-0.0015664143
235	0xbb24915e	-0.002511106
236	0xbb0852fa	-0.002080141
237	0xbbbe3d0e	-0.005805618
238	0xbc198d8b	-0.009372125
239	0xbcaa0776	-0.02075551
240	0xbcc55648	-0.024088994
241	0xbc2404cb	-0.010010908
242	0xbc1ea3af	-0.00968258
243	0xbcc8105c	-0.024421863
244	0xbbb62673	-0.0055587827
245	0x3c84edfe	0.016226765
246	0xbb75e8de	-0.0037522833
247	0xbc362f6f	-0.0111197075
248	0xba094ab3	-0.00052372663
249	0x3c8698c5	0.016430268
250	0xbc37cbdf	-0.01121804
251	0xbc28e779	-0.010309094
252	0xbaca9a78	-0.0015457412
253	0xba6a41cc	-0.0008936196
254	0x3cbd9268	0.023141101
255	0xbcb39251	-0.021920355

conv2.bias f4 [32]
0	0xbc3233ed	-0.010876638
1	0xbcc988fc	-0.024601452
2	0xbb6713aa	-0.0035259523
3	0x3c723ae4	0.014784548
4	0x3cd36e7c	0.025809519
5	0x3cabb6d9	0.020961212
6	0xbc6ab02e	-0.014324231
7	0x3d15ee0a	0.036603965
8	0x3b405663	0.0029348365
9	0xbc3b93b8	-0.011448793
10	0xbbe74f76	-0.007059033
11	0x3b8517d4	0.0040616784
12	0x3cfe5c10	0.031049758
13	0x3cda6def	0.026663749
14	0xbba9c536	-0.00518098
15	0xbc1e5e30	-0.009666011
16	0xbc7f8f26	-0.015598094
17	0xbc929d6c	-0.01789733
18	0x3cd0741a	0.025445987
19	0x3cf045da	0.029330183
20	0x3abe35e8	0.0014511915
21	0x3a155c98	0.00056976965
22	0xbb50d81b	-0.003186709
23	0x393281d5	0.00017023769
24	0x3c47a5f0	0.012185559
25	0xbc2dc38c	-0.010605704
26	0x3c741c3e	0.014899312
27	0x3ceb8e3f	0.028754352
28	0x3b85966d	0.00407677
29	0xbc886f9c	-0.016654782
30	0xbbf7fcc5	-0.0075679743
31	0xbbe99d14	-0.007129321

conv3.weight f4 [1, 32, 5, 5]
0	0x3c9bee00	0.019034386
1	0x3c943e26	0.018096041
2	0xbaf9c2b7	-0.0019055222
3	0x3cc78fe1	0.024360599
4	0x3cf7747c	0.030206911
5	0xbcefe102	-0.029282097
6	0x3ac433d9	0.0014969065
7	0xbd0af6e7	-0.03392687
8	0x3b88fd2f	0.0041805725
9	0x3c27a7c1	0.010232867
10	0xbb124101	-0.0022316577
11	0x3ce65f67	0.028121663
12	0x3c4cc686	0.012498504
13	0xbcf202fe	-0.029542442
14	0xbb408cd1	-0.0029380808
15	0xbc7c6f44	-0.015407387
16	0xbce75482	-0.028238539
17	0x397a80aa	0.00023889789
18	0xbd011642	-0.031515367
19	0x3cc0ca4d	0.023533965
20	0x3b956b82	0.004559935
21	0x3c516f8c	0.0127829425
22	0x3ca282c5	0.019837746
23	0x3ce3f341	0.027825953
24	0xbc8e0ed8	-0.017341062
25	0x3ba809bd	0.005128114
26	0xbcf3b6b1	-0.0297502
27	0x3c2721c9	0.010200926
28	0x3cd9510e	0.026527908
29	0xbcb174f3	-0.021662211
30	0x3cc0d590	0.023539335
31	0xbc47d5fc	-0.012197014
32	0x3c5ae6c8	0.013360687
33	0xbc6d203d	-0.014473018
34	0x3c01f1ca	0.007931182
35	0xbcf30099	-0.02966337
36	0x3d021eb3	0.03176756
37	0xbb504081	-0.0031776729
38	0x3d10f173	0.035386514
39	0xbc207215	-0.009792824
40	0x3c8ca64f	0.017169146
41	0xbc5de634	-0.013543654
42	0xbc3f9c9c	-0.011695053
43	0xbbf8a110	-0.0075875595
44	0x3c99a95d	0.018757517
45	0x3c82bc93	0.01595906
46	0x3cc0ba5d	0.023526365
47	0xbb480d51	-0.0030525515
48	0x3bbb93e5	0.0057244175
49	0x3cc2eeee	0.023795571
50	0xbc639dc7	-0.0138925975
51	0xbc3f7b56	-0.01168712
52	0x3cdc00d7	0.02685587
53	0xbcf4bbeb	-0.029874763
54	0xbc8cbf1d	-0.017180974
55	0xbca11a2e	-0.019665804
56	0xbbf3b730	-0.007437609
57	0xbcd4be3a	-0.025969613
58	0x3c062b08	0.00818897
59	0xbccad4fc	-0.024759762
60	0xbc7f3827	-0.015577353
61	0xbd0d074f	-0.0344308
62	0x3cc1fa62	0.023678962
63	0xbcb1e6ec	-0.021716557
64	0xbb8d3d08	-0.004310254
65	0xbcad60ac	-0.02116426
66	0xbba09426	-0.004900473
67	0xbbdc6106	-0.0067254333
68	0xbc3d2e62	-0.011546703
69	0xba183985	-0.0005806911
70	0x3c753eec	0.014968615
71	0x3cedf649	0.029048102
72	0x3cd6bfdf	0.026214538
73	0xbcd7427b	-0.026276818
74	0xbb888d02	-0.0041672
75	0xbce175d9	-0.027522014
76	0x3c957cf5	0.01824806
77	0x3cc91f46	0.024551045
78	0x3c1e834d	0.009674859
79	0x3c41179b	0.011785413
80	0x3d0f9302	0.035052307
81	0xbb6e914d	-0.0036402524
82	0xbcf7c010	-0.03024295
83	0xbc88557d	-0.016642326
84	0xbc2c3d55	-0.01051267
85	0x3c886c44	0.016653188
86	0x3a43e86f	0.0007473295
87	0x3ce3f11a	0.027824927
88	0x3ca1423e	0.019684907
89	0xbc278273	-0.010223973
90	0xbc17d2ec	-0.009266596
91	0xbc43898b	-0.011934648
92	0xbd02ad0c	-0.03190331
93	0xbc38a075	-0.011268725
94	0xbc86a0c0	-0.016434073
95	0xbbe117c9	-0.0068692905
96	0xbc016218	-0.0078969225
97	0xbc597dce	-0.013274623
98	0xbc854e8c	-0.016272806
99	0x3bbcede0	0.0057656616
100	0x3be5ac70	0.0070090815
101	0x3c3276c4	0.010892574
102	0x3c9d11fe	0.019173618
103	0xb9b149da	-0.00033815095
104	0x3bab7913	0.005232939
105	0xbbbbf891	-0.0057364185
106	0x3d135b75	0.035975892
107	0x3bc75b97	0.0060839164
108	0x3cee84bb	0.029116025
109	0xbc96c811	-0.018405946
110	0xbcc545b6	-0.024081092
111	0x3c29c73e	0.010362444
112	0xbcc5104d	-0.024055624
113	0x3cd4e464	0.025987811
114	0x3cc48036	0.023986917
115	0x3d047681	0.032339577
116	0x3d18b33e	0.037280314
117	0x3c92aa1a	0.017903376
118	0x3c91cbb2	0.017797325
119	0xbb0aa5b1	-0.0021155889
120	0x3d0e08ec	0.034676477
121	0x3c9a3386	0.018823396
122	0xbb826e95	-0.0039804676
123	0xbcf64fc4	-0.030067332
124	0x3bd622e3	0.0065349205
125	0x3bc40c2d	0.005982897
126	0x3ce29ffb	0.027664175
127	0x3cb75088	0.022377267
128	0x3d062a93	0.032755446
129	0x3bb0a4f4	0.0053907577
130	0x3c44ad24	0.012004171
131	0xbce72eea	-0.028220613
132	0x3ba36e53	0.004987517
133	0x3c10589f	0.008810191
134	0xbc9ff193	-0.019524371
135	0xbc8ca860	-0.017170131
136	0x3c7b504e	0.01533897
137	0xbca07c0c	-0.0195904
138	0xbc52937d	-0.012852547
139	0x3cd266d2	0.025683794
140	0x3cdbd4aa	0.026834805
141	0xbcf825c1	-0.03029144
142	0xbd02e763	-0.03195895
143	0x3cb460e7	0.022018863
144	0xbc336530	-0.010949418
145	0x3b2cb438	0.0026352536
146	0xbcc90b3f	-0.024541495
147	0xbc7daec7	-0.015483565
148	0x3cdcfda5	0.026976416
149	0xbcb6e516	-0.022326034
150	0x3c527f9f	0.01284781
151	0x3abce71f	0.0014412141
152	0x3c32d048	0.010913916
153	0x3ac955cc	0.0015360652
154	0xbbf6f1bd	-0.0075361417
155	0x3c4cf4d7	0.012509546
156	0x3c1ece99	0.009692811
157	0xbb56824e	-0.0032731476
158	0x3cc1fa12	0.023678813
159	0x3d00ae00	0.03141594
160	0x3c9742f8	0.01846455
161	0xbc22b28b	-0.009930263
162	0xbcd1b073	-0.025596833
163	0xbcc3e0e7	-0.023910953
164	0xbc8cba26	-0.017178606
165	0xbb3bcaee	-0.002865489
166	0x3c94182a	0.018077929
167	0x3c1cbea8	0.00956694
168	0x3d0121f9	0.03152654
169	0xbd0afcf6	-0.03393265
170	0xbc9f6e88	-0.019461885
171	0x3d0537dd	0.03252398
172	0xbcceda29	-0.025250511
173	0x3cb8c8b2	0.022556636
174	0x3accf31f	0.001563642
175	0xbaed877f	-0.0018122046
176	0x3ceb6f39	0.028739559
177	0x3d1ce74b	0.038306516
178	0xbc1b1a0c	-0.009466659
179	0x3aca264e	0.0015422793
180	0x3d0e25bd	0.03470396
181	0x3d07cef1	0.03315634
182	0x3cd53c14	0.026029624
183	0xbc80b0c9	-0.015709298
184	0xbca30624	-0.019900389
185	0x3d06e2b8	0.03293106
186	0x3cf7ced0	0.030249983
187	0x3c6c2e4d	0.014415336
188	0x3d3c373b	0.04595111
189	0x3d0c2cfc	0.034222588
190	0xbbb315a7	-0.0054652276
191	0x3c9aea5a	0.018910576
192	0x3d3a0e35	0.045423705
193	0x3cd4b988	0.025967374
194	0xbc585f85	-0.013206367
195	0xbd0da75f	-0.034583446
196	0x3c22e688	0.009942658
197	0x3ca0d5ef	0.019633261
198	0xbd05ece9	-0.03269664
199	0x3be3551f	0.0069376375
200	0xbcb2c427	-0.021822048
201	0x3c6bd13c	0.014393147
202	0xbc889d96	-0.016676705
203	0xbcda2e02	-0.026633266
204	0x3d0bd431	0.03413791
205	0x3cad27fd	0.021137232
206	0xbc665de7	-0.014060474
207	0xbccba8ab	-0.0248607
208	0x3cc65b7f	0.02421355
209	0xbcb3b3e7	-0.02193637
210	0xbc2b8e1e	-0.010470895
211	0xbc7d3a42	-0.015455784
212	0x3c39857a	0.011323327
213	0xbaef866b	-0.0018274313
214	0x3c5b0308	0.013367422
215	0xbca25129	-0.01981409
216	0x3cd76fda	0.026298452
217	0x3b9a7347	0.004713449
218	0xbcc5879c	-0.024112515
219	0xbcd27957	-0.025692625
220	0x3cafc3cd	0.02145567
221	0xbc7731b9	-0.015087538
222	0x3c2b03ba	0.0104379
223	0x3a975b68	0.0011547627
224	0xbc85b2c3	-0.016320592
225	0x3d1f57fe	0.038902275
226	0xbc38ce67	-0.011279679
227	0x3ca1d284	0.019753702
228	0x3ce4bde6	0.027922582
229	0x3c94fc4d	0.018186713
230	0x3d11c279	0.035585854
231	0xbcca1d71	-0.024672242
232	0x3be9d306	0.0071357517
233	0x3b6c42ff	0.0036050675
234	0x3cbaac73	0.022787308
235	0xbc87c5df	-0.016573844
236	0xbcca5433	-0.024698352
237	0xbcd8c05c	-0.026458912
238	0x3cd9905b	0.026558092
239	0x3c620957	0.013796172
240	0xbd16259a	-0.036656953
241	0xbc093ece	-0.00837679
242	0xbcfd60aa	-0.030929882
243	0xbcf0c3a9	-0.029390173
244	0x3cc2e865	0.023792455
245	0xbc8ecd10	-0.017431766
246	0x3c979ff1	0.018508883
247	0x3d0c8dc1	0.034314875
248	0x3c047867	0.008085347
249	0x3ca4b0d5	0.020103851
250	0xbcfc2b02	-0.030782226
251	0xbc74aca1	-0.014933736
252	0xbaeb023e	-0.0017929745
253	0x3bfbbb8c	0.0076822694
254	0x3c6c24d5	0.014413078
255	0x3c9d823a	0.019227136
