outputs/x3/epoch_49.pth (torch, 231327 bytes, 5 tensors)

conv1.weight f4 [64, 1, 9, 9]
00000000: e652 21bd fd9f 0a3c 9916 4abd b6a0 443d
00000010: 3bb9 b6bd 939a ae3d 71f7 9fbd 0295 b1bd
00000020: 1fe7 8ebd dd36 603d 2104 18bd 327c 433d
00000030: bb75 b2bd 0c8a 79bd 227a 16bd 3355 9fbc
00000040: 4b7b abbd 71d2 933d 0703 a6bc bf43 2b3d
00000050: cfac b43d 5973 063d 03bb 2e3d 4a66 ee3d
00000060: f27e 32bd c350 213d 75bb 43bd 35a2 b23d
00000070: f370 c63d e9b1 b8bd e2d3 e23d aef2 8f3d
00000080: cf5e 803d 8298 693d cb99 cd3d fc32 27bc
00000090: 62e3 afbd fd66 c4bc 7ee3 88bd 7f5e b73c
000000a0: dc97 6dbb 8440 36bd ba14 213b e84a ea3d
000000b0: 2a64 69bb 0559 413c 620b 29bc 0a53 d83c
000000c0: 6240 e13d 4e41 a53d 6e7e 513d 49fc 0c3d
000000d0: 1050 0a3d 5184 413d 4b11 cdbb 0e68 c7bd
000000e0: d8e4 7ebd feea d03d 0650 6f3c 6979 a9bd
000000f0: 7d61 c53c b619 c63d 3312 d1bd 57b5 87bd
00000100: ff98 1cbd e826 2c3c ab14 a2bc 3054 c7bb
00000110: bd26 d3bd e668 683d 6d99 cf3d 07fc 903d
00000120: d460 8ebd 21c7 a9bd fabc 573d 5406 133c
00000130: f32a 543d 91be d3bd 2b9b 06bb 94ac a83d
00000140: bd9b 613d b412 6a3b cfba a83c cfed 3abc
00000150: 207d 7abd 4431 2bbd 4277 8abd 64e2 be3d
00000160: a5bf 7b3d e5e7 1a3d 64fa acbd dc11 b03d
00000170: 1d57 123d d1fc a03d 80e9 2bbd 45b7 cb3c
00000180: 47da e23d 139d 9c3d 9cc4 b63d 54f3 b2bc
00000190: 1c48 b03d 7eeb acbd 3e6f 563c 47cd 74bd
000001a0: 448c c8bc 7b2d d6bc 0c21 293c 3f4c d03d
000001b0: f0e5 683d 0dd1 e73a 0ed5 a93d 1939 54bd
000001c0: bb2d 7a3d 1bec 12bc e207 90bc 75e9 703c
000001d0: 30cb acbd a926 683c b6fe 1f3d 3130 ca3d
000001e0: b98a f1bc b7dc 333d 3331 e63d c3c6 3cbd
000001f0: ba74 db3d e089 5ebd 702f 4a3d 7954 333d
00000200: f549 063d c299 ba3d 58cb 2bbd eed6 fa3c
00000210: 4357 1c3b 4a37 a8bd 15d7 d7bc dde9 99bd
00000220: 2015 423d 14ef 0f3c 879a 303c c6ed 08bd
00000230: 00dd 1a3a e988 0abd fd93 033d 30a1 db3d
00000240: d0a0 723c 7da9 56bd 13d6 91bd f771 bc3b
00000250: 7b75 adbd ecbf aebd 4bec 95bd f92b 20bd
00000260: 24f8 ca3b 0610 9b3d 16e1 283d fe5e aa3d
00000270: bbda 91bd 1145 063c 3e2a ccbd 7a34 823d
00000280: 5c61 b83c 67ba d93d c4d4 a1bd 647b b63d
00000290: 9718 c03d 5afa b73d e3bb 813c cde8 ce3d
000002a0: 6df4 973d c7c0 a93d 0998 edbb c09f aebd
000002b0: f55e b8ba 7a6a aa3c b502 9bbd e888 82bd
000002c0: 4a2b dabd 6b9b 1fbd 9533 c63d ae6a 9b3c
000002d0: ce97 debb 8854 913b 9be1 8d3d 9ef3 c8bd
000002e0: 1495 afbd c555 17bd 7cf6 82bd 07b3 6a3d
000002f0: e7c8 a03d 7bc9 dcbd 8b21 c1bd 559b ddbd
00000300: f0a4 2b3d 2525 b73d 9a6f b0bd 43b7 52bd
00000310: 18d1 103d c995 94bd c14a c13d 82fa d33c
00000320: beb7 fdbc 743e eb3b 3fd6 0d3d 9cfa 20bd
00000330: da53 b0bd f693 3f3a 7af2 033b 54df 113b
00000340: 0422 85bc 8014 923d b464 febc 3cff 30bc
00000350: 5d0e 3b3d 623e 8fbd 927a f33c 8178 c9bc
00000360: 0d4b 5a3d 13e6 76bd ed27 863b d9f2 313c
00000370: 8417 b7bd 6777 a5bd 7c88 2e3d f276 04bd
00000380: 1925 873d fcca e0bd b8f8 60bd d66d bbbd
00000390: 27ce 353d 6f09 53bb 94c1 a9bc 3469 97bc
000003a0: 45de b1bd 6414 013d 8ccb 353b bc09 9dbd
000003b0: 8041 2b3d f076 12bb 5414 dcbd 93d1 743d
000003c0: 7270 733d ca75 abbc bc1c 9dbd d229 813b
000003d0: 0fcd a83d c173 ce3d dcf8 a9bd a28b 4abd
000003e0: 82ae b03d 3437 5a3d 842a 893d 0b0a 6cbd
000003f0: 604e c43d db4c bcbd 6253 b4bb ff72 763b
-0.0393857 0.008460996 -0.049337957 0.04800483 -0.08922049 0.085255764 -0.078108676 -0.08670999
-0.069776766 0.05473982 -0.037113313 0.047725864 -0.087138616 -0.060922667 -0.03673757 -0.019449806
-0.08373126 0.07217873 -0.020265115 0.041812655 0.08822023 0.032824848 0.042658817 0.11640604
-0.043578096 0.03938366 -0.047786195 0.08722345 0.09689512 -0.09018309 0.1107557 0.07028709
0.06268083 0.05703021 0.10039099 -0.010205027 -0.08588292 -0.02397489 -0.06684016 0.022383926
-0.0036253845 -0.04449512 0.0024579004 0.114400685 -0.003561268 0.011801009 -0.010317655 0.026406784
0.10998608 0.080690965 0.051145963 0.034420285 0.03376776 0.047245327 -0.006258165 -0.09736644
-0.06222996 0.10201071 0.014606481 -0.0827511 0.024094338 0.09672873 -0.10208549 -0.06626385
-0.038231846 0.010507323 -0.019785246 -0.006083034 -0.10310123 0.056740664 0.101366855 0.070793204
-0.06952062 -0.08289934 0.052670456 0.008973677 0.051798772 -0.10339082 -0.0020539265 0.08236042
0.055080164 0.0035716714 0.02059689 -0.011409237 -0.061154485 -0.04179503 -0.06761028 0.09320524
0.061462063 0.037818808 -0.08446196 0.085971564 0.03572761 0.07860721 -0.04197073 0.024867663
0.11076789 0.07647147 0.08924219 -0.021844544 0.08607504 -0.08443354 0.013088046 -0.05976608
-0.024480946 -0.026144734 0.01032282 0.10170793 0.05685991 0.0017686203 0.0829259 -0.051812265
0.06107877 -0.008967425 -0.017581884 0.014704098 -0.084371924 0.014169374 0.03906127 0.09872473
-0.029485093 0.043911662 0.11239853 -0.04608799 0.10715623 -0.054330707 0.049361646 0.04378173
0.032785375 0.09111358 -0.04194197 0.030620065 0.0023855723 -0.082136706 -0.026347676 -0.07515309
0.047383428 0.008785028 0.01077903 -0.033429883 0.00059075654 -0.033821974 0.032123554 0.107241035
0.0148088485 -0.05240773 -0.071209095 0.0057508904 -0.08469673 -0.085327 -0.0732046 -0.039104436
0.0061941314 0.075714156 0.041230284 0.083188996 -0.07121798 0.008195178 -0.099689946 0.06357665
0.022507362 0.106312566 -0.0790191 0.08910254 0.0937969 0.08983298 0.015836662 0.10102997
0.074196674 0.082887225 -0.00725079 -0.08526564 -0.0014066385 0.020802725 -0.07568876 -0.06373769
-0.10652788 -0.038966578 0.09677807 0.018971767 -0.006792999 0.0044351257 0.069277965 -0.09812091
-0.08573356 -0.03694703 -0.063946694 0.05729964 0.07850819 -0.10780617 -0.09430226 -0.10820643
0.041905344 0.08942632 -0.08615036 -0.051444303 0.035355657 -0.07255132 0.09438086 0.025876287
-0.030971404 0.007179076 0.03462815 -0.0393015 -0.086097434 0.00073081197 0.002013354 0.0022258358
-0.016251571 0.07132816 -0.031053878 -0.01080304 0.045667995 -0.069943205 0.029721532 -0.024593594
0.05329423 -0.06027801 0.004094115 0.010861122 -0.08940032 -0.08079415 0.04261063 -0.032339998
0.06598873 -0.10976216 -0.054924697 -0.09151809 0.044386055 -0.0032201668 -0.020722188 -0.018482782
-0.08684973 0.031513587 0.0027739732 -0.07667872 0.041810513 -0.0022348724 -0.10746065 0.059770178
0.059433408 -0.02093019 -0.07671496 0.003941753 0.08242237 0.10080672 -0.08299419 -0.04944957
0.08627035 0.053275302 0.06697562 -0.057626765 0.09585261 -0.091943465 -0.005503104 0.0037605164

conv1.bias f4 [64]
00000000: 99cf 80bc 3775 89bd 9379 9bbb c0cb 88bd
00000010: 4dc9 023d e145 d2bc f7a6 7e3d 2eaa 5f3d
00000020: e4d1 e03d b905 90bd ded6 b3bb 5d71 c5ba
00000030: 6e48 9cbd f898 c03d f32b 873d 0a0a 933d
00000040: f7bc 20bd 34e6 5dbd 8976 843d 556d 883c
00000050: be2d 623c bce3 aebc 4c2e cebd 6b88 803d
00000060: e366 52bd aa38 863d 7e6d dfbc bab6 50bc
00000070: ff33 eb3c 23ec fa3c 9988 f63d e067 27bd
00000080: 7781 1f3d 89fe 353d 6e89 51bc 52f7 c1bd
00000090: 3fa6 a9bc 73e2 9c3d d10e c1bd ffc5 593c
000000a0: a550 6dbd 2166 62bd e019 bc3d 67a1 943b
000000b0: f396 0c3d aa46 933c 0250 a2bd 1e7b e3bd
000000c0: c01f 8fbd cfcb 26bc a160 45bd 510d bcbc
000000d0: c43a 213d fb45 e5bb 4d73 033c 5ea0 5ebd
000000e0: 75d1 9a3d 3d4b 65bd d62b eebb 0f0e bc3d
000000f0: 782d d13d c3eb 71bd bfb0 cabd 37ec a3bd
-0.01572399 -0.0671181 -0.0047447174 -0.06679487 0.031930257 -0.025668086 0.06217095 0.054605655
0.109775335 -0.070323415 -0.0054882606 -0.0015063692 -0.07631002 0.094041765 0.066001795 0.07179649
-0.03924271 -0.054174617 0.06467921 0.016653696 0.013804851 -0.021348827 -0.10067424 0.0627602
-0.05136765 0.065537766 -0.02727389 -0.012738878 0.028711317 0.030630177 0.12037773 -0.040870547
0.038941827 0.044432197 -0.012789113 -0.09471001 -0.020709155 0.07660379 -0.09426654 0.013291835
-0.057938237 -0.05527318 0.09184623 0.004535842 0.034323644 0.017978031 -0.079254165 -0.11107467
-0.06988478 -0.010180428 -0.048187856 -0.022955569 0.039362684 -0.0069968677 0.008023095 -0.054352157
0.07559482 -0.055979956 -0.0072684092 0.09182369 0.102137506 -0.05906273 -0.09896993 -0.08004039

conv2.weight f4 [32, 64, 5, 5]
00000000: 372e a13b 9590 283c d8c7 3cbc b542 a3bc
00000010: 38b8 a1bb 4316 d0bb c982 82bc b54d c3bc
00000020: 4a90 8ebc 8a75 87ba 106d 593c 8a7c 9cbc
00000030: 632b 1ebc 45a5 9fbc fdf2 3c3c 39f8 08bb
00000040: d067 7f3c 4e1e 303b b396 abbb 742d af3c
00000050: f538 833c a2e7 bd3c d2f2 90bc 152b 393c
00000060: ab43 84bc f81c 80bc 7727 973c f3ed 343c
00000070: 7767 6ebc 4cd2 88bc 18bb 5bbc 560f 9b3c
00000080: 44a3 073c a16c 813a 728d 8dbc 1724 fc3b
00000090: 01af bcbb 5bac 6f3c 756d b83b 63a3 333c
000000a0: 3a94 0dbc 607a 20ba 7c9b 65bc b06d b03b
000000b0: 4866 18bb 97a3 b2bc 03a9 593c 9388 1c3c
000000c0: 05ae 683c a527 293c 129f 1e3b 1ba4 913c
000000d0: 6f92 b1bc 5f06 e23b c315 a33c 26f9 8abb
000000e0: 1c5f 9e3c 91dc 293c 5653 ad3c 52aa af3c
000000f0: ffcc 3a3c 0bfb 123b 02e6 adbc 9a87 15bc
00000100: 7727 b6bc 9f40 83bb ea97 783c 0bc9 5d3c
00000110: bac8 f23a baab c5bc 9040 5a3c f195 183c
00000120: 3c1d 50bc 2fe8 bbbc ed67 63bc 3c85 083c
00000130: 0479 5dbc 0912 8ebc 29fc a2bc 3dd7 74bc
00000140: 3b11 84bb 1566 963c 5d2f 7dbc b3a5 b5bc
00000150: a27d a73c 1dc1 5c3c 2e3d 003c 1bca 88bc
00000160: aa07 8f3c 573a 263c df82 663b 9773 963c
00000170: bf30 f03b f9eb 7d3c b944 f3bb c43d 7b3c
00000180: 9088 47bc 6203 c83b 5448 7fbc d1ae bcbc
00000190: 6619 acbc 2ef9 97bc 9c2c 5c3c c35e c53c
000001a0: cc0f 783c 85e5 62ba 5947 1aba 15ca 4a3b
000001b0: 128b c13c 6999 533c e63f 7dbc a3dc 69bc
000001c0: 9723 a33c e291 563c a83a cabc e9fb abbc
000001d0: a4ee 4d3c 615b 4abc 5435 973c 811a 823c
000001e0: 18c6 a3bc e211 b53b d958 94bb 08dc c8bc
000001f0: 8263 f23b 277a 363b 6029 983b 1b9e a5bc
00000200: a902 b5bb cd2a 96bb 37a8 b1bc 6b04 9f3c
00000210: cefd e1bb 0e3f 413c 3c57 dbbb f1cd 9fbc
00000220: b5b5 dabb bb07 9c3b 1941 a23c 762d 803b
00000230: afbf 8b3c ba4f 413c 8a66 8cbc a1c3 553a
00000240: 48d2 b53c d425 f7bb 605e 333c 4432 b43c
00000250: 903d b0ba ea70 13bc 837d 6ebc 5854 b0ba
00000260: 0263 85bc 964d cc3c c27e acbc 7ee1 ad3c
00000270: 97bc 823c 99e5 b6bc 3710 7fbc e95f b83c
00000280: f8f3 73bb d7ab 93bc 2b65 8539 a94f d9bb
00000290: c0c1 173b 1173 173c 1971 b1bc f5a9 5abc
000002a0: 3172 b6ba 1a1a b83c a89f a1bc c9e2 62bc
000002b0: b45c 5b3c 269f bb3c 7aed 083b aae0 dc39
000002c0: 236e 373c 2e81 a0bb 18fc 723c dc4a cb3c
000002d0: 357e 913c d2a8 cabc dc01 9d3c 3908 c03c
000002e0: 3efc 273c 76e3 09bc daba 67bb 65ef 88bc
000002f0: 1658 8cbb a661 813c ed77 e4bb be82 86bb
00000300: 16af 97bb e643 a8b9 8ee3 523b af59 7fbb
00000310: 60f9 cabc fff8 09bc 7c58 56bc 7ca4 18bc
00000320: ab24 4dbc f358 90bc 7fd2 a5bc ea44 12bc
00000330: 3024 6c3b c277 c93c 8552 123b a0b9 0c3b
00000340: e325 483c f4b3 b73b 5d3c a4bc 50db c7bc
00000350: be0e 7dbc 5d7e aabb 5efc 89bc 3980 983c
00000360: 675b 01bc ecfe 40bc 4c44 91bc 4cc5 33bc
00000370: e3d2 99bc 295b ab3c 4ab6 d93b b95d b0bc
00000380: 073f c83c 085c 9fbb d233 0a3c 94a9 7bbb
00000390: 4edb 93bb ccf8 633c a16a b13c c8a8 173c
000003a0: a334 c83c 745c c33c 1130 ceba 70c0 25bb
000003b0: 8d57 09bb f396 bebb eba8 19bc 970a aabc
000003c0: 4765 c5bc a830 24bc 90bc 1ebc ef11 c8bc
000003d0: 053b b6bb 38f0 843c a341 76bb eb3e 36bc
000003e0: 34f5 09ba 0d98 863c f0cb 37bc 85e7 28bc
000003f0: 0898 caba 2c3a 6aba 6892 bd3c 238c b3bc
0.0049188393 0.010288377 -0.011522256 -0.01992927 -0.0049352907 -0.00635031 -0.015931504 -0.023840765
-0.017402787 -0.0010334712 0.013270631 -0.019102354 -0.009653899 -0.019487986 0.011532542 -0.0020899905
0.015588716 0.0026873532 -0.0052364706 0.021383978 0.01601837 0.02318174 -0.01769391 0.011301775
-0.016145548 -0.015638813 0.018451435 0.01104306 -0.014551035 -0.01670184 -0.013411306 0.018928211
0.008278672 0.0009874293 -0.01727936 0.007694732 -0.005758167 0.014628495 0.0056282827 0.010964247
-0.008641297 -0.0006121751 -0.014014121 0.0053841695 -0.0023254324 -0.021806521 0.013284924 0.009554046
0.014201646 0.010324393 0.00242037 0.017778447 -0.02167627 0.006897732 0.019907838 -0.0042411266
0.019332461 0.010367529 0.021157902 0.02144352 0.011401414 0.0022427465 -0.02122784 -0.009126568
-0.022235615 -0.004005506 0.015172938 0.013536702 0.0018522956 -0.024129737 0.013321057 0.009313093
-0.0127022825 -0.022937862 -0.013879758 0.008332547 -0.013517622 -0.017342584 -0.01989563 -0.014943895
-0.0040303743 0.018359223 -0.015453187 -0.022173738 0.020445649 0.013473776 0.007827086 -0.016697934
0.01745971 0.010145745 0.003517322 0.018365664 0.0073300297 0.015498155 -0.007423964 0.01533455
-0.012178555 0.006103919 -0.015581209 -0.023032578 -0.021008205 -0.018551435 0.01343837 0.024093037
0.015140485 -0.0008655417 -0.00058852654 0.0030943204 0.023625884 0.012914994 -0.015457129 -0.014273795
0.019914431 0.013096305 -0.024686173 -0.020994144 0.012569103 -0.012350888 0.018458046 0.015881779
-0.01999192 0.0055258134 -0.004527193 -0.024518982 0.007397116 0.0027843805 0.004643604 -0.020216992
-0.0055239988 -0.004582739 -0.021686656 0.019411286 -0.006896711 0.011794819 -0.0066937488 -0.01950738
-0.006674493 0.0047616637 0.019806432 0.0039116694 0.017059175 0.011798793 -0.017138738 0.0008154456
0.022194996 -0.0075423513 0.010947794 0.021996625 -0.0013446081 -0.008999089 -0.0145562915 -0.0013452871
-0.016282562 0.02493934 -0.021056537 0.021225687 0.015959067 -0.022326278 -0.015567831 0.022506671
-0.0037224274 -0.018026276 0.00025443113 -0.0066318107 0.0023156255 0.009243743 -0.021660374 -0.013346185
-0.001391953 0.022473384 -0.01972945 -0.013848015 0.013388801 0.022903036 0.00208935 0.00042129058
0.011195692 -0.004898212 0.014830612 0.02481597 0.017760376 -0.024738703 0.019165926 0.02344142
0.01025301 -0.008416047 -0.0035359175 -0.016715715 -0.0042829616 0.015793633 -0.006972304 -0.004104941
-0.004629026 -0.00032094045 0.003217909 -0.0038963368 -0.024777114 -0.008421182 -0.01308262 -0.00931656
-0.012520949 -0.01762054 -0.020241974 -0.008927563 0.0036032312 0.024593238 0.0022327018 0.0021472946
0.012216064 0.005606169 -0.020048315 -0.024396569 -0.015445409 -0.005203052 -0.01684397 0.018615829
-0.007895327 -0.011779528 -0.017732762 -0.010972332 -0.018777316 0.020917492 0.006644045 -0.021529065
0.024444116 -0.004863266 0.0084352065 -0.0038400637 -0.004512227 0.013914298 0.02165729 0.009256549
0.024439162 0.023847796 -0.0015730878 -0.0025291704 -0.0020956725 -0.0058163344 -0.009378652 -0.020757003
-0.024096144 -0.010021366 -0.0096885115 -0.024422614 -0.005561235 0.016227826 -0.0037575744 -0.011123399
-0.00052626734 0.016429925 -0.011218056 -0.010309105 -0.0015456686 -0.000893506 0.023141101 -0.021917408

conv2.bias f4 [32]
00000000: 40c1 33bc 84a3 cabc bb53 51bb e737 7b3c
00000010: 6568 ce3c abbd a93c 3dbc 66bc b357 153d
00000020: af8a 363b a111 45bc a61a e2bb 8578 883b
00000030: 4e6e fc3c 87be d63c 0f69 a5bb 7600 1fbc
00000040: 7ff7 7ebc c891 93bc ecb5 cf3c 9f8e f83c
00000050: efd3 aa3a a0ea 54b8 1293 3abb 2994 e938
00000060: 9e79 4f3c c9b6 2dbc 8c33 7c3c 7114 ec3c
00000070: fcf7 543b 5038 88bc ed03 09bc 2be3 00bc
-0.010971367 -0.024736173 -0.0031940776 0.015333152 0.025196264 0.020720324 -0.014082965 0.03646059
0.0027853658 -0.012028129 -0.0069001494 0.0041647577 0.030814316 0.026213897 -0.0050479244 -0.0097047
-0.015561937 -0.01801385 0.025355302 0.030341445 0.0013033132 -5.076325e-05 -0.0028469008 0.00011137903
0.012663273 -0.010602661 0.015393149 0.028818341 0.0032496443 -0.016628414 -0.008362752 -0.007866661

conv3.weight f4 [1, 32, 5, 5]
00000000: 5cf2 9b3c 7c40 943c fc93 f9ba d591 c73c
00000010: e874 f73c 8cd8 efbc 4cdb c43a 6ef6 0abd
00000020: c60f 893b 0cac 273c d5e9 11bb 6569 e63c
00000030: 6ed4 4c3c ef00 f2bc bb60 40bb c964 7cbc
00000040: 6848 e7bc 0458 8139 fb15 01bd 9fcd c03c
00000050: 096c 953b cd80 513c 7288 a23c 70f3 e33c
00000060: 040e 8ebc 6af2 a73b 0d40 f4bc 0d60 263c
00000070: 92ab d93c a8dc b0bc 1ae8 c03c 3d9f 4abc
00000080: 7b1c 573c ec1c 6ebc 503e 023c 0c2a f3bc
00000090: 5a16 013d 8f44 68bb da39 103d 3e47 22bc
000000a0: bbcc 8d3c 4e5f 5ebc bea3 41bc 3c9e f9bb
000000b0: 4c39 993c 9c49 843c 2d92 c13c 5d6c 42bb
000000c0: 9085 bf3b d386 c33c c79d 63bc 567b 3fbc
000000d0: d700 dc3c ebbb f4bc 1dbf 8cbc 2e1a a1bc
000000e0: f202 f4bb b7be d4bc 082b 063c fcd4 cabc
000000f0: 5640 7fbc 5107 0dbd 2cd0 c13c ece6 b1bc
00000100: 083d 8dbb ac60 adbc ece5 a0bb f8cb dcbb
00000110: 622e 3dbc 6638 18ba ec3e 753c 49f6 ed3c
00000120: debf d63c 7b42 d7bc 028d 88bb 6f70 e1bc
00000130: 1954 953c 17f4 c83c 2c35 1e3c 6add 403c
00000140: 287a 0f3d 1317 72bb cf13 f8bc c894 88bc
00000150: 21c3 2cbc f202 883c 729f 343a 418b e33c
00000160: ad1a a13c 33f6 27bc a5a7 18bc 214a 44bc
00000170: 1eca 02bd 1d93 38bc 809c 86bc 4a92 e3bb
00000180: a35d 02bc c20f 5abc 3e50 85bc 663b bd3b
00000190: 6cd4 f13b 1505 353c aa3b 9d3c 58c5 4db9
000001a0: d51e b03b d622 b2bb 1b84 133d 41de c03b
000001b0: 0bce ed3c 1ac2 96bc f347 c5bc 5166 263c
000001c0: b485 c8bc dd6c d23c 3456 c33c 5e1a 043d
000001d0: db2c 183d 9056 913c 9523 913c 40a8 0dbb
000001e0: 3e4e 0e3d 00d7 9a3c e230 7abb afc5 f4bc
000001f0: d764 d93b 115f bd3b 485f e23c 2c6a b63c
00000200: c036 053d f7c0 a93b fb58 403c 3ca6 e6bc
00000210: 2ea0 a93b f62a 123c 9786 9fbc d451 8dbc
00000220: e503 803c 87fd 9cbc 0756 4dbc c2d3 d33c
00000230: 6fef dc3c f4a6 f4bc bfef 00bd ba73 b63c
00000240: 59d6 32bc a497 2e3b b544 c7bc 61c9 7abc
00000250: 47b1 dc3c 4c81 b8bc e77f 523c f2ef bc3a
00000260: 8dd0 323c db5a c93a f5f0 f6bb 10fa 4c3c
00000270: 51ca 1e3c 22ae 56bb 5806 c23c b0ae 003d
00000280: bd43 973c 19ae 22bc 7aae d1bc abdc c3bc
00000290: 93b8 8cbc cac0 3bbb 7418 943c 93c2 1c3c
000002a0: 0d22 013d e4fc 0abd 8a6e 9fbc dd37 053d
000002b0: 25da cebc b9c8 b83c 71f6 cc3a f577 ddba
000002c0: ade7 ea3c e2e3 1b3d a7b4 17bc eada ea3a
000002d0: d56b 0e3d f899 063d 43ce cf3c 88b3 81bc
000002e0: 3a8a a2bc 05ee 053d c5f6 f13c fb72 583c
000002f0: b41e 3a3d 6ea6 0b3d d395 b1bb fb9d 993c
00000300: 9d19 383d f33e d43c cd9a 55bc 263e 0cbd
00000310: 570e 283c 0837 a13c c867 05bd 81b6 e73b
00000320: 27c4 b2bc 9ecf 6b3c e39c 88bc f21d dabc
00000330: 88d4 0b3d fd27 ad3c 8f6b 66bc a4b5 cbbc
00000340: 0d62 c63c 61b0 b3bc f88d 2bbc f773 7dbc
00000350: eaf8 383c a517 f1ba 6be7 5a3c 2951 a2bc
00000360: c36f d73c 2c0a 9a3b e187 c5bc 3279 d2bc
00000370: cdc3 af3c 9932 77bc e8ee 2a3c b8f2 973a
00000380: 5db2 85bc 3c2c 1e3d d23c 3abc 1b2f 9f3c
00000390: 79cc e23c 616d 953c 8492 113d 27fc c8bc
000003a0: cecd e23b 22f4 5d3b 3263 ba3c b294 85bc
000003b0: aab9 c6bc d3ab d8bc 2e92 d83c 4878 603c
000003c0: f5a8 14bd 320f 00bc 7db3 fbbc 4c43 f0bc
000003d0: ee46 c33c 46ad 8ebc 0464 993c b85d 0c3d
000003e0: 4db6 033c 4c15 a53c 022b fcbc a3ac 74bc
000003f0: ab12 ebba 7ebb fb3b d524 6c3c 3a82 9d3c
0.019036464 0.018097155 -0.0019041295 0.02436153 0.030207112 -0.029278062 0.0015018969 -0.03392642
0.0041827885 0.01023389 -0.002226462 0.028126428 0.012501819 -0.02954146 -0.002935453 -0.015404888
-0.028232768 0.00024670374 -0.031515103 0.023535548 0.004559998 0.012787056 0.019840453 0.027826041
-0.017340668 0.0051253336 -0.029815698 0.010154736 0.026571069 -0.021589592 0.023548175 -0.012367067
0.013129349 -0.014533263 0.007949427 -0.029683135 0.031515457 -0.0035441255 0.03521142 -0.009904681
0.017309537 -0.013572527 -0.011818824 -0.00761774 0.01870408 0.016148381 0.023629272 -0.002966664
0.0058447793 0.023868 -0.0138925975 -0.01168712 0.02685587 -0.029874763 -0.017180974 -0.019665804
-0.00744664 -0.025969846 0.00818897 -0.024759762 -0.015579304 -0.034430806 0.023658834 -0.021716557
-0.004310254 -0.02116426 -0.0049102213 -0.006738182 -0.011546703 -0.0005806744 0.014968615 0.029048102
0.026214536 -0.026276818 -0.0041672 -0.027519433 0.018228577 0.024530454 0.009656232 0.011771539
0.035028607 -0.0036940023 -0.030282883 -0.016672507 -0.010544569 0.016602967 0.0006890214 0.027776362
0.01966604 -0.01025157 -0.009317313 -0.011980564 -0.031931035 -0.011265543 -0.016432047 -0.0069449292
-0.007956895 -0.013309421 -0.016273614 0.005774903 0.007380059 0.011048575 0.01919349 -0.0001962384
0.005374769 -0.0054362817 0.036014657 0.0058858697 0.029028913 -0.018403102 -0.02408216 0.01015623
-0.024477817 0.025686676 0.023844816 0.03225171 0.037152153 0.017741472 0.017717162 -0.0021615177
0.034742586 0.018901348 -0.003817611 -0.02987942 0.0066343355 0.005779155 0.027633324 0.022267424
0.032522917 0.005180474 0.011739965 -0.028155439 0.0051765656 0.0089213755 -0.019473357 -0.017250933
0.015626857 -0.01916386 -0.012532718 0.02585781 0.02696964 -0.029864766 -0.03147864 0.02227198
-0.010915362 0.0026640678 -0.024324754 -0.015306802 0.026940001 -0.022522591 0.012847877 0.0014414771
0.01091398 0.001536216 -0.0075360485 0.012510791 0.009691791 -0.00327576 0.023684666 0.031416595
0.018464917 -0.009929203 -0.025595892 -0.023908934 -0.017177856 -0.0028648847 0.018078066 0.0095678745
0.031526614 -0.03393258 -0.019461889 0.03252398 -0.025250504 0.02255665 0.001563741 -0.0016896712
0.028674925 0.038059123 -0.0092593795 0.0017918025 0.034770805 0.03286168 0.025366908 -0.015832677
-0.019841302 0.032697696 0.029536614 0.013211007 0.045439437 0.034094267 -0.0054194718 0.018752089
0.0449463 0.025908923 -0.013037396 -0.034238957 0.010257325 0.019679561 -0.032569677 0.0070713167
-0.021822048 0.0143927615 -0.016676372 -0.026625607 0.034138232 0.021137232 -0.01406373 -0.024866886
0.024216676 -0.02193469 -0.01047086 -0.015469543 0.0112898145 -0.0018393887 0.013360838 -0.01981409
0.02629841 0.0047009196 -0.024112644 -0.025692556 0.02145567 -0.015087747 0.010432936 0.0011592722
-0.016320402 0.038616404 -0.01136704 0.019431641 0.02768539 0.018240632 0.03554012 -0.024534298
0.0069215065 0.0033867438 0.022752378 -0.016306255 -0.024258453 -0.02644912 0.026436891 0.013700552
-0.036293942 -0.007816123 -0.030725235 -0.029328965 0.023837533 -0.017416608 0.018724449 0.034269065
0.008039069 0.020151757 -0.030782226 -0.014933738 -0.0017934641 0.007682263 0.014413078 0.019227136
