outputs/x3/epoch_18.pth (torch, 231327 bytes, 5 tensors)

conv1.weight f4 [64, 1, 9, 9]
-0.042686075 0.005603937 -0.052027013 0.045920514 -0.0903372 0.08471377 -0.07846369 -0.08699172
-0.07030752 0.052501407 -0.03928082 0.045082763 -0.08955235 -0.062246896 -0.036959626 -0.01919201
-0.083312646 0.07241633 -0.021863332 0.039919794 0.08509815 0.029101318 0.03960814 0.11491573
-0.043976802 0.03965505 -0.0472792 0.086106904 0.095456704 -0.093177244 0.10645339 0.06598145
0.05990663 0.05558955 0.10023814 -0.0095789805 -0.08701662 -0.025092678 -0.06911241 0.018824078
-0.007658569 -0.047618426 0.00040473562 0.11377306 -0.0031018835 0.009894779 -0.011584644 0.024972495
0.10820405 0.078601815 0.049236763 0.032875612 0.033229575 0.047481123 -0.009283555 -0.09930921
-0.063632466 0.10099877 0.013766318 -0.08365113 0.023117691 0.09620771 -0.10244348 -0.07001103
-0.04082285 0.008656498 -0.021000532 -0.0067422655 -0.10368001 0.056061953 0.10079063 0.06988143
-0.07340421 -0.08571689 0.050592702 0.0075122532 0.050961506 -0.10401742 -0.0026131077 0.08182444
0.054040086 0.003352826 0.020699326 -0.010877687 -0.060649686 -0.041513387 -0.06759774 0.09279393
0.061204415 0.038016338 -0.08476195 0.085900344 0.036011327 0.07893364 -0.04169976 0.024973635
0.110278904 0.076018415 0.08934306 -0.02207369 0.085828245 -0.08460473 0.012969399 -0.059511565
-0.023868302 -0.026145823 0.010123027 0.10189136 0.05666996 0.0012374698 0.08204896 -0.052750785
0.06092332 -0.008049945 -0.016990205 0.014908351 -0.08412695 0.014028757 0.03849748 0.09762363
-0.030856838 0.043278378 0.11297991 -0.045632157 0.107273415 -0.054294422 0.04920653 0.04344119
0.032169066 0.090130664 -0.04273337 0.03048681 0.0021505507 -0.08243558 -0.026590267 -0.075504005
0.047186233 0.008827084 0.0106699355 -0.033763368 0.0001546834 -0.034509636 0.031585164 0.10688326
0.014282725 -0.052592978 -0.07080044 0.0062837834 -0.08442446 -0.08552467 -0.07376587 -0.03948942
0.0059351167 0.07499857 0.040750477 0.08323773 -0.07102454 0.008244554 -0.09996014 0.06306501
0.022209773 0.10605667 -0.07902258 0.08910036 0.09379635 0.08983169 0.015840502 0.101026446
0.074194245 0.08288473 -0.0072438135 -0.0852674 -0.0014009057 0.0208149 -0.07568877 -0.0637392
-0.10653005 -0.03896562 0.09677578 0.018976377 -0.006795322 0.004442969 0.06927834 -0.09812079
-0.0857338 -0.036948506 -0.06394876 0.05729666 0.07850388 -0.10780611 -0.09430208 -0.1082061
0.0419075 0.08942646 -0.086150385 -0.051446453 0.03535038 -0.072555915 0.09438153 0.025885833
-0.030956201 0.007195544 0.034631237 -0.039298926 -0.086097054 0.00073358737 0.0020116915 0.0022271476
-0.016239867 0.07133084 -0.031034954 -0.01078214 0.04567281 -0.069941804 0.02972952 -0.024588786
0.053294502 -0.0602774 0.004096935 0.010863475 -0.0894003 -0.08079415 0.04261109 -0.032340344
0.06598844 -0.10976216 -0.054924715 -0.09151809 0.04438616 -0.0032199298 -0.020722847 -0.018483594
-0.08684974 0.031513125 0.0027727403 -0.07667872 0.041810438 -0.002232342 -0.10746065 0.059770063
0.059433263 -0.020931385 -0.076715015 0.0032839787 0.08220381 0.10071304 -0.08334682 -0.049969636
0.085740246 0.052553747 0.065978155 -0.058656305 0.09529227 -0.092119806 -0.0054305242 0.0037863492
00000000: 98d7 2ebd 3ba1 b73b 471a 55bd 2617 3c3d
00000010: b602 b9bd 6a7e ad3d 92b1 a0bd b728 b2bd
00000020: 64fd 8fbd b70b 573d ede4 20bd b4a8 383d
00000030: 3967 b7bd 9af6 7ebd fa62 17bd 9038 9dbc
00000040: d29f aabd 034f 943d bb1a b3bc f082 233d
00000050: f047 ae3d e365 ee3c 253c 223d f058 eb3d
00000060: 0521 34bd 556d 223d d6a7 41bd d158 b03d
00000070: ce7e c33d b6d3 bebd 3c04 da3d 4821 873d
00000080: a860 753d deb1 633d a749 cd3d 28f1 1cbc
00000090: c535 b2bd 298f cdbc cf8a 8dbd f434 9a3c
000000a0: bcf4 fabb 8a0b 43bd b232 d439 da01 e93d
000000b0: f848 4bbb b61d 223c 85cd 3dbc 1e93 cc3c
000000c0: 169a dd3d fdf9 a03d 7dac 493d 94a8 063d
000000d0: bc1b 083d 917b 423d 0d1a 18bc a162 cbbd
000000e0: bd51 82bd 71d8 ce3d 1f8c 613c 4951 abbd
000000f0: 5061 bd3c 8c08 c53d e3cd d1bd f161 8fbd
00000100: dc35 27bd fcd3 0d3c 4f09 acbc 39ee dcbb
00000110: 2f56 d4bd 38a1 653d 516b ce3d ff1d 8f3d
00000120: f254 96bd 568c afbd 4b3a 4f3d 5929 f63b
00000130: 03bd 503d 1607 d5bd ac40 2bbb 9293 a73d
00000140: 2359 5d3d 16bb 5b3b a291 a93c 5338 32bc
00000150: ce6b 78bd f109 2abd af70 8abd be0a be3d
00000160: 7bb1 7a3d 05b7 1b3d ac97 adbd 85ec af3d
00000170: 9d80 133d f6a7 a13d 5ecd 2abd 8295 cc3c
00000180: e8d9 e13d 8baf 9b3d 7ff9 b63d e2d3 b4bc
00000190: b8c6 af3d 3f45 adbd 9a7d 543c 66c2 73bd
000001a0: 7587 c3bc c42f d6bc 0ddb 253c 6bac d03d
000001b0: c31e 683d 9932 a23a 4909 a83d 3511 58bd
000001c0: bb8a 793d ebe3 03bc 0b2f 8bbc 2842 743c
000001d0: c04a acbd dfd8 653c 89af 1d3d e6ee c73d
000001e0: 7bc7 fcbc ab44 313d 0362 e73d c9e8 3abd
000001f0: 2ab2 db3d d463 5ebd c98c 493d 64ef 313d
00000200: b6c3 033d 6d96 b83d 3009 2fbd 79bf f93c
00000210: 41f0 0c3b fcd3 a8bd d5d3 d9bc d8a1 9abd
00000220: 5a46 413d 799f 103c f4d0 2e3c 754b 0abd
00000230: 8232 2239 fa59 0dbd 725f 013d 9ce5 da3d
00000240: 1702 6a3c bc6b 57bd d2ff 90bd 32e8 cd3b
00000250: bbe6 acbd 8f27 afbd 8f12 97bd a8bf 21bd
00000260: 5e7b c23b da98 993d f9e9 263d 8b78 aa3d
00000270: 5075 91bd 2a14 073c e7b7 ccbd 3a28 813d
00000280: 45f1 b53c 3d34 d93d 97d6 a1bd 407a b63d
00000290: 4d18 c03d adf9 b73d f1c3 813c f4e6 ce3d
000002a0: 27f3 973d 78bf a93d 835d edbb ada0 aebd
000002b0: 989e b7ba 0284 aa3c b702 9bbd b389 82bd
000002c0: 6d2c dabd 6a9a 1fbd 6132 c63d 5974 9b3c
000002d0: 4bab debb 5396 913b cde1 8d3d 8ef3 c8bd
000002e0: 3495 afbd 5157 17bd 91f7 82bd e7af 6a3d
000002f0: a4c6 a03d 73c9 dcbd 7321 c1bd 299b ddbd
00000300: 33a7 2b3d 3825 b73d 9d6f b0bd 84b9 52bd
00000310: 8fcb 103d 3298 94bd 1b4b c13d 870e d43c
00000320: dc97 fdbc 99c8 eb3b 7cd9 0d3d e9f7 20bd
00000330: a753 b0bd 374e 403a 95d6 033b 56f5 113b
00000340: 7809 85bc e715 923d 043d febc 93a7 30bc
00000350: 6a13 3b3d a63d 8fbd 538b f33c 6c6e c9bc
00000360: 564b 5a3d 6fe5 76bd 953f 863b b7fc 313c
00000370: 8117 b7bd 6777 a5bd f788 2e3d 4f77 04bd
00000380: f224 873d fcca e0bd bdf8 60bd d66d bbbd
00000390: 43ce 353d 7505 53bb f6c2 a9bc e86a 97bc
000003a0: 47de b1bd e813 013d ddb6 353b bc09 9dbd
000003b0: 6c41 2b3d 7c4c 12bb 5414 dcbd 74d1 743d
000003c0: 4b70 733d 4c78 abbc c31c 9dbd 0538 573b
000003d0: 795a a83d a342 ce3d bdb1 aabd f6ac 4cbd
000003e0: 9598 af3d 9942 573d 8e1f 873d 9841 70bd
000003f0: 9828 c33d 4fa9 bcbd 8af2 b1bb 6624 783b

conv1.bias f4 [64]
-0.022006495 -0.06806239 -0.0047322195 -0.07134387 0.028443802 -0.026046176 0.06055923 0.050559342
0.10992071 -0.06580865 -0.00648872 -0.004149838 -0.08098481 0.0909741 0.06742665 0.07396317
-0.041581172 -0.056066923 0.061796617 0.017224036 0.010964342 -0.02166763 -0.099463664 0.058313556
-0.059507895 0.069700815 -0.026483018 -0.017965173 0.026432123 0.029108066 0.11698423 -0.0404947
0.036736574 0.04680123 -0.007785094 -0.099873185 -0.027282998 0.07568329 -0.09422205 0.013477026
-0.059172966 -0.055273477 0.09045648 0.005162132 0.03210191 0.019487938 -0.07912814 -0.111074686
-0.06982849 -0.01259858 -0.048506066 -0.023536295 0.042122133 -0.006497511 0.0073118242 -0.054208793
0.07527317 -0.05753791 -0.008574811 0.08587024 0.10174557 -0.058906853 -0.09822665 -0.082885705
00000000: f746 b4bc 4b64 8bbd bc10 9bbb bc1c 92bd
00000010: fa02 e93c ca5e d5bc f50c 783d 5017 4f3d
00000020: 1c1e e13d afc6 86bd 549f d4bb 5dfb 87bb
00000030: 5ddb a5bd a150 ba3d fc16 8a3d 017a 973d
00000040: 0551 2abd 6ea6 65bd 731e 7d3d 6c19 8d3c
00000050: c9a3 333c 5080 b1bc 9bb3 cbbd 32da 6e3d
00000060: 8dbe 73bd 4dbf 8e3d eaf2 d8bc b32b 93bc
00000070: 2e88 d83c 0a74 ee3c 6e95 ef3d c5dd 25bd
00000080: 1779 163d a6b2 3f3d 1a1a ffbb 508a ccbd
00000090: 9880 dfbc d7ff 9a3d 7df7 c0bd bece 5c3c
000000a0: 5a5f 72bd 7166 62bd 3f41 b93d 1a27 a93b
000000b0: 4b7d 033d 2ba5 9f3c ef0d a2bd 207b e3bd
000000c0: 3d02 8fbd 466a 4ebc 4cae 46bd 30cf c0bc
000000d0: 4288 2c3d 13e9 d4bb 0798 ef3b 0a0a 5ebd
000000e0: d228 9a3d dfac 6bbd 5d7d 0cbc bddc af3d
000000f0: fb5f d03d 5048 71bd 0e2b c9bd fbbf a9bd

conv2.weight f4 [32, 64, 5, 5]
0.004913739 0.010291781 -0.011508967 -0.019905653 -0.0049099512 -0.0063625393 -0.015932066 -0.023831218
-0.017381605 -0.0010093917 0.013233377 -0.01912355 -0.009663068 -0.019484816 0.011541076 -0.0021411965
0.015556398 0.002675154 -0.0052345633 0.021394273 0.015958365 0.023131253 -0.017724808 0.011285635
-0.01615079 -0.015619473 0.018463574 0.011046415 -0.014554667 -0.016708594 -0.01341016 0.018927926
0.008272683 0.0009779531 -0.017288873 0.007686552 -0.0057642884 0.014620262 0.005618377 0.010956325
-0.008648576 -0.00062094146 -0.014029084 0.0053639035 -0.0023445806 -0.021791318 0.013299003 0.009561623
0.014200668 0.010319661 0.0024203814 0.017778447 -0.02167627 0.006897767 0.019907838 -0.0042419704
0.019332437 0.010366886 0.021157881 0.021443518 0.011400573 0.0022413793 -0.021228142 -0.00912746
-0.022235882 -0.004006344 0.015172247 0.013535572 0.0018497914 -0.024130745 0.01332108 0.009313576
-0.0127009265 -0.022937216 -0.013879577 0.008315312 -0.013519208 -0.017327394 -0.019872248 -0.014925004
-0.0040643318 0.018344235 -0.015450496 -0.022156168 0.020461962 0.013439934 0.007806115 -0.01670009
0.01747507 0.010168177 0.0034733408 0.018332817 0.007311012 0.015500233 -0.0074103107 0.015309508
-0.012207069 0.006084332 -0.015584208 -0.023021623 -0.021036852 -0.018573139 0.013424919 0.024092162
0.015145743 -0.00089498784 -0.00061509013 0.0030766132 0.023626262 0.012924819 -0.015487723 -0.014309015
0.0198819 0.013075948 -0.024694024 -0.02101478 0.012539869 -0.012386869 0.018421276 0.015847337
-0.01999706 0.005518523 -0.0045369635 -0.024532106 0.007383312 0.0027837725 0.004646034 -0.020212473
-0.005527543 -0.004587613 -0.021692637 0.0194046 -0.0069093453 0.011775124 -0.006719638 -0.019510016
-0.0066765198 0.0047584106 0.019804217 0.0039047569 0.01705785 0.011796604 -0.017141245 0.0008099222
0.022194369 -0.007542297 0.01094892 0.022000134 -0.0013370295 -0.008982755 -0.014553054 -0.0013491107
-0.016293373 0.024923094 -0.021068508 0.02120635 0.015935495 -0.022359248 -0.01560564 0.022473227
-0.0037319514 -0.018031761 0.00023967904 -0.0066561513 0.0022863422 0.009232985 -0.021654984 -0.013338797
-0.0013928984 0.022457704 -0.019749764 -0.01384967 0.013401611 0.022918597 0.0020943515 0.00041570156
0.01119805 -0.004896824 0.014836883 0.024824968 0.017737335 -0.0247454 0.019163586 0.023443773
0.010257053 -0.008472933 -0.0035658064 -0.016724598 -0.0042852657 0.015800478 -0.007047784 -0.0041599656
-0.004654646 -0.00033429492 0.003214978 -0.0039436095 -0.024823723 -0.008451465 -0.0130981095 -0.009322855
-0.012525422 -0.017627737 -0.020244867 -0.008928109 0.003602462 0.024594987 0.0022235038 0.002141636
0.012214645 0.005605507 -0.02004007 -0.024402512 -0.015453861 -0.0052077505 -0.016844468 0.0186324
-0.007896487 -0.011787841 -0.01773484 -0.010971724 -0.018755762 0.020932352 0.0066462588 -0.021530371
0.024443869 -0.0048761955 0.008431414 -0.003840386 -0.0045121456 0.013914477 0.021638207 0.009240708
0.024432972 0.023845544 -0.001578838 -0.0025529214 -0.0021185693 -0.005830547 -0.009386027 -0.020756835
-0.02410454 -0.010040709 -0.009701266 -0.02442552 -0.0055661877 0.016236335 -0.003767151 -0.011132914
-0.00053333514 0.01642874 -0.011218084 -0.01030913 -0.0015454417 -0.0008931991 0.023141101 -0.021910701
00000000: 6e03 a13b dc9e 283c 1b90 3cbc 2e11 a3bc
00000010: a8e3 a0bb d97c d0bb f783 82bc b039 c3bc
00000020: de63 8ebc 914d 84ba ced0 583c fea8 9cbc
00000030: d851 1ebc 9f9e 9fbc c816 3d3c 5153 0cbb
00000040: 43e0 7e3c a351 2f3b b386 abbb 0b43 af3c
00000050: 1ebb 823c c17d bd3c 9e33 91bc 62e7 383c
00000060: a94e 84bc d1e8 7fbc ec40 973c 06fc 343c
00000070: b376 6ebc 76e0 88bc 4ab6 5bbc bd0e 9b3c
00000080: 268a 073c a92e 803a 65a1 8dbc 79df fb3b
00000090: 5be2 bcbb d389 6f3c 5d1a b83b 2882 333c
000000a0: c2b2 0dbc adc6 22ba 3eda 65bc afc3 af3b
000000b0: 89a7 19bb b583 b2bc 10e4 593c 5ba8 1c3c
000000c0: eba9 683c cc13 293c 439f 1e3b 1ba4 913c
000000d0: 6f92 b1bc aa06 e23b c315 a33c 3a00 8bbb
000000e0: 0f5f 9e3c dfd9 293c 4b53 ad3c 51aa af3c
000000f0: 78c9 3a3c 1be4 123b a4e6 adbc 588b 15bc
00000100: 0628 b6bc a647 83bb 0495 783c 4ec4 5d3c
00000110: b374 f23a d7ad c5bc a940 5a3c f897 183c
00000120: 8c17 50bc d4e6 bbbc 2a67 63bc f23c 083c
00000130: ab7f 5dbc 2ef2 8dbc 20cb a2bc 0188 74bc
00000140: 162e 85bb a646 963c 1424 7dbc da80 b5bc
00000150: d89f a73c 2b33 5c3c 70ca ff3b a1ce 88bc
00000160: e127 8f3c 6d98 263c fda0 633b b42e 963c
00000170: 3791 ef3b b0f4 7d3c 31d2 f2bb bbd4 7a3c
00000180: 2900 48bc 135f c73b e854 7fbc d897 bcbc
00000190: 7a55 acbc b226 98bc 31f4 5b3c ed5c c53c
000001a0: da25 783c 9e9d 6aba 003e 21ba 01a1 493b
000001b0: dd8b c13c 9fc2 533c 38c0 7dbc 5c70 6abc
000001c0: 5edf a23c 803c 563c 1f4b cabc 3027 acbc
000001d0: 0674 4d3c 4bf2 4abc 37e8 963c 46d2 813c
000001e0: e0d0 a3bc bad4 b43b cfaa 94bb 8ef7 c8bc
000001f0: b6ef f13b f46f 363b c23d 983b a194 a5bc
00000200: 6420 b5bb b053 96bb c2b4 b1bc 65f6 9e3c
00000210: ca67 e2bb 73ec 403c 6930 dcbb 78d3 9fbc
00000220: b5c6 dabb 71ec 9b3b 743c a23c f3e6 7f3b
00000230: e7bc 8b3c 8b46 413c cc6b 8cbc f550 543a
00000240: f7d0 b53c 5f25 f7bb 1963 333c a039 b43c
00000250: 443f afba 682c 13bc ef6f 6ebc a5d4 b0ba
00000260: ae79 85bc 842b cc3c dd97 acbc f0b8 ad3c
00000270: 288b 823c be2a b7bc ccae 7fbc c619 b83c
00000280: c193 74bb 58b7 93bc 5a52 7b39 d81b dabb
00000290: 75d6 153b f245 173c cb65 b1bc f88a 5abc
000002a0: ea91 b6ba 38f9 b73c 42ca a1bc bae9 62bc
000002b0: 6e92 5b3c c8bf bb3c 6341 093b 85f2 d939
000002c0: 0778 373c 8975 a0bb 6616 733c bb5d cb3c
000002d0: e34d 913c ddb6 cabc f4fc 9c3c 280d c03c
000002e0: 330d 283c 0fd2 0abc 4eb0 69bb 0602 89bc
000002f0: 6a6b 8cbb 0170 813c 19f1 e6bb 5250 88bb
00000300: 0086 98bb 4e44 afb9 61b2 523b 6539 81bb
00000310: 1f5b cbbc 0378 0abc 7499 56bc e3be 18bc
00000320: 6d37 4dbc 0b68 90bc 90d8 a5bc 3447 12bc
00000330: 4817 6c3b 6d7b c93c 34b8 113b b15a 0c3b
00000340: ef1f 483c 67ae b73b 132b a4bc c7e7 c7bc
00000350: 3132 7dbc c7a5 aabb 69fd 89bc faa2 983c
00000360: 4460 01bc ca21 41bc a848 91bc bfc2 33bc
00000370: afa5 99bc 537a ab3c dcc8 d93b 7660 b0bc
00000380: 823e c83c 7ec8 9fbb ea23 0a3c fcae 7bbb
00000390: 9fda 93bb 8cf9 633c 9c42 b13c 5766 173c
000003a0: a827 c83c bb57 c33c 03f1 ceba ea4e 27bb
000003b0: b2d7 0abb 2c0e bfbb dac7 19bc 3d0a aabc
000003c0: e276 c5bc c981 24bc 0ff2 1ebc 0718 c8bc
000003d0: 9164 b6bb 1002 853c 4ee2 76bb d366 36bc
000003e0: 84cf 0bba 9195 863c 0ecc 37bc a0e7 28bc
000003f0: 6b90 caba 9425 6aba 6892 bd3c 127e b3bc

conv2.bias f4 [32]
-0.011060927 -0.024965385 -0.0023835066 0.015250264 0.02289666 0.020073462 -0.013015812 0.036003243
0.0025287 -0.014416346 -0.006532143 0.0045967395 0.029612955 0.02444023 -0.0047213114 -0.009766057
-0.016437052 -0.020334592 0.023644218 0.030364776 -0.00074218574 -0.0022367826 -0.0028089003 0.0005972083
0.013745675 -0.010583372 0.015271253 0.028088398 0.00062920916 -0.016403815 -0.011992405 -0.009469685
00000000: e438 35bc 3584 ccbc 9b34 1cbb 3edc 793c
00000010: c791 bb3c 1a71 a43c 4640 55bc 2378 133d
00000020: 8cb8 253b 8a32 6cbc 960b d6bb 3fa0 963b
00000030: de96 f23c e136 c83c 3bb5 9abb d001 20bc
00000040: ffa6 86bc bb94 a6bc 85b1 c13c 8dbf f83c
00000050: 3e8f 42ba fc96 12bb 8715 38bb f88d 1c3a
00000060: 8a35 613c e165 2dbc 4734 7a3c a419 e63c
00000070: 83f1 243a 4b61 86bc cb7b 44bc bd26 1bbc

conv3.weight f4 [1, 32, 5, 5]
0.019043602 0.018102616 -0.0018971857 0.024365121 0.030208629 -0.029267296 0.0015170072 -0.033922683
0.004190531 0.010237802 -0.0022130066 0.02813983 0.0125136925 -0.029535528 -0.0029268248 -0.01539907
-0.028219184 0.00026448138 -0.03151181 0.023541901 0.0045603164 0.012796422 0.019848524 0.027829653
-0.017336488 0.0050003873 -0.03003563 0.010231736 0.026979279 -0.021205993 0.02342671 -0.012885295
0.012700359 -0.014489962 0.008091571 -0.029842827 0.030778386 -0.0043721483 0.03485262 -0.010204198
0.01765639 -0.0137217045 -0.012085204 -0.0076473067 0.018535988 0.016542133 0.023702096 -0.0028847894
0.006013924 0.023813458 -0.013892596 -0.011687119 0.02685587 -0.029874763 -0.017180974 -0.019665813
-0.0074745514 -0.025997763 0.008188939 -0.024759762 -0.015602639 -0.034438003 0.023586271 -0.021716557
-0.0043102326 -0.021164268 -0.0049377014 -0.006781809 -0.011550017 -0.0005803662 0.014968395 0.029047996
0.02620119 -0.026277672 -0.004167185 -0.027480807 0.018194867 0.024424441 0.009575087 0.0116767995
0.03507639 -0.003730128 -0.030370219 -0.016735207 -0.0106446585 0.01661905 0.00065538875 0.027683176
0.019640544 -0.010308063 -0.0093200365 -0.012005283 -0.03198653 -0.011237005 -0.016397653 -0.00699108
-0.008002431 -0.013362841 -0.016230129 0.0058560846 0.007865546 0.010792538 0.018888323 -2.453522e-06
0.0055290586 -0.0051070037 0.035484176 0.005079589 0.028684927 -0.018611254 -0.024224155 0.0092790555
-0.025600413 0.025033101 0.023439521 0.031869795 0.036394373 0.017081665 0.017428352 -0.0024870196
0.03467251 0.018648248 -0.0037171973 -0.029538292 0.006616181 0.004937982 0.027545167 0.02195241
0.031982828 0.004555822 0.011066171 -0.027799435 0.00570815 0.009371297 -0.019236138 -0.017412445
0.016496824 -0.018110633 -0.011571217 0.02649252 0.027340269 -0.028662516 -0.030307155 0.023134967
-0.010484413 0.002798805 -0.023587905 -0.01483492 0.027066017 -0.022741828 0.01285449 0.0014505486
0.010920672 0.0015432906 -0.007529982 0.012541772 0.009731207 -0.0032283973 0.02377728 0.031478424
0.018494189 -0.009886 -0.025546646 -0.023828285 -0.017117035 -0.002829124 0.018122884 0.009621391
0.031589165 -0.033882823 -0.019462 0.03252685 -0.025239358 0.022578267 0.001580567 -0.0018233379
0.02836624 0.0367973 -0.008935702 0.0021710624 0.035042178 0.032670673 0.023841798 -0.0156963
-0.01947806 0.031837326 0.028050045 0.010169747 0.044298403 0.033455588 -0.005638936 0.018505828
0.0435425 0.02587723 -0.01293937 -0.033664573 0.011204263 0.019624889 -0.031920083 0.007348901
-0.021822048 0.01439221 -0.016699232 -0.026615422 0.0341392 0.021137232 -0.0140682245 -0.024912205
0.024219759 -0.021930408 -0.010470822 -0.015492037 0.011201453 -0.0018648815 0.013353347 -0.01981409
0.026298393 0.00465501 -0.024112783 -0.025691796 0.02145567 -0.015087913 0.010406067 0.0011681904
-0.016319545 0.037748456 -0.011325758 0.018368065 0.02682082 0.01767376 0.035428014 -0.023881748
0.006190287 0.0027370793 0.022256488 -0.015566788 -0.022836564 -0.026584942 0.026164176 0.013310048
-0.035007354 -0.00573623 -0.030067572 -0.02888372 0.024028856 -0.017377922 0.019665703 0.033987597
0.0077007827 0.01966143 -0.030782226 -0.014934154 -0.0017957819 0.0076821367 0.014413076 0.019227136
00000000: 5401 9c3c f04b 943c fdaa f8ba 5d99 c73c
00000010: 1678 f73c f8c1 efbc 51d6 c63a 83f2 0abd
00000020: b950 893b 74bc 273c 1708 11bb 8085 e63c
00000030: 3b06 4d3c 7ef4 f1bc f9cf 3fbb 624c 7cbc
00000040: eb2b e7bc 17aa 8a39 8712 01bd f2da c03c
00000050: b56e 953b 15a8 513c 5f99 a23c 03fb e33c
00000060: 4005 8ebc 4ada a33b 480d f6bc 03a3 273c
00000070: a603 dd3c 31b8 adbc 5fe9 bf3c d81c 53bc
00000080: 2b15 503c 4e67 6dbc 8292 043c f278 f4bc
00000090: f422 fc3c 3d44 8fbb 9fc1 0e3d 822f 27bc
000000a0: 22a4 903c 00d1 60bc 0501 46bc 4296 fabb
000000b0: c9d8 973c 5e83 873c e62a c23c bc0e 3dbb
000000c0: 7310 c53b 7114 c33c c59d 63bc 547b 3fbc
000000d0: d700 dc3c ebbb f4bc 1dbf 8cbc 331a a1bc
000000e0: 15ed f4bb 43f9 d4bc e62a 063c fcd4 cabc
000000f0: 36a2 7fbc dd0e 0dbd ff37 c13c ece6 b1bc
00000100: da3c 8dbb b060 adbc 71cc a1bb f039 debb
00000110: 483c 3dbc b723 18ba 003e 753c 10f6 ed3c
00000120: e1a3 d63c 4644 d7bc e28c 88bb 6e1f e1bc
00000130: 670d 953c c415 c83c d3e0 1c3c 0c50 3f3c
00000140: 43ac 0f3d 2a75 74bb f7ca f8bc 4618 89bc
00000150: ef66 2ebc ad24 883c 65ce 2b3a d4c7 e23c
00000160: 35e5 a03c 26e3 28bc 11b3 18bc ceb1 44bc
00000170: 4f04 03bd 6a1b 38bc 5f54 86bc 6e15 e5bb
00000180: a11c 03bc d1ef 5abc 0cf5 84bc 66e4 bf3b
00000190: 7ede 003c 2fd3 303c afbb 9a3c 30a7 24b6
000001a0: 1b2d b53b a758 a7bb db57 113d ae72 a63b
000001b0: a7fc ea3c a176 98bc bc71 c6bc 2e07 183c
000001c0: f5b7 d1bc 3812 cd3c 3d04 c03c e789 023d
000001d0: 4412 153d d9ee 8b3c e7c5 8e3c 44fd 22bb
000001e0: c304 0e3d 36c4 983c 399c 73bb 4afa f1bc
000001f0: 8dcc d83b ccce a13b 67a6 e13c 8ad5 b33c
00000200: 6d00 033d 0149 953b e34e 353c a4bb e3bc
00000210: 6f0b bb3b 128a 193c 1b95 9dbc 8ba4 8ebc
00000220: 5924 873c c05c 94bc 3495 3dbc d706 d93c
00000230: b3f8 df3c a7cd eabc b646 f8bc 8b85 bd3c
00000240: d1c6 2bbc 286c 373b 6c3b c1bc 2a0e 73bc
00000250: 8db9 dd3c 124d babc a49b 523c 5620 be3a
00000260: 9eec 323c 3d48 ca3a 11be f6bb 017c 4d3c
00000270: a46f 1f3c 8593 53bb 92c8 c23c 85ef 003d
00000280: 2081 973c e4f8 21bc 3347 d1bc 8933 c3bc
00000290: 0639 8cbc d368 39bb 7176 943c 0aa3 1d3c
000002a0: a463 013d b7c8 0abd c66e 9fbc e03a 053d
000002b0: c5c2 cebc 0ff6 b83c 072b cf3a 11fd eeba
000002c0: 5160 e83c c4b8 163d 0d67 12bc 6248 0e3b
000002d0: 6388 0f3d afd1 053d e04f c33c 8795 80bc
000002e0: 7490 9fbc db67 023d 35c9 e53c 039f 263c
000002f0: 3e72 353d ba08 093d d3c6 b8bb 8999 973c
00000300: 9f59 323d 7cfc d33c a7ff 53bc dde3 09bd
00000310: 1692 373c 60c4 a03c a2be 02bd 0dcf f03b
00000320: 27c4 b2bc 4ecd 6b3c d4cc 88bc 9608 dabc
00000330: 8cd5 0b3d fd27 ad3c 697e 66bc ae14 ccbc
00000340: 8468 c63c 66a7 b3bc d08d 2bbc 50d2 7dbc
00000350: 4d86 373c 0a6f f4ba ffc7 5a3c 2951 a2bc
00000360: ba6f d73c 0e89 983b 2c88 c5bc 9a77 d2bc
00000370: cdc3 af3c 4b33 77bc 357e 2a3c f71d 993a
00000380: 91b0 85bc 209e 1a3d ac8f 39bc a078 963c
00000390: 56b7 db3c 90c8 903c f71c 113d a8a3 c3bc
000003a0: e4d7 ca3b 9260 333b 3d53 b63c d70b 7fbc
000003b0: bf13 bbbc aac8 d9bc 4156 d63c 6312 5a3c
000003c0: df63 0fbd fcf6 bbbb 4550 f6bc 8d9d ecbc
000003d0: 2ad8 c43c 255c 8ebc f819 a13c 9436 0b3d
000003e0: d956 fc3b 0211 a13c 022b fcbc 62ae 74bc
000003f0: 7160 ebba 6fba fb3b d324 6c3c 3a82 9d3c
