outputs/x3/epoch_148.pth (torch, 231335 bytes, 5 tensors)

conv1.weight f4 [64, 1, 9, 9]
0	0xbd15a2e7	-0.03653231
1	0x3c333508	0.010937937
2	0xbd41bc0f	-0.047298487
3	0x3d476491	0.048679892
4	0xbdb8c13f	-0.09021234
5	0x3daca63e	0.08430146
6	0xbd9fb44e	-0.07798062
7	0xbdb02739	-0.08601231
8	0xbd8dc1db	-0.069217406
9	0x3d678226	0.056520604
10	0xbd121360	-0.03566301
11	0x3d4a302d	0.04936235
12	0xbdb12a5a	-0.08650656
13	0xbd7ed71e	-0.06221687
14	0xbd1eba1d	-0.03875171
15	0xbca702b6	-0.020387035
16	0xbdab0638	-0.083507955
17	0x3d94eac9	0.07271344
18	0xbc9fd410	-0.019510299
19	0x3d2eabeb	0.042644423
20	0x3db981d5	0.090579666
21	0x3d13548d	0.035969306
22	0x3d379280	0.044817448
23	0x3deee29e	0.116643175
24	0xbd330524	-0.043706074
25	0x3d226021	0.039642457
26	0xbd430eea	-0.047621645
27	0x3db1c615	0.08680359
28	0x3dc5ebf9	0.09664149
29	0xbdb446d7	-0.08802574
30	0x3dec833a	0.11548467
31	0x3d9a7889	0.075425215
32	0x3d85ca21	0.06532694
33	0x3d6ef946	0.058343194
34	0x3dcdea3f	0.100544445
35	0xbc362ed9	-0.011119568
36	0xbdb1bfa0	-0.08679128
37	0xbccd2e86	-0.025046598
38	0xbd87289e	-0.06599544
39	0x3cd37c2d	0.025816048
40	0x3a665d1d	0.00087876787
41	0xbd2a73e0	-0.041614413
42	0x3b8ba928	0.0042621084
43	0x3deaac07	0.11458593
44	0xbbab10a7	-0.005220491
45	0x3c4984a1	0.012299688
46	0xbc2d0a69	-0.010561564
47	0x3cd84956	0.026402157
48	0x3de1fac2	0.110341564
49	0x3da66e1d	0.08126471
50	0x3d52d791	0.05147511
51	0x3d10564b	0.035238545
52	0x3d0aab29	0.033854637
53	0x3d3cb861	0.046074275
54	0xbb97a50a	-0.0046278285
55	0xbdc5f72d	-0.09666286
56	0xbd7e99a7	-0.062158253
57	0x3dcf0416	0.10108201
58	0x3c516ced	0.012782318
59	0xbdacda60	-0.08440089
60	0x3cc2b288	0.023766771
61	0x3dc607e6	0.09669475
62	0xbdd16f21	-0.10226274
63	0xbd850459	-0.0649497
64	0xbd19687b	-0.037453156
65	0x3c320266	0.01086483
66	0xbca6b236	-0.02034865
67	0xbc02953f	-0.007970153
68	0xbdd75625	-0.10514478
69	0x3d644050	0.055725396
70	0x3dcecd51	0.10097755
71	0x3d914c4b	0.0709463
72	0xbd8d607e	-0.0690317
73	0xbda90711	-0.08253301
74	0x3d589ffd	0.05288695
75	0x3c0ffce9	0.008788326
76	0x3d4f95fb	0.050680142
77	0xbdd6c2b2	-0.10486354
78	0xbb566a81	-0.003271729
79	0x3da6a2cc	0.0813652
80	0x3d5f5b1b	0.054530244
81	0x3b99e8db	0.004696948
82	0x3caf2482	0.021379713
83	0xbc3a6d5d	-0.011378613
84	0xbd7ba6ac	-0.061438248
85	0xbd2b6ad7	-0.041849937
86	0xbd8923d9	-0.066962905
87	0x3dc1b616	0.09458558
88	0x3d802ab5	0.06258146
89	0x3d1ad4c4	0.037800565
90	0xbdab99ac	-0.0837892
91	0x3db04c55	0.08608309
92	0x3d0f9443	0.035053503
93	0x3d9ef503	0.07761576
94	0xbd2ef848	-0.04271725
95	0x3ccdbd52	0.025114689
96	0x3de69a9c	0.11259958
97	0x3da0832e	0.078375205
98	0x3db738fc	0.08946416
99	0xbcb3d908	-0.021954075
100	0x3daf252f	0.08552014
101	0xbdae50b2	-0.08511485
102	0x3c4c3d51	0.012465791
103	0xbd78b539	-0.060719702
104	0xbcd0da46	-0.025494706
105	0xbccf90c6	-0.025337588
106	0x3c42349c	0.011853363
107	0x3dd0de55	0.101986565
108	0x3d65d418	0.05611047
109	0x3a919258	0.0011106236
110	0x3daad61b	0.083416186
111	0xbd4ec54d	-0.05048113
112	0x3d7b6d57	0.06138357
113	0xbc3156ec	-0.010823946
114	0xbc98fc69	-0.018675046
115	0x3c7177f8	0.014738075
116	0xbdad041a	-0.08448048
117	0x3c598cac	0.013278168
118	0x3d1d89bb	0.038461428
119	0x3dccb3ff	0.09995269
120	0xbcda4112	-0.026642356
121	0x3d3c19aa	0.045922913
122	0x3de41cdb	0.11138316
123	0xbd424c5d	-0.047436107
124	0x3dda4f6b	0.10659679
125	0xbd5f7112	-0.05455119
126	0x3d4925be	0.04910826
127	0x3d310ff3	0.0432281
128	0x3d07a7d6	0.033119045
129	0x3dbe356d	0.09287534
130	0xbd2321ac	-0.039827034
131	0x3cfecec8	0.03110446
132	0x3b20108b	0.0024423923
133	0xbda7c792	-0.08192362
134	0xbcd4ea71	-0.025990697
135	0xbd97f497	-0.07419699
136	0x3d4257d0	0.047447026
137	0x3c068e0e	0.008212579
138	0x3c2ab669	0.0104194665
139	0xbd06bd09	-0.03289512
140	0x3ac47511	0.0014988502
141	0xbd05f1b0	-0.032701194
142	0x3d077dff	0.033079144
143	0x3ddd6bef	0.10811602
144	0x3c871875	0.016491154
145	0xbd53567c	-0.05159615
146	0xbd93132b	-0.071813904
147	0x3b8b0ee1	0.004243717
148	0xbdafa7f1	-0.08576954
149	0xbdae6b19	-0.08516521
150	0xbd941700	-0.072309494
151	0xbd1c9f1e	-0.038237683
152	0x3beb039f	0.0071720625
153	0x3d9e7382	0.07736875
154	0x3d2ea446	0.042637132
155	0x3dab463d	0.08363006
156	0xbd92dc65	-0.07170943
157	0x3bfaf3a0	0.007658437
158	0xbdcbc73e	-0.09950112
159	0x3d837163	0.06418111
160	0x3cbc57c7	0.022991074
161	0x3ddb2e72	0.10702218
162	0xbda1d28c	-0.07901487
163	0x3db67c15	0.089103855
164	0x3dc01719	0.093794055
165	0x3db7f902	0.08983041
166	0x3c81bfc0	0.015838504
167	0x3dceecfc	0.10103795
168	0x3d97f8d0	0.07420504
169	0x3da9c57a	0.08289619
170	0xbbed5680	-0.0072429776
171	0xbdae9de7	-0.08526211
172	0xbab9fd08	-0.0014189789
173	0x3caa2b60	0.020772636
174	0xbd9b03a2	-0.07569052
175	0xbd828843	-0.06373646
176	0xbdda28e2	-0.10652329
177	0xbd1f8e98	-0.038954347
178	0x3dc638e5	0.096788205
179	0x3c9b8b92	0.01898745
180	0xbbde1637	-0.0067775506
181	0x3b90d372	0.0044197375
182	0x3d8de125	0.069277085
183	0xbdc8f41e	-0.09812187
184	0xbdaf956a	-0.0857342
185	0xbd174e3f	-0.036939856
186	0xbd82f39e	-0.063941225
187	0x3d6acbc7	0.057323243
188	0x3da0d044	0.078522235
189	0xbddcc983	-0.10780623
190	0xbdc121c1	-0.09430266
191	0xbddd9bbe	-0.10820721
192	0x3d2b9fd1	0.04190046
193	0x3db724f8	0.08942598
194	0xbdb06fae	-0.08615051
195	0xbd52ac42	-0.05143381
196	0x3d10eae1	0.035380248
197	0xbd948e2d	-0.072536804
198	0x3dc149aa	0.094378784
199	0x3cd3d279	0.025857197
200	0xbcfdf91a	-0.03100257
201	0x3bea00be	0.0071412018
202	0x3d0dced3	0.03462107
203	0xbd2100b5	-0.039307315
204	0xbdb0549c	-0.08609888
205	0x3a41c6af	0.0007391972
206	0x3b057fe5	0.002037042
207	0x3b12b9d9	0.0022388606
208	0xbc854c03	-0.016271597
209	0x3d921168	0.07132226
210	0xbcfeb27f	-0.031090973
211	0xbc31ad86	-0.010844594
212	0x3d3b0611	0.045660082
213	0xbd8f4086	-0.06994729
214	0x3cf36ce4	0.029715009
215	0xbcc96ea7	-0.024588896
216	0x3d5a4a72	0.053293653
217	0xbd76e71b	-0.060278993
218	0x3b864541	0.004097611
219	0x3c31f125	0.010860716
220	0xbdb71785	-0.08940033
221	0xbda57768	-0.080794156
222	0x3d2e8777	0.042609658
223	0xbd0476dc	-0.032339916
224	0x3d87252e	0.06598888
225	0xbde0cafc	-0.10976216
226	0xbd60f8b8	-0.054924697
227	0xbdbb6dd6	-0.09151809
228	0x3d35cdee	0.044385843
229	0xbb52ea05	-0.0032182944
230	0xbca9c12f	-0.020722
231	0xbc9768a3	-0.018482512
232	0xbdb1de45	-0.08684973
233	0x3d01146a	0.03151361
234	0x3b35f8b5	0.002776665
235	0xbd9d09bc	-0.07667872
236	0x3d2b4171	0.041810457
237	0xbb12bcea	-0.0022390434
238	0xbddc1454	-0.10746065
239	0x3d74d193	0.059770178
240	0x3d737072	0.059433408
241	0xbcab74de	-0.02092975
242	0xbd9d1cbc	-0.07671496
243	0x3b78fe00	0.0037993193
244	0x3da85612	0.082195416
245	0x3dce29bf	0.10066556
246	0xbda8cd9e	-0.08242343
247	0xbd45baa3	-0.048273694
248	0x3db2d76d	0.087324955
249	0x3d5d8fe7	0.054092314
250	0x3d8a86a6	0.067639634
251	0xbd6caf01	-0.057784084
252	0x3dc47050	0.095917344
253	0xbdbc3723	-0.09190204
254	0xbbbc8454	-0.0057530794
255	0x3b6c78c4	0.0036082724

conv1.bias f4 [64]
0	0xbc658f6d	-0.014011246
1	0xbd8681ad	-0.065677024
2	0xbb9b8920	-0.004746571
3	0xbd7e790d	-0.06212716
4	0x3d0942a1	0.033510808
5	0xbcc867b9	-0.024463521
6	0x3d80cc18	0.06288928
7	0x3d624b46	0.055247568
8	0x3dddb6d1	0.10825885
9	0xbd967d17	-0.07348078
10	0xbb400608	-0.002930047
11	0x3b0e0d08	0.0021675248
12	0xbd8c83ab	-0.06861051
13	0x3dcb9c72	0.09941949
14	0x3d805e8f	0.062680356
15	0x3d8c672c	0.06855616
16	0xbd095bad	-0.033534694
17	0xbd4f1d8c	-0.050565287
18	0x3d89bbe1	0.06725288
19	0x3c845b6c	0.016156875
20	0x3c78ab52	0.015177565
21	0xbcb07b01	-0.021543028
22	0xbdd61c3d	-0.10454605
23	0x3d82d716	0.06388681
24	0xbd3c2882	-0.04593707
25	0x3d747ef3	0.05969138
26	0xbce04ab4	-0.027379371
27	0xbb2caff4	-0.0026349993
28	0x3cf57965	0.029965112
29	0x3d13c504	0.03607656
30	0x3dff2b0a	0.12459381
31	0xbd273122	-0.04081834
32	0x3d1e214b	0.03860597
33	0x3d2e6a45	0.042581815
34	0xbc968a49	-0.018376486
35	0xbdb7d10d	-0.0897542
36	0xbc7dd68f	-0.015493049
37	0x3d98d63d	0.07462738
38	0xbdc115df	-0.09428
39	0x3c49a8d3	0.012308317
40	0xbd67049a	-0.056400873
41	0xbd62657e	-0.05527257
42	0x3dbe79fa	0.09300609
43	0x3ac5a953	0.001508037
44	0x3d1450e8	0.03620997
45	0x3c7fb807	0.01560784
46	0xbda2983f	-0.07939195
47	0xbde37b1e	-0.11107467
48	0xbd8f65f7	-0.0700187
49	0xbbac0ad6	-0.005250315
50	0xbd41eb1f	-0.04734337
51	0xbcc2123b	-0.023690334
52	0x3d125dcd	0.035733987
53	0xbbcac785	-0.0061883354
54	0x3be5b289	0.0070098084
55	0xbd6026a2	-0.054724343
56	0x3d9bebc2	0.076133266
57	0xbd5a47b9	-0.053291056
58	0xbbcda9e0	-0.006276354
59	0x3dc9a2f4	0.09845534
60	0x3dd6d199	0.10489196
61	0xbd6f74a6	-0.058460854
62	0xbdc9e4ef	-0.09858119
63	0xbd998276	-0.074955866

conv2.weight f4 [32, 64, 5, 5]
0	0x3ba472ed	0.005018583
1	0x3c2a6d2f	0.010402008
2	0xbc3a6924	-0.011377607
3	0xbca2521a	-0.01981454
4	0xbb9ec4f9	-0.0048452583
5	0xbbcdff20	-0.006286517
6	0xbc8195dd	-0.01581853
7	0xbcc2570a	-0.023723144
8	0xbc8e1f93	-0.01734904
9	0xba7bf23c	-0.0009610986
10	0x3c60bec6	0.013717359
11	0xbc989448	-0.018625394
12	0xbc17101e	-0.009220151
13	0xbc9c6b7f	-0.019094227
14	0x3c44ca77	0.012011162
15	0xbabc9053	-0.0014386274
16	0x3c84eab2	0.016225193
17	0x3b52b3c9	0.0032150617
18	0xbb9b4f5f	-0.0047396864
19	0x3cb3df26	0.021956991
20	0x3c88fda9	0.016722517
21	0x3cc38bff	0.023870466
22	0xbc8c2196	-0.017105859
23	0x3c41fd9b	0.011840249
24	0xbc7f56a1	-0.015584619
25	0xbc819419	-0.015817689
26	0x3c963c5d	0.01833933
27	0x3c332c0e	0.010935796
28	0xbc703545	-0.014661138
29	0xbc898a9e	-0.01678973
30	0xbc5bc83a	-0.013414437
31	0x3c9b299d	0.018940741
32	0x3c07895a	0.008272493
33	0x3a7860ec	0.00094748917
34	0xbc8da552	-0.017290745
35	0x3bfe0ab8	0.0077527426
36	0xbbbc3dd3	-0.0057446747
37	0x3c6fa20d	0.014626038
38	0x3bb739db	0.0055916137
39	0x3c3305f0	0.010926709
40	0xbc0ae62f	-0.008477732
41	0xb9fe8104	-0.0004854278
42	0xbc62e49d	-0.013848451
43	0x3bb6358d	0.005560583
44	0xbb0e0474	-0.0021670135
45	0xbcb11677	-0.021617157
46	0x3c5c9e90	0.013465539
47	0x3c20607e	0.0097886305
48	0x3c6d3362	0.014477583
49	0x3c2d7d4b	0.010588954
50	0x3b1e8e8c	0.0024193851
51	0x3c91a41b	0.017778447
52	0xbcb1926f	-0.02167627
53	0x3be20585	0.0068976306
54	0x3ca315c3	0.019907838
55	0xbb8af65b	-0.0042407936
56	0x3c9e5f3a	0.019332517
57	0x3c29e56b	0.010369639
58	0x3cad5377	0.021157963
59	0x3cafaa54	0.021443523
60	0x3c3acd56	0.011401495
61	0x3b1307cf	0.0022435074
62	0xbcade4ec	-0.021227323
63	0xbc157a34	-0.009123374
64	0xbcb62379	-0.022233712
65	0xbb833e12	-0.004005202
66	0x3c789662	0.015172573
67	0x3c5dd684	0.013539914
68	0x3af3b8d1	0.0018594508
69	0xbcc5a3d1	-0.024125965
70	0x3c5a3723	0.01331881
71	0x3c187747	0.009305782
72	0xbc50424e	-0.012711121
73	0xbcbbee4d	-0.02294078
74	0xbc63713a	-0.013881976
75	0x3c04f34e	0.008114649
76	0xbc61de07	-0.013785846
77	0xbc90b31c	-0.017663531
78	0xbca53b57	-0.020169897
79	0xbc77b76a	-0.015119413
80	0xbb7ec62b	-0.0038875442
81	0x3c97312e	0.018456068
82	0xbc7cf320	-0.015438825
83	0xbcb56337	-0.022142036
84	0x3ca8ad1d	0.02059036
85	0x3c5d5298	0.013508461
86	0x3bff9d6f	0.00780075
87	0xbc89bc27	-0.01681335
88	0x3c8dd9e3	0.01731581
89	0x3c24ca3d	0.010057983
90	0x3b7ca61e	0.0038551162
91	0x3c98e446	0.018663537
92	0x3bf696ab	0.0075252852
93	0x3c7fb74f	0.015607669
94	0xbbeec678	-0.007286843
95	0x3c7d0310	0.015442625
96	0xbc457d04	-0.012053732
97	0x3bca2cfc	0.0061699133
98	0xbc7f5fbc	-0.01558679
99	0xbcbc5807	-0.022991193
100	0xbcab46a3	-0.020907706
101	0xbc975d5e	-0.018477138
102	0x3c5d5a14	0.013510246
103	0x3cc5b59b	0.024134448
104	0x3c78d493	0.0151874
105	0xba207f47	-0.00061224814
106	0xb99d2633	-0.00029973834
107	0x3b5c95b6	0.003365857
108	0x3cc2c136	0.02377377
109	0x3c5511c4	0.013004724
110	0xbc77ade7	-0.015117145
111	0xbc62bf7e	-0.013839601
112	0x3ca6e97d	0.020375008
113	0x3c5c5fa1	0.013450534
114	0xbcc84e73	-0.02445147
115	0xbcaa5741	-0.020793559
116	0x3c52ceb4	0.012866665
117	0xbc44160a	-0.011968145
118	0x3c9ab37a	0.01888441
119	0x3c8546e2	0.016269151
120	0xbca0f6dd	-0.019648964
121	0x3bc07d81	0.005874336
122	0xbb8704ea	-0.004120459
123	0xbcc47668	-0.023982242
124	0x3c0259f8	0.0079560205
125	0x3b35c79a	0.002773738
126	0x3b97774e	0.0046223765
127	0xbca5c80e	-0.020236995
128	0xbbb4df3b	-0.005519775
129	0xbb9537ec	-0.0045537855
130	0xbcb14e7b	-0.021643868
131	0x3c9f518f	0.01944807
132	0xbbe02533	-0.006840372
133	0x3c42ad36	0.011882117
134	0xbbd763de	-0.0065731844
135	0xbca054c3	-0.019571668
136	0xbbdd7d6f	-0.0067593376
137	0x3b99027d	0.004669486
138	0x3ca195f0	0.019724816
139	0x3b7a43fe	0.00381875
140	0x3c8ba4eb	0.017046412
141	0x3c40f379	0.011776798
142	0xbc8c94e7	-0.017160846
143	0x3a55b4f9	0.0008152272
144	0x3cb542de	0.022126611
145	0xbbfd738b	-0.007734721
146	0x3c3009f2	0.010744559
147	0x3cb26db0	0.021780819
148	0xbacbaf9b	-0.0015540005
149	0xbc185d1e	-0.009299545
150	0xbc76bfac	-0.015060347
151	0xbae87388	-0.0017734626
152	0xbc8857e2	-0.016643468
153	0x3cc9b068	0.02462025
154	0xbcaf7ec5	-0.021422753
155	0x3cb3311e	0.021874007
156	0x3c891f2b	0.016738495
157	0xbcaf7b59	-0.021421121
158	0xbc7074bc	-0.014676269
159	0x3cbea412	0.023271594
160	0xbb50ede3	-0.0031880073
161	0xbc8ef094	-0.017448701
162	0x3a80c6a4	0.0009824825
163	0xbbbe76ce	-0.0058125025
164	0x3b4894b3	0.003060621
165	0x3c2115fa	0.0098319
166	0xbcad5b42	-0.02116168
167	0xbc513d9f	-0.012771039
168	0xba264abd	-0.00063435343
169	0x3cbef810	0.023311645
170	0xbc9acea9	-0.018897371
171	0xbc58142e	-0.013188405
172	0x3c64fc1d	0.013976124
173	0x3cc184fc	0.023622982
174	0x3b40b6ae	0.002940576
175	0x39279439	0.00015981578
176	0x3c3466d8	0.011010848
177	0xbb9ec837	-0.004845645
178	0x3c73ccc1	0.01488036
179	0x3ccb48e7	0.024815036
180	0x3c944695	0.018100062
181	0xbcc7cfce	-0.024391081
182	0x3ca0b1b4	0.019615985
183	0x3cc396ca	0.023875613
184	0x3c2ecc9e	0.010668902
185	0xbbfd4c1c	-0.00773002
186	0xbb45da4e	-0.0030189934
187	0xbc85406e	-0.016266074
188	0xbb80aace	-0.0039266115
189	0x3c83f9c9	0.016110318
190	0xbbcd59ce	-0.006266809
191	0xbb6975ca	-0.0035623186
192	0xbb891e87	-0.0041845473
193	0x37d9bfcd	2.595773e-05
194	0x3b6747cc	0.0035290597
195	0xbb633cf1	-0.0034673775
196	0xbcc7b812	-0.024379764
197	0xbc02f777	-0.0079935705
198	0xbc5047a7	-0.012712396
199	0xbc12c9cb	-0.008959244
200	0xbc4c375e	-0.012464372
201	0xbc8ff565	-0.017573068
202	0xbca5b4d4	-0.020227827
203	0xbc121d21	-0.008918078
204	0x3b6cec3a	0.0036151544
205	0x3cc9c665	0.024630735
206	0x3b17bc0d	0.0023152858
207	0x3b0f0146	0.0021820827
208	0x3c4851d7	0.012226543
209	0x3bb89dff	0.005634069
210	0xbca42f51	-0.020042093
211	0xbcc71835	-0.024303535
212	0xbc7bc89c	-0.015367653
213	0xbba99cf6	-0.005176182
214	0xbc89ec96	-0.016836446
215	0x3c989694	0.018626489
216	0xbbff25c5	-0.007786485
217	0xbc3ed9a0	-0.0116485655
218	0xbc90b783	-0.01766563
219	0xbc331a0f	-0.010931506
220	0xbc9a59ee	-0.01884171
221	0x3cab1fc0	0.020889163
222	0x3bdb1561	0.006685898
223	0xbcb00d61	-0.021490755
224	0x3cc8549d	0.02445441
225	0xbba08ff0	-0.004899971
226	0x3c08cb14	0.008349199
227	0xbb813d99	-0.0039441106
228	0xbb967c0b	-0.004592424
229	0x3c62f9c5	0.013853495
230	0x3cb352dc	0.021890096
231	0x3c1b1ea3	0.009467754
232	0x3cc99c4a	0.024610657
233	0x3cc4ba2b	0.024014553
234	0xbab42e17	-0.0013746646
235	0xbb114093	-0.0022163733
236	0xbaebec56	-0.0017999511
237	0xbbb6d3e9	-0.005579461
238	0xbc164eb6	-0.00917404
239	0xbca87167	-0.020561887
240	0xbcc418b3	-0.023937559
241	0xbc2189a0	-0.0098594725
242	0xbc1cf171	-0.0095790485
243	0xbcc79d7e	-0.02436709
244	0xbbb43484	-0.0054994244
245	0x3c853a00	0.016263008
246	0xbb70c3be	-0.0036737765
247	0xbc353869	-0.0110608125
248	0xba016475	-0.0004935929
249	0x3c86af3b	0.016440978
250	0xbc37c927	-0.011217392
251	0xbc28e3f7	-0.010308257
252	0xbaca7f4d	-0.0015449316
253	0xba6a2552	-0.0008931953
254	0x3cbd92cd	0.02314129
255	0xbcb3ba03	-0.021939283

conv2.bias f4 [32]
0	0xbc0fcd53	-0.00877698
1	0xbcc5c402	-0.024141315
2	0xbb8d4c7e	-0.004312097
3	0x3c811c3e	0.015760537
4	0x3ce05b19	0.027387189
5	0x3caa40c2	0.020782832
6	0xbc72cc2e	-0.014819188
7	0x3d1af768	0.0378336
8	0x3b59208b	0.003313097
9	0xbc3dab27	-0.01157645
10	0xbbef78e7	-0.007308114
11	0x3b76fa97	0.0037685984
12	0x3d01e983	0.031716835
13	0x3cdd1903	0.026989466
14	0xbbb3d75d	-0.00548832
15	0xbc1bee3e	-0.009517251
16	0xbc86ad6b	-0.016440114
17	0xbc929876	-0.017894965
18	0x3ccd7b65	0.025083253
19	0x3cada218	0.021195456
20	0x3928c4af	0.00016094999
21	0x3b0fae1d	0.0021923848
22	0xbbcfc2a1	-0.0063403402
23	0x38972d39	7.2086645e-05
24	0x3c3f7853	0.011686402
25	0xbc2de76c	-0.010614257
26	0x3c562e79	0.013072603
27	0x3ce50bda	0.027959753
28	0x3bcb67a9	0.0062074256
29	0xbc88c670	-0.016696185
30	0xbb9a6db8	-0.0047127865
31	0xbb9609bd	-0.0045787976

conv3.weight f4 [1, 32, 5, 5]
0	0x3c9cbc3b	0.019132724
1	0x3c95504b	0.018226763
2	0xbaef8a36	-0.0018275443
3	0x3cc7faf6	0.02441166
4	0x3cf7b219	0.03023629
5	0xbceef7ed	-0.029170955
6	0x3ace6d85	0.0015749192
7	0xbd0ae8e6	-0.033913516
8	0x3b899c44	0.0041995365
9	0x3c286ad0	0.010279372
10	0xbb0e9a49	-0.0021759442
11	0x3ce5e0de	0.028061327
12	0x3c4af55a	0.012387598
13	0xbcf2667f	-0.02958989
14	0xbb3d235e	-0.0028860192
15	0xbc7c8d34	-0.015414525
16	0xbce8cfe1	-0.028419437
17	0xb78f1e1e	-1.7060953e-05
18	0xbd01abef	-0.03165811
19	0x3cc0bfde	0.02352899
20	0x3b9815d9	0.0046412763
21	0x3c51825c	0.012787428
22	0x3ca225c1	0.019793393
23	0x3ce3f242	0.027825478
24	0xbc8db6b8	-0.017299041
25	0x3ba28a46	0.004960331
26	0xbcf1cdc3	-0.02951706
27	0x3c2dc315	0.010605593
28	0x3cd9e543	0.026598578
29	0xbcb33ceb	-0.021879634
30	0x3cc08b8a	0.023504037
31	0xbc3bfacf	-0.011473372
32	0x3c6dda06	0.014517313
33	0xbc657f71	-0.014007435
34	0x3c029c9c	0.007971909
35	0xbcf12a8f	-0.029439239
36	0x3d067e59	0.03283534
37	0xbace03f8	-0.0015717736
38	0x3d145ea2	0.03622306
39	0xbc176d56	-0.009242376
40	0x3c8a6e8b	0.016898414
41	0xbc5a6bce	-0.013331367
42	0xbc366ed8	-0.011134826
43	0xbbf04c22	-0.0073332945
44	0x3c9d1331	0.01917419
45	0x3c7ea2a6	0.015541708
46	0x3cbec8ba	0.023289073
47	0xbb5775cb	-0.0032876607
48	0x3bb1f51c	0.0054308306
49	0x3cc294c4	0.023752578
50	0xbc639dc7	-0.0138925975
51	0xbc3f7b56	-0.01168712
52	0x3cdc00d7	0.02685587
53	0xbcf4bbeb	-0.029874763
54	0xbc8cbf1d	-0.017180974
55	0xbca11a2e	-0.019665804
56	0xbbf39473	-0.007433468
57	0xbcd4be3a	-0.025969613
58	0x3c062b08	0.00818897
59	0xbccad4fc	-0.024759762
60	0xbc7f3743	-0.01557714
61	0xbd0d074f	-0.0344308
62	0x3cc2057e	0.02368426
63	0xbcb1e6ec	-0.021716557
64	0xbb8d3d08	-0.004310254
65	0xbcad60ac	-0.02116426
66	0xbba046cf	-0.0048912535
67	0xbbdbb9d7	-0.0067055034
68	0xbc3d2e62	-0.011546703
69	0xba1839e8	-0.00058069685
70	0x3c753eec	0.014968615
71	0x3cedf649	0.029048102
72	0x3cd6bfdf	0.026214538
73	0xbcd7427b	-0.026276818
74	0xbb888d02	-0.0041672
75	0xbce150ab	-0.027504286
76	0x3c966d09	0.018362539
77	0x3cc9ad0a	0.024618644
78	0x3c1fa735	0.009744455
79	0x3c4186c8	0.0118119195
80	0x3d0ff574	0.03514619
81	0xbb5fde12	-0.0034159464
82	0xbcf6c701	-0.03012419
83	0xbc87dc03	-0.016584402
84	0xbc2b46fe	-0.010453938
85	0x3c8a93a0	0.016916096
86	0x3a80191e	0.000977311
87	0x3ce50fe0	0.027961671
88	0x3ca14df2	0.019690488
89	0xbc270e48	-0.010196276
90	0xbc13ce70	-0.0090213865
91	0xbc40bd54	-0.011763889
92	0xbd026ba5	-0.03184094
93	0xbc392e64	-0.011302564
94	0xbc86bf1f	-0.016448556
95	0xbbdaa1ea	-0.0066721337
96	0xbbff9ab2	-0.0078004235
97	0xbc599d70	-0.013282165
98	0xbc862750	-0.016376168
99	0x3bb9433d	0.0056537674
100	0x3bb4cb0b	0.0055173687
101	0x3c286694	0.010278363
102	0x3c9f41c1	0.019440534
103	0xba274733	-0.0006381154
104	0x3b9d6312	0.00480307
105	0xbbde502e	-0.0067844605
106	0x3d131b41	0.035914663
107	0x3bed2a38	0.007237699
108	0x3cf3c1f6	0.029755574
109	0xbc94d0b7	-0.01816593
110	0xbcc33c91	-0.023832591
111	0x3c38f48a	0.011288771
112	0xbcb4f279	-0.022088276
113	0x3ce0cd5f	0.027441679
114	0x3ccbbf7b	0.024871578
115	0x3d082332	0.03323669
116	0x3d1c16e7	0.03810778
117	0x3c9a83f2	0.018861745
118	0x3c969880	0.018383265
119	0xbac5ce8a	-0.0015091461
120	0x3d0ed734	0.034873202
121	0x3c9a0421	0.018800797
122	0xbb90bb91	-0.004416891
123	0xbcfb7a36	-0.030697923
124	0x3bcf4d52	0.006326356
125	0x3bde6fd2	0.0067882324
126	0x3ce6bb2c	0.028165422
127	0x3cbe34e6	0.023218583
128	0x3d0b34c0	0.033985853
129	0x3bca7cc2	0.006179423
130	0x3c58a8c7	0.013223833
131	0xbce5f652	-0.028071556
132	0x3b96cc59	0.004601997
133	0x3c0f3119	0.008739733
134	0xbca0d8ec	-0.019634686
135	0xbc89ba7d	-0.016812557
136	0x3c6a7c20	0.01431182
137	0xbcadc126	-0.021210264
138	0xbc63ae9b	-0.01389661
139	0x3ccdaad2	0.025105868
140	0x3cd927fe	0.026508328
141	0xbd01fdd3	-0.031736206
142	0xbd09db0d	-0.03365617
143	0x3cb03583	0.021509891
144	0xbc2d641f	-0.010582953
145	0x3b19d901	0.0023475292
146	0xbcd08aee	-0.025456872
147	0xbc853561	-0.016260805
148	0x3cdf52dc	0.02726119
149	0xbcaf55c4	-0.0214032
150	0x3c527f7d	0.012847778
151	0x3abce23b	0.0014410684
152	0x3c32d029	0.010913887
153	0x3ac95217	0.0015359548
154	0xbbf6f220	-0.007536188
155	0x3c4cf15d	0.012508717
156	0x3c1ecddc	0.009692635
157	0xbb5586cb	-0.0032581564
158	0x3cc1f50d	0.02367642
159	0x3d00adef	0.031415876
160	0x3c9742c7	0.01846446
161	0xbc22b66c	-0.009931188
162	0xbcd1b0ef	-0.025597064
163	0xbcc3e1c7	-0.02391137
164	0xbc8cba7d	-0.017178768
165	0xbb3be5b0	-0.002867084
166	0x3c941809	0.018077867
167	0x3c1cbce7	0.009566522
168	0x3d0121f5	0.031526525
169	0xbd0afcf9	-0.03393266
170	0xbc9f6e88	-0.019461885
171	0x3d0537dd	0.03252398
172	0xbcceda29	-0.025250511
173	0x3cb8c8b2	0.022556636
174	0x3acd039a	0.0015641332
175	0xbb04e086	-0.0020275428
176	0x3cf2de7f	0.02964711
177	0x3d22f2a3	0.039782178
178	0xbc1fcb9d	-0.009753135
179	0x3a8591b0	0.0010190513
180	0x3d0f4a63	0.03498305
181	0x3d105196	0.035234056
182	0x3cf0994f	0.029369978
183	0xbc6f93c9	-0.014622637
184	0xbca093a2	-0.019601647
185	0x3d0d70f4	0.03453155
186	0x3d0bfdd6	0.034177624
187	0x3ca4e597	0.020129008
188	0x3d4726f3	0.04862113
189	0x3d0fe625	0.035131592
190	0xbbb15efc	-0.0054129343
191	0x3ca53a54	0.020169415
192	0x3d43d2a0	0.04780829
193	0x3cd962ca	0.026536364
194	0xbc624421	-0.0138101885
195	0xbd136aba	-0.035990454
196	0x3c15a579	0.00913369
197	0x3ca26e1d	0.019827897
198	0xbd06821f	-0.032838937
199	0x3bd2dd04	0.0064350385
200	0xbcb2c427	-0.021822048
201	0x3c6bd6fc	0.014394518
202	0xbc8902d4	-0.016724981
203	0xbcda800a	-0.026672382
204	0x3d0bd33b	0.034136992
205	0x3cad27fd	0.021137232
206	0xbc6639af	-0.014051839
207	0xbccbd482	-0.024881605
208	0x3cc629d0	0.02418986
209	0xbcb3be33	-0.02194128
210	0xbc2b8eaf	-0.01047103
211	0xbc7c65cf	-0.015405132
212	0x3c3b7d9e	0.011443524
213	0xbae90d51	-0.0017780458
214	0x3c5bbec7	0.013412184
215	0xbca25129	-0.01981409
216	0x3cd77067	0.026298715
217	0x3b9be600	0.0047576427
218	0xbcc58016	-0.024108928
219	0xbcd25b56	-0.025678318
220	0x3cafc3cd	0.02145567
221	0xbc772cc5	-0.0150863575
222	0x3c2b705e	0.010463802
223	0x3a976b7c	0.0011552419
224	0xbc859824	-0.016307898
225	0x3d22b7cf	0.039726075
226	0xbc33f87c	-0.010984536
227	0x3ca92265	0.020646283
228	0x3ceab407	0.028650297
229	0x3c901d8b	0.017592212
230	0x3d13096e	0.035897665
231	0xbcccf378	-0.025018439
232	0x3bffe7d3	0.007809618
233	0x3b96a06f	0.004596762
234	0x3cbca1e2	0.02302641
235	0xbc92299e	-0.01784211
236	0xbcd9c54d	-0.026583338
237	0xbcdca77e	-0.026935335
238	0x3cddc622	0.027072016
239	0x3c6b3664	0.014356229
240	0xbd1c7e6f	-0.038206514
241	0xbc284242	-0.010269703
242	0xbd013cd2	-0.031552143
243	0xbcedc8da	-0.029026438
244	0x3cc705f8	0.024294838
245	0xbc942862	-0.018085662
246	0x3c9259ea	0.01786514
247	0x3d0e3043	0.034713995
248	0x3c0e1ddc	0.008674111
249	0x3ca55dec	0.020186387
250	0xbcfc2b02	-0.030782226
251	0xbc74aca1	-0.014933736
252	0xbaeafc4a	-0.0017927971
253	0x3bfbbb8c	0.0076822694
254	0x3c6c24d5	0.014413078
255	0x3c9d823a	0.019227136
