outputs/x3/epoch_86.pth (torch, 231327 bytes, 5 tensors)

conv1.weight f4 [64, 1, 9, 9]
-0.03761663 0.009988695 -0.04807938 0.048582938 -0.08942412 0.085078515 -0.07781016 -0.08607886
-0.06910866 0.055845365 -0.036113385 0.048869815 -0.08644337 -0.06115052 -0.03738101 -0.019726146
-0.08349342 0.072619036 -0.019854603 0.042360775 0.08955188 0.034481805 0.043774962 0.11658296
-0.043655608 0.039442834 -0.047755152 0.08698941 0.09683819 -0.08911757 0.11286721 0.07248249
0.06378469 0.057521112 0.10034035 -0.010745624 -0.08628164 -0.024392486 -0.06643214 0.023814619
-0.0017445507 -0.04323032 0.0032559154 0.114437014 -0.0043645347 0.012186923 -0.010317204 0.02640334
0.11005191 0.08092547 0.05140674 0.034859765 0.033779327 0.046646725 -0.005048028 -0.09671379
-0.062065307 0.101602554 0.013880054 -0.083268665 0.024107799 0.096747726 -0.102200575 -0.06480441
-0.03719854 0.011078692 -0.019851103 -0.0067565483 -0.103745036 0.056511883 0.10133278 0.07095219
-0.06831314 -0.0819234 0.053311948 0.00915279 0.05143091 -0.103869885 -0.0024272557 0.08206744
0.054982938 0.004005118 0.020788264 -0.011605672 -0.061455447 -0.041906692 -0.06737497 0.09374596
0.061854605 0.037725534 -0.084195994 0.08596873 0.03536836 0.07812588 -0.042313553 0.024921698
0.11143867 0.07715315 0.089273065 -0.02188086 0.08590799 -0.084657535 0.012844455 -0.060187794
-0.024991272 -0.025966797 0.0107885245 0.10171878 0.056472037 0.001540787 0.08316502 -0.051334094
0.06103355 -0.009940846 -0.01826627 0.014482869 -0.08462435 0.013673263 0.038826086 0.09922627
-0.028446095 0.044495072 0.11175717 -0.04681643 0.10677724 -0.054576837 0.04912199 0.043557085
0.032960515 0.09182673 -0.041160714 0.03073196 0.002356658 -0.082100235 -0.02629152 -0.07487063
0.047370445 0.008551865 0.010679272 -0.03316356 0.0009948778 -0.03334079 0.032496303 0.10753414
0.01548577 -0.05211825 -0.07152156 0.005141791 -0.08506457 -0.08519183 -0.072802335 -0.038774915
0.006527673 0.07656272 0.041892424 0.083364844 -0.07138344 0.008078269 -0.09949017 0.06392324
0.022747261 0.106622495 -0.07901692 0.08910344 0.0937961 0.089832336 0.015837748 0.101033725
0.07420088 0.08289218 -0.0072457166 -0.08526426 -0.0014111793 0.020791767 -0.07568924 -0.06373701
-0.10652583 -0.038961455 0.0967828 0.018979315 -0.0067867544 0.004429359 0.069277614 -0.09812129
-0.08573372 -0.036944117 -0.06394453 0.057309266 0.07851482 -0.10780619 -0.09430239 -0.1082067
0.041903622 0.08942623 -0.086150385 -0.051440105 0.03536571 -0.07254495 0.09438024 0.025869114
-0.030983217 0.0071652667 0.03462557 -0.039303686 -0.08609787 0.0007342092 0.0020232156 0.002230785
-0.016260011 0.07132572 -0.031069534 -0.010820602 0.045664497 -0.06994475 0.029718153 -0.024592364
0.053294137 -0.060278364 0.004095054 0.010860833 -0.08940032 -0.08079415 0.042610217 -0.032339737
0.06598885 -0.10976216 -0.054924697 -0.09151809 0.044385914 -0.0032196452 -0.02072202 -0.018482523
-0.08684973 0.031513724 0.0027754093 -0.07667872 0.04181051 -0.0022369626 -0.10746065 0.059770178
0.059433408 -0.020929717 -0.07671496 0.0040635564 0.082388125 0.100741364 -0.08278688 -0.04896886
0.08679672 0.053815108 0.06755204 -0.05731411 0.09609579 -0.09183693 -0.005582477 0.0037164974
00000000: e513 1abd a0a7 233c e2ee 44bd e7fe 463d
00000010: fe23 b7bd a53d ae3d ef5a 9fbd 1d4a b0bd
00000020: d788 8dbd 1cbe 643d a1eb 13bd b72b 483d
00000030: 3909 b1bd f878 7abd d41c 19bd ba98 a1bc
00000040: 99fe aabd 4ab9 943d 1fa6 a2bc 7e82 2d3d
00000050: fa66 b73d cb3c 0d3d 604d 333d 0cc3 ee3d
00000060: 39d0 32bd cf8e 213d e89a 43bd 8127 b23d
00000070: 1a53 c63d 4683 b6bd ec26 e73d b371 943d
00000080: 8ca1 823d 429b 6b3d 3e7f cd3d 6a0e 30bc
00000090: 6eb4 b0bd c0d2 c7bc 930d 88bd e016 c33c
000000a0: 68a9 e4ba 4712 31bd 3261 553b f45d ea3d
000000b0: 5f04 8fbb a9ab 473c 7d09 29bc d14b d83c
000000c0: e562 e13d 41bc a53d e08f 523d 1dc9 0e3d
000000d0: 315c 0a3d a310 3f3d ee69 a5bb e111 c6bd
000000e0: 3138 7ebd 0015 d03d 2a69 633c c388 aabd
000000f0: b87d c53c ac23 c63d 894e d1bd 2db8 84bd
00000100: 7f5d 18bd 6783 353c c89e a2bc 0966 ddbb
00000110: 4778 d4bd 0179 673d 9087 cf3d 624f 913d
00000120: c2e7 8bbd 75c7 a7bd a15d 5a3d 95f5 153c
00000130: 38a9 523d bcb9 d4bd 9812 1fbb f912 a83d
00000140: ca35 613d 5d3d 833b 264c aa3c b725 3ebc
00000150: b5b8 7bbd 5aa6 2bbd e3fb 89bd e2fd bf3d
00000160: 415b 7d3d 1786 1a3d f36e acbd 6010 b03d
00000170: 6ade 103d 7600 a03d fa50 2dbd 9728 cc3c
00000180: f539 e43d 7902 9e3d ccd4 b63d 7d3f b3bc
00000190: 87f0 af3d ee60 adbd 8d71 523c 7a87 76bd
000001a0: 7fba ccbc 52b8 d4bc 5ac2 303c f051 d03d
000001b0: 394f 673d 3cf4 c93a 6c52 aa3d b343 52bd
000001c0: 51fe 793d eede 22bc 25a3 95bc 8e49 6d3c
000001d0: 884f adbd d205 603c 1a08 1f3d 2537 cb3d
000001e0: c907 e9bc 7740 363d f1e0 e43d 96c2 3fbd
000001f0: 07ae da3d f68b 5fbd 2434 493d ea68 323d
00000200: 9b01 073d a70f bc3d 2398 28bd 97c1 fb3c
00000210: 2972 1a3b 2b24 a8bd 5061 d7bc c655 99bd
00000220: 8307 423d 1f1d 0c3c 1df8 2e3c 83d6 07bd
00000230: 8f66 823a 5a90 08bd d81a 053d dc3a dc3d
00000240: 07b8 7d3c f279 55bd e579 92bd 787c a83b
00000250: 5536 aebd 0e79 aebd 6419 95bd 72d2 1ebd
00000260: 17e6 d53b eacc 9c3d 6497 2b3d 30bb aa3d
00000270: 7b31 92bd b75a 043c 81c1 cbbd 30ea 823d
00000280: 7758 ba3c e55c da3d 9fd3 a1bd dd7b b63d
00000290: 2b18 c03d 04fa b73d 2abe 813c c5ea ce3d
000002a0: a2f6 973d 60c3 a93d 7a6d edbb 079f aebd
000002b0: 52f7 b8ba 7f53 aa3c f602 9bbd 8d88 82bd
000002c0: 372a dabd 0c96 1fbd 1036 c63d 827a 9b3c
000002d0: 6c63 debb 2824 913b 6ce1 8d3d d1f3 c8bd
000002e0: 2995 afbd b752 17bd 5af5 82bd 1fbd 6a3d
000002f0: 61cc a03d 7ec9 dcbd 9d21 c1bd 799b ddbd
00000300: 22a3 2b3d 1925 b73d 9d6f b0bd dcb2 52bd
00000310: a2db 103d 7292 94bd 6d4a c13d 77eb d33c
00000320: 84d0 fdbc 9dca ea3b 8bd3 0d3d e7fc 20bd
00000330: 1454 b0bd f277 403a ed97 043b 5d32 123b
00000340: b733 85bc 3813 923d 8985 febc e548 31bc
00000350: b20a 3b3d 313f 8fbd 7c73 f33c ed75 c9bc
00000360: f44a 5a3d 72e6 76bd ce2f 863b a3f1 313c
00000370: 8417 b7bd 6777 a5bd 0d88 2e3d ac76 04bd
00000380: 2a25 873d fcca e0bd b8f8 60bd d66d bbbd
00000390: 01ce 353d af00 53bb 3ac1 a9bc a968 97bc
000003a0: 45de b1bd 8914 013d a4e3 353b bc09 9dbd
000003b0: 7f41 2b3d 019a 12bb 5414 dcbd 93d1 743d
000003c0: 7270 733d cc74 abbc bc1c 9dbd 9527 853b
000003d0: 1bbb a83d 7d51 ce3d 2b8c a9bd 9293 48bd
000003e0: 7bc2 b13d 3b6d 5c3d b958 8a3d 33c2 6abd
000003f0: dfcd c43d 0015 bcbd 36ed b6bb 7b90 733b

conv1.bias f4 [64]
-0.01407055 -0.066715166 -0.004742372 -0.06434368 0.033048145 -0.025333421 0.06238634 0.055724423
0.1096929 -0.07243001 -0.0042642974 0.0008591724 -0.07322009 0.0965166 0.064591445 0.07021836
-0.03686174 -0.052938525 0.06591433 0.016335713 0.014688584 -0.02138306 -0.10246306 0.064292245
-0.047809914 0.062602006 -0.027588919 -0.008322902 0.029283388 0.033425014 0.12195585 -0.041029263
0.039308183 0.043343045 -0.01585305 -0.09230095 -0.017697386 0.07598636 -0.09427592 0.012976602
-0.057076532 -0.05527279 0.09234185 0.0027772386 0.035230488 0.016977096 -0.07937883 -0.11107467
-0.069940835 -0.007678177 -0.047836665 -0.023142474 0.037140936 -0.0067488216 0.007819298 -0.054492094
0.07577843 -0.054717038 -0.0066598486 0.09509948 0.103137895 -0.058807302 -0.09886434 -0.0781447
00000000: 2a88 66bc f6a1 88bd e665 9bbb 9fc6 83bd
00000010: 7e5d 073d 0988 cfbc d288 7f3d 4b3f 643d
00000020: aca6 e03d 2f56 94bd 85bb 8bbb 153a 613a
00000030: 6af4 95bd 7faa c53d 8548 843d a5ce 8f3d
00000040: 56fc 16bd 11d6 58bd 18fe 863d 79d2 853c
00000050: 63a8 703c 872b afbc 27d8 d1bd a7ab 833d
00000060: 54d4 43bd 7b35 803d 2802 e2bc c85c 08bc
00000070: b7e3 ef3c abe8 083d fdc3 f93d 4d0e 28bd
00000080: 9e01 213d 7a88 313d 41de 81bc 4808 bdbd
00000090: 1cfa 90bc bd9e 9b3d bc13 c1bd d09b 543c
000000a0: 15c9 69bd b965 62bd b91d bd3d 5502 363b
000000b0: d84d 103d 8d13 8b3c 5e91 a2bd 1e7b e3bd
000000c0: 243d 8fbd 3899 fbbb 61f0 43bd 4995 bdbc
000000d0: 1821 183d 3825 ddbb 831c 003c 1a33 5fbd
000000e0: b931 9b3d f91e 60bd dc3a dabb 84c3 c23d
000000f0: f639 d33d eddf 70bd 6379 cabd 540a a0bd

conv2.weight f4 [32, 64, 5, 5]
0.0049254536 0.010280429 -0.011543381 -0.019962432 -0.0049708076 -0.006322419 -0.015920056 -0.023841452
-0.017414732 -0.0010454952 0.013360414 -0.019028872 -0.009597208 -0.019444622 0.011573368 -0.001971878
0.015687758 0.0027612788 -0.0051787137 0.021435997 0.016136345 0.02329322 -0.01760599 0.011371672
-0.016086807 -0.015661567 0.018437792 0.011038544 -0.01454863 -0.01669678 -0.013395957 0.018945094
0.008301303 0.0010118872 -0.017257068 0.0077217217 -0.0057340646 0.014654932 0.0056549823 0.010986591
-0.008617645 -0.0005872243 -0.013980972 0.0054226536 -0.002290149 -0.021784829 0.013307846 0.00958597
0.014244004 0.010371276 0.002420355 0.017778447 -0.02167627 0.0068976954 0.019907838 -0.004240368
0.019332487 0.010368256 0.021157939 0.02144352 0.011401989 0.0022435987 -0.021227654 -0.009125508
-0.02223515 -0.004005036 0.015173094 0.013537456 0.0018543727 -0.024128763 0.0133209815 0.00931229
-0.012704272 -0.022938885 -0.013880505 0.008352203 -0.013516927 -0.017361918 -0.019925201 -0.014970828
-0.0039815847 0.018386306 -0.015445418 -0.022181118 0.02044134 0.0135098575 0.007849045 -0.016697753
0.017440021 0.0101170475 0.0035807195 0.018417705 0.0073650954 0.01551051 -0.00742336 0.015378479
-0.012130459 0.0061425846 -0.0155595075 -0.023023726 -0.020983335 -0.018532747 0.013450345 0.024092967
0.015133309 -0.00081854203 -0.0005454176 0.003130006 0.02364524 0.0129258465 -0.015395929 -0.01420958
0.019977478 0.013147696 -0.024645422 -0.020940557 0.012629535 -0.012282092 0.018531693 0.015958084
-0.019944882 0.00557328 -0.00447833 -0.024463756 0.007457572 0.0027841823 0.0046402337 -0.020222254
-0.005519983 -0.0045749773 -0.021681568 0.01941646 -0.0068851816 0.011814499 -0.0066641765 -0.019506231
-0.0066768113 0.004758153 0.01980111 0.0039118715 0.01706029 0.011799483 -0.017139042 0.0008149276
0.022188934 -0.0075429436 0.0109458165 0.021991272 -0.0013576889 -0.009023472 -0.014562949 -0.0013471062
-0.016277382 0.024951741 -0.021046082 0.021316024 0.016051149 -0.022225572 -0.015462728 0.022608658
-0.0036575922 -0.017968474 0.0003194448 -0.0065586613 0.0023958755 0.009312688 -0.0216107 -0.013300174
-0.001337517 0.022547102 -0.019646086 -0.013784683 0.013435291 0.022946345 0.0021461898 0.0004333837
0.0111947125 -0.0049011996 0.0148182325 0.024799911 0.017830709 -0.024689708 0.019207498 0.023473954
0.010283055 -0.00829452 -0.003447824 -0.016656274 -0.004235821 0.015830787 -0.0068433345 -0.0039993683
-0.004560189 -0.0002693083 0.0032562285 -0.0038202174 -0.024699846 -0.008362376 -0.013040468 -0.0092869345
-0.012513572 -0.017611017 -0.02023814 -0.008926321 0.003604706 0.024594182 0.0022462977 0.0021554607
0.012218453 0.0056075226 -0.020054301 -0.02438674 -0.015432994 -0.0051960414 -0.016843287 0.018603085
-0.0078871865 -0.011764924 -0.01772808 -0.010971469 -0.01879739 0.020903744 0.0066438746 -0.02152603
0.024445163 -0.0048515834 0.008438168 -0.0038401121 -0.0045124847 0.013914133 0.021695899 0.009290883
0.024462048 0.023864841 -0.0015514983 -0.0024823572 -0.0020542883 -0.005785499 -0.009356952 -0.020745764
-0.024077721 -0.009995909 -0.009673126 -0.024419991 -0.0055536646 0.016226092 -0.00374599 -0.011115496
-0.0005206392 0.016430708 -0.011218022 -0.010309085 -0.0015458403 -0.000893766 0.023141101 -0.021923972
00000000: b365 a13b 3f6f 283c 7320 3dbc 4188 a3bc
00000010: 28e2 a2bb 4b2c cfbb c76a 82bc 264f c3bc
00000020: 57a9 8ebc ff08 89ba a3e5 5a3c 70e2 9bbc
00000030: 9c3d 1dbc 544a 9fbc 399e 3d3c a03a 01bb
00000040: 9d83 803c 92f6 343b 33b2 a9bb 8b9a af3c
00000050: 5e30 843c 6cd1 be3c 703a 90bc 4050 3a3c
00000060: 7bc8 83bc b04c 80bc da0a 973c 02db 343c
00000070: 615d 6ebc b0c7 88bc b77a 5bbc be32 9b3c
00000080: 3002 083c 4da1 843a b25e 8dbc 7f06 fd3b
00000090: d2e4 bbbb 3d1b 703c 6e4d b93b 1a01 343c
000000a0: 0631 0dbc f5ef 19ba 7210 65bc 84b0 b13b
000000b0: 5316 16bb 1976 b2bc 2709 5a3c 790e 1d3c
000000c0: af5f 693c 49ec 293c d29e 1e3b 1ba4 913c
000000d0: 6f92 b1bc 1006 e23b c315 a33c c9f2 8abb
000000e0: 2a5f 9e3c 9edf 293c 6a53 ad3c 52aa af3c
000000f0: 68cf 3a3c 5709 133b 9ee5 adbc 2883 15bc
00000100: 7d26 b6bc ad3c 83bb 9298 783c 35cc 5d3c
00000110: 6c0e f33a afa9 c5bc 3f40 5a3c 9392 183c
00000120: 9425 50bc 54ea bbbc 0f6b 63bc aed7 083c
00000130: 1a76 5dbc 953a 8ebc 2d3a a3bc 3448 75bc
00000140: f477 82bb e19e 963c c70e 7dbc 2db5 b5bc
00000150: 9974 a73c 7358 5d3c 4899 003c bac9 88bc
00000160: 60de 8e3c f9c1 253c 81aa 6a3b bae0 963c
00000170: e656 f13b cb1f 7e3c a83f f3bb 04f6 7b3c
00000180: d5be 46bc bc47 c93b 4eed 7ebc 419c bcbc
00000190: 3ee5 abbc fdd1 97bc d65e 5c3c 9d5e c53c
000001a0: b3f1 773c 6d93 56ba 5bfa 0eba c920 4d3b
000001b0: aab3 c13c eec6 533c 353f 7cbc 4ccf 68bc
000001c0: cfa7 a33c 6f69 573c 32e5 c9bc 888b abbc
000001d0: 1cec 4e3c d43a 49bc c7cf 973c 87ba 823c
000001e0: 7363 a3bc 10a0 b63b f4be 92bb 3768 c8bc
000001f0: a65e f43b d476 363b 1a0d 983b 24a9 a5bc
00000200: f9e0 b4bb b1e9 95bb 8b9d b1bc 450f 9f3c
00000210: 179d e1bb 9a91 413c 2a5f dabb 88cb 9fbc
00000220: 27c9 dabb 48ea 9b3b f035 a23c 282f 803b
00000230: 05c2 8b3c 9e52 413c 2d67 8cbc dea0 553a
00000240: 91c5 b53c cc2a f7bb 1556 333c 0a27 b43c
00000250: 7bf4 b1ba 2fd7 13bc 6f99 6ebc 6291 b0ba
00000260: 2558 85bc 9867 cc3c d568 acbc f19e ae3c
00000270: b37d 833c 6712 b6bc 6257 7dbc cb35 b93c
00000280: 37b4 6fbb 9f32 93bc 287b a739 0aea d6bb
00000290: 1f04 1d3b 3f94 183c ec08 b1bc f9e8 59bc
000002a0: a04f afba b3b4 b83c d4f0 a0bc 27d9 61bc
000002b0: b21f 5c3c f9f9 bb3c 17a7 0c3b c737 e339
000002c0: 076a 373c 3e9a a0bb 2cc8 723c 2f29 cb3c
000002d0: b511 923c 1242 cabc 0b59 9d3c 734c c03c
000002e0: 427a 283c bde5 07bc e3f4 61bb bd72 88bc
000002f0: a4cc 8abb 91af 813c 0d3e e0bb 220d 83bb
00000300: a36d 95bb f331 8db9 7366 553b 9d5c 7abb
00000310: 5557 cabc 5902 09bc b0a7 55bc 3a28 18bc
00000320: ba05 4dbc fb44 90bc 75ca a5bc b43f 12bc
00000330: ee3c 6c3b bd79 c93c 9f36 133b a142 0d3b
00000340: e82f 483c 4fbf b73b eb48 a4bc b3c6 c7bc
00000350: abda 7cbc 8e43 aabb effa 89bc 7f65 983c
00000360: 4239 01bc abc1 40bc 7a3a 91bc adc1 33bc
00000370: fcfc 99bc 543e ab3c dcb4 d93b 5b57 b0bc
00000380: 3941 c83c 08fa 9ebb 3e40 0a3c 64aa 7bbb
00000390: 77dd 93bb 1bf8 633c 99bb b13c ca38 183c
000003a0: a264 c83c 3380 c33c a55b cbba 0baf 22bb
000003b0: 3da1 06bb 4894 bdbb e74d 19bc 05f3 a9bc
000003c0: a43e c5bc e2c5 23bc 087c 1ebc 6f0c c8bc
000003d0: 84fb b5bb 95ec 843c 497f 75bb c51d 36bc
000003e0: 817b 08ba b199 863c cbcb 37bc 70e7 28bc
000003f0: cb9d caba 9f4b 6aba 6892 bd3c e799 b3bc

conv2.bias f4 [32]
-0.010737428 -0.024496753 -0.003829429 0.014832563 0.026318897 0.021033827 -0.014496167 0.03669054
0.0030752302 -0.011198102 -0.007215645 0.0039696237 0.03119025 0.026865797 -0.005309239 -0.00962594
-0.015836095 -0.017945366 0.025444046 0.027641894 0.0013533455 0.0010368343 -0.0037064985 0.00019039349
0.011952062 -0.010607938 0.014402463 0.02861013 0.00472223 -0.016674105 -0.0067149587 -0.0065302034
00000000: 0aec 2fbc 6aad c8bc 28f7 7abb 4704 733c
00000010: ba9a d73c 224f ac3c 5581 6dbc d248 163d
00000020: cd89 493b 3e78 37bc 3871 ecbb 9e13 823b
00000030: b282 ff3c a915 dc3c 20f9 adbb 1eb6 1dbc
00000040: b3ba 81bc 2902 93bc 0870 d03c 4171 e23c
00000050: bd62 b13a 63e6 873a bae8 72bb 5da4 4739
00000060: 95d2 433c ebcc 2dbc 4ff8 6b3c cb5f ea3c
00000070: f0bc 9a3b 2298 88bc 2809 dcbb 51fb d5bb

conv3.weight f4 [1, 32, 5, 5]
0.019031677 0.01809441 -0.0019077109 0.024359109 0.030205937 -0.029287059 0.0014910726 -0.03392759
0.004176958 0.0102308 -0.0022380115 0.028115677 0.012494085 -0.02954411 -0.00294208 -0.015411058
-0.028246578 0.00022807237 -0.03151589 0.023531292 0.0045591067 0.012777166 0.01983413 0.027825514
-0.017342009 0.005106105 -0.02968016 0.010292495 0.026533693 -0.02170198 0.023510076 -0.012021401
0.013637015 -0.014375739 0.007936828 -0.029652571 0.032023933 -0.0027783795 0.03558093 -0.009666973
0.017041244 -0.013509284 -0.0115535995 -0.0075404886 0.01883794 0.015791329 0.023432635 -0.0031299198
0.005617132 0.023746045 -0.0138925975 -0.01168712 0.02685587 -0.029874763 -0.017180974 -0.019665804
-0.007433665 -0.025969613 0.00818897 -0.024759762 -0.015577148 -0.0344308 0.023683995 -0.021716557
-0.004310254 -0.02116426 -0.0048933728 -0.006714615 -0.011546703 -0.00058069365 0.014968615 0.029048102
0.026214538 -0.026276818 -0.0041672 -0.027520023 0.0182715 0.024564337 0.009689772 0.011792189
0.03506667 -0.0035851754 -0.030210247 -0.016624626 -0.01049689 0.016703343 0.00079797086 0.027857246
0.019686202 -0.01021704 -0.009224249 -0.011902296 -0.031894583 -0.011286324 -0.0164494 -0.0068056807
-0.007852959 -0.013257677 -0.016286094 0.0057452247 0.0065940227 0.010698916 0.019176438 -0.0004593591
0.005109051 -0.00608045 0.035896882 0.006305639 0.029226424 -0.018388094 -0.02406674 0.010575639
-0.02357223 0.026351029 0.024188796 0.03247936 0.037433058 0.018109627 0.01792418 -0.0020077429
0.034652732 0.018766053 -0.0041198516 -0.030229453 0.00647346 0.0061620073 0.027706904 0.022501983
0.033005204 0.005568511 0.012301996 -0.028244922 0.0048188055 0.008731186 -0.01957595 -0.017067432
0.015057341 -0.020032246 -0.013156535 0.025519714 0.026722092 -0.03071537 -0.03245637 0.021806572
-0.010925247 0.0026136034 -0.024755606 -0.01567114 0.027047414 -0.02208555 0.012847785 0.0014411212
0.010913893 0.0015360034 -0.007536179 0.012509039 0.009693437 -0.0032683641 0.023677189 0.031415876
0.018464481 -0.009930782 -0.02559702 -0.023911305 -0.01717874 -0.0028659008 0.018077884 0.0095666265
0.031526525 -0.03393266 -0.019461885 0.03252398 -0.025250511 0.022556636 0.0015636741 -0.001982323
0.028812584 0.038542364 -0.009682025 0.0012968595 0.03466189 0.03355659 0.026793871 -0.015512192
-0.01990097 0.033204254 0.031111917 0.015784906 0.04656553 0.034389976 -0.0055166506 0.019146457
0.045987867 0.026092611 -0.013361992 -0.034967702 0.009661269 0.019635001 -0.03274636 0.0068424004
-0.021822048 0.014393604 -0.016684985 -0.026644586 0.034137566 0.021137232 -0.014056587 -0.024861531
0.02420788 -0.02193823 -0.010470948 -0.0154392915 0.011356001 -0.0018146235 0.013377083 -0.01981409
0.026298543 0.004723181 -0.024112364 -0.025691643 0.02145567 -0.015087227 0.010440533 0.0011502801
-0.016320072 0.039186336 -0.0111698415 0.020042423 0.02812977 0.018033208 0.03567179 -0.024767892
0.007343606 0.003849047 0.022809332 -0.016852513 -0.025150802 -0.026513707 0.026699368 0.013910185
-0.037004348 -0.008887352 -0.03111011 -0.029366976 0.023827378 -0.017467355 0.018352497 0.034400754
0.008185271 0.020067096 -0.030782226 -0.014933736 -0.0017928485 0.0076822694 0.014413078 0.019227136
00000000: 52e8 9b3c ba3a 943c 280c faba c18c c73c
00000010: 7172 f73c 6aeb efbc 1870 c33a a8f7 0abd
00000020: ddde 883b 169f 273c 9aab 12bb d952 e63c
00000030: feb3 4c3c 7d06 f2bc e9cf 40bb aa7e 7cbc
00000040: 5e65 e7bc b626 6f39 ce16 01bd b2c4 c03c
00000050: 8f64 953b 5257 513c 2f7b a23c 55f2 e33c
00000060: d410 8ebc 1d51 a73b cf23 f3bc daa1 283c
00000070: 305d d93c 5ac8 b1bc 3498 c03c 69f5 44bc
00000080: c96d 5f3c 3888 6bbc 7809 023c f3e9 f2bc
00000090: 872b 033d 7915 36bb 4fbd 113d 3962 1ebc
000000a0: 149a 8b3c 0b56 5dbc 4f4b 3dbc 3416 f7bb
000000b0: 0652 9a3c d15c 813c ccf5 bf3c 571f 4dbb
000000c0: eb0f b83b 1187 c23c c79d 63bc 567b 3fbc
000000d0: d700 dc3c ebbb f4bc 1dbf 8cbc 2e1a a1bc
000000e0: 1a96 f3bb 3abe d4bc 082b 063c fcd4 cabc
000000f0: 4b37 7fbc 4f07 0dbd f004 c23c ece6 b1bc
00000100: 083d 8dbb ac60 adbc 9658 a0bb 4606 dcbb
00000110: 622e 3dbc b139 18ba ec3e 753c 49f6 ed3c
00000120: dfbf d63c 7b42 d7bc 028d 88bb ac71 e1bc
00000130: 1dae 953c 263b c93c d9c1 1e3c 0734 413c
00000140: 12a2 0f3d 43f5 6abb 7b7b f7bc 5e30 88bc
00000150: 26fb 2bbc 73d5 883c eb2e 513a e134 e43c
00000160: f544 a13c 5f65 27bc 4e21 17bc d901 43bc
00000170: e5a3 02bd 46ea 38bc e4c0 86bc 3002 dfbb
00000180: b3a9 00bc ba36 59bc 6a6a 85bc 7042 bc3b
00000190: ac12 d83b 824a 2f3c e817 9d3c 22d6 f0b9
000001a0: d369 a73b 833e c7bb 9c08 133d 899f ce3b
000001b0: 416c ef3c a1a2 96bc 9d27 c5bc 7245 2d3c
000001c0: 8d1a c1bc 1dde d73c 9527 c63c 1409 053d
000001d0: 6853 193d a45a 943c bbd5 923c 5694 03bb
000001e0: 06f0 0d3d 44bb 993c d2ff 86bb c2a3 f7bc
000001f0: 511f d43b aaea c93b 97f9 e23c 1456 b83c
00000200: 7730 073d 0e78 b63b 508e 493c e561 e7bc
00000210: 12e7 9d3b 400d 0f3c be5d a0bc 00d1 8bbc
00000220: 11b3 763c aa1a a4bc 828e 57bc b80e d13c
00000230: 4ae8 da3c cd9e fbbc f8f0 04bd b2a3 b23c
00000240: cfff 32bc fd48 2b3b 45cc cabc c360 80bc
00000250: 8a92 dd3c c1ec b4bc 847f 523c 01e4 bc3a
00000260: 2fd0 323c b953 c93a 0df2 f6bb b6f2 4c3c
00000270: 39d1 1e3c 0d32 56bb aaf6 c13c efad 003d
00000280: d342 973c b8b4 22bc d7b0 d1bc a4e1 c3bc
00000290: 6eba 8cbc d6d1 3bbb 1218 943c 57bd 1c3c
000002a0: f521 013d f9fc 0abd 886e 9fbc dd37 053d
000002b0: 29da cebc b2c8 b83c 32f4 cc3a dce9 01bb
000002c0: 5e08 ec3c 99de 1d3d 5ba1 1ebc 62fb a93a
000002d0: a0f9 0d3d a372 093d d27e db3c d926 7ebc
000002e0: 5c07 a3bc 2f01 083d 6bde fe3c 594f 813c
000002f0: 7fbb 3e3d 81dc 0c3d 05c5 b4bb 08d9 9c3c
00000300: c65d 3c3d 2cc0 d53c 42ec 5abc 4b3a 0fbd
00000310: 4d4a 1e3c 95d9 a03c 0c21 06bd 3736 e03b
00000320: 27c4 b2bc 27d3 6b3c f3ae 88bc bf45 dabc
00000330: d5d3 0b3d fd27 ad3c 994d 66bc 69aa cbbc
00000340: 9b4f c63c ceb7 b3bc 578e 2bbc 15f5 7cbc
00000350: 850e 3a3c a9d8 edba 8e2b 5b3c 2951 a2bc
00000360: 0b70 d73c eac4 9a3b 4b87 c5bc 4877 d2bc
00000370: cdc3 af3c 6b30 77bc c50e 2b3c ffc4 963a
00000380: acb1 85bc da81 203d b601 37bc 0230 a43c
00000390: 6770 e63c 61ba 933c 951c 123d 09e6 cabc
000003a0: a2a2 f03b 4b40 7c3b a3da ba3c 480e 8abc
000003b0: 0e09 cebc 4633 d9bc a2b8 da3c 8be7 633c
000003c0: df91 17bd 429c 11bc a1da febc 0393 f0bc
000003d0: a231 c33c b317 8fbc fa57 963c cee7 0c3d
000003e0: 841b 063c c063 a43c 022b fcbc a1ac 74bc
000003f0: 03fe eaba 8cbb fb3b d524 6c3c 3a82 9d3c
