outputs/x3/epoch_92.pth (torch, 231327 bytes, 5 tensors)

conv1.weight f4 [64, 1, 9, 9]
00000000: 683d 19bd 848c 263c 7157 44bd 0839 473d
00000010: 313b b7bd d733 ae3d 2b3b 9fbd 8617 b0bd
00000020: 7364 8dbd 0e46 653d d17b 13bd b4a7 483d
00000030: 9feb b0bd f9b7 7abd ff76 19bd cbab a1bc
00000040: 62dc aabd a1dd 943d 7046 a2bc d7b7 2d3d
00000050: 33b5 b73d 2110 0e3d 81e4 333d 0fd8 ee3d
00000060: b1b5 32bd 64c3 213d 2a7e 43bd 9410 b23d
00000070: fc42 c63d ce42 b6bd 5bbc e73d 0c17 953d
00000080: 54fd 823d 8e03 6c3d 228c cd3d f80f 31bc
00000090: 9bdd b0bd 9882 c8bc 74fa 87bd b0b3 c43c
000000a0: e14d c1ba c54f 30bd d385 5d3b 1367 ea3d
000000b0: c7f2 92bb b00d 483c 395b 29bc 0b3a d83c
000000c0: c267 e13d f3ca a53d caae 523d 2c0b 0f3d
000000d0: a463 0a3d 89ac 3e3d 85c1 a1bb 59f4 c5bd
000000e0: 5a2e 7ebd e2f3 cf3d 5278 613c 3cb9 aabd
000000f0: d669 c53c b021 c63d 2862 d1bd ae83 84bd
00000100: cb14 18bd bd13 363c 4eee a2bc 1394 e1bb
00000110: b8ba d4bd 6736 673d 2574 cf3d fe40 913d
00000120: 50d5 8bbd dab6 a7bd 536d 5a3d 2d87 153c
00000130: 2b44 523d 10f4 d4bd a873 25bb 05e1 a73d
00000140: 0dd6 603d 55b3 853b fbc0 aa3c 2312 3ebc
00000150: 51c9 7bbd 6ba5 2bbd 3ee3 89bd 1830 c03d
00000160: 4faa 7d3d 0286 1a3d 5a55 acbd da18 b03d
00000170: 03b9 103d 10e3 9f3d 8a79 2dbd 105c cc3c
00000180: ff7b e43d f045 9e3d d7df b63d 0a4a b3bc
00000190: a5e1 af3d 6e74 adbd f6df 513c 91c0 76bd
000001a0: f235 cdbc 723f d4bc 5d6e 323c 765e d03d
000001b0: df0f 673d 73d1 c33a f05f aa3d 93f2 51bd
000001c0: af0c 7a3d d6e4 24bc f93e 96bc 4e2f 6d3c
000001d0: 1858 adbd 87ba 5e3c 4ad2 1e3d 8d59 cb3d
000001e0: dba8 e7bc eeb9 363d 31b9 e43d 2728 40bd
000001f0: d792 da3d 98b0 5fbd 250e 493d f337 323d
00000200: 5d0f 073d 7c47 bc3d 6a10 28bd 7bf1 fb3c
00000210: 7501 1a3b 7f25 a8bd 0e5c d7bc 0e3c 99bd
00000220: dd03 423d a96d 0b3c fd92 2e3c 70b4 07bd
00000230: ef13 893a 8150 08bd 3a4b 053d 594f dc3d
00000240: 5c6e 7f3c 4947 55bd 3591 92bd 2837 a53b
00000250: bf5c aebd 5f78 aebd 7201 95bd bda6 1ebd
00000260: 0782 d73b c807 9d3d ebf9 2b3d 9ac8 aa3d
00000270: c143 92bd 85b3 033c 32bf cbbd 29fa 823d
00000280: be85 ba3c db6f da3d 70d3 a1bd f77b b63d
00000290: 2b18 c03d 02fa b73d 5dbf 813c 48eb ce3d
000002a0: 42f7 973d 03c4 a93d 7661 edbb e19e aebd
000002b0: 4109 b9ba 1e50 aa3c f502 9bbd 6888 82bd
000002c0: e629 dabd 9b94 1fbd ba36 c63d 867e 9b3c
000002d0: 7c59 debb 601e 913b 6be1 8d3d cdf3 c8bd
000002e0: 1f95 afbd ea51 17bd faf4 82bd 42bf 6a3d
000002f0: 32cd a03d 7dc9 dcbd a021 c1bd 7d9b ddbd
00000300: f1a2 2b3d 1b25 b73d 986f b0bd d5b1 52bd
00000310: addd 103d a691 94bd 614a c13d 76e9 d33c
00000320: 06d4 fdbc 98b9 ea3b 33d3 0d3d 26fd 20bd
00000330: 1a54 b0bd deb9 403a b2ba 043b c343 123b
00000340: 1236 85bc 0e13 923d 198a febc 2053 31bc
00000350: 470a 3b3d 4b3f 8fbd 3973 f33c 5d74 c9bc
00000360: f04a 5a3d 7ce6 76bd b632 863b e8f1 313c
00000370: 8417 b7bd 6777 a5bd 0488 2e3d 9376 04bd
00000380: 2d25 873d fcca e0bd b8f8 60bd d66d bbbd
00000390: fccd 353d d6fd 52bb 2ec1 a9bc 9968 97bc
000003a0: 45de b1bd 8c14 013d 66e7 353b bc09 9dbd
000003b0: 8041 2b3d d39d 12bb 5414 dcbd 93d1 743d
000003c0: 7270 733d bb74 abbc bc1c 9dbd a467 843b
000003d0: 5faa a83d 7641 ce3d d384 a9bd d058 48bd
000003e0: 40df b13d b495 5c3d 6960 8a3d 0ff3 6abd
000003f0: 7acd c43d 7f18 bcbd 07da b7bb 124f 723b
-0.037412077 0.0101653375 -0.047934953 0.048638374 -0.08946837 0.085059814 -0.07774957 -0.08598237
-0.06903925 0.055975012 -0.036006752 0.04898806 -0.08638691 -0.061210606 -0.037467 -0.019735238
-0.08342816 0.07268835 -0.019808978 0.04241165 0.08970108 0.03468335 0.04391909 0.11662304
-0.043630306 0.03949298 -0.04772774 0.08694568 0.09680745 -0.08899461 0.11315223 0.072797865
0.06395975 0.057620578 0.10036494 -0.01080703 -0.08636018 -0.024476334 -0.06639567 0.024011463
-0.0014747941 -0.043044824 0.003380169 0.11445441 -0.0044845077 0.012210295 -0.010336691 0.026394865
0.11006118 0.0809535 0.051436223 0.034922764 0.03378643 0.04655126 -0.0049363994 -0.09665746
-0.062055923 0.10153939 0.013761597 -0.08336112 0.024098318 0.09674394 -0.102238 -0.064704284
-0.037129205 0.011113104 -0.019889023 -0.006884107 -0.10387176 0.056448366 0.10129575 0.070924744
-0.068277955 -0.08189173 0.053326916 0.009126467 0.05133454 -0.10398114 -0.0025245938 0.08197216
0.054891635 0.004080216 0.020843973 -0.011601004 -0.061471287 -0.0419058 -0.06732796 0.09384173
0.061929997 0.037725456 -0.08414717 0.0859849 0.03533269 0.078069806 -0.042352237 0.024946243
0.11156463 0.07728183 0.08929413 -0.02188589 0.0858796 -0.08469473 0.012809744 -0.06024224
-0.025050137 -0.02590916 0.0108905705 0.10174267 0.05641162 0.001493974 0.0831908 -0.051256727
0.061047252 -0.010064324 -0.018340575 0.01447661 -0.08464068 0.013594276 0.038774766 0.0992919
-0.028278759 0.04461091 0.11168135 -0.046913292 0.10672539 -0.054611772 0.049085755 0.04351039
0.032973636 0.09193322 -0.04103128 0.030754795 0.0023499404 -0.08210277 -0.026289012 -0.07482158
0.047366966 0.008510032 0.010655162 -0.033131063 0.0010458211 -0.0332799 0.032542445 0.10757322
0.015590277 -0.052069936 -0.07156602 0.0050419755 -0.08513784 -0.08519053 -0.07275666 -0.038733233
0.0065767798 0.076675 0.041986387 0.08339043 -0.07141829 0.008038406 -0.09948577 0.063953705
0.022768851 0.10665866 -0.07901657 0.08910363 0.0937961 0.08983232 0.01583832 0.1010347
0.074202076 0.082893394 -0.0072442843 -0.085263975 -0.0014117138 0.020790156 -0.075689234 -0.06373674
-0.10652523 -0.03896008 0.09678407 0.01898123 -0.0067855697 0.00442867 0.06927761 -0.09812126
-0.085733645 -0.036943354 -0.06394382 0.057311304 0.07851638 -0.10780618 -0.094302416 -0.10820673
0.04190344 0.08942624 -0.08615035 -0.051439125 0.035367656 -0.07254343 0.09438015 0.025868159
-0.03098489 0.007163238 0.034625243 -0.03930392 -0.08609791 0.0007351915 0.002025288 0.002231822
-0.016261134 0.07132541 -0.03107171 -0.010823041 0.045664098 -0.06994494 0.029718028 -0.02459162
0.053294122 -0.0602784 0.0040954007 0.010860898 -0.08940032 -0.08079415 0.042610183 -0.032339644
0.065988876 -0.10976216 -0.054924697 -0.09151809 0.044385895 -0.0032194755 -0.020721998 -0.018482493
-0.08684973 0.031513736 0.0027756332 -0.07667872 0.041810513 -0.0022371903 -0.10746065 0.059770178
0.059433408 -0.020929685 -0.07671496 0.0040406752 0.08235621 0.100710794 -0.08277287 -0.048912823
0.0868516 0.053853706 0.0675667 -0.057360705 0.09609504 -0.0918436 -0.0056107077 0.00369734

conv1.bias f4 [64]
00000000: e6d8 63bc 717f 88bd 235c 9bbb e334 83bd
00000010: aad1 073d 4934 cfbc 4aa9 7f3d 506c 643d
00000020: 6496 e03d 27c3 94bd e58f 85bb e95c a93a
00000030: d106 95bd 8253 c63d d6e9 833d 0b6b 8f3d
00000040: e595 15bd 30f6 57bd 2033 873d 7678 853c
00000050: 6516 723c d93d afbc c063 d2bd 18f5 833d
00000060: b265 42bd 48ff 7e3d 7438 e2bc c67c fbbb
00000070: e348 f03c 2454 0a3d 222e fa3d 8915 28bd
00000080: d822 213d 7111 313d 01bb 84bc 116d bcbd
00000090: b6e0 8dbc ea5d 9b3d 4914 c1bd 7e10 543c
000000a0: 52ea 68bd ae65 62bd 5246 bd3d 685c 263b
000000b0: e4ab 103d 5ab6 893c 9197 a2bd 1e7b e3bd
000000c0: 1a42 8fbd d598 f1bb 6bb6 43bd de9e bdbc
000000d0: 2811 173d 6a9d dcbb 2317 fe3b 5849 5fbd
000000e0: 543f 9b3d 7667 5fbd 15bf d7bb 3387 c33d
000000f0: 868a d33d efbe 70bd ba6f cabd 007e 9fbd
-0.013906693 -0.066649325 -0.004741208 -0.06406572 0.033158936 -0.025293486 0.062417306 0.055767357
0.10966185 -0.07263785 -0.0040759915 0.0012921366 -0.07276691 0.096838966 0.06441085 0.07002839
-0.036519904 -0.052725017 0.06601548 0.016292792 0.014775847 -0.021391796 -0.10272932 0.06443232
-0.047460265 0.062255174 -0.02761481 -0.0076747863 0.02933163 0.03377165 0.122158304 -0.041036163
0.03933987 0.043229524 -0.016202452 -0.0920049 -0.017319065 0.07586272 -0.09427697 0.012943385
-0.05686409 -0.05527275 0.09241928 0.0025384668 0.035320178 0.016810585 -0.07939065 -0.11107467
-0.0699503 -0.0073729553 -0.04778139 -0.023147043 0.036881596 -0.0067326324 0.007754223 -0.054513305
0.07580438 -0.054542027 -0.006584058 0.095472716 0.103291556 -0.05877584 -0.098845914 -0.077877045

conv2.weight f4 [32, 64, 5, 5]
00000000: 526c a13b 3e65 283c 4338 3dbc 299a a3bc
00000010: d632 a3bb b9e4 cebb 7c5e 82bc 184b c3bc
00000020: 27ac 8ebc 3f49 89ba 6965 5b3c c6a8 9bbc
00000030: 52de 1cbc 2f22 9fbc c6ea 3d3c cd06 fdba
00000040: 72d3 803c 5f0d 373b 16ca a8bb 5ed1 af3c
00000050: aa81 843c 8f20 bf3c c3f6 8fbc 1cc5 3a3c
00000060: b193 83bc 7f59 80bc 5d01 973c e6cf 343c
00000070: 0d62 6ebc a0c8 88bc 9667 5bbc 6a3d 9b3c
00000080: 6e1b 083c 5c7a 853a 4251 8dbc d74a fd3b
00000090: b9a5 bbbb 083d 703c 1c92 b93b 6d20 343c
000000a0: db0f 0dbc 2ad8 17ba 0ce8 64bc 4a0a b23b
000000b0: 346d 15bb 9454 b2bc 6b4c 5a3c b658 1d3c
000000c0: 0eb2 693c b141 2a3c ae9e 1e3b 1ba4 913c
000000d0: 6f92 b1bc 0506 e23b c315 a33c 0af2 8abb
000000e0: 2f5f 9e3c 1de0 293c 6c53 ad3c 54aa af3c
000000f0: 99cf 3a3c ef0a 133b 8be5 adbc 6482 15bc
00000100: 5326 b6bc 773c 83bb 8598 783c abcc 5d3c
00000110: d618 f33a 5ba9 c5bc 3640 5a3c e191 183c
00000120: 0927 50bc b4ea bbbc aa6b 63bc 7ee2 083c
00000130: fd79 5dbc a544 8ebc 3b49 a3bc 8366 75bc
00000140: d80c 82bb 49b2 963c 29fb 7cbc 5fb1 b5bc
00000150: 8f78 a73c 4273 5d3c 14a9 003c eeca 88bc
00000160: 4bd4 8e3c 39a5 253c 5fce 6b3b c501 973c
00000170: e2b7 f13b 213c 7e3c d91c f3bb 2136 7c3c
00000180: 847b 46bc c8ba c93b 3dc3 7ebc 878c bcbc
00000190: 84df abbc e7ce 97bc 8c5e 5c3c 7759 c53c
000001a0: dbe0 773c 9ceb 52ba b393 0bba 33d5 4d3b
000001b0: b6c2 c13c f2dd 533c a4e7 7bbc f076 68bc
000001c0: 76d1 a33c 90af 573c 6ec6 c9bc ce5e abbc
000001d0: 6048 4f3c dcdd 48bc 49fe 973c 27ea 823c
000001e0: 0c31 a3bc ad65 b73b 5a03 92bb 2338 c8bc
000001f0: 5625 f53b f671 363b 8305 983b 9fab a5bc
00000200: 5ede b4bb eede 95bb e79b b1bc 8210 9f3c
00000210: 3f91 e1bb c99c 413c 2e38 dabb 41cb 9fbc
00000220: 85cf dabb acdf 9b3b 9032 a23c ae28 803b
00000230: 75c2 8b3c a452 413c 0e68 8cbc 5267 553a
00000240: bfc1 b53c 2c2c f7bb 0854 333c ca24 b43c
00000250: 4152 b2ba 03ec 13bc bca7 6ebc 96ee b0ba
00000260: f55b 85bc a265 cc3c 9d6b acbc 55e9 ae3c
00000270: 7cc8 833c d9c5 b5bc 40bf 7cbc 2480 b93c
00000280: 90f0 6dbb c6fc 92bc f142 b539 b009 d6bb
00000290: 0ad4 1e3b 430c 193c 33d4 b0bc f385 59bc
000002a0: 281e acba c9ee b83c 34ad a0bc 0462 61bc
000002b0: ac86 5c3c 9d2a bc3c 4852 0e3b 1722 e439
000002c0: 6267 373c 4ca6 a0bb 5bb9 723c a11f cb3c
000002d0: 3244 923c 5b17 cabc 077f 9d3c 6d6e c03c
000002e0: feb9 283c 204a 07bc d3ea 5fbb 263e 88bc
000002f0: 0011 8abb ccd9 813c c217 dfbb bf07 82bb
00000300: 2ca3 94bb ad3e 82b9 9f91 563b 74f8 78bb
00000310: c728 cabc 92b4 08bc 6b65 55bc 23f2 17bc
00000320: e4ff 4cbc d040 90bc acc8 a5bc d43d 12bc
00000330: 3044 6c3b 0c7a c93c dd62 133b f15e 0d3b
00000340: a032 483c fdc2 b73b 454b a4bc 91c2 c7bc
00000350: 35d0 7cbc ae36 aabb 7efa 89bc 1661 983c
00000360: 3531 01bc 79b4 40bc f437 91bc e1bf 33bc
00000370: f304 9abc 4239 ab3c 62b5 d93b a955 b0bc
00000380: eb41 c83c 1cea 9ebb 8d42 0a3c 0dab 7bbb
00000390: dcdd 93bb f9f7 633c 06d8 b13c 896c 183c
000003a0: 357c c83c d695 c33c 1d11 caba fdbd 21bb
000003b0: dcbd 05bb 2c32 bdbb f623 19bc 3adf a9bc
000003c0: 2332 c5bc 45a8 23bc 8365 1ebc 7a08 c8bc
000003d0: 78dd b5bb a0ec 843c f159 75bb 2517 36bc
000003e0: 9028 08ba 269a 863c c5cb 37bc 6fe7 28bc
000003f0: 039f caba 274f 6aba 6892 bd3c ab9c b3bc
0.004926243 0.010278044 -0.011549058 -0.01997097 -0.0049804254 -0.006313887 -0.015914194 -0.023839518
-0.017416073 -0.00104741 0.013390877 -0.019001376 -0.00957449 -0.01942548 0.011591619 -0.0019304395
0.015725825 0.0027931554 -0.0051510436 0.021462139 0.01617511 0.023330955 -0.01757372 0.011399534
-0.016061636 -0.015667675 0.018433267 0.011035895 -0.014549744 -0.016697228 -0.013391396 0.018950183
0.008307321 0.0010183561 -0.01725066 0.007729869 -0.005726543 0.0146629885 0.0056631695 0.010994059
-0.008609737 -0.0005792404 -0.01397134 0.0054333555 -0.0022800686 -0.021768846 0.0133238835 0.00960367
0.014263643 0.010391639 0.0024203467 0.017778447 -0.02167627 0.0068976902 0.019907838 -0.004240279
0.019332496 0.010368374 0.021157943 0.021443523 0.011402034 0.0022436937 -0.021227619 -0.009125326
-0.022235071 -0.0040050107 0.015173082 0.013537566 0.001854683 -0.024128607 0.013320973 0.009312124
-0.012704619 -0.022939064 -0.01388065 0.008354781 -0.013517854 -0.017366717 -0.01993238 -0.014978054
-0.0039688163 0.01839556 -0.015440741 -0.022179304 0.020443229 0.013516249 0.007852811 -0.016698327
0.017435214 0.010110193 0.003598116 0.018433461 0.007376657 0.015517266 -0.0074192104 0.015393765
-0.012114409 0.0061562993 -0.015549478 -0.023016227 -0.020980604 -0.018531276 0.013450276 0.024090512
0.015129293 -0.0008045973 -0.0005324438 0.0031407594 0.023652416 0.012931334 -0.015375052 -0.014188513
0.01999734 0.013164416 -0.024630751 -0.02091923 0.012651533 -0.012259927 0.01855387 0.015980793
-0.019920848 0.0055968375 -0.004455966 -0.02444083 0.0074812574 0.0027838922 0.004639329 -0.020223437
-0.0055196723 -0.0045736944 -0.021680785 0.019417051 -0.0068837698 0.011817166 -0.006659529 -0.019506099
-0.0066775703 0.0047568884 0.0197995 0.0039110994 0.017060498 0.011799488 -0.01713946 0.0008140701
0.022187112 -0.0075431075 0.010945328 0.021990199 -0.0013604836 -0.009028438 -0.014566358 -0.0013498839
-0.0162792 0.024950806 -0.021047408 0.021351496 0.01608681 -0.022189068 -0.015426457 0.02264411
-0.0036306717 -0.017942797 0.00034572885 -0.0065319166 0.0024235272 0.009341302 -0.02158556 -0.013276565
-0.0013131546 0.0225748 -0.01961384 -0.013756279 0.013459843 0.022969538 0.0021716524 0.00043512948
0.011194082 -0.0049026366 0.0148147 0.024795355 0.017854784 -0.02466934 0.01922561 0.023490155
0.01029825 -0.008257419 -0.0034167066 -0.016631197 -0.0042134523 0.015850924 -0.006808252 -0.0039682086
-0.004536053 -0.0002484223 0.0032740606 -0.0037989886 -0.024677647 -0.008343833 -0.013024668 -0.0092740385
-0.012512181 -0.01760903 -0.02023729 -0.008925874 0.0036051385 0.02459433 0.0022489347 0.0021571482
0.012219101 0.005607961 -0.020055423 -0.024384769 -0.0154305 -0.0051945066 -0.016843077 0.018600982
-0.007885267 -0.011761778 -0.017726876 -0.01097104 -0.018801188 0.020901326 0.006643937 -0.021525221
0.024445495 -0.0048496854 0.0084387185 -0.0038401515 -0.0045125317 0.013914102 0.021709453 0.009303221
0.024473289 0.023875158 -0.0015416477 -0.0024679892 -0.0020407354 -0.005773803 -0.009346953 -0.020736326
-0.024071759 -0.009988849 -0.009667757 -0.024418104 -0.005550083 0.016226113 -0.0037437642 -0.0111139165
-0.00051940326 0.016430926 -0.011218016 -0.010309084 -0.0015458766 -0.0008938186 0.023141101 -0.021925291

conv2.bias f4 [32]
00000000: 58c5 2ebc 8d5c c8bc fbf3 7fbb afe5 733c
00000010: 84f7 d83c 3236 ac3c 4729 6ebc 9fb4 163d
00000020: 6c5b 4b3b 5aeb 37bc bc40 edbb 444a 813b
00000030: df03 003d 8c55 dc3c a50d afbb 6687 1dbc
00000040: 59bb 81bc 7c14 93bc 8339 d03c eadd dc3c
00000050: abaa ac3a 638b 973a b8eb 7ebb 11a4 3539
00000060: e418 433c c1cf 2dbc 4773 6a3c 769d e93c
00000070: 203d a13b 1ea1 88bc 8f22 d4bb 3c41 cfbb
-0.010667168 -0.024458194 -0.0039055336 0.014886304 0.026485212 0.021021936 -0.0145362085 0.036793347
0.0031029833 -0.011225546 -0.007240383 0.0039456207 0.03125369 0.02689626 -0.0053422027 -0.009614801
-0.015836405 -0.017954104 0.025418049 0.026961286 0.0013173422 0.0011561926 -0.0038897824 0.00017322625
0.01190779 -0.010608614 0.014309711 0.028517466 0.0049206167 -0.01667839 -0.0064738463 -0.006324915

conv3.weight f4 [1, 32, 5, 5]
00000000: 4de6 9b3c 5839 943c 8c25 faba 658b c73c
00000010: 6971 f73c 1def efbc b432 c33a 04f8 0abd
00000020: 03d3 883b 999b 273c 5fcf 12bb 334e e63c
00000030: 6dac 4c3c 3608 f2bc 85e9 40bb f784 7cbc
00000040: 4b6c e7bc ca95 6a39 3017 01bd 53c2 c03c
00000050: 6160 953b 274e 513c 2078 a23c ccf1 e33c
00000060: b811 8ebc 7fe0 a63b 89fb f2bc 8229 293c
00000070: be6f d93c ddd8 b1bc 4b85 c03c d910 44bc
00000080: 9de5 603c c9e3 6abc 5d35 023c 80dd f2bc
00000090: 3b7e 033d 48ef 2dbb 6703 123d d49f 1dbc
000000a0: 055c 8b3c 990b 5dbc f475 3cbc 5f34 f6bb
000000b0: fda1 9a3c fb09 813c 4cd2 bf3c adcf 4dbb
000000c0: 438d b73b cc8c c23c c79d 63bc 567b 3fbc
000000d0: d700 dc3c ebbb f4bc 1dbf 8cbc 2e1a a1bc
000000e0: db94 f3bb 3abe d4bc 082b 063c fcd4 cabc
000000f0: 4637 7fbc 4f07 0dbd 5505 c23c ece6 b1bc
00000100: 083d 8dbb ac60 adbc c94f a0bb 98f1 dbbb
00000110: 622e 3dbc b739 18ba ec3e 753c 49f6 ed3c
00000120: dfbf d63c 7b42 d7bc 028d 88bb 7c70 e1bc
00000130: 50bc 953c de41 c93c d6d2 1e3c 1039 413c
00000140: e4a6 0f3d b4e7 69bb 7e68 f7bc d427 88bc
00000150: bdeb 2bbc 97f5 883c 43ec 543a f045 e43c
00000160: e341 a13c d266 27bc fde3 16bc e3d4 42bc
00000170: 93a0 02bd 3efc 38bc 7ac8 86bc 8576 debb
00000180: 987e 00bc 852c 59bc ab76 85bc 4003 bc3b
00000190: 2f14 d43b 047a 2e3c f53f 9d3c f1d3 f7b9
000001a0: 3cf7 a63b dd50 cabb 93fe 123d cc84 d13b
000001b0: 3de9 ef3c 6a59 96bc 8708 c5bc fb8f 2e3c
000001c0: 95be bfbc 6ff8 d83c c5e7 c63c d647 053d
000001d0: e19a 193d 1a15 953c 1465 933c 8d4f feba
000001e0: 28fb 0d3d 93c6 993c 837e 87bb c8cf f7bc
000001f0: 3379 d43b 28d2 cb3b 5a32 e33c 86c0 b83c
00000200: 0686 073d be07 b83b 0126 4b3c 984e e7bc
00000210: 17cf 9c3b 22e1 0e3c 057c a0bc 7c83 8bbc
00000220: a482 753c 9116 a5bc 12e0 58bc a3a8 d03c
00000230: 1cbd da3c fa87 fcbc 6a7d 05bd 0d3d b23c
00000240: 87c5 32bc 80fb 2a3b 4149 cbbc 91d0 80bc
00000250: f6c1 dd3c 8161 b4bc 7e7f 523c 85e3 bc3a
00000260: 29d0 323c 5d53 c93a 13f2 f6bb 70f2 4c3c
00000270: 11d1 1e3c 2e1b 56bb 4df6 c13c efad 003d
00000280: cd42 973c 11b5 22bc e2b0 d1bc b4e1 c3bc
00000290: 77ba 8cbc d6d3 3bbb 0b18 943c 2dbd 1c3c
000002a0: f521 013d f9fc 0abd 886e 9fbc dd37 053d
000002b0: 29da cebc b2c8 b83c e1f4 cc3a 064e 04bb
000002c0: 9f70 ec3c fc46 1e3d d516 1fbc c521 a53a
000002d0: cf04 0e3d 4115 0a3d 65a5 dd3c d98b 7cbc
000002e0: 13b4 a2bc 446f 083d 84a3 003d e3f2 843c
000002f0: 68a4 3f3d a438 0d3d f7a7 b4bb b1b5 9d3c
00000300: 4e34 3d3d c05f d63c 1a19 5bbc 93a6 0fbd
00000310: 3465 1d3c 251e a13c 070e 06bd 572a e03b
00000320: 27c4 b2bc afd3 6b3c 55b6 88bc 894d dabc
00000330: c2d3 0b3d fd27 ad3c 4b49 66bc 7dad cbbc
00000340: 604b c63c beb8 b3bc 638e 2bbc b6e0 7cbc
00000350: b534 3a3c 9160 edba ae39 5b3c 2951 a2bc
00000360: 2270 d73c c0d9 9a3b 4587 c5bc bc75 d2bc
00000370: cdc3 af3c 0530 77bc 8411 2b3c 969e 963a
00000380: 88b0 85bc 1cdc 203d d445 36bc faf0 a43c
00000390: a4fd e63c 2b57 933c a14a 123d c2eb cabc
000003a0: d042 f33b 0e2a 813b cc06 bb3c cf9f 8abc
000003b0: 37f7 cebc 5d36 d9bc f237 db3c f6b3 643c
000003c0: 3dee 17bd d099 13bc a40f ffbc e843 f0bc
000003d0: 1b7c c33c a130 8fbc 1a21 963c 5419 0d3d
000003e0: 24f0 063c f966 a43c 022b fcbc a1ac 74bc
000003f0: 96fd eaba 8cbb fb3b d524 6c3c 3a82 9d3c
0.019030714 0.01809375 -0.0019084676 0.02435846 0.030205445 -0.029288823 0.001489243 -0.033927932
0.004175545 0.0102299685 -0.0022401435 0.02811346 0.012492281 -0.02954493 -0.0029436063 -0.015412561
-0.02824988 0.0002237178 -0.031516254 0.023530161 0.0045586084 0.012774981 0.01983267 0.027825259
-0.017342433 0.00509268 -0.029660957 0.010324838 0.02654254 -0.021709854 0.023501059 -0.011966907
0.013726619 -0.014336535 0.007947293 -0.029646635 0.032102805 -0.0026540328 0.035647776 -0.0096206255
0.017011652 -0.013491535 -0.011502732 -0.0075135673 0.01887607 0.01575183 0.023415707 -0.0031404302
0.0056015565 0.023748778 -0.0138925975 -0.01168712 0.02685587 -0.029874763 -0.017180974 -0.019665804
-0.0074335164 -0.025969613 0.00818897 -0.024759762 -0.015577143 -0.0344308 0.023684183 -0.021716557
-0.004310254 -0.02116426 -0.0048923236 -0.00671215 -0.011546703 -0.000580694 0.014968615 0.029048102
0.026214538 -0.026276818 -0.0041672 -0.027519457 0.018278271 0.02456754 0.009693822 0.01179339
0.03507127 -0.0035691084 -0.030201193 -0.016620554 -0.010493216 0.016718669 0.0008122364 0.02786538
0.019684738 -0.010217385 -0.00920963 -0.011891576 -0.031891417 -0.011290608 -0.016453017 -0.006789031
-0.007842682 -0.013255243 -0.016291937 0.005737692 0.0064721326 0.010649208 0.019195536 -0.0004726942
0.0050953906 -0.0061741904 0.035887312 0.0063940044 0.029286021 -0.018353183 -0.024051918 0.010654445
-0.023406306 0.02648565 0.024280438 0.03253921 0.03750122 0.018198539 0.017992534 -0.001940237
0.03466335 0.018771445 -0.0041349544 -0.030250445 0.0064841746 0.006220121 0.02773397 0.02255274
0.0330868 0.0056161573 0.012399198 -0.028235719 0.004785429 0.008720668 -0.019590387 -0.01703047
0.01498476 -0.020152362 -0.013237016 0.025471037 0.026701503 -0.030826557 -0.032590307 0.021757627
-0.010911352 0.0026089847 -0.024815204 -0.015724452 0.027070027 -0.02201915 0.012847779 0.0014411068
0.010913887 0.0015359927 -0.0075361817 0.0125089735 0.0096934 -0.003267001 0.023677016 0.031415876
0.01846447 -0.009930865 -0.02559704 -0.023911335 -0.017178757 -0.00286602 0.01807787 0.009566587
0.031526525 -0.03393266 -0.019461885 0.03252398 -0.025250511 0.022556636 0.0015636944 -0.0020188107
0.028862296 0.038641915 -0.009710033 0.0012598565 0.034672555 0.033711676 0.027056405 -0.015414202
-0.019861257 0.033309236 0.03140594 0.016229099 0.04678765 0.034477845 -0.005513187 0.019251676
0.04619246 0.026168704 -0.013372684 -0.035070967 0.009606648 0.019667694 -0.03272822 0.006840985
-0.021822048 0.014393731 -0.016688505 -0.0266483 0.034137495 0.021137232 -0.01405556 -0.024863
0.024205863 -0.021938678 -0.010470959 -0.015434435 0.011365105 -0.0018110444 0.013380451 -0.01981409
0.026298586 0.004725665 -0.024112353 -0.025690906 0.02145567 -0.015087132 0.010441188 0.0011491354
-0.016319528 0.039272413 -0.011125047 0.020134438 0.028197117 0.0179859 0.035715703 -0.024770621
0.007423736 0.003941781 0.02283039 -0.016921906 -0.025264366 -0.02651518 0.026760075 0.013958922
-0.037092436 -0.00900884 -0.031135388 -0.029329255 0.023862889 -0.017479243 0.01832633 0.034447983
0.008235965 0.020068632 -0.030782226 -0.014933736 -0.0017928358 0.0076822694 0.014413078 0.019227136
