outputs/x3/epoch_192.pth (torch, 231335 bytes, 5 tensors)

conv1.weight f4 [64, 1, 9, 9]
000000 e4 b7 10 bd e9 26 45 3c 69 f2 3d bd 9e 94 49 3d
       -0.03533162 0.012033203 -0.04637376 0.049213998
000010 ad a9 b8 bd 03 a7 ac 3d 84 0f 9f bd ef 6c af bd
       -0.09016738 0.084302925 -0.07766631 -0.08565699
000020 ac 33 8d bd 21 7f 6b 3d 19 2a 0f bd 89 41 4c 3d
       -0.06894621 0.057494286 -0.034952257 0.049867187
000030 d5 00 b1 bd 48 61 80 bd 3b 28 21 bd 98 eb a7 bc
       -0.08642737 -0.06268555 -0.039345007 -0.020498082
000040 1b 87 aa bd 3d aa 95 3d 8f fd 99 bc 82 93 30 3d
       -0.083265506 0.07307861 -0.018797664 0.043109424
000050 99 b2 ba 3d 38 44 16 3d db 9b 39 3d 23 da ee 3d
       0.09116096 0.036686152 0.04531465 0.116627
000060 73 fc 32 bd dc 36 23 3d c7 cf 41 bd 4b 69 b2 3d
       -0.043697786 0.03984724 -0.047317293 0.08711489
000070 d0 11 c6 3d 72 2e b3 bd df 3c ef 3d 84 97 9d 3d
       0.09671366 -0.08749093 0.11681532 0.07694915
000080 fd 2e 87 3d 58 36 70 3d e2 f6 cd 3d 20 27 38 bc
       0.06600759 0.058645576 0.10056855 -0.011239797
000090 e7 90 b1 bd 84 94 ce bc e9 99 86 bd 35 c1 dc 3c
       -0.08670216 -0.025217302 -0.06572325 0.026947597
0000a0 f5 0c 15 3b b7 b6 27 bd fa 5e 96 3b e4 8d ea 3d
       0.0022743319 -0.040945735 0.004588959 0.11452845
0000b0 8b bc b9 bb 40 79 4f 3c d5 60 2b bc 7b d1 d9 3c
       -0.005668228 0.012663186 -0.010460098 0.026589146
0000c0 93 9e e2 3d 06 bb a6 3d c3 10 52 3d cb 88 10 3d
       0.11065402 0.08141141 0.051285516 0.035286706
0000d0 43 c0 0a 3d 13 f0 3b 3d 8b e7 8a bb aa 94 c5 bd
       0.03387476 0.04588325 -0.004239028 -0.09647496
0000e0 62 ee 7d bd e6 e6 ce 3d 43 40 48 3c 24 61 ae bd
       -0.061994918 0.10102634 0.012222352 -0.08514622
0000f0 83 e2 c0 3c d3 28 c6 3d db 19 d1 bd e2 13 85 bd
       0.02354551 0.09675755 -0.1021001 -0.06497933
000100 ca c5 19 bd 67 60 32 3c 61 d7 a6 bc a4 45 0a bc
       -0.037542142 0.010887242 -0.020366373 -0.008439455
000110 0f b4 d8 bd a3 18 63 3d d4 c8 ce 3d 05 c5 91 3d
       -0.105812185 0.055443417 0.10096899 0.071176566
000120 b7 f4 8d bd 80 90 a9 bd 57 15 58 3d 14 a3 10 3c
       -0.06931441 -0.08279514 0.052754726 0.008827943
000130 fc 26 4f 3d 55 47 d7 bd 6e f2 60 bb 19 60 a6 3d
       0.050574288 -0.105116524 -0.0034324187 0.08123798
000140 6d 74 5f 3d bf d4 ab 3b 3f 65 b4 3c c0 86 31 bc
       0.05455439 0.005243867 0.022020934 -0.01083535
000150 a3 20 7a bd 70 50 2a bd 02 65 88 bd 0b d2 c2 3d
       -0.06106628 -0.041580617 -0.06659891 0.09512719
000160 08 22 81 3d 35 60 1b 3d f8 ac aa bd 5b 08 b1 3d
       0.06305319 0.037933547 -0.083337724 0.08644172
000170 ae 21 10 3d 2b db 9e 3d 36 3c 2f bd 9c f5 cf 3c
       0.03518837 0.07756647 -0.04278203 0.02538567
000180 9b 57 e8 3d 3e 45 a2 3d 9c ad b7 3d 1f b8 b2 bc
       0.113448344 0.07923363 0.0896866 -0.021816311
000190 30 ee ae 3d bb b5 ae bd 7d 69 49 3c 22 ab 79 bd
       0.085415244 -0.08530756 0.012293217 -0.06095422
0001a0 5a 19 d2 bc 82 d0 ca bc 65 7b 4f 3c a9 77 d1 3d
       -0.025646854 -0.024757627 0.012663697 0.102279015
0001b0 df 53 65 3d e4 7f 4a 3a 85 cd aa 3d fe 2b 4d bd
       0.05598819 0.00077247457 0.08339981 -0.050090782
0001c0 f7 56 7c 3d 26 b4 38 bc 0b 3e 9a bc ca f7 74 3c
       0.061606374 -0.0112734195 -0.018828413 0.014951656
0001d0 f5 b4 ac bd 81 93 58 3c 83 86 1c 3d 43 56 cd 3d
       -0.08432952 0.013218761 0.038214218 0.10026219
0001e0 99 cd d1 bc 9c 1e 40 3d bb ed e3 3d dc 97 43 bd
       -0.025610732 0.04690419 0.11129328 -0.047752246
0001f0 b3 18 da 3d 49 21 5f bd a6 6f 4a 3d fd e1 30 3d
       0.10649242 -0.054475103 0.049422882 0.04318427
000200 df 1c 08 3d 5f 79 bf 3d 24 66 1f bd c7 e3 00 3d
       0.03323066 0.093493216 -0.03891577 0.031467225
000210 76 e4 28 3b 20 71 a7 bd b7 70 d2 bc 82 75 96 bd
       0.002577094 -0.08175874 -0.025688512 -0.073466316
000220 5f a6 43 3d 73 25 06 3c e4 fd 28 3c 3d df 05 bd
       0.047766086 0.0081876395 0.0103144385 -0.0326836
000230 72 28 f7 3a df 00 04 bd 89 54 09 3d 48 6c de 3d
       0.0018856658 -0.032227393 0.033527885 0.10860497
000240 be 02 8e 3c b6 c6 50 bd 87 bb 92 bd 60 9a 80 3b
       0.017335292 -0.050970756 -0.07164674 0.003924653
000250 d8 3d b0 bd 37 19 ae bd d2 20 93 bd 89 7c 1a bd
       -0.08605546 -0.08500903 -0.07183994 -0.037716422
000260 ad 5b fe 3b 8e bf 9f 3d 3a 8b 31 3d 7e 69 ac 3d
       0.0077623934 0.07800208 0.043345667 0.084185585
000270 14 8a 92 bd 29 da fb 3b cc 48 cb bd 4c 4a 84 3d
       -0.071552426 0.007685919 -0.09925994 0.064594835
000280 c1 b9 bf 3c 23 2a dc 3d a4 d1 a1 bd 89 7c b6 3d
       0.023404004 0.107502244 -0.07901314 0.08910472
000290 09 17 c0 3d 01 f9 b7 3d be ca 81 3c bc ee ce 3d
       0.093793936 0.089830406 0.015843745 0.10104129
0002a0 57 fa 97 3d ae c6 a9 3d d4 39 ed bb e1 9c ae bd
       0.074207954 0.08289848 -0.0072395597 -0.08526016
0002b0 69 1e ba ba 44 19 aa 3c af 03 9b bd ba 87 82 bd
       -0.0014199737 0.020764 -0.07569062 -0.06373544
0002c0 9e 27 da bd 93 87 1f bd 8c 3a c6 3d cd 98 9b 3c
       -0.10652088 -0.038947653 0.09679136 0.01899376
0002d0 11 dd dd bb c1 b8 90 3b 2e e1 8d 3d 1e f4 c8 bd
       -0.006770738 0.0044165556 0.06927715 -0.09812187
0002e0 56 95 af bd 4e 4a 17 bd 64 f2 82 bd 16 d6 6a 3d
       -0.085734054 -0.036936097 -0.063938886 0.057333075
0002f0 09 d2 a0 3d 83 c9 dc bd c4 21 c1 bd cf 9b dd bd
       0.07852561 -0.10780623 -0.094302684 -0.10820734
000300 62 9e 2b 3d f4 24 b7 3d a6 6f b0 bd 71 a7 52 bd
       0.041899092 0.08942595 -0.08615045 -0.051429216
000310 11 f5 10 3d 41 8c 94 bd 57 49 c1 3d f0 c4 d3 3c
       0.035389964 -0.07253314 0.094378166 0.025850743
000320 a2 10 fe bc e9 89 e9 3b 4d cc 0d 3d b9 02 21 bd
       -0.03101379 0.007127036 0.034618665 -0.039309237
000330 e0 54 b0 bd ab 16 43 3a 98 23 06 3b b9 21 13 3b
       -0.086099386 0.00074420375 0.0020467993 0.002245052
000340 3b 58 85 bc 60 10 92 3d f6 ca fe bc 2e e4 31 bc
       -0.016277423 0.071320295 -0.031102639 -0.010857625
000350 09 04 3b 3d 3f 41 8f bd 27 6c f3 3c b5 66 c9 bc
       0.045658145 -0.069948666 0.029714657 -0.024585107
000360 4f 4a 5a 3d 34 e7 76 bd a8 5a 86 3b 1a f4 31 3c
       0.053293522 -0.060279086 0.0041001625 0.010861421
000370 85 17 b7 bd 68 77 a5 bd 6a 87 2e 3d f4 76 04 bd
       -0.08940033 -0.080794156 0.04260961 -0.032340005
000380 2e 25 87 3d fc ca e0 bd b8 f8 60 bd d6 6d bb bd
       0.06598888 -0.10976216 -0.054924697 -0.09151809
000390 ed cd 35 3d 92 d1 52 bb 15 c1 a9 bc c3 68 97 bc
       0.04438584 -0.003216837 -0.020721951 -0.018482571
0003a0 45 de b1 bd 41 14 01 3d 38 04 36 3b bc 09 9d bd
       -0.08684973 0.031513456 0.002777351 -0.07667872
0003b0 64 41 2b 3d 8a ca 12 bb 54 14 dc bd 93 d1 74 3d
       0.04181041 -0.0022398555 -0.10746065 0.059770178
0003c0 72 70 73 3d 2a 75 ab bc bc 1c 9d bd b6 7d 7b 3b
       0.059433408 -0.020929892 -0.07671496 0.003837449
0003d0 ff 79 a8 3d f1 6e ce 3d 5b ec a7 bd 2b 30 43 bd
       0.08226394 0.10079754 -0.08199378 -0.04765336
0003e0 20 a1 b3 3d ac 68 5e 3d 73 ac 8a 3d 73 4b 6d bd
       0.087709665 0.05429904 0.06771173 -0.057933282
0003f0 26 b4 c4 3d 08 c8 bb bd 22 c8 b6 bb c8 b2 7c 3b
       0.09604673 -0.09169012 -0.005578057 0.003855871

conv1.bias f4 [64]
000000 e0 78 60 bc 29 ba 84 bd 53 71 9b bb a4 fa 77 bd
       -0.013700694 -0.0648082 -0.004743734 -0.060541764
000010 0c c0 09 3d f7 aa c4 bc a1 56 81 3d 70 09 61 3d
       0.033630416 -0.024007304 0.06315351 0.05494064
000020 4b da dc 3d 32 f5 97 bd 42 2d 25 bb a5 43 35 3b
       0.107838236 -0.07419814 -0.0025203978 0.0027658727
000030 a5 fa 87 bd f1 c8 ce 3d 4c 54 7b 3d 94 1d 8a 3d
       -0.066396035 0.1009692 0.06135969 0.06743923
000040 29 3e 02 bd c3 3c 4a bd ee 41 8c 3d bf 52 83 3c
       -0.03179756 -0.049374353 0.068485126 0.016030667
000050 1e b5 7a 3c 9b 0b b2 bc f7 bc d7 bd f7 d4 81 3d
       0.015301971 -0.02173405 -0.10534089 0.06339448
000060 6f 3c 38 bd c0 86 6f 3d 96 d8 de bc 93 26 43 b9
       -0.04497951 0.058478117 -0.027202886 -0.00018611019
000070 7e ac f7 3c 96 22 18 3d 2d 10 01 3e 92 6a 26 bd
       0.030233618 0.03714236 0.12603827 -0.040628977
000080 b1 76 1c 3d 4b 2d 2d 3d 1d 0b a2 bc 94 2a b5 bd
       0.03819913 0.042279523 -0.01978069 -0.08846012
000090 c5 3a 6b bc 36 7c 97 3d 44 18 c1 bd a2 ea 42 3c
       -0.0143572735 0.07396738 -0.094284564 0.011896761
0000a0 3b a1 65 bd 76 65 62 bd 91 90 be 3d 77 76 dd 39
       -0.056061964 -0.055272542 0.093049176 0.00042240668
0000b0 bd 15 16 3d 22 8a 69 3c c6 91 a2 bd 1e 7b e3 bd
       0.036641825 0.014254125 -0.0793796 -0.11107467
0000c0 bc 73 8f bd 37 3b 89 bb 62 ce 40 bd 7e f5 c5 bc
       -0.070044965 -0.004187967 -0.047071822 -0.024164911
0000d0 a4 28 10 3d c1 f1 c2 bb 2a 25 c8 3b c6 c6 60 bd
       0.035195008 -0.0059492295 0.006107946 -0.054877065
0000e0 f6 80 9c 3d dd f7 57 bd dd ff c2 bb 5c b6 cd 3d
       0.07641785 -0.052726615 -0.0059509114 0.10044548
0000f0 0c af d7 3d 44 1d 6f bd 6a ff c9 bd 9d aa 95 bd
       0.105314344 -0.05837752 -0.098631695 -0.073079325

conv2.weight f4 [32, 64, 5, 5]
000000 10 1a a8 3b 44 47 2d 3c 74 6c 36 bc 47 8e a0 bc
       0.00513006 0.010576073 -0.011134256 -0.019599093
000010 34 05 99 bb a3 3d d0 bb 70 8b 81 bc 22 de c1 bc
       -0.0046698097 -0.006355004 -0.01581356 -0.023665491
000020 12 14 8e bc 11 14 72 ba ba ae 5f 3c 59 e3 98 bc
       -0.017343555 -0.00092345575 0.013652498 -0.018663095
000030 9f d4 16 bc b3 11 9c bc 02 7f 47 3c b6 36 b0 ba
       -0.009205966 -0.019051408 0.012176277 -0.001344404
000040 7a 59 85 3c 08 d6 55 3b 22 f2 97 bb a2 cf b5 3c
       0.016278017 0.0032628793 -0.004637019 0.022193734
000050 57 9c 8a 3c ad 94 c4 3c aa 34 8b bc 18 77 44 3c
       0.016920252 0.023996675 -0.016992886 0.011991285
000060 9e 25 7b bc d7 15 82 bc f8 31 96 3c 37 95 32 3c
       -0.015328793 -0.015879555 0.018334374 0.010899833
000070 60 4e 71 bc 59 e5 89 bc e7 73 5d bc 5d 96 9a 3c
       -0.014728159 -0.016832994 -0.013516403 0.018870527
000080 bf c4 05 3c 63 42 4c 3a e1 d9 8e bc 9a fe fd 3b
       0.008164584 0.0007791875 -0.017437877 0.007751298
000090 f6 52 bd bb 64 c6 6e 3c 02 c8 b3 3b 2e 14 31 3c
       -0.005777712 0.014573667 0.0054864893 0.010808034
0000a0 a4 68 09 bc 4e 33 e5 b9 69 93 61 bc 3a c6 b8 3b
       -0.008386765 -0.0004371651 -0.0137680555 0.005638865
0000b0 fa 53 0b bb dc 4b b1 bc 70 a5 5b 3c 51 06 20 3c
       -0.002125977 -0.021642618 0.013406143 0.009767131
0000c0 89 f8 6c 3c f4 57 2c 3c db 7b 1e 3b 1b a4 91 3c
       0.014463552 0.0105190165 0.002418271 0.017778447
0000d0 6f 92 b1 bc 1d 05 e2 3b c3 15 a3 3c 4b ff 8a bb
       -0.02167627 0.006897582 0.019907838 -0.004241859
0000e0 46 5f 9e 3c 51 e9 29 3c 7f 53 ad 3c 54 aa af 3c
       0.01933254 0.010370568 0.021157978 0.021443523
0000f0 1b c7 3a 3c 4f f7 12 3b 9a e4 ad bc 93 74 15 bc
       0.0114000095 0.002242524 -0.02122717 -0.009122032
000100 32 21 b6 bc 02 4f 83 bb 65 8f 78 3c 7f dc 5d 3c
       -0.022232626 -0.004007221 0.015170907 0.01354134
000110 c0 26 f4 3a 38 a0 c5 bc 38 2c 5a 3c 15 5a 18 3c
       0.0018627271 -0.02412425 0.013316207 0.009298821
000120 9d 5c 50 bc 82 f1 bb bc 30 77 63 bc 1f 8a 01 3c
       -0.012717393 -0.022942308 -0.013883397 0.007906466
000130 c2 38 65 bc cc 73 92 bc f8 69 a6 bc 4c 4f 78 bc
       -0.013990583 -0.017877482 -0.020314202 -0.015155625
000140 b7 49 80 bb 29 f9 96 3c 8a e5 7d bc 41 4d b5 bc
       -0.0039150375 0.018429356 -0.015496621 -0.022131564
000150 55 c3 a9 3c 7c 4e 5d 3c 23 29 ff 3b 5e 0e 8a bc
       0.020723024 0.013507482 0.0077868863 -0.016852554
000160 c7 f9 8d 3c 24 91 26 3c 63 c2 7f 3b 33 f9 98 3c
       0.017331017 0.01016644 0.0039025776 0.018673515
000170 ce 69 f5 3b 20 d8 7e 3c 1f 0b ee bb d1 8d 7a 3c
       0.0074894195 0.015554458 -0.0072645093 0.015292601
000180 7e a9 48 bc 6c 2e c3 3b 2e 90 81 bc eb 28 bd bc
       -0.012247441 0.0059564617 -0.01581582 -0.0230908
000190 77 c1 aa bc 26 cd 96 bc d0 2a 5f 3c 26 a8 c6 3c
       -0.020844204 -0.01840837 0.013621047 0.024250101
0001a0 a9 26 7b 3c c6 c8 0f ba be a1 5c b9 35 67 64 3b
       0.0153290415 -0.00054849347 -0.00021041089 0.0034851555
0001b0 6c f9 c2 3c c7 32 54 3c 51 0e 76 bc b1 7f 60 bc
       0.023800574 0.012951559 -0.015018062 -0.013702319
0001c0 7d 83 a8 3c ef 87 5e 3c f0 90 c8 bc fe 66 aa bc
       0.020570511 0.013582214 -0.024483174 -0.020801064
0001d0 d3 ac 52 3c 2e b8 42 bc 2c 19 9c 3c 21 fd 85 3c
       0.012858587 -0.011884732 0.019054972 0.016356053
0001e0 69 15 a0 bc 60 d2 c0 3b 9c 21 84 bb 95 1c c2 bc
       -0.01954146 0.0058844537 -0.004032327 -0.02369527
0001f0 c9 19 07 3c ae 97 34 3b 52 ae 96 3b 84 ea a5 bc
       0.008245894 0.0027556228 0.0045984173 -0.020253427
000200 05 08 b5 bb 8a af 94 bb ea 33 b1 bc 39 5c 9f 3c
       -0.0055246376 -0.0045375274 -0.0216312 0.019453155
000210 ce a6 df bb d1 27 43 3c 8d d1 d5 bb 78 66 a0 bc
       -0.0068253046 0.011911348 -0.0065252245 -0.01958011
000220 6f 4e de bb 84 13 98 3b ef 6c a1 3c 48 45 77 3b
       -0.0067842524 0.0046409983 0.019705264 0.0037730504
000230 c2 a6 8b 3c aa cf 40 3c 7f 9a 8c bc 98 48 5b 3a
       0.01704729 0.011768261 -0.017163513 0.00083650043
000240 71 d0 b4 3c 26 2b 01 bc 34 76 2d 3c c4 1c b1 3c
       0.022072049 -0.007883823 0.010587264 0.021620162
000250 9b cc db ba c3 ef 1b bc 36 30 80 bc e1 79 16 bb
       -0.0016769351 -0.009517613 -0.015647989 -0.002296083
000260 a4 2d 8c bc 94 35 c6 3c 6b 3d b3 bc 3f 76 b3 3c
       -0.017111607 0.02419547 -0.021879872 0.02190697
000270 e2 6d 8a 3c 6a af ad bc c1 de 6c bc 76 1c bf 3c
       0.0168981 -0.021201808 -0.014457406 0.023329
000280 8e 1b 3e bb cd 3c 8c bc 88 b7 b7 3a c8 52 ad bb
       -0.0029008123 -0.017118836 0.0014016489 -0.0052894093
000290 85 b5 60 3b 16 82 24 3c eb 87 ac bc d1 f4 4e bc
       0.0034287882 0.0100407805 -0.021060904 -0.012631611
0002a0 aa 1c 85 b9 2b 2c c2 3c 97 07 98 bc fb bc 55 bc
       -0.00025389093 0.023702702 -0.018558307 -0.013045545
0002b0 f8 ea 65 3c 5b eb c3 3c 6a e8 59 3b e0 b5 21 b9
       0.014033072 0.023915937 0.0033250102 -0.0001542191
0002c0 30 5e 31 3c 52 1d 9b bb 49 ad 75 3c 7a a5 cb 3c
       0.010825679 -0.00473372 0.014994928 0.024859179
0002d0 66 ae 93 3c db 69 c8 bc ab c6 a1 3c e5 a3 c4 3c
       0.018027496 -0.024464538 0.019748053 0.024003932
0002e0 1f d3 2f 3c d1 c0 f6 bb 07 45 45 bb f8 be 84 bc
       0.010731488 -0.0075303097 -0.0030100958 -0.016204342
0002f0 3b 13 81 bb dd 91 83 3c f2 08 c4 bb df 29 64 bb
       -0.00393906 0.016060764 -0.0059825117 -0.0034814996
000300 31 0b 85 bb 5d 01 c4 38 eb 88 6d 3b b2 d7 5a bb
       -0.004060172 9.346262e-05 0.003624494 -0.0033392725
000310 2e 70 c7 bc d9 a3 ff bb 3c 3a 4d bc a9 91 0e bc
       -0.024345484 -0.0078015146 -0.012526091 -0.00870172
000320 00 ad 4b bc 9c ce 8f bc 93 c3 a5 bc c2 42 12 bc
       -0.012431383 -0.017554574 -0.020234859 -0.008927049
000330 d3 a0 6c 3b 52 f9 c9 3c be bc 1a 3b 3d f0 0e 3b
       0.00361066 0.024655018 0.0023611034 0.0021810674
000340 0c 0c 48 3c c9 a2 b8 3b ce 23 a4 bc 54 8d c6 bc
       0.012209903 0.00563464 -0.020036604 -0.024237312
000350 f7 13 7b bc a4 de a9 bb 13 18 8a bc d5 ad 98 3c
       -0.015324584 -0.0051840115 -0.016857183 0.018637577
000360 01 32 fd bb d4 ae 3d bc 05 85 90 bc 9c 52 33 bc
       -0.007726908 -0.011577327 -0.017641554 -0.010944989
000370 f8 98 9a bc 68 01 ab 3c 77 03 dc 3b c6 e3 af bc
       -0.01887177 0.020874694 0.00671428 -0.021470916
000380 5c 27 c8 3c 8a c1 a3 bb 52 9c 06 3c 97 f7 85 bb
       0.02443283 -0.004997437 0.008215981 -0.004088353
000390 be 2b 9a bb f8 7d 61 3c 7b 6e b3 3c d7 17 1b 3c
       -0.0047049215 0.013762943 0.021903267 0.009466133
0003a0 55 52 c9 3c 8f 83 c4 3c 52 f3 b3 ba ae 5e 05 bb
       0.024575392 0.023988513 -0.0013729131 -0.0020350623
0003b0 d7 c6 d6 ba eb 91 b3 bb a2 48 15 bc 91 e3 a7 bc
       -0.0016386163 -0.0054800413 -0.009111555 -0.020494254
0003c0 b3 d3 c2 bc fb 4a 1f bc 14 ba 1b bc a5 6d c7 bc
       -0.023782587 -0.009722467 -0.009504814 -0.024344275
0003d0 5e 63 b3 bb ac aa 85 3c eb e3 6b bb b0 8e 34 bc
       -0.005474492 0.016316734 -0.0035994004 -0.0110203475
0003e0 ac 0a 02 ba 9a 90 86 3c 26 be 37 bc 5f d7 28 bc
       -0.00049606967 0.016426373 -0.0112147685 -0.010305255
0003f0 b4 d5 c9 ba 37 f2 68 ba 4a 94 bd 3c 39 cf b3 bc
       -0.0015398772 -0.00088861905 0.023141999 -0.021949397

conv2.bias f4 [32]
000000 1f cc f9 bb 81 80 c4 bc ae 66 91 bb dd 32 86 3c
       -0.00762321 -0.023987057 -0.004437289 0.016381675
000010 d8 22 df 3c e4 6a a9 3c 77 84 75 bc 62 a9 14 3d
       0.027238294 0.020680852 -0.014985195 0.03629435
000020 f6 74 6b 3b df 95 41 bc 8d 9d ef bb 6a db 70 3b
       0.0035927868 -0.011815517 -0.0073124827 0.0036751875
000030 15 a7 00 3d 66 ee d8 3c ed 5b b4 bb 66 85 1a bc
       0.03140934 0.026480865 -0.0055041225 -0.009431219
000040 e3 9b 88 bc c3 0c 92 bc 4e 19 ce 3c ef 02 b0 3c
       -0.016675895 -0.01782835 0.02515855 0.021485774
000050 d1 d4 d9 b9 18 71 2f 3b 4b ec ee bb aa 83 3e 3a
       -0.00041548026 0.002677029 -0.007291352 0.0007267544
000060 69 de 3d 3c 5e f9 2d bc f3 94 48 3c 3e 99 ea 3c
       0.011588671 -0.010618536 0.0122425435 0.028637525
000070 20 4e cd 3b 50 d6 88 bc e5 ec 6f bb 54 54 89 bb
       0.0062654167 -0.016703755 -0.0036609706 -0.004190961

conv3.weight f4 [1, 32, 5, 5]
000000 6c cf 9d 3c fb 93 96 3c 2b 57 e6 ba 6d 4a c8 3c
       0.019263946 0.01838111 -0.0017573586 0.024449551
000010 80 be f7 3c 52 b1 ed bc 9b c8 dd 3a dc c6 0a bd
       0.030242205 -0.029015217 0.0016920747 -0.033881053
000020 58 c2 8a 3b b0 28 29 3c 81 c6 0b bb 06 3e e5 3c
       0.0042345934 0.010324642 -0.0021328034 0.027983677
000030 06 e5 48 3c d4 da f2 bc d1 cd 39 bb a1 c6 7c bc
       0.012261635 -0.029645361 -0.0028351436 -0.015428216
000040 2c 58 ea bc 7a 0e 8c b9 0e 44 02 bd 98 fb c0 3c
       -0.028606497 -0.00026713667 -0.031803183 0.02355747
000050 ed 9a 9a 3b c4 ed 51 3c f5 fa a1 3c 87 15 e4 3c
       0.0047181756 0.012813035 0.019772986 0.027842296
000060 c1 37 8d bc 56 53 9f 3b 9a 34 f1 bc 47 23 31 3c
       -0.0172385 0.0048622293 -0.029444028 0.010811633
000070 83 51 da 3c 1b 01 b4 bc e7 25 c0 3c f2 2d 38 bc
       0.026650196 -0.021973183 0.023455573 -0.011241423
000080 52 49 75 3c 68 52 63 bc 43 d7 01 3c 63 91 f0 bc
       0.014971094 -0.013874628 0.007924858 -0.0293662
000090 3a e0 07 3d 76 c2 84 ba 64 41 15 3d 33 14 15 bc
       0.033172823 -0.0010128755 0.036439314 -0.009099054
0000a0 05 1a 89 3c c9 26 5c bc ab cd 36 bc c2 e3 f3 bb
       0.01673604 -0.0134369815 -0.0111574335 -0.0074429223
0000b0 10 b3 9d 3c d7 9e 7c 3c 3b 3f bd 3c b9 55 69 bb
       0.019250423 0.01541873 0.02310144 -0.0035604073
0000c0 77 e8 a9 3b 06 5f c2 3c c7 9d 63 bc 56 7b 3f bc
       0.0051851827 0.023726951 -0.0138925975 -0.01168712
0000d0 d7 00 dc 3c eb bb f4 bc 1d bf 8c bc 2e 1a a1 bc
       0.02685587 -0.029874763 -0.017180974 -0.019665804
0000e0 73 94 f3 bb 3a be d4 bc 08 2b 06 3c fc d4 ca bc
       -0.007433468 -0.025969613 0.00818897 -0.024759762
0000f0 43 37 7f bc 4f 07 0d bd 7e 05 c2 3c ec e6 b1 bc
       -0.01557714 -0.0344308 0.02368426 -0.021716557
000100 08 3d 8d bb ac 60 ad bc ca 46 a0 bb 88 b8 db bb
       -0.004310254 -0.02116426 -0.004891251 -0.0067053474
000110 62 2e 3d bc e8 39 18 ba ec 3e 75 3c 49 f6 ed 3c
       -0.011546703 -0.00058069685 0.014968615 0.029048102
000120 df bf d6 3c 7b 42 d7 bc 02 8d 88 bb 65 1a e1 bc
       0.026214538 -0.026276818 -0.0041672 -0.027478406
000130 a7 1c 97 3c 13 3e ca 3c 26 7b 20 3c 5e c9 41 3c
       0.01844628 0.024687802 0.009794986 0.011827795
000140 ad 4d 10 3d 53 d1 57 bb 4b 42 f6 bc 57 99 87 bc
       0.035230327 -0.0032931163 -0.030060908 -0.01655261
000150 d7 c1 2a bc 47 e3 8b 3c 13 34 90 3a c3 ab e5 3c
       -0.010422192 0.017076148 0.0011001847 0.028036004
000160 65 55 a1 3c 3c e5 26 bc bf 1c 12 bc b6 02 40 bc
       0.01969404 -0.01018649 -0.008917986 -0.011719396
000170 2b 71 02 bd 7a e0 39 bc c7 f8 86 bc a3 f1 d7 bb
       -0.031846207 -0.011345023 -0.016476048 -0.0065900846
000180 c3 d2 fe bb 99 c4 59 bc 96 65 86 bc 68 89 b8 3b
       -0.0077765896 -0.013291501 -0.016405862 0.0056316145
000190 f9 86 a5 3b 61 5b 25 3c 4b 66 a0 3c f5 75 5b ba
       0.0050514904 0.010092587 0.019580027 -0.0008371764
0001a0 c9 0f 96 3b ec ef eb bb 5b 99 12 3d e2 1b f8 3b
       0.0045795185 -0.007200232 0.035790782 0.0075716833
0001b0 e6 5a f4 3c 6d b1 94 bc 77 4a c3 bc 6b 0e 3b 3c
       0.0298285 -0.01815101 -0.023839219 0.011417012
0001c0 85 cc b0 bc 81 71 e3 3c fa 08 ce 3c a8 76 09 3d
       -0.021581898 0.027764084 0.025150765 0.033560425
0001d0 dc 8d 1c 3d 3f cc 9a 3c c9 f0 95 3c b4 68 ac ba
       0.038221225 0.01889622 0.018303292 -0.0013153763
0001e0 36 8b 0f 3d 47 80 99 3c 10 31 9e bb 17 7d ff bc
       0.03504487 0.018737925 -0.004827626 -0.031187577
0001f0 9b 84 cc 3b 86 43 e7 3b 4b 38 e8 3c fa f3 c0 3c
       0.0062413937 0.00705761 0.028347155 0.023553837
000200 3e 6d 0d 3d cc 60 d5 3b c8 ab 60 3c a0 b7 e5 bc
       0.03452801 0.006511783 0.013712831 -0.02804166
000210 ae 25 8f 3b 09 9a 0e 3c 12 77 a1 bc 6e f3 87 bc
       0.0043685054 0.008703717 -0.019710097 -0.016595569
000220 57 64 63 3c 27 bd b3 bc e9 fa 69 bc a5 3f cc 3c
       0.013878903 -0.02194078 -0.014281013 0.024932692
000230 ae bd d8 3c a7 62 04 bd 4f dc 0c bd b1 75 af 3c
       0.026457634 -0.032320645 -0.03438979 0.021418424
000240 9c 49 28 bc 31 16 15 3b a2 9a d3 bc 5c 20 88 bc
       -0.010271456 0.0022748823 -0.02583057 -0.016616993
000250 8d f1 e0 3c d2 30 ab bc 7d 7f 52 3c b7 e1 bc 3a
       0.02745893 -0.020897303 0.012847778 0.001441053
000260 29 d0 32 3c 66 51 c9 3a 20 f2 f6 bb 57 f1 4c 3c
       0.010913887 0.0015359342 -0.007536188 0.012508712
000270 81 cc 1e 3c f5 5c 55 bb e9 f4 c1 3c ef ad 00 3d
       0.009692312 -0.0032556627 0.023676353 0.031415876
000280 c7 42 97 3c 9a b6 22 bc ef b0 d1 bc c7 e1 c3 bc
       0.01846446 -0.009931231 -0.025597064 -0.02391137
000290 7d ba 8c bc 6f ea 3b bb 09 18 94 3c e5 bc 1c 3c
       -0.017178768 -0.002867367 0.018077867 0.00956652
0002a0 f5 21 01 3d f9 fc 0a bd 88 6e 9f bc dd 37 05 3d
       0.031526525 -0.03393266 -0.019461885 0.03252398
0002b0 29 da ce bc b2 c8 b8 3c 7a 09 cd 3a 7d ca 07 bb
       -0.025250511 0.022556636 0.0015643083 -0.0020720058
0002c0 25 61 f5 3c ff b8 24 3d 2a a3 24 bc fe ee 5b 3a
       0.029953549 0.04021549 -0.010048667 0.00083897996
0002d0 73 fb 0e 3d 74 58 12 3d 71 df f7 3c dc 94 70 bc
       0.03490777 0.035728887 0.030257912 -0.014683928
0002e0 bd 28 a1 bc ce 51 0f 3d 70 1e 11 3d 1e 40 b4 3c
       -0.019672746 0.034990124 0.035429418 0.02200323
0002f0 13 46 49 3d 9d 2b 10 3d 83 87 b5 bb dc a5 a6 3c
       0.049139094 0.035197843 -0.005539836 0.02034276
000300 40 d7 45 3d 52 ee d6 3c 16 22 6b bc 53 07 16 bd
       0.04830098 0.026236687 -0.014351388 -0.03662808
000310 3a be 0c 3c b0 2d a0 3c 1e 3d 08 bd c3 07 c6 3b
       0.008590275 0.019553035 -0.03326141 0.0060434057
000320 27 c4 b2 bc f2 d8 6b 3c 6c 61 89 bc 98 c0 da bc
       -0.021822048 0.0143949855 -0.016770087 -0.026703164
000330 c0 d2 0b 3d fd 27 ad 3c 87 33 66 bc b9 18 cc bc
       0.034136534 0.021137232 -0.014050371 -0.024914132
000340 7e f3 c5 3c 1f c3 b3 bc 01 8f 2b bc 24 20 7c bc
       0.024163958 -0.021943627 -0.0104711065 -0.015388522
000350 78 52 3c 3c f2 81 e7 ba 7f 09 5c 3c 29 51 a2 bc
       0.011494271 -0.0017662628 0.013429998 -0.01981409
000360 9f 70 d7 3c c3 c2 9c 3b 10 7f c5 bc 3e 49 d2 bc
       0.02629882 0.0047839596 -0.02410844 -0.02566969
000370 cd c3 af 3c 0a 2a 77 bc f7 cc 2b 3c e0 6f 97 3a
       0.02145567 -0.0150857065 0.010485879 0.0011553727
000380 8c 87 85 bc 27 5c 24 3d 24 a4 32 bc c2 cf aa 3c
       -0.016299985 0.040126946 -0.010903392 0.02085102
000390 ca 25 ec 3c 82 05 8e 3c e5 d2 13 3d dd 16 cf bc
       0.028826613 0.01733661 0.036089797 -0.025279457
0003a0 bd 3e ff 3b 5f 2c 9b 3b e6 4e bc 3c e3 ff 95 bc
       0.0077894614 0.004735514 0.02298684 -0.018310493
0003b0 ed fe e0 bc 33 7d e0 bc 1e c6 dd 3c ee 51 6e 3c
       -0.027465308 -0.02740345 0.027072009 0.014545901
0003c0 31 6a 1f bd 0f 23 36 bc 9d 0a 03 bd 28 e5 ed bc
       -0.03891963 -0.011116757 -0.031992543 -0.029039934
0003d0 18 65 c8 3c cd d4 96 bc cd dc 90 3c 7d ff 0e 3d
       0.024462268 -0.018412018 0.017683411 0.03491162
0003e0 74 9a 11 3c f2 ca a5 3c 02 2b fc bc a1 ac 74 bc
       0.008886922 0.020238373 -0.030782226 -0.014933736
0003f0 c9 fb ea ba 8c bb fb 3b d5 24 6c 3c 3a 82 9d 3c
       -0.0017927821 0.0076822694 0.014413078 0.019227136
