outputs/x3/epoch_95.pth (torch, 231327 bytes, 5 tensors)

conv1.weight f4 [64, 1, 9, 9]
-0.03735299 0.010218218 -0.047888726 0.048651177 -0.089497715 0.085043006 -0.077733144 -0.085959494
-0.06904718 0.056003578 -0.03598184 0.049027793 -0.0863668 -0.061238464 -0.0375054 -0.019740874
-0.08340966 0.072688445 -0.019809755 0.0424217 0.08976928 0.034789592 0.044008244 0.11666485
-0.0436014 0.03952044 -0.047733247 0.08691039 0.09678774 -0.0889277 0.11331279 0.07298496
0.06408149 0.057699542 0.10039327 -0.0108429575 -0.086412266 -0.024521645 -0.06636924 0.024131436
-0.0013079714 -0.04291668 0.0034729452 0.114481874 -0.0045460765 0.012203823 -0.0103543205 0.026396006
0.11008534 0.080996856 0.051482104 0.034980632 0.03380576 0.046500314 -0.004909922 -0.09664839
-0.062056676 0.10151736 0.013721734 -0.083386935 0.024108807 0.09674747 -0.10226956 -0.0647015
-0.037132595 0.011104912 -0.01991889 -0.006948125 -0.10393419 0.056413084 0.101264335 0.070880964
-0.06832538 -0.08193392 0.053287122 0.009079448 0.051263306 -0.10405807 -0.0025988515 0.08188992
0.0547953 0.0041083293 0.020864945 -0.011603462 -0.061481863 -0.041907605 -0.067307875 0.093885645
0.06196194 0.037716467 -0.0841344 0.08598403 0.035307687 0.07803754 -0.042374887 0.024953874
0.11162171 0.077336684 0.08929128 -0.021896131 0.08586007 -0.084716804 0.012792405 -0.060267724
-0.025078777 -0.025881803 0.010935484 0.1017429 0.056382425 0.0014733027 0.08320815 -0.051209755
0.061064534 -0.010116348 -0.018370574 0.014475041 -0.08465366 0.0135574965 0.038753137 0.09933071
-0.028185844 0.044680055 0.11165343 -0.046954658 0.10670075 -0.054634318 0.04906719 0.043487877
0.032982323 0.09199077 -0.040961046 0.030770477 0.002348628 -0.08210699 -0.026296126 -0.074802436
0.04736164 0.008486727 0.010642245 -0.033115245 0.001069054 -0.033253383 0.032557778 0.10758008
0.01563056 -0.052055474 -0.071596675 0.0049852952 -0.085180946 -0.085198425 -0.072743915 -0.038726162
0.0065827393 0.076709725 0.04201432 0.0833861 -0.07145192 0.008002758 -0.0995013 0.06395012
0.02275749 0.10665019 -0.07901645 0.08910367 0.093796045 0.089832306 0.01583853 0.1010351
0.07420251 0.08289393 -0.0072437045 -0.08526385 -0.0014120648 0.020789256 -0.07568928 -0.063736655
-0.10652496 -0.03895948 0.09678459 0.01898204 -0.0067850184 0.0044282386 0.06927759 -0.09812128
-0.08573365 -0.036942948 -0.06394353 0.05731228 0.07851704 -0.10780619 -0.09430242 -0.108206764
0.04190331 0.08942621 -0.08615034 -0.051438667 0.03536863 -0.07254275 0.09438009 0.025867619
-0.030985817 0.0071621384 0.03462505 -0.03930406 -0.08609793 0.0007356323 0.0020262606 0.0022323013
-0.016261697 0.07132522 -0.031072794 -0.01082427 0.045663886 -0.06994505 0.029717907 -0.02459134
0.053294104 -0.06027843 0.004095558 0.010860917 -0.08940032 -0.08079415 0.042610146 -0.03233964
0.06598888 -0.10976216 -0.054924697 -0.09151809 0.044385884 -0.0032193917 -0.020721998 -0.01848249
-0.08684973 0.031513747 0.0027757308 -0.07667872 0.04181051 -0.0022372967 -0.10746065 0.059770178
0.059433408 -0.020929668 -0.07671496 0.004009464 0.08232722 0.10068728 -0.08277036 -0.04888713
0.08687241 0.053859193 0.06755118 -0.057415295 0.09607158 -0.09186264 -0.0056353146 0.0036813733
00000000: 73ff 18bd 506a 273c f826 44bd 7546 473d
00000010: 944a b7bd 072b ae3d 8e32 9fbd 880b b0bd
00000020: 9c68 8dbd 0264 653d b261 13bd 5ed1 483d
00000030: 14e1 b0bd 2fd5 7abd 439f 19bd 9db7 a1bc
00000040: afd2 aabd aedd 943d 1148 a2bc 60c2 2d3d
00000050: f5d8 b73d 887f 0e3d fd41 343d fbed ee3d
00000060: 6297 32bd 2fe0 213d f083 43bd 13fe b13d
00000070: a738 c63d ba1f b6bd 8910 e83d 2479 953d
00000080: 283d 833d 5b56 6c3d fd9a cd3d a9a6 31bc
00000090: eaf8 b0bd 9ee1 c8bc 99ec 87bd 4aaf c53c
000000a0: 3d70 abba 67c9 2fbd 5a9a 633b 7975 ea3d
000000b0: 41f7 94bb 8bf2 473c 2ba5 29bc 703c d83c
000000c0: 6c74 e13d aee1 a53d e6de 523d da47 0f3d
000000d0: e977 0a3d 1d77 3e3d 69e3 a0bb 97ef c5bd
000000e0: 242f 7ebd 55e8 cf3d 20d1 603c c5c6 aabd
000000f0: d57f c53c 8a23 c63d b472 d1bd 3882 84bd
00000100: 5918 18bd 60f1 353c f12c a3bc 19ad e3bb
00000110: 73db d4bd 6811 673d ad63 cf3d 0a2a 913d
00000120: 2dee 8bbd f9cc a7bd 9943 5a3d f7c1 143c
00000130: 79f9 513d 661c d5bd 7e51 2abb e7b5 a73d
00000140: 0971 603d 2a9f 863b f6ec aa3c 721c 3ebc
00000150: 68d4 7bbd 4fa7 2bbd b6d8 89bd 1e47 c03d
00000160: cecb 7d3d 957c 1a3d a84e acbd 6518 b03d
00000170: cb9e 103d 25d2 9f3d 4a91 2dbd 116c cc3c
00000180: ec99 e43d b262 9e3d 59de b63d 845f b3bc
00000190: 68d7 af3d 0180 adbd 3c97 513c 4adb 76bd
000001a0: 0272 cdbc 1306 d4bc bf2a 333c 955e d03d
000001b0: 42f1 663d d61b c13a 0969 aa3d 52c1 51bd
000001c0: ce1e 7a3d 0abf 25bc e37d 96bc b928 6d3c
000001d0: e65e adbd 4320 5e3c 9cbb 1e3d e66d cb3d
000001e0: 00e6 e6bc 6f02 373d 8eaa e43d 8753 40bd
000001f0: ec85 da3d 3cc8 5fbd aefa 483d 5820 323d
00000200: 7918 073d a865 bc3d c5c6 27bd 5e12 fc3c
00000210: 70eb 193b b627 a8bd f96a d7bc 0532 99bd
00000220: 47fe 413d ea0b 0b3c d05c 2e3c daa3 07bd
00000230: 801f 8c3a b334 08bd 4e5b 053d f252 dc3d
00000240: a90b 803c 1f38 55bd 47a1 92bd b05b a33b
00000250: 5973 aebd 837c aebd c3fa 94bd 539f 1ebd
00000260: 05b4 d73b fd19 9d3d 3517 2c3d 55c6 aa3d
00000270: 6255 92bd 001e 033c 56c7 cbbd 48f8 823d
00000280: ea6d ba3c 6a6b da3d 60d3 a1bd fc7b b63d
00000290: 2418 c03d 00fa b73d cebf 813c 7eeb ce3d
000002a0: 7cf7 973d 4bc4 a93d 995c edbb d09e aebd
000002b0: 0815 b9ba 3b4e aa3c fb02 9bbd 5d88 82bd
000002c0: c229 dabd fa93 1fbd 0037 c63d 3980 9b3c
000002d0: dc54 debb c21a 913b 69e1 8d3d cff3 c8bd
000002e0: 2095 afbd 7d51 17bd d3f4 82bd 48c0 6a3d
000002f0: 8bcd a03d 7ec9 dcbd a121 c1bd 829b ddbd
00000300: cea2 2b3d 1725 b73d 976f b0bd 5ab1 52bd
00000310: b2de 103d 4b91 94bd 594a c13d 54e8 d33c
00000320: f8d5 fdbc 5fb0 ea3b ffd2 0d3d 4bfd 20bd
00000330: 1d54 b0bd 73d7 403a 03cb 043b cd4b 123b
00000340: 4037 85bc f512 923d 5f8c febc 4758 31bc
00000350: 0e0a 3b3d 5a3f 8fbd f872 f33c c773 c9bc
00000360: eb4a 5a3d 84e6 76bd 0834 863b fdf1 313c
00000370: 8417 b7bd 6777 a5bd fa87 2e3d 9276 04bd
00000380: 2e25 873d fcca e0bd b8f8 60bd d66d bbbd
00000390: f9cd 353d 6efc 52bb 2ec1 a9bc 9768 97bc
000003a0: 45de b1bd 8f14 013d 09e9 353b bc09 9dbd
000003b0: 7f41 2b3d 9c9f 12bb 5414 dcbd 93d1 743d
000003c0: 7270 733d b274 abbc bc1c 9dbd d261 833b
000003d0: 2c9b a83d 2235 ce3d 8283 a9bd df3d 48bd
000003e0: 29ea b13d 759b 5c3d 4658 8a3d 4d2c 6bbd
000003f0: 2dc1 c43d 7b22 bcbd 72a8 b8bb 3243 713b

conv1.bias f4 [64]
-0.0138045605 -0.06660385 -0.004740856 -0.063905686 0.033259317 -0.025255995 0.06246249 0.055806752
0.10956953 -0.0726901 -0.003973422 0.0014856996 -0.0725511 0.09696334 0.064333186 0.0699497
-0.036311623 -0.05261432 0.066035695 0.016273428 0.014853117 -0.02139504 -0.10287351 0.06452367
-0.047279876 0.062094644 -0.027615217 -0.0073533948 0.02940754 0.03393286 0.12222895 -0.041032378
0.039380614 0.043182466 -0.016354576 -0.09180806 -0.01710601 0.075852334 -0.09427748 0.012920271
-0.056782488 -0.055272717 0.092492476 0.0024214715 0.03540494 0.016742907 -0.0793934 -0.11107467
-0.06995459 -0.007261659 -0.047754295 -0.023153152 0.0367827 -0.0067323246 0.0077536697 -0.054523986
0.07581777 -0.05441611 -0.006551965 0.09559282 0.10337826 -0.058759794 -0.09882527 -0.077749796
00000000: 862c 62bc 9967 88bd 2f59 9bbb fce0 82bd
00000010: ec3a 083d a9e5 cebc abd8 7f3d 9f95 643d
00000020: fd65 e03d 8cde 94bd 7b33 82bb cebb c23a
00000030: ac95 94bd b794 c63d 1ec1 833d ca41 8f3d
00000040: 7fbb 14bd 1d82 57bd b93d 873d da4f 853c
00000050: 7d5a 733c a744 afbc 59af d2bd fc24 843d
00000060: 8ba8 41bd f456 7e3d 4f39 e2bc bff4 f0bb
00000070: 15e8 f03c 2ffd 0a3d 2c53 fa3d 9111 28bd
00000080: 914d 213d 19e0 303d 08fa 85bc dd05 bcbd
00000090: e721 8cbc 7858 9b3d 8d14 c1bd 8baf 533c
000000a0: c194 68bd a565 62bd b26c bd3d 8db1 1e3b
000000b0: c504 113d 6c28 893c 0299 a2bd 1e7b e3bd
000000c0: 5a44 8fbd 36f3 edbb 029a 43bd aeab bdbc
000000d0: 75a9 163d d59a dcbb 7f12 fe3b 8b54 5fbd
000000e0: 5946 9b3d 6de3 5ebd deb1 d6bb 2bc6 c33d
000000f0: fbb7 d33d 1cae 70bd e764 cabd 493b 9fbd

conv2.weight f4 [32, 64, 5, 5]
0.0049267663 0.010276832 -0.011552015 -0.019975372 -0.0049853246 -0.0063080466 -0.01590981 -0.02383753
-0.017415958 -0.0010476034 0.01341174 -0.018982183 -0.009558429 -0.01941161 0.011605092 -0.0019017509
0.01575263 0.0028159432 -0.0051308917 0.021481492 0.016201703 0.02335688 -0.017551215 0.011419272
-0.016043479 -0.015670538 0.018431269 0.01103487 -0.01454995 -0.016697062 -0.013387526 0.018954316
0.008311901 0.0010231514 -0.017245864 0.007736156 -0.0057206405 0.0146691855 0.0056693796 0.0109998565
-0.008603403 -0.000572874 -0.013964111 0.0054411306 -0.0022727048 -0.021755768 0.013337047 0.00961774
0.014278707 0.010406919 0.0024203414 0.017778447 -0.02167627 0.0068976874 0.019907838 -0.004240237
0.0193325 0.010368432 0.021157943 0.021443523 0.011402051 0.002243737 -0.021227598 -0.009125232
-0.022235028 -0.0040049953 0.015173075 0.013537628 0.0018548447 -0.024128528 0.013320971 0.009312026
-0.012704814 -0.022939144 -0.013880732 0.008356191 -0.013518379 -0.01736933 -0.019936098 -0.014981772
-0.0039604683 0.01840203 -0.015437012 -0.022177167 0.02044553 0.013520183 0.0078552365 -0.016698398
0.017432766 0.010106675 0.0036097646 0.01844416 0.0073848637 0.015522682 -0.007415284 0.0154047385
-0.012103105 0.006166105 -0.0155418385 -0.023010023 -0.020979028 -0.018530281 0.013450393 0.024089389
0.015127371 -0.00079487346 -0.000523199 0.0031486526 0.023658246 0.0129363 -0.015360313 -0.014173643
0.020011274 0.013176512 -0.024619732 -0.0209037 0.012667398 -0.012244418 0.018569274 0.015996529
-0.019902678 0.005614667 -0.0044392417 -0.024423866 0.007498745 0.0027837032 0.0046388414 -0.020224068
-0.0055195093 -0.0045730243 -0.021680353 0.019417316 -0.0068830615 0.011818571 -0.0066571115 -0.019506015
-0.0066779577 0.0047562215 0.019798694 0.0039107315 0.017060615 0.011799491 -0.01713967 0.00081362546
0.022186242 -0.0075432207 0.010945053 0.021989614 -0.0013619863 -0.009031089 -0.014567806 -0.001350886
-0.016279615 0.024950797 -0.021047613 0.021377185 0.016112743 -0.022162754 -0.015400421 0.022669833
-0.0036106526 -0.017923396 0.00036547903 -0.0065120948 0.0024438764 0.009362522 -0.021566223 -0.013258129
-0.0012944946 0.022595413 -0.019590441 -0.0137348855 0.013478789 0.022987556 0.0021911305 0.00043627416
0.011193883 -0.0049032224 0.014813036 0.024793215 0.0178715 -0.024654754 0.019238744 0.02350223
0.010309875 -0.008232493 -0.003395151 -0.016613435 -0.004197118 0.015866028 -0.0067851827 -0.003947422
-0.004519429 -0.00023355325 0.003287102 -0.0037843585 -0.02466263 -0.00833102 -0.013013368 -0.00926453
-0.012511307 -0.017607886 -0.020236742 -0.008925547 0.0036054289 0.024594575 0.0022504644 0.002158132
0.012219525 0.005608281 -0.020055924 -0.02438356 -0.015429048 -0.005193611 -0.016842913 0.018600086
-0.007883965 -0.011759826 -0.0177261 -0.010970665 -0.018803114 0.020900171 0.0066441223 -0.021524666
0.024445731 -0.0048485952 0.0084390715 -0.0038401631 -0.00451256 0.013914089 0.021718483 0.00931165
0.024481107 0.023882328 -0.0015346359 -0.0024584923 -0.002031627 -0.0057656905 -0.009339774 -0.020729527
-0.024067618 -0.0099843675 -0.009664141 -0.024416182 -0.005547541 0.016226256 -0.003742408 -0.01111291
-0.00051859795 0.016431136 -0.011218013 -0.010309085 -0.0015458956 -0.0008938448 0.023141101 -0.021926008
00000000: b670 a13b 2860 283c aa44 3dbc 64a3 a3bc
00000010: ef5b a3bb bbb3 cebb 4a55 82bc ec46 c3bc
00000020: e9ab 8ebc bd4f 89ba eabc 5b3c 8680 9bbc
00000030: f59a 1cbc 1905 9fbc 4923 3e3c 2c44 f9ba
00000040: a90b 813c b08b 383b 0a21 a8bb f4f9 af3c
00000050: 6fb9 843c ed56 bf3c 91c7 8fbc e617 3b3c
00000060: 9d6d 83bc 805f 80bc 2cfd 963c 99cb 343c
00000070: ea62 6ebc 47c8 88bc 5b57 5bbc 1546 9b3c
00000080: a42e 083c 441b 863a 3347 8dbc 957f fd3b
00000090: 3674 bbbb 0657 703c 34c6 b93b be38 343c
000000a0: 4af5 0cbc ec2c 16ba bac9 64bc 834b b23b
000000b0: a9f1 14bb 2739 b2bc a183 5a3c ba93 1d3c
000000c0: 3df1 693c c881 2a3c 979e 1e3b 1ba4 913c
000000d0: 6f92 b1bc ff05 e23b c315 a33c b0f1 8abb
000000e0: 315f 9e3c 5be0 293c 6c53 ad3c 54aa af3c
000000f0: abcf 3a3c a90b 133b 80e5 adbc ff81 15bc
00000100: 3c26 b6bc 563c 83bb 7d98 783c edcc 5d3c
00000110: 431e f33a 31a9 c5bc 3440 5a3c 7891 183c
00000120: da27 50bc dfea bbbc 026c 63bc 68e8 083c
00000130: 317c 5dbc 204a 8ebc 0751 a3bc 1b76 75bc
00000140: d1c6 81bb dbbf 963c 85eb 7cbc e4ac b5bc
00000150: 627d a73c c283 5d3c 40b3 003c 14cb 88bc
00000160: 29cf 8e3c 7896 253c cd91 6c3b 3518 973c
00000170: bafc f13b d952 7e3c e9fb f2bb 2864 7c3c
00000180: 1a4c 46bc 0a0d ca3b 32a3 7ebc 847f bcbc
00000190: 36dc abbc d1cc 97bc 0a5f 5c3c 1c57 c53c
000001a0: cbd8 773c 0e5f 50ba 4a27 09ba a059 4e3b
000001b0: f0ce c13c c6f2 533c d2a9 7bbc 9138 68bc
000001c0: afee a33c 4ce2 573c 52af c9bc 3c3e abbc
000001d0: eb8a 4f3c d09c 48bc 971e 983c 270b 833c
000001e0: f10a a3bc 3efb b73b 0f77 91bb 8f14 c8bc
000001f0: 08b8 f53b ca6e 363b 6c01 983b f2ac a5bc
00000200: 00dd b4bb 4fd9 95bb ff9a b1bc 1011 9f3c
00000210: 4e8b e1bb aea2 413c e623 dabb 14cb 9fbc
00000220: c5d2 dabb 14da 9b3b df30 a23c 9825 803b
00000230: b4c2 8b3c a752 413c 7e68 8cbc 7b49 553a
00000240: ecbf b53c 1f2d f7bb e152 333c 9023 b43c
00000250: ad84 b2ba 22f7 13bc cfad 6ebc 3610 b1ba
00000260: d45c 85bc 9d65 cc3c 0b6c acbc 351f af3c
00000270: dffe 833c aa8e b5bc 0c52 7cbc 16b6 b93c
00000280: b3a0 6cbb 16d4 92bc c49d bf39 6963 d5bb
00000290: 7129 203b 4365 193c a6ab b0bc a038 59bc
000002a0: 08ac a9ba 041a b93c 227c a0bc 4908 61bc
000002b0: 23d6 5c3c 6650 bc3c 1299 0f3b babb e439
000002c0: 8c66 373c 36ab a0bb 60b2 723c 241b cb3c
000002d0: 4167 923c c4f8 c9bc 929a 9d3c c087 c03c
000002e0: c0ea 283c 94e1 06bc 2f81 5ebb e618 88bc
000002f0: fa87 89bb 79f9 813c 3d56 debb 6059 81bb
00000300: b817 94bb f9e5 74b9 6c6c 573b 0003 78bb
00000310: 4909 cabc d57e 08bc 0536 55bc 41ca 17bc
00000320: 3afc 4cbc 6a3e 90bc 86c7 a5bc 753c 12bc
00000330: 0f49 6c3b 907a c93c 877c 133b 726f 0d3b
00000340: 6734 483c acc5 b73b 524c a4bc 08c0 c7bc
00000350: 1eca 7cbc 2b2f aabb 26fa 89bc 355f 983c
00000360: bf2b 01bc 49ac 40bc 5336 91bc 4ebe 33bc
00000370: fd08 9abc d636 ab3c f0b6 d93b 7f54 b0bc
00000380: 6a42 c83c f7e0 9ebb 0844 0a3c 3fab 7bbb
00000390: 19de 93bb ebf7 633c f6ea b13c e48f 183c
000003a0: 9a8c c83c dfa4 c33c d625 c9ba a81e 21bb
000003b0: 0c25 05bb 1eee bcbb da05 19bc f8d0 a9bc
000003c0: 7429 c5bc 7995 23bc 5856 1ebc 7204 c8bc
000003d0: 26c8 b5bb edec 843c 3043 75bb ec12 36bc
000003e0: 85f2 07ba 979a 863c c2cb 37bc 70e7 28bc
000003f0: a69f caba e950 6aba 6892 bd3c 2c9e b3bc

conv2.bias f4 [32]
-0.010617363 -0.024400923 -0.0039410735 0.014920198 0.02664148 0.02099833 -0.0145550035 0.03696945
0.0031109343 -0.011237736 -0.007249843 0.0039341324 0.031330373 0.026896464 -0.005357207 -0.009609478
-0.015820023 -0.017900782 0.025384493 0.026516888 0.0012835873 0.0012171621 -0.0039719692 0.00015247024
0.011888247 -0.01060895 0.014290045 0.028386438 0.0051017 -0.016680226 -0.0063530393 -0.006126406
00000000: 73f4 2dbc 72e4 c7bc 1f24 81bb d973 743c
00000010: 3c3f da3c b104 ac3c 1c78 6ebc 476d 173d
00000020: d1e0 4b3b 7b1e 38bc 1790 edbb e5e9 803b
00000030: 4754 003d f955 dc3c 828b afbb 1271 1dbc
00000040: fe98 81bc a9a4 92bc 24f3 cf3c f239 d93c
00000050: 0b3e a83a 2f89 9f3a 4b27 82bb 6be0 1f39
00000060: ecc6 423c 29d1 2dbc cb20 6a3c ad8a e83c
00000070: 292c a73b f8a4 88bc 282d d0bb 05c0 c8bb

conv3.weight f4 [1, 32, 5, 5]
0.019030215 0.018093387 -0.001908745 0.024358109 0.030205175 -0.029289773 0.0014883634 -0.033928137
0.004174809 0.010229555 -0.002241171 0.028112344 0.012491265 -0.029545356 -0.0029443477 -0.015413418
-0.028251868 0.0002211357 -0.03151652 0.023529507 0.004558345 0.012773768 0.01983187 0.027825125
-0.017342683 0.0050832406 -0.029650657 0.0103437435 0.026549896 -0.021712044 0.023498029 -0.011934741
0.013778509 -0.014309267 0.007959338 -0.029639177 0.03215026 -0.0025815559 0.035692703 -0.0095864665
0.017004177 -0.013471516 -0.011463641 -0.0074847955 0.018910458 0.015739264 0.02341872 -0.0031312476
0.0056100716 0.02376651 -0.0138925975 -0.01168712 0.02685587 -0.029874763 -0.017180974 -0.019665804
-0.0074334904 -0.025969613 0.00818897 -0.024759762 -0.015577141 -0.0344308 0.023684219 -0.021716557
-0.004310254 -0.02116426 -0.004891976 -0.006711071 -0.011546703 -0.0005806942 0.014968615 0.029048102
0.026214538 -0.026276818 -0.0041672 -0.027519148 0.018281749 0.02456913 0.009695879 0.011793942
0.035073828 -0.0035610276 -0.030196765 -0.016618608 -0.0104914475 0.016726611 0.00081942725 0.02786932
0.019683782 -0.010217711 -0.0092015425 -0.011885746 -0.03188965 -0.011292451 -0.016454395 -0.0067813667
-0.007838436 -0.0132550495 -0.016295714 0.005733303 0.0064046294 0.01062606 0.01921427 -0.00046772012
0.005099257 -0.0062203277 0.035891615 0.0064544864 0.0293343 -0.01831809 -0.024037424 0.010709012
-0.023301639 0.026576547 0.024349337 0.032581147 0.037554644 0.018268256 0.01805321 -0.0018806828
0.034678128 0.018789997 -0.0041215597 -0.030239267 0.0065101273 0.0062593184 0.027759457 0.022589639
0.033135317 0.0056402585 0.012456848 -0.028220981 0.0047783838 0.008721512 -0.019599145 -0.017005999
0.014954661 -0.020207008 -0.013275063 0.025441816 0.026699342 -0.030874087 -0.032650165 0.021737322
-0.010907065 0.0026113882 -0.024840044 -0.01574693 0.027082317 -0.021991642 0.012847778 0.001441101
0.010913887 0.0015359891 -0.007536183 0.012508939 0.009693347 -0.0032663385 0.023676936 0.031415876
0.018464465 -0.009930901 -0.025597049 -0.023911348 -0.017178763 -0.0028660898 0.018077869 0.009566574
0.031526525 -0.03393266 -0.019461885 0.03252398 -0.025250511 0.022556636 0.0015637064 -0.002030222
0.028905712 0.038716614 -0.009700042 0.00126041 0.03469666 0.033820085 0.027224964 -0.015329136
-0.019810284 0.033385992 0.031589165 0.016493732 0.046940137 0.034558672 -0.0054931636 0.01933474
0.04633193 0.026243014 -0.013346319 -0.035111092 0.009602796 0.019714408 -0.032689787 0.0068649505
-0.021822048 0.014393788 -0.016690185 -0.026649758 0.034137473 0.021137232 -0.014055068 -0.024863638
0.024205083 -0.021938872 -0.010470963 -0.015432054 0.011369828 -0.001808941 0.013382349 -0.01981409
0.026298603 0.004727128 -0.02411221 -0.025690325 0.02145567 -0.01508709 0.010441848 0.0011489958
-0.016319064 0.039313015 -0.011099016 0.02018453 0.02823157 0.017952627 0.035741825 -0.024762109
0.007474282 0.0039957403 0.02283843 -0.016954055 -0.02531271 -0.026506722 0.0267972 0.01398022
-0.037127588 -0.009053387 -0.031130295 -0.029295595 0.023884984 -0.017480865 0.018325718 0.034486018
0.008271955 0.020068837 -0.030782226 -0.014933736 -0.0017928309 0.0076822694 0.014413078 0.019227136
00000000: 41e5 9b3c 9538 943c db2e faba a88a c73c
00000010: d870 f73c 1bf1 efbc 3015 c33a 3bf8 0abd
00000020: d6cc 883b dd99 273c 9ce0 12bb dc4b e63c
00000030: 2aa8 4c3c 1a09 f2bc f5f5 40bb 9088 7cbc
00000040: 7670 e7bc aae0 6739 7717 01bd f4c0 c03c
00000050: 2b5e 953b 1149 513c 7276 a23c 84f1 e33c
00000060: 3e12 8ebc 5091 a63b efe5 f2bc ce78 293c
00000070: 2b7f d93c 75dd b1bc f07e c03c ef89 43bc
00000080: 41bf 613c 6a71 6abc e267 023c dccd f2bc
00000090: feaf 033d 522f 29bb 8332 123d 8e10 1dbc
000000a0: 584c 8b3c a2b7 5cbc ffd1 3bbc 0443 f5bb
000000b0: 1bea 9a3c a1ef 803c 9ed8 bf3c 9e35 4dbb
000000c0: b1d4 b73b fcb1 c23c c79d 63bc 567b 3fbc
000000d0: d700 dc3c ebbb f4bc 1dbf 8cbc 2e1a a1bc
000000e0: a394 f3bb 3abe d4bc 082b 063c fcd4 cabc
000000f0: 4437 7fbc 4f07 0dbd 6805 c23c ece6 b1bc
00000100: 083d 8dbb ac60 adbc de4c a0bb 8be8 dbbb
00000110: 622e 3dbc ba39 18ba ec3e 753c 49f6 ed3c
00000120: dfbf d63c 7b42 d7bc 028d 88bb d66f e1bc
00000130: 9bc3 953c 3345 c93c 77db 1e3c 613b 413c
00000140: 93a9 0f3d 2160 69bb 355f f7bc bf23 88bc
00000150: 52e4 2bbc 3f06 893c d5ce 563a 334e e43c
00000160: e23f a13c 3068 27bc 11c2 16bc 6fbc 42bc
00000170: b99e 02bd f903 39bc 5ecb 86bc 3a36 debb
00000180: c96c 00bc b52b 59bc 977e 85bc 6ede bb3b
00000190: eddd d13b ed18 2e3c 3f67 9d3c 5538 f5b9
000001a0: ab17 a73b e4d3 cbbb 1603 133d 2880 d33b
000001b0: 7c4e f03c d20f 96bc 22ea c4bc da74 2f3c
000001c0: 14e3 bebc 0fb7 d93c 4378 c73c cf73 053d
000001d0: e6d2 193d 4fa7 953c 53e4 933c 3e81 f6ba
000001e0: a70a 0e3d 7bed 993c 260e 87bb 57b8 f7bc
000001f0: e852 d53b f81a cd3b cd67 e33c e80d b93c
00000200: e6b8 073d ebd1 b83b cf17 4c3c b02f e7bc
00000210: fd93 9c3b ace4 0e3c 638e a0bc 2a50 8bbc
00000220: 6504 753c 2b89 a5bc a67f 59bc 5b6b d03c
00000230: 94b8 da3c a7eb fcbc 2ebc 05bd 7812 b23c
00000240: 8cb3 32bc d323 2b3b 597d cbbc b5ff 80bc
00000250: bcdb dd3c d127 b4bc 7d7f 523c 53e3 bc3a
00000260: 29d0 323c 3e53 c93a 16f2 f6bb 4bf2 4c3c
00000270: d8d0 1e3c 1110 56bb 22f6 c13c efad 003d
00000280: ca42 973c 38b5 22bc e7b0 d1bc bbe1 c3bc
00000290: 7aba 8cbc 02d5 3bbb 0a18 943c 1fbd 1c3c
000002a0: f521 013d f9fc 0abd 886e 9fbc dd37 053d
000002b0: 29da cebc b2c8 b83c 48f5 cc3a 790d 05bb
000002c0: accb ec3c 5095 1e3d edec 1ebc 5734 a53a
000002d0: 161e 0e3d ee86 0a3d e306 df3c 0e27 7bbc
000002e0: 2d49 a2bc c0bf 083d a463 013d dd1d 873c
000002f0: 4d44 403d 658d 0d3d ffff b3bb e363 9e3c
00000300: 8dc6 3d3d 97fb d63c 85aa 5abc a6d0 0fbd
00000310: 0c55 1d3c 1c80 a13c bae5 05bd 61f3 e03b
00000320: 27c4 b2bc ecd3 6b3c dbb9 88bc 9850 dabc
00000330: bcd3 0b3d fd27 ad3c 3a47 66bc d4ae cbbc
00000340: bd49 c63c 26b9 b3bc 678e 2bbc bad6 7cbc
00000350: 8448 3a3c fd19 edba a441 5b3c 2951 a2bc
00000360: 2b70 d73c 06e6 9a3b f886 c5bc 8474 d2bc
00000370: cdc3 af3c d82f 77bc 4914 2b3c e799 963a
00000380: 8faf 85bc af06 213d a6d8 35bc 075a a53c
00000390: e545 e73c 6311 933c 0566 123d e8d9 cabc
000003a0: d2ea f43b b3ee 823b a917 bb3c 3be3 8abc
000003b0: 9a5c cfbc a024 d9bc cd85 db3c 4b0d 653c
000003c0: 1913 18bd a854 14bc f604 ffbc 51fd efbc
000003d0: 71aa c33c 0834 8fbc d11f 963c 3641 0d3d
000003e0: 1887 073c 6767 a43c 022b fcbc a1ac 74bc
000003f0: 6cfd eaba 8cbb fb3b d524 6c3c 3a82 9d3c
