outputs/x3/epoch_141.pth (torch, 231335 bytes, 5 tensors)

conv1.weight f4 [64, 1, 9, 9]
00000000: 4661 16bd a476 303c 6951 42bd 801b 473d
00000010: a5b4 b8bd f8b5 ac3d 6fc4 9fbd fd3e b0bd
00000020: dbd3 8dbd c9ef 663d 437f 12bd c0db 493d
00000030: 8f2e b1bd 1071 7ebd 1639 1ebd 78ae a6bc
00000040: 0a13 abbd 03d2 943d 839e a0bc da65 2e3d
00000050: f24a b93d 1acd 123d d73e 373d 30ea ee3d
00000060: ccf9 32bd bf48 223d 0e36 43bd 1fb6 b13d
00000070: 19ea c53d 817a b4bd 8608 ec3d d9f1 993d
00000080: 2e8f 853d 46c6 6e3d 56eb cd3d c7a7 35bc
00000090: d3bd b1bd cddd ccbc 4d41 87bd 1aed d13c
000000a0: cd66 293a 89ec 2abd dabc 893b 2db3 ea3d
000000b0: d33e a8bb 87af 483c 0a30 2dbc 3016 d83c
000000c0: d6e4 e13d b264 a63d c7f6 523d 364b 103d
000000d0: 86ad 0a3d 73e3 3c3d 389a 99bb 5705 c6bd
000000e0: 52ac 7ebd 5212 cf3d 933b 533c 2c95 acbd
000000f0: a50b c33c eb06 c63d d87a d1bd 63fe 84bd
00000100: 7757 19bd c103 323c 948d a6bc bef6 00bc
00000110: 4213 d7bd a17d 643d c8d1 ce3d dd36 913d
00000120: d73e 8dbd d3ec a8bd 5db8 583d 1f02 103c
00000130: 3cbb 4f3d 08a3 d6bd c8cc 53bb 95b0 a63d
00000140: 2e52 5f3d 04db 963b 975e ae3c 6589 3bbc
00000150: 5bd1 7bbd 778a 2bbd 0040 89bd 3387 c13d
00000160: 2100 803d 51bf 1a3d 57be abbd 9435 b03d
00000170: 4292 0f3d 0102 9f3d e8df 2ebd ec73 cd3c
00000180: 2054 e63d c438 a03d e326 b73d 25ef b3bc
00000190: e735 af3d 173a aebd 2fd9 4c3c 427f 78bd
000001a0: 4a80 d0bc b236 d0bc 3328 403c 36c9 d03d
000001b0: c0f4 653d 3170 993a 92d4 aa3d d30e 4fbd
000001c0: 9c4e 7b3d 4bd6 2fbc 4fa7 98bc 9ffd 703c
000001d0: 250e adbd e7f4 593c 0dbb 1d3d 1996 cc3d
000001e0: 1bb1 dbbc 2d7b 3b3d eb2e e43d fb07 42bd
000001f0: f059 da3d 8879 5fbd 5704 493d 2828 313d
00000200: 7499 073d 76ff bd3d 5db6 23bd f46f fe3c
00000210: a049 1f3b d6d3 a7bd 1547 d5bc bb2c 98bd
00000220: 6d32 423d abd5 063c 6f10 2b3c b3de 06bd
00000230: f1ae bc3a 2540 06bd 9230 073d 2a42 dd3d
00000240: 0300 863c acb2 53bd 0617 93bd 2841 8d3b
00000250: d98a afbd 6f75 aebd 693c 94bd e2f4 1cbd
00000260: 8ee1 e73b 953c 9e3d 7a32 2e3d 5f20 ab3d
00000270: 6ce0 92bd 6745 fb3b 31d6 cbbd ee52 833d
00000280: 07d7 bb3c c405 db3d b7d2 a1bd 007c b63d
00000290: 2217 c03d 0cf9 b73d ddbe 813c bdec ce3d
000002a0: 91f8 973d 40c5 a93d 7358 edbb 0f9e aebd
000002b0: 79ec b9ba 362f aa3c 9403 9bbd 5088 82bd
000002c0: f928 dabd 798f 1fbd a438 c63d f689 9b3c
000002d0: c51e debb 12da 903b 2fe1 8d3d 15f4 c8bd
000002e0: 6095 afbd cc4e 17bd baf3 82bd 2eca 6a3d
000002f0: 00d0 a03d 81c9 dcbd ba21 c1bd b69b ddbd
00000300: 19a0 2b3d fc24 b73d ab6f b0bd f8ac 52bd
00000310: 4de9 103d 7c8e 94bd c249 c13d 0dd5 d33c
00000320: f6f4 fdbc 1e16 ea3b 40cf 0d3d 6300 21bd
00000330: 8854 b0bd 00a0 413a 6168 053b daa9 123b
00000340: b349 85bc 9811 923d 20ae febc e8a3 31bc
00000350: 7d06 3b3d 6040 8fbd 486d f33c 916f c9bc
00000360: 844a 5a3d 08e7 76bd 4142 863b e7f0 313c
00000370: 8517 b7bd 6877 a5bd 8387 2e3d d976 04bd
00000380: 2e25 873d fcca e0bd b8f8 60bd d66d bbbd
00000390: eecd 353d 7aed 52bb 32c1 a9bc a468 97bc
000003a0: 45de b1bd 6f14 013d acf6 353b bc09 9dbd
000003b0: 7141 2b3d 3eba 12bb 5414 dcbd 93d1 743d
000003c0: 7270 733d db74 abbc bc1c 9dbd 111b 793b
000003d0: db52 a83d e321 ce3d d3ec a8bd 6b18 46bd
000003e0: 08b9 b23d c86b 5d3d 1e7e 8a3d 218e 6cbd
000003f0: e968 c43d e245 bcbd 6406 bdbb be35 6b3b
-0.03671386 0.010770474 -0.04744092 0.04861021 -0.0901883 0.08433145 -0.078011386 -0.08605764
-0.06925174 0.05638102 -0.035765897 0.049281836 -0.086514585 -0.062119544 -0.03862866 -0.020346865
-0.08353241 0.07266619 -0.019606834 0.042577602 0.09047498 0.03584013 0.044737663 0.116657615
-0.043695256 0.039620157 -0.047658972 0.08677315 0.09663791 -0.08812428 0.11525063 0.07516832
0.0652145 0.058294557 0.100546524 -0.0110873645 -0.08678784 -0.025008107 -0.06604252 0.025625754
0.0006462157 -0.041729484 0.004203421 0.11459956 -0.0051344424 0.01224888 -0.010570535 0.026377767
0.11029975 0.08124675 0.051504876 0.035227977 0.03385689 0.04611535 -0.0046875738 -0.09668987
-0.062176056 0.10110916 0.012892622 -0.0842689 0.023809263 0.09669288 -0.10228509 -0.06493833
-0.03743693 0.010865153 -0.020331182 -0.007871328 -0.1050172 0.05578387 0.10098606 0.070905425
-0.068967514 -0.08248296 0.052910198 0.008789568 0.05071567 -0.104803145 -0.0032318104 0.08139149
0.054521732 0.0046037454 0.021285338 -0.011446332 -0.061478954 -0.041880097 -0.0670166 0.09449615
0.062500246 0.03778011 -0.08385914 0.08603969 0.03505159 0.07764054 -0.042694002 0.02507969
0.11246514 0.07823327 0.08942964 -0.021964619 0.08555203 -0.085071735 0.0125029525 -0.060668238
-0.025451798 -0.025416706 0.011728334 0.10194628 0.056141615 0.0011706409 0.08341326 -0.050551247
0.061354265 -0.010732244 -0.018634466 0.0147089055 -0.084499635 0.013303018 0.038508464 0.09989566
-0.026817849 0.045771766 0.111417614 -0.047370892 0.106616855 -0.05455926 0.049076404 0.043251187
0.03310533 0.09277241 -0.039968837 0.031059243 0.0024305359 -0.081947014 -0.026034871 -0.07430407
0.04741137 0.008229653 0.01044093 -0.032927226 0.0014395398 -0.032776017 0.033005305 0.108036354
0.016357427 -0.051684067 -0.07182126 0.0043107457 -0.08571405 -0.085184924 -0.07238085 -0.038319476
0.0070764488 0.07726399 0.042528607 0.08355784 -0.07171711 0.0076681855 -0.09952963 0.06412302
0.022929681 0.10694459 -0.07901519 0.0891037 0.09379412 0.08983049 0.015838081 0.10103748
0.07420457 0.082895756 -0.00724321 -0.08526241 -0.0014184854 0.020774465 -0.07569042 -0.06373656
-0.10652346 -0.038955186 0.09678772 0.018986683 -0.0067785704 0.0044205273 0.06927716 -0.0981218
-0.08573413 -0.03694038 -0.063941434 0.05732172 0.07852173 -0.10780621 -0.09430261 -0.10820715
0.041900728 0.08942601 -0.08615049 -0.051434487 0.035378743 -0.07253739 0.09437896 0.025858426
-0.031000596 0.00714375 0.034621477 -0.03930701 -0.08609873 0.00073862076 0.0020356404 0.0022379071
-0.016270494 0.07132262 -0.031088889 -0.010842301 0.045660485 -0.069947004 0.029715195 -0.024589332
0.05329372 -0.060278922 0.0040972535 0.010860658 -0.08940033 -0.080794156 0.042609703 -0.032339904
0.06598888 -0.10976216 -0.054924697 -0.09151809 0.044385843 -0.0032185004 -0.020722006 -0.018482514
-0.08684973 0.031513628 0.0027765436 -0.07667872 0.041810457 -0.002238884 -0.10746065 0.059770178
0.059433408 -0.020929744 -0.07671496 0.0038010518 0.082189284 0.10065057 -0.08248296 -0.04836313
0.08726698 0.054057866 0.06762336 -0.057752732 0.095903225 -0.091930166 -0.005768584 0.0035890187

conv1.bias f4 [64]
00000000: 9381 65bc c4c0 86bd dc86 9bbb de72 7fbd
00000010: d234 093d 3922 c9bc 6eb9 803d ab86 623d
00000020: b9ea dd3d d43c 96bd 2eb0 45bb c550 093b
00000030: 2965 8dbd 5000 cb3d 9ed6 803d 7dc9 8c3d
00000040: 479c 0abd ff08 50bd 1148 893d 597f 843c
00000050: ac71 783c ca40 b0bc bec2 d5bd 1a0e 833d
00000060: 5ccf 3cbd 6981 753d d882 e0bc 02c0 4cbb
00000070: b72b f53c fad5 123d 389f fe3d 8055 27bd
00000080: 2688 1e3d b8aa 2e3d 5f72 94bc 6e44 b8bd
00000090: 8b6f 80bc 821f 993d 8b15 c1bd 1100 4b3c
000000a0: 703d 67bd 8165 62bd 2475 be3d 0664 da3a
000000b0: 1c03 143d 5587 813c d698 a2bd 1e7b e3bd
000000c0: 8862 8fbd 8b6d b3bb 891d 42bd c158 c1bc
000000d0: dbd2 123d e4b5 ccbb 4f5e ea3b c40a 60bd
000000e0: fcd2 9b3d c7ae 5abd 6527 cfbb e6dd c83d
000000f0: 889b d63d 048e 6fbd 70e5 c9bd ba32 9abd
-0.014007944 -0.06579736 -0.004746301 -0.062365405 0.03349764 -0.024552451 0.06285368 0.05530421
0.108357854 -0.07335821 -0.0030164826 0.0020952683 -0.069040604 0.09912169 0.06290935 0.06874368
-0.033840444 -0.05078983 0.06703199 0.016174005 0.01516382 -0.021515269 -0.10437535 0.06399174
-0.04609619 0.05993787 -0.027406141 -0.0031242375 0.029928071 0.035848595 0.12432712 -0.040853024
0.03870406 0.04264328 -0.018120943 -0.08997427 -0.015678188 0.07476713 -0.09427937 0.012390153
-0.056455076 -0.055272583 0.092996866 0.0016661889 0.036135778 0.015811602 -0.079393074 -0.11107467
-0.07001215 -0.005475705 -0.04739145 -0.023601891 0.03584562 -0.006247269 0.0071523557 -0.054697767
0.076086015 -0.053389337 -0.006321835 0.09807949 0.10478884 -0.058485046 -0.09858215 -0.075292066

conv2.weight f4 [32, 64, 5, 5]
00000000: 6d0b a43b 3c13 2a3c 8af3 3abc 5292 a2bc
00000010: 4b99 9fbb 419d cdbb 909d 81bc 1573 c2bc
00000020: 8d2d 8ebc 4c62 7eba 35ba 603c bbad 98bc
00000030: 6a58 17bc 5392 9cbc 6f35 443c e1b4 beba
00000040: edc2 843c 72b7 513b 10fb 9bbb 368e b33c
00000050: e6c1 883c 8c55 c33c 444e 8cbc b098 413c
00000060: 1bee 7fbc 5d61 81bc 705c 963c 597a 333c
00000070: d5d5 6fbc 6461 89bc 8c6d 5bbc a450 9b3c
00000080: b7ef 073c ae6a 803a 406c 8dbc c372 fe3b
00000090: 059f bbbb d100 703c 2a2f b83b c07e 333c
000000a0: c1f4 0abc 9778 fcb9 2de7 62bc 032d b63b
000000b0: f4e9 0dbb 70fe b0bc 5edd 5c3c d682 203c
000000c0: fe44 6d3c 4e9f 2d3c 6591 1e3b 1ba4 913c
000000d0: 6f92 b1bc 9405 e23b c315 a33c 0df5 8abb
000000e0: 395f 9e3c c6e4 293c 7653 ad3c 54aa af3c
000000f0: 01ce 3a3c af09 133b f8e4 adbc 2e7b 15bc
00000100: d323 b6bc 733c 83bb 3697 783c 68d5 5d3c
00000110: 25a5 f33a 78a4 c5bc e638 5a3c ba7b 183c
00000120: 303e 50bc c6ed bbbc 6370 63bc 3bae 053c
00000130: 1f1f 61bc 5650 90bc 80f1 a4bc dd6a 77bc
00000140: 6943 7ebb 693f 973c 24c1 7cbc f15e b5bc
00000150: 2a89 a83c 2f7c 5d3c c008 003c 1793 89bc
00000160: 44f7 8d3c 9eca 243c 59de 7b3b 5fd1 983c
00000170: a893 f63b dbc5 7f3c b401 efbb 246b 7d3c
00000180: f714 45bc 551f cb3b 3dd6 7ebc d135 bcbc
00000190: 2d4f abbc f063 97bc 3539 5d3c e7a5 c53c
000001a0: 8ca7 783c f6a3 22ba d48a a5b9 da4f 5b3b
000001b0: 7fb7 c23c 8e26 553c 0bd2 77bc 641e 63bc
000001c0: a3a7 a63c e20d 5c3c 9a4b c8bc 2836 aabc
000001d0: d9de 523c 4d49 44bc a584 9a3c 902d 853c
000001e0: 7c01 a1bc 276c c03b d784 87bb e9cc c4bc
000001f0: 24a7 013c 7cec 353b 9b91 973b 89c3 a5bc
00000200: badb b4bb d24d 95bb ad54 b1bc 984d 9f3c
00000210: 6e44 e0bb c691 423c 06b1 d7bb 8046 a0bc
00000220: 1f30 ddbb b855 993b 58a6 a13c 4008 7b3b
00000230: 52a9 8b3c ef01 413c 048f 8cbc 3352 553a
00000240: d157 b53c b37b fcbb 868b 303c 5db0 b23c
00000250: 242f c8ba 8bb2 17bc b71a 75bc fac7 dcba
00000260: 53b2 87bc f047 ca3c 08d9 aebc f40d b33c
00000270: 9fcc 883c 27f4 afbc 515f 71bc 855e be3c
00000280: 997f 52bb b335 8fbc cdfb 723a 0ace c0bb
00000290: 9e21 453b b2b2 203c 7875 adbc 56ad 51bc
000002a0: e519 36ba f06e be3c 6f3f 9bbc 448a 58bc
000002b0: a3a4 643c 7819 c13c b63f 3c3b 8282 6039
000002c0: caf7 343c 082b 9fbb c994 733c 4340 cb3c
000002d0: 0b4e 943c eed8 c7bc db6f a03c a155 c33c
000002e0: 145e 2e3c 7351 febb e47d 46bb 085d 85bc
000002f0: 52b9 80bb c1fe 833c a4a7 cebb e282 6abb
00000300: 6ead 89bb dd14 a037 dabd 663b d34e 64bb
00000310: c2c8 c7bc 4566 03bc 9ea9 50bc bd47 13bc
00000320: 3950 4cbc d3fc 8fbc c2b3 a5bc 771a 12bc
00000330: 4aea 6c3b bdbc c93c 012f 173b 1be8 0e3b
00000340: 7e55 483c c387 b83b 9032 a4bc 1e30 c7bc
00000350: 0aea 7bbc a9a1 a9bb 37eb 89bc 1e90 983c
00000360: 888f ffbb a416 3fbc 40c6 90bc 7d27 33bc
00000370: 3e4f 9abc 6323 ab3c 02e4 da3b 2a16 b0bc
00000380: 5555 c83c 251f a0bb 181c 093c ca8c 80bb
00000390: e7f3 95bb b32e 633c fd3f b33c ed01 1b3c
000003a0: e496 c93c 60b1 c43c 3c6d b5ba 4aee 12bb
000003b0: d402 efba 4458 b7bb f583 16bc 488e a8bc
000003c0: 2f3e c4bc 1dce 21bc 8417 1dbc 7ea3 c7bc
000003d0: 1f4f b4bb af2c 853c 4a72 71bb ca55 35bc
000003e0: c0e2 01ba a4ae 863c 10ca 37bc 1ae5 28bc
000003f0: 148f caba 4640 6aba be92 bd3c 46b6 b3bc
0.005006245 0.010380562 -0.011410603 -0.019845162 -0.004870569 -0.0062748496 -0.015822202 -0.023736516
-0.017355705 -0.00097039784 0.01371627 -0.018637529 -0.009237388 -0.019112742 0.01197563 -0.0014549756
0.01620623 0.003200021 -0.0047601536 0.021918397 0.01669402 0.023844503 -0.017127164 0.011816189
-0.015620734 -0.015793497 0.018354625 0.010954463 -0.014638384 -0.016770072 -0.013392817 0.01895935
0.008296899 0.0009797418 -0.017263532 0.0077651455 -0.0057257437 0.014648632 0.005620857 0.0109555125
-0.008481205 -0.00048155032 -0.013849062 0.005559565 -0.002165434 -0.0216057 0.013480512 0.009796819
0.014481781 0.010597063 0.0024195549 0.017778447 -0.02167627 0.0068976376 0.019907838 -0.004240638
0.019332515 0.010369485 0.021157961 0.021443523 0.011401654 0.0022436192 -0.021227345 -0.009123607
-0.02223388 -0.004005009 0.01517277 0.01353965 0.0018588646 -0.024126276 0.01331923 0.009306842
-0.012710139 -0.022940528 -0.013881776 0.008159216 -0.01374033 -0.017616432 -0.020134687 -0.015101162
-0.0038797504 0.018462854 -0.015426908 -0.022139998 0.020573217 0.013518377 0.007814586 -0.01679377
0.01732982 0.010058073 0.003843209 0.018654523 0.007524926 0.015611137 -0.007293904 0.015467439
-0.012028924 0.0061988034 -0.015554008 -0.02297488 -0.020911777 -0.018480271 0.013502409 0.02412696
0.015176665 -0.00062042417 -0.00031574687 0.0033464343 0.023769138 0.01300968 -0.015125762 -0.013862226
0.020343607 0.013431044 -0.024450112 -0.020777777 0.012870514 -0.011980367 0.018862078 0.016257077
-0.019654028 0.0058722678 -0.004135709 -0.02402349 0.007913385 0.0027759364 0.004625512 -0.02023484
-0.0055193575 -0.004556396 -0.021646822 0.01944618 -0.006844095 0.011875575 -0.006582382 -0.019564867
-0.0067501212 0.004679408 0.01973264 0.0038304478 0.017048512 0.011780246 -0.017158039 0.0008137554
0.0221366 -0.007705176 0.0107754525 0.021812612 -0.0015272838 -0.009258877 -0.014959983 -0.0016844266
-0.016564524 0.024692506 -0.021343723 0.02185724 0.016699133 -0.021478726 -0.014732198 0.02323843
-0.003211951 -0.01748166 0.00092690886 -0.005883937 0.0030079852 0.009808229 -0.021174178 -0.012797674
-0.00069466076 0.023246258 -0.018951146 -0.013216559 0.013955268 0.023571715 0.0028724498 0.00021410923
0.011045406 -0.0048574246 0.014867016 0.024810916 0.01810362 -0.024395432 0.019584587 0.023844542
0.010642547 -0.0077611743 -0.003028744 -0.016279712 -0.003928342 0.016112687 -0.0063066054 -0.0035783579
-0.0042015826 1.9083202e-05 0.0035208375 -0.0034837022 -0.024387721 -0.008019988 -0.012735752 -0.008989272
-0.012470298 -0.01757661 -0.020227317 -0.0089174425 0.003615039 0.02462613 0.0023068788 0.0021805826
0.012227414 0.0056314184 -0.020043641 -0.024314936 -0.0153756235 -0.005176742 -0.016835792 0.018623408
-0.0077990927 -0.011663113 -0.017672658 -0.010934708 -0.018836614 0.020890897 0.0066800127 -0.021494944
0.024454752 -0.004886525 0.0083685145 -0.0039230334 -0.0045761946 0.013866114 0.021881098 0.009460908
0.024608083 0.02401036 -0.0013841758 -0.0022419863 -0.0018235096 -0.005595239 -0.009186734 -0.020575657
-0.023955433 -0.009875801 -0.009588126 -0.024369951 -0.005502596 0.016256658 -0.0036841803 -0.011067817
-0.0004954748 0.016440697 -0.011217609 -0.010308528 -0.0015454018 -0.0008935969 0.023141261 -0.0219375

conv2.bias f4 [32]
00000000: 11d2 12bc f3d5 c5bc 2e5a 8cbb 2829 803c
00000010: c688 e03c 325b aa3c 9d4c 72bc 1eb5 1b3d
00000020: f139 563b e637 3dbc 8366 efbb 4f27 783b
00000030: c910 023d 2e6c dd3c ec92 b3bb e025 1cbc
00000040: 32e8 85bc 8c7b 92bc 8e69 cd3c f4c0 ae3c
00000050: 4e3c 9e39 8eac 093b 5b85 c6bb 8832 73b7
00000060: 58c7 3f3c 9ae4 2dbc f1b6 583c a138 e43c
00000070: 1ffa ca3b 55c3 88bc abbf a0bb 0f82 98bb
-0.008961217 -0.02414987 -0.004283211 0.015644625 0.027408969 0.020795438 -0.014788774 0.038014524
0.0032688344 -0.011548972 -0.0073059215 0.0037865227 0.03175429 0.027029123 -0.005480161 -0.0095305145
-0.01634607 -0.017881177 0.025074746 0.021332242 0.0003018104 0.0021007392 -0.0060583777 -1.4495694e-05
0.011705242 -0.010613585 0.01322721 0.027859034 0.0061943675 -0.016694704 -0.004905661 -0.004654176

conv3.weight f4 [1, 32, 5, 5]
00000000: 6a94 9c3c 371e 953c 2a32 f1ba d3ea c73c
00000010: ffab f73c f82a efbc da03 cc3a 0cee 0abd
00000020: 766a 893b 1c46 283c a440 0fbb 95f5 e53c
00000030: f544 4b3c 1555 f2bc 35be 3dbb b28c 7cbc
00000040: 0195 e8bc b2d3 be37 e792 01bd 45b9 c03c
00000050: 5ca1 973b a571 513c 1a30 a23c d6ee e33c
00000060: 49ca 8dbc 10ef a23b e3ec f1bc a63c 2d3c
00000070: 5dd7 d93c c21d b3bc 3196 c03c dcab 3cbc
00000080: bb9b 6c3c 4dde 65bc feb5 023c 7a4c f1bc
00000090: 2a3c 063d 730a dbba 0933 143d 31e5 17bc
000000a0: 35a4 8a3c e93b 5abc 5f81 36bc 78dc efbb
000000b0: f3f5 9c3c e40b 7f3c 720b bf3c 319c 54bb
000000c0: fd56 b33b b3a7 c23c c79d 63bc 567b 3fbc
000000d0: d700 dc3c ebbb f4bc 1dbf 8cbc 2e1a a1bc
000000e0: 7394 f3bb 3abe d4bc 082b 063c fcd4 cabc
000000f0: 4337 7fbc 4f07 0dbd 7e05 c23c ece6 b1bc
00000100: 083d 8dbb ac60 adbc d146 a0bb 8bba dbbb
00000110: 622e 3dbc e839 18ba ec3e 753c 49f6 ed3c
00000120: dfbf d63c 7b42 d7bc 028d 88bb 1857 e1bc
00000130: 6753 963c ee99 c93c ef87 1f3c b97a 413c
00000140: f1e8 0f3d ea21 61bb 31db f6bc 56e6 87bc
00000150: ac5d 2bbc c95c 8a3c bfc1 7a3a 46f6 e43c
00000160: f54b a13c 5119 27bc 0c1c 14bc a9e5 40bc
00000170: 0a6c 02bd ed12 39bc 6bb6 86bc 482a dbbb
00000180: b9d2 ffbb b09b 59bc a41b 86bc d06c b93b
00000190: d6a7 b73b 7306 293c 9917 9f3c 9bb3 1dba
000001a0: 37b0 9e3b 3806 dcbb 102d 133d 0e17 eb3b
000001b0: 89a1 f33c ccd2 94bc 8648 c3bc 4f6f 383c
000001c0: 5cbe b5bc fa55 e03c 9b6b cb3c 54e5 073d
000001d0: befa 1b3d f860 9a3c 8cb1 963c 4cb4 c8ba
000001e0: b5bd 0e3d a521 9a3c 3781 8ebb 72c3 fabc
000001f0: d034 d03b fee0 dc3b bc78 e63c c2bd bd3c
00000200: b4d6 0a3d aba5 c83b 184e 573c e000 e6bc
00000210: e512 983b fc53 0f3c 47c1 a0bc bbfd 89bc
00000220: 53b7 6b3c 4bbd acbc 388f 62bc f5e6 cd3c
00000230: eb4d d93c f68f 01bd d955 09bd d661 b03c
00000240: 503c 2ebc 5147 1b3b 65fb cfbc fab5 84bc
00000250: b60e df3c ed0f b0bc 7d7f 523c 4be2 bc3a
00000260: 29d0 323c 3352 c93a 20f2 f6bb 67f1 4c3c
00000270: 2ace 1e3c 1d93 55bb 19f5 c13c efad 003d
00000280: c742 973c 5db6 22bc eeb0 d1bc c6e1 c3bc
00000290: 7dba 8cbc 5fe4 3bbb 0918 943c e7bc 1c3c
000002a0: f521 013d f9fc 0abd 886e 9fbc dd37 053d
000002b0: 29da cebc b2c8 b83c 1a02 cd3a 17c5 04bb
000002c0: e15a f23c 209e 223d c6fa 1ebc 357d 8a3a
000002d0: e34d 0f3d 16e6 0f3d 693a ef3c d98c 6fbc
000002e0: 2d6d a0bc f210 0d3d 3e07 0b3d 0420 a23c
000002f0: b1bb 463d a9db 0f3d b2e3 b0bb 5bdb a43c
00000300: 406c 433d c7bc d93c 50b1 60bc e4f9 12bd
00000310: f907 173c 73c0 a23c cf3a 06bd 8722 d53b
00000320: 27c4 b2bc b9d6 6b3c 91f6 88bc b776 dabc
00000330: 58d3 0b3d fd27 ad3c a23a 66bc 8acc cbbc
00000340: d230 c63c 04bd b3bc a38e 2bbc 4071 7cbc
00000350: fa58 3b3c 1e5a e9ba 3eb4 5b3c 2951 a2bc
00000360: 6570 d73c 44c3 9b3b 3680 c5bc 315d d2bc
00000370: cdc3 af3c 292d 77bc 9262 2b3c a36c 973a
00000380: ec99 85bc 4077 223d d52c 34bc 41d6 a83c
00000390: 3570 ea3c 8885 903c 1ff1 123d 6795 ccbc
000003a0: 1dc7 ff3b c479 953b 9ca7 bc3c a970 91bc
000003b0: 108a d8bc bf13 dcbc 75a7 dd3c f28e 6a3c
000003c0: 95f7 1bbd ebce 25bc 57f2 00bd a6df edbc
000003d0: 8cb6 c63c c9a0 93bc 31b2 923c 4e11 0e3d
000003e0: 4e5e 0d3c 4c39 a53c 022b fcbc a1ac 74bc
000003f0: 60fc eaba 8cbb fb3b d524 6c3c 3a82 9d3c
0.019113738 0.018202884 -0.0018401791 0.024403965 0.030233381 -0.029195294 0.0015565113 -0.033918425
0.0041935993 0.010270622 -0.0021858597 0.028071204 0.012406577 -0.029581586 -0.0028952484 -0.015414404
-0.028391363 2.2748343e-05 -0.031634238 0.023525843 0.00462739 0.012783443 0.019798327 0.027823847
-0.017308371 0.004972346 -0.029531902 0.010573542 0.026591951 -0.021864776 0.023509117 -0.011515584
0.014441426 -0.014030051 0.007977961 -0.029455412 0.03277222 -0.0016711488 0.036181483 -0.009270952
0.016924003 -0.013319948 -0.011139243 -0.007319983 0.019160246 0.0155668 0.023320887 -0.003244173
0.0054730163 0.023761606 -0.0138925975 -0.01168712 0.02685587 -0.029874763 -0.017180974 -0.019665804
-0.007433468 -0.025969613 0.00818897 -0.024759762 -0.01557714 -0.0344308 0.02368426 -0.021716557
-0.004310254 -0.02116426 -0.0048912545 -0.0067055873 -0.011546703 -0.00058069685 0.014968615 0.029048102
0.026214538 -0.026276818 -0.0041672 -0.02750735 0.018350316 0.024609532 0.009736999 0.0118090445
0.03513426 -0.003435249 -0.030133815 -0.016589325 -0.010459345 0.016889947 0.00095656136 0.027949464
0.01968954 -0.010198907 -0.00903989 -0.011773505 -0.031841315 -0.011296016 -0.016444406 -0.00668839
-0.0078071025 -0.013281748 -0.016370602 0.0056587234 0.0056047244 0.010316479 0.019420432 -0.0006015838
0.004842784 -0.0067146085 0.035931647 0.007174379 0.029740112 -0.018166922 -0.023838293 0.011257007
-0.022185497 0.027384747 0.024831584 0.03317769 0.038080923 0.018845066 0.018395208 -0.0015312522
0.034848887 0.018814871 -0.0043488997 -0.030610774 0.006353952 0.0067406883 0.028133743 0.023161773
0.033896163 0.006123265 0.013141178 -0.02807659 0.0046409243 0.008748051 -0.019623412 -0.01684462
0.01438697 -0.021086356 -0.013828091 0.025134543 0.026526412 -0.031631432 -0.033529136 0.021531027
-0.010634497 0.002369363 -0.025388429 -0.016200054 0.027228694 -0.021491969 0.012847778 0.0014410702
0.010913887 0.001535958 -0.007536188 0.012508727 0.009692708 -0.0032588907 0.023676442 0.031415876
0.01846446 -0.009931174 -0.025597062 -0.023911368 -0.017178768 -0.0028670055 0.018077867 0.009566522
0.031526525 -0.03393266 -0.019461885 0.03252398 -0.025250511 0.022556636 0.0015640885 -0.0020259076
0.02958435 0.03970158 -0.009703344 0.0010565879 0.034986388 0.035131536 0.029202657 -0.014620983
-0.01958331 0.03443999 0.033942454 0.019790657 0.04851884 0.035121594 -0.005398237 0.020124128
0.047710657 0.026579274 -0.01371415 -0.035882846 0.009218209 0.019867158 -0.032770928 0.00650436
-0.021822048 0.014394456 -0.016719135 -0.026667936 0.0341371 0.021137232 -0.014052065 -0.024877805
0.024193201 -0.021940716 -0.010471019 -0.01540786 0.011434788 -0.0017803346 0.013409672 -0.01981409
0.026298711 0.004753502 -0.024108987 -0.025679203 0.02145567 -0.015086451 0.010460513 0.0011552762
-0.016308747 0.039664507 -0.010997017 0.020609977 0.028617958 0.017641798 0.035874482 -0.024973584
0.0078057186 0.0045616347 0.023029141 -0.017753916 -0.02643302 -0.026864884 0.027057389 0.014316307
-0.03807791 -0.010120134 -0.031481113 -0.029037308 0.024256967 -0.018021004 0.017907234 0.03468447
0.008628441 0.020168923 -0.030782226 -0.014933736 -0.0017927997 0.0076822694 0.014413078 0.019227136
