outputs/x3/epoch_52.pth (torch, 231327 bytes, 5 tensors)

conv1.weight f4 [64, 1, 9, 9]
0	0xbd20a056	-0.03921541
1	0x3c0d0705	0.008607631
2	0xbd49961c	-0.04921542
3	0x3d44e0c0	0.0480659
4	0xbdb6bfda	-0.089233115
5	0x3dae8f5a	0.08523436
6	0xbd9ff283	-0.07809927
7	0xbdb18106	-0.086671874
8	0xbd8eca9c	-0.069722384
9	0x3d60a0fd	0.05484103
10	0xbd179d35	-0.03701516
11	0x3d43f958	0.047845215
12	0xbdb24a70	-0.08705604
13	0xbd798e91	-0.060926978
14	0xbd16b590	-0.036794245
15	0xbc9fadf4	-0.019492127
16	0xbdab7e87	-0.083737426
17	0x3d93dbec	0.07219681
18	0xbca5b522	-0.020227972
19	0x3d2b8284	0.041872516
20	0x3db4f708	0.0883618
21	0x3d072a53	0.032999348
22	0x3d2f3a75	0.04278036
23	0x3dee733e	0.116430745
24	0xbd328ed6	-0.04359325
25	0x3d213f37	0.039366927
26	0xbd43ce9f	-0.04780447
27	0x3db29889	0.087205
28	0x3dc674a6	0.09690218
29	0xbdb87473	-0.09006586
30	0x3de34366	0.110968396
31	0x3d9064c7	0.07050472
32	0x3d809a6b	0.06279453
33	0x3d69c97b	0.057076912
34	0x3dcd925f	0.10037684
35	0xbc282ae1	-0.010264129
36	0xbdaff1af	-0.08591019
37	0xbcc499e0	-0.023999155
38	0xbd88c688	-0.06678492
39	0x3cb89645	0.022532592
40	0xbb611705	-0.0034345996
41	0xbd35b21d	-0.044359315
42	0x3b26ad8d	0.0025433034
43	0x3dea4e4f	0.114407174
44	0xbb6deb7e	-0.0036303694
45	0x3c421c50	0.011847571
46	0xbc28e955	-0.010309537
47	0x3cd864c3	0.026415234
48	0x3de14a60	0.11000514
49	0x3da55751	0.08073295
50	0x3d51b05d	0.051193584
51	0x3d0d3636	0.034475528
52	0x3d0a56e8	0.033774287
53	0x3d415197	0.04719695
54	0xbbc8b136	-0.006124641
55	0xbdc74296	-0.09729497
56	0xbd7ece6b	-0.062208574
57	0x3dd0dc8f	0.10198318
58	0x3c6e8c3b	0.014559801
59	0xbda985b3	-0.08277454
60	0x3cc58556	0.024111431
61	0x3dc61e45	0.09673742
62	0xbdd11350	-0.10208762
63	0xbd875a16	-0.066089794
64	0xbd1c1cf0	-0.038113534
65	0x3c2d33fd	0.010571477
66	0xbca20d48	-0.019781724
67	0xbbc8ce4d	-0.0061281086
68	0xbdd33a6c	-0.103138775
69	0x3d68642f	0.056736168
70	0x3dcf9d9a	0.10137482
71	0x3d910c20	0.07082391
72	0xbd8e0b5a	-0.06935759
73	0xbda9869c	-0.08277628
74	0x3d580edb	0.052748542
75	0x3c137d61	0.009002061
76	0x3d5415af	0.05177849
77	0xbdd3ccbe	-0.10341786
78	0xbb07c5bb	-0.0020717222
79	0x3da8a744	0.082350284
80	0x3d61ad70	0.055097044
81	0x3b6beebb	0.0036000449
82	0x3ca8be91	0.020598682
83	0xbc3b7b51	-0.011442975
84	0xbd7aa588	-0.06119302
85	0xbd2b42b0	-0.041811645
86	0xbd8a6fd9	-0.067596145
87	0x3dbef83c	0.09324691
88	0x3d7bdbc5	0.061488885
89	0x3d1ad8ed	0.037804533
90	0xbdacf0f2	-0.08444394
91	0x3db00e9e	0.08596538
92	0x3d12310b	0.035691302
93	0x3da0e5b2	0.07856311
94	0xbd2c0a44	-0.042001978
95	0x3ccbb442	0.024866227
96	0x3de2f3b1	0.11081637
97	0x3d9cb597	0.07651823
98	0x3db6c13b	0.089235745
99	0xbcb2f46f	-0.02184507
100	0x3db04465	0.08606795
101	0xbdacf14a	-0.0844446
102	0x3c563472	0.013074027
103	0xbd74f088	-0.0597997
104	0xbcc8f156	-0.02452914
105	0xbcd6218d	-0.026139045
106	0x3c29916e	0.010349615
107	0x3dd046f2	0.10169782
108	0x3d68cde9	0.056836996
109	0x3ae7a3f0	0.0017672759
110	0x3da9e900	0.08296394
111	0xbd5402c4	-0.05176045
112	0x3d7a2c0f	0.061077174
113	0xbc1452f6	-0.009052983
114	0xbc908ae5	-0.017644355
115	0x3c70810a	0.014679203
116	0xbdacd9a3	-0.084399484
117	0x3c67a936	0.014139464
118	0x3d1fff31	0.03906173
119	0x3dca5021	0.098785646
120	0xbcf0be1e	-0.02938753
121	0x3d340fb4	0.04396029
122	0x3de613e8	0.112342656
123	0xbd3d045c	-0.046146736
124	0x3ddb65b8	0.10712761
125	0xbd5e9c8a	-0.054348506
126	0x3d4a2109	0.04934791
127	0x3d335019	0.04377756
128	0x3d066910	0.03281504
129	0x3dbabe58	0.091183364
130	0xbd2b8458	-0.04187426
131	0x3cfaeee1	0.030631484
132	0x3b1ca0b5	0.00238995
133	0xbda83275	-0.08212749
134	0xbcd7c47d	-0.02633881
135	0xbd99dd71	-0.0751294
136	0x3d421947	0.047387388
137	0x3c0fb983	0.008772257
138	0x3c309862	0.010778518
139	0xbd08cfd9	-0.033401344
140	0x3a257b6b	0.0006312641
141	0xbd0a5546	-0.03377273
142	0x3d03ba3f	0.03216004
143	0x3ddbaea9	0.10726673
144	0x3c73820d	0.0148625495
145	0xbd5692e8	-0.052386194
146	0xbd91e543	-0.07123806
147	0x3bbad897	0.005702089
148	0xbdad8277	-0.0847215
149	0xbdaeb601	-0.08530808
150	0xbd95d6f1	-0.073163874
151	0xbd200e18	-0.03907594
152	0x3bcbc4f7	0.0062185484
153	0x3d9b354e	0.075785264
154	0x3d2917d9	0.04128251
155	0x3daa63c9	0.08319814
156	0xbd91e244	-0.07123235
157	0x3c06302f	0.008190199
158	0xbdcc1e04	-0.099666625
159	0x3d824680	0.06361103
160	0x3cb88946	0.022526395
161	0x3dd9c5d6	0.10633437
162	0xbda1d4af	-0.07901894
163	0x3db67b6d	0.0891026
164	0x3dc01883	0.09379675
165	0x3db7fa47	0.089832835
166	0x3c81bb69	0.015836434
167	0x3dcee8e1	0.10103012
168	0x3d97f47e	0.0741968
169	0x3da9c0df	0.0828874
170	0xbbed983d	-0.0072508142
171	0xbdae9fb6	-0.08526556
172	0xbab86fa5	-0.0014071359
173	0x3caa6848	0.020801678
174	0xbd9b02bc	-0.07568881
175	0xbd8288e5	-0.06373767
176	0xbdda2b43	-0.10652783
177	0xbd1f9b3e	-0.03896641
178	0x3dc633a5	0.09677819
179	0x3c9b6b1c	0.018971972
180	0xbbde94b3	-0.0067926287
181	0x3b914f88	0.0044345297
182	0x3d8de195	0.06927792
183	0xbdc8f3a2	-0.09812094
184	0xbdaf9515	-0.08573357
185	0xbd1755b6	-0.036946975
186	0xbd82f66d	-0.06394658
187	0x3d6ab393	0.05730016
188	0x3da0c91a	0.07850857
189	0xbddcc97b	-0.10780617
190	0xbdc1218c	-0.09430227
191	0xbddd9b56	-0.108206436
192	0x3d2ba4cc	0.04190521
193	0x3db72527	0.08942633
194	0xbdb06f97	-0.08615034
195	0xbd52b707	-0.05144408
196	0x3d10d1c8	0.035356313
197	0xbd949591	-0.0725509
198	0x3dc14abd	0.09438083
199	0x3cd3f8f1	0.02587554
200	0xbcfdba19	-0.030972527
201	0x3beb340d	0.007177836
202	0x3d0dd5fc	0.0346279
203	0xbd20fadb	-0.039301734
204	0xbdb053da	-0.086097434
205	0x3a3f9800	0.00073087215
206	0x3b03fbff	0.0020139215
207	0x3b11e33d	0.0022260689
208	0xbc8523c5	-0.016252408
209	0x3d92145d	0.0713279
210	0xbcfe67ce	-0.031055357
211	0xbc310642	-0.010804715
212	0x3d3b0df5	0.045667607
213	0xbd8f3e74	-0.06994334
214	0x3cf3797c	0.029721014
215	0xbcc978e7	-0.024593784
216	0x3d5a4b04	0.053294197
217	0xbd76e622	-0.060278066
218	0x3b86277c	0.0040940624
219	0x3c31f276	0.01086103
220	0xbdb71784	-0.08940032
221	0xbda57767	-0.08079415
222	0x3d2e8870	0.042610586
223	0xbd0476ee	-0.032339983
224	0x3d87251c	0.06598875
225	0xbde0cafc	-0.10976216
226	0xbd60f8b8	-0.054924697
227	0xbdbb6dd6	-0.09151809
228	0x3d35ce24	0.044386044
229	0xbb5309c9	-0.0032201877
230	0xbca9c18b	-0.020722171
231	0xbc976929	-0.018482761
232	0xbdb1de45	-0.08684973
233	0x3d011469	0.031513605
234	0x3b35cd3f	0.0027740744
235	0xbd9d09bc	-0.07667872
236	0x3d2b417f	0.04181051
237	0xbb127aec	-0.00223511
238	0xbddc1454	-0.10746065
239	0x3d74d193	0.059770178
240	0x3d737072	0.059433408
241	0xbcab75b6	-0.020930152
242	0xbd9d1cbc	-0.07671496
243	0x3b81b7be	0.0039586714
244	0x3da8cb8d	0.08241949
245	0x3dce7021	0.10079981
246	0xbda9f09f	-0.08297848
247	0xbd4a625f	-0.04941022
248	0x3db0c70a	0.08631714
249	0x3d5a7279	0.053331826
250	0x3d89507d	0.06704805
251	0xbd6bca3c	-0.057565913
252	0x3dc458f6	0.095872805
253	0xbdbc4bc7	-0.09194141
254	0xbbb4d0a8	-0.005518038
255	0x3b759aa1	0.00374762

conv1.bias f4 [64]
0	0xbc7e18e1	-0.015508861
1	0xbd895f25	-0.067076005
2	0xbb9b7d11	-0.0047451337
3	0xbd88436e	-0.06653486
4	0x3d0364c6	0.032078527
5	0xbcd1fb28	-0.025632456
6	0x3d7ed2d7	0.06221279
7	0x3d606413	0.05478294
8	0x3de0cad1	0.10976184
9	0xbd9081da	-0.07056017
10	0xbbb073ff	-0.0053849216
11	0xbaac6d3f	-0.0013155116
12	0xbd9bad26	-0.07601385
13	0x3dc11471	0.09427727
14	0x3d86eb7d	0.065878846
15	0x3d92bc38	0.07164806
16	0xbd1fd3e7	-0.039020445
17	0xbd5d78bc	-0.05407022
18	0x3d84c3c7	0.06482654
19	0x3c8826e2	0.016620103
20	0x3c644bab	0.013934056
21	0xbcaedc17	-0.021345181
22	0xbdce7e30	-0.10082662
23	0x3d80f0fc	0.06295964
24	0xbd50b90b	-0.05095772
25	0x3d859dc1	0.0652423
26	0xbcdfac97	-0.027303977
27	0xbc4a0466	-0.01233015
28	0x3cec0ba8	0.028814152
29	0x3cfceba9	0.03087409
30	0x3df6dbac	0.12053618
31	0xbd277b76	-0.040889226
32	0x3d1fc249	0.039003644
33	0x3d3576a4	0.044302598
34	0xbc56b728	-0.013105191
35	0xbdc16a0d	-0.09444056
36	0xbca6f43f	-0.020380137
37	0x3d9cd988	0.07658678
38	0xbdc10f74	-0.094267756
39	0x3c593a29	0.013258495
40	0xbd6d05fb	-0.05786703
41	0xbd626617	-0.05527314
42	0x3dbc35f5	0.09189979
43	0x3b8f99c0	0.004382342
44	0x3d0d1a02	0.03444863
45	0x3c929c26	0.017896723
46	0xbda255d6	-0.07926528
47	0xbde37b1e	-0.11107467
48	0xbd8f2215	-0.069889225
49	0xbc22e832	-0.009943055
50	0xbd4541fc	-0.04815863
51	0xbcbc15ef	-0.022959678
52	0x3d2059d9	0.039148185
53	0xbbe5219e	-0.006992533
54	0x3c03a060	0.008033842
55	0xbd5ead1b	-0.054364305
56	0x3d9adb58	0.07561368
57	0xbd64bf41	-0.055846456
58	0xbbebb61c	-0.00719334
59	0x3dbcc46b	0.09217151
60	0x3dd15aa8	0.102223694
61	0xbd71d667	-0.05904236
62	0xbdcab3b6	-0.098975584
63	0xbda38ed2	-0.07986225

conv2.weight f4 [32, 64, 5, 5]
0	0x3ba133df	0.0049195136
1	0x3c288f55	0.010288079
2	0xbc3ccc51	-0.011523322
3	0xbca34675	-0.019931057
4	0xbba1c6f3	-0.0049370467
5	0xbbd00760	-0.0063485354
6	0xbc828187	-0.015930904
7	0xbcc34e01	-0.023840906
8	0xbc8e91f1	-0.017403575
9	0xba878c68	-0.0010341527
10	0x3c598376	0.013275972
11	0xbc9c7406	-0.019098293
12	0xbc1e1f0a	-0.009650955
13	0xbc9fa0d2	-0.019485865
14	0x3c3cfb99	0.011534595
15	0xbb0883bb	-0.002083047
16	0x3c7f7eb1	0.01559417
17	0x3b305acc	0.0026909588
18	0xbbab8161	-0.005233929
19	0x3caf322c	0.021386229
20	0x3c834858	0.016025707
21	0x3cbdf5b0	0.023188442
22	0xbc90e84c	-0.017688893
23	0x3c393acc	0.011305522
24	0xbc843d6a	-0.016142566
25	0xbc801f1f	-0.01563984
26	0x3c9726bf	0.018451093
27	0x3c34ef6a	0.011043409
28	0xbc6e640d	-0.014550221
29	0xbc88d04a	-0.016700882
30	0xbc5bb4e4	-0.013409827
31	0x3c9b128f	0.018929748
32	0x3c07abaa	0.008280674
33	0x3a81b344	0.0009895344
34	0xbc8d8991	-0.01727751
35	0x3bfc36f5	0.007696981
36	0xbbbc9dce	-0.0057561165
37	0x3c6fb55d	0.014630643
38	0x3bb87f81	0.005630434
39	0x3c33aabc	0.010965999
40	0xbc0d8c1c	-0.008639362
41	0xba1fee02	-0.00061008346
42	0xbc659046	-0.014011448
43	0x3bb08719	0.0053871986
44	0xbb1837fb	-0.0023226726
45	0xbcb2a239	-0.02180587
46	0x3c59aca9	0.013285794
47	0x3c1c8efa	0.009555573
48	0x3c68b78a	0.014203915
49	0x3c29327a	0.010326976
50	0x3b1e9f16	0.002420371
51	0x3c91a41b	0.017778447
52	0xbcb1926f	-0.02167627
53	0x3be20659	0.0068977294
54	0x3ca315c3	0.019907838
55	0xbb8af892	-0.0042410577
56	0x3c9e5f1d	0.019332463
57	0x3c29dcd8	0.010367595
58	0x3cad5357	0.021157904
59	0x3cafaa52	0.02144352
60	0x3c3acd3b	0.01140147
61	0x3b12fc9a	0.0022428394
62	0xbcade5f5	-0.021227816
63	0xbc158739	-0.009126478
64	0xbcb62769	-0.02223559
65	0xbb83402c	-0.0040054526
66	0x3c789811	0.015172974
67	0x3c5dc967	0.013536788
68	0x3af2cf5e	0.0018524935
69	0xbcc5ab8d	-0.024129653
70	0x3c5a4089	0.01332105
71	0x3c1895b8	0.0093130395
72	0xbc501ddf	-0.012702434
73	0xbcbbe855	-0.022937933
74	0xbc636825	-0.01387981
75	0x3c088cde	0.008334367
76	0xbc5d778b	-0.013517271
77	0xbc8e1476	-0.01734374
78	0xbca2ffed	-0.019897426
79	0xbc74dcdc	-0.014945235
80	0xbb83f2d4	-0.00402675
81	0x3c9669f6	0.018361073
82	0xbc7d2d86	-0.015452748
83	0xbcb5a74e	-0.022174504
84	0x3ca77ce9	0.020445304
85	0x3c5cce36	0.013476899
86	0x3c00457f	0.007829069
87	0xbc88c985	-0.016697655
88	0x3c8f0540	0.017458558
89	0x3c263347	0.010144061
90	0x3b66cec7	0.0035218464
91	0x3c967aff	0.018369196
92	0x3bf04479	0.0073323813
93	0x3c7deeab	0.015498797
94	0xbbf34647	-0.007424149
95	0x3c7b49b0	0.015337393
96	0xbc477b2a	-0.012175361
97	0x3bc81861	0.006106422
98	0xbc7f4352	-0.015580015
99	0xbcbcae5c	-0.02303236
100	0xbcac13d9	-0.021005558
101	0xbc97f4a9	-0.01854928
102	0x3c5c33da	0.013440097
103	0x3cc56065	0.024093816
104	0x3c78111e	0.0151408
105	0xba61fd25	-0.00086207903
106	0xba196b87	-0.00058525096
107	0x3b4af920	0.0030971244
108	0x3cc18e50	0.02362743
109	0x3c539d3d	0.0129159065
110	0xbc7d2f4f	-0.015453174
111	0xbc69ca57	-0.014269433
112	0x3ca32d04	0.019918926
113	0x3c56a132	0.013099955
114	0xbcca34ad	-0.02468332
115	0xbcabf57a	-0.020991076
116	0x3c4dfe90	0.012572899
117	0xbc4a47ab	-0.012346189
118	0x3c97402a	0.018463213
119	0x3c8225cf	0.01588717
120	0xbca3c1f0	-0.019989938
121	0x3bb52471	0.005528026
122	0xbb944377	-0.004524644
123	0xbcc8d574	-0.024515845
124	0x3bf281ec	0.007400742
125	0x3b367b24	0.0027844394
126	0x3b9827dc	0.0046434235
127	0xbca59eda	-0.020217348
128	0xbbb4fee5	-0.00552355
129	0xbb962585	-0.0045821094
130	0xbcb1a74b	-0.021686217
131	0x3c9f0582	0.019411806
132	0xbbe1f455	-0.0068955817
133	0x3c4146c8	0.011796661
134	0xbbdb4216	-0.0066912277
135	0xbc9fcda9	-0.019507246
136	0xbbdab5f2	-0.0066745216
137	0x3b9c07b7	0.004761662
138	0x3ca240ed	0.01980635
139	0x3b803075	0.0039120265
140	0x3c8bbfdc	0.01705926
141	0x3c415033	0.011798906
142	0xbc8c6646	-0.017138612
143	0x3a55d4db	0.0008157023
144	0x3cb5d1df	0.0221948
145	0xbbf7260b	-0.007542377
146	0x3c335dd7	0.010947666
147	0x3cb43171	0.021996232
148	0xbab05ae3	-0.0013454821
149	0xbc137813	-0.009000796
150	0xbc6e7c60	-0.0145560205
151	0xbab039ea	-0.0013444994
152	0xbc856010	-0.016281158
153	0x3ccc51e3	0.02494139
154	0xbcac7ac5	-0.021054635
155	0x3cadec37	0.0212308
156	0x3c82c7c4	0.015964396
157	0xbcb6d891	-0.022320064
158	0xbc7ef3ca	-0.0155610535
159	0x3cb86d8c	0.022513174
160	0xbb73b806	-0.0037188544
161	0xbc93a57a	-0.018023241
162	0x398767bf	0.00025826503
163	0xbbd92801	-0.0066270833
164	0x3b181be4	0.0023209983
165	0x3c1782f0	0.0092475265
166	0xbcb16c66	-0.021658134
167	0xbc5aa150	-0.013344124
168	0xbab60f4b	-0.0013890056
169	0x3cb8239b	0.022477916
170	0xbca195af	-0.019724695
171	0xbc62d57a	-0.013844842
172	0x3c5b64ad	0.013390702
173	0x3cbba302	0.022904877
174	0x3b091fa5	0.0020923403
175	0x39dd68d5	0.0004223051
176	0x3c376e54	0.011195738
177	0xbba08126	-0.004898208
178	0x3c72f9cb	0.014830063
179	0x3ccb4957	0.024815245
180	0x3c9186bf	0.017764447
181	0xbccaa3e1	-0.024736347
182	0x3c9d05df	0.019167839
183	0x3cc00b15	0.023442784
184	0x3c2801a6	0.010254299
185	0xbc09c32b	-0.008408348
186	0xbb6766e0	-0.003530912
187	0xbc88e968	-0.01671286
188	0xbb8c46c6	-0.004280898
189	0x3c816478	0.015794978
190	0xbbe42e11	-0.0069634994
191	0xbb86498f	-0.0040981243
192	0xbb978e3e	-0.004625111
193	0xb9a6e221	-0.00031830466
194	0x3b530037	0.0032196173
195	0xbb7f0082	-0.0038910215
196	0xbccaeeae	-0.024772014
197	0xbc09e9b5	-0.0084175365
198	0xbc564ed7	-0.01308032
199	0xbc189e6c	-0.0093151145
200	0xbc4d2206	-0.012520319
201	0xbc905773	-0.017619824
202	0xbca5d1f0	-0.020241708
203	0xbc1244ac	-0.008927505
204	0x3b6c259a	0.0036033154
205	0x3cc97808	0.024593368
206	0x3b126423	0.0022337518
207	0x3b0cc3b5	0.0021478955
208	0x3c48267e	0.0122162085
209	0x3bb7b4a3	0.0056062504
210	0xbca43d3f	-0.020048736
211	0xbcc7d9a2	-0.024395768
212	0xbc7d0ae4	-0.015444491
213	0xbbaa7a47	-0.005202565
214	0xbc89fc4a	-0.016843934
215	0x3c987e0c	0.018614791
216	0xbc0158e1	-0.007894726
217	0xbc40fa6e	-0.011778457
218	0xbc9143ab	-0.017732462
219	0xbc33c531	-0.010972307
220	0xbc99d635	-0.0187789
221	0x3cab58de	0.020916399
222	0x3bd9b644	0.006644042
223	0xbcb05d4c	-0.021528862
224	0x3cc83f1f	0.024444161
225	0xbb9f5363	-0.0048622354
226	0x3c0a34f7	0.008435479
227	0xbb7ba98a	-0.0038400614
228	0xbb93db7f	-0.00451225
229	0x3c63f8bb	0.013914282
230	0x3cb16f8e	0.021659639
231	0x3c17b13b	0.009258564
232	0x3cc836d0	0.0244402
233	0x3cc35daa	0.023848373
234	0xbace0c7e	-0.0015720276
235	0xbb258d5a	-0.0025261254
236	0xbb092ba8	-0.0020930562
237	0xbbbe882b	-0.0058145723
238	0xbc19a4a6	-0.009377634
239	0xbcaa0a26	-0.020756792
240	0xbcc562ba	-0.024094928
241	0xbc242903	-0.010019544
242	0xbc1eb833	-0.009687471
243	0xbcc811a8	-0.024422482
244	0xbbb6375f	-0.0055608
245	0x3c84efbc	0.016227596
246	0xbb7631b8	-0.0037566256
247	0xbc363c13	-0.011122721
248	0xba09d60c	-0.0005258031
249	0x3c869835	0.01643
250	0xbc37cbed	-0.011218053
251	0xbc28e782	-0.010309102
252	0xbaca987e	-0.0015456823
253	0xba6a3bb1	-0.00089352863
254	0x3cbd9268	0.023141101
255	0xbcb38d36	-0.02191792

conv2.bias f4 [32]
0	0xbc337e0b	-0.010955344
1	0xbcca6f25	-0.024711201
2	0xbb55929e	-0.0032588611
3	0x3c79dc7e	0.015250323
4	0x3ccf70cc	0.02532234
5	0x3caa30e9	0.020775275
6	0xbc67a0a7	-0.014137424
7	0x3d1576d3	0.036490273
8	0x3b3856a0	0.0028127804
9	0xbc430835	-0.011903812
10	0xbbe30b38	-0.0069288276
11	0x3b87c989	0.004143898
12	0x3cfce027	0.030868603
13	0x3cd78da4	0.026312657
14	0xbba63c87	-0.0050731334
15	0xbc1ee1c2	-0.00969738
16	0xbc7e8825	-0.015535389
17	0xbc934227	-0.01797588
18	0x3ccff2c4	0.025384314
19	0x3cf7661d	0.030200059
20	0x3ab689cc	0.0013926565
21	0x38a4ce94	7.8586076e-05
22	0xbb3e1178	-0.0029002111
23	0x39029b84	0.000124557
24	0x3c4de74d	0.012567353
25	0xbc2db9c4	-0.010603372
26	0x3c7ad7a7	0.015310205
27	0x3cec105a	0.02881639
28	0x3b604c6f	0.0034225245
29	0xbc8844c4	-0.016634353
30	0xbc0684e9	-0.008210399
31	0xbbfcd21a	-0.0077154757

conv3.weight f4 [1, 32, 5, 5]
0	0x3c9bf193	0.01903609
1	0x3c94400e	0.01809695
2	0xbaf99cda	-0.0019043938
3	0x3cc79179	0.024361359
4	0x3cf774db	0.030207088
5	0xbcefda12	-0.029278789
6	0x3ac4bbf8	0.0015009632
7	0xbd0af684	-0.033926502
8	0x3b890c89	0.0041824025
9	0x3c27ab58	0.010233723
10	0xbb11f9ae	-0.0022274065
11	0x3ce66798	0.02812557
12	0x3c4cd1bb	0.0125011755
13	0xbcf2014c	-0.029541634
14	0xbb40688b	-0.0029359187
15	0xbc7c66ac	-0.015405338
16	0xbce74a88	-0.028233781
17	0x39809f57	0.0002453278
18	0xbd011608	-0.03151515
19	0x3cc0cd12	0.023535285
20	0x3b956c2a	0.0045600133
21	0x3c517dbf	0.012786328
22	0x3ca28765	0.019839952
23	0x3ce3f364	0.027826019
24	0xbc8e0e26	-0.01734073
25	0x3ba7f815	0.005126009
26	0xbcf428fc	-0.0298047
27	0x3c2670ca	0.010158727
28	0x3cd98ee5	0.026557395
29	0xbcb102f4	-0.021607853
30	0x3cc0e5ef	0.02354714
31	0xbc4a1a88	-0.012335427
32	0x3c57c4a8	0.013169445
33	0xbc6dfb4a	-0.014525244
34	0x3c0224ff	0.007943391
35	0xbcf3220f	-0.029679326
36	0x3d014869	0.031563196
37	0xbb63de88	-0.003477009
38	0x3d105b50	0.035243332
39	0xbc21f1e8	-0.009884335
40	0x3c8d9214	0.01728157
41	0xbc5e484c	-0.013567042
42	0xbc4144d7	-0.011796198
43	0xbbf9720e	-0.0076124733
44	0x3c994cfd	0.018713469
45	0x3c83fb56	0.016111057
46	0x3cc16a17	0.023610158
47	0xbb43754d	-0.0029824555
48	0x3bbecb0f	0.0058225463
49	0x3cc36afb	0.023854723
50	0xbc639dc7	-0.0138925975
51	0xbc3f7b56	-0.01168712
52	0x3cdc00d7	0.02685587
53	0xbcf4bbeb	-0.029874763
54	0xbc8cbf1d	-0.017180974
55	0xbca11a2e	-0.019665804
56	0xbbf3f376	-0.0074447943
57	0xbcd4be67	-0.025969697
58	0x3c062b08	0.00818897
59	0xbccad4fc	-0.024759762
60	0xbc7f3d6d	-0.01557861
61	0xbd0d0750	-0.034430802
62	0x3cc1daa9	0.023663836
63	0xbcb1e6ec	-0.021716557
64	0xbb8d3d08	-0.004310254
65	0xbcad60ac	-0.02116426
66	0xbba0d5eb	-0.0049083135
67	0xbbdcb5ce	-0.00673554
68	0xbc3d2e62	-0.011546703
69	0xba1838ab	-0.0005806784
70	0x3c753eec	0.014968615
71	0x3cedf649	0.029048102
72	0x3cd6bfdf	0.026214538
73	0xbcd7427b	-0.026276818
74	0xbb888d02	-0.0041672
75	0xbce173cb	-0.027521035
76	0x3c955a36	0.018231492
77	0x3cc8fcdc	0.024534635
78	0x3c1e43ff	0.009659766
79	0x3c40e92d	0.011774343
80	0x3d0f7d12	0.035031386
81	0xbb7188fa	-0.0036855326
82	0xbcf804d1	-0.030275734
83	0xbc8889b1	-0.016667219
84	0xbc2ca784	-0.010537986
85	0x3c881435	0.016611198
86	0x3a374c99	0.000699231
87	0x3ce39f33	0.027785873
88	0x3ca12263	0.019669717
89	0xbc27de90	-0.010245934
90	0xbc187ba9	-0.009306827
91	0xbc4420a4	-0.011970673
92	0xbd02c261	-0.031923655
93	0xbc388f57	-0.011264644
94	0xbc869a89	-0.01643111
95	0xbbe31337	-0.006929781
96	0xbc0228b2	-0.007944273
97	0xbc59ecc6	-0.01330108
98	0xbc854d06	-0.01627208
99	0x3bbd3540	0.00577417
100	0x3bef9aa4	0.007312136
101	0x3c349a5f	0.011023133
102	0x3c9d3301	0.01918936
103	0xb96af35b	-0.00022406636
104	0x3baf3e59	0.0053480086
105	0xbbb3e2cf	-0.005489684
106	0x3d138227	0.036012795
107	0x3bc21e69	0.0059240353
108	0x3cedf0af	0.029045431
109	0xbc96c053	-0.018402254
110	0xbcc549bd	-0.024083013
111	0x3c27108e	0.010196818
112	0xbcc7e3c7	-0.024400605
113	0x3cd2dd45	0.025740275
114	0x3cc38ab1	0.023869844
115	0x3d042a73	0.032267045
116	0x3d184928	0.037179142
117	0x3c91987d	0.017772907
118	0x3c914324	0.01773221
119	0xbb0d0f29	-0.0021523929
120	0x3d0e4080	0.03472948
121	0x3c9abd10	0.01888898
122	0xbb7c1cf0	-0.0038469397
123	0xbcf50f2f	-0.029914467
124	0x3bd8d253	0.0066168695
125	0x3bbec5ba	0.0058219107
126	0x3ce26cb5	0.027639726
127	0x3cb696ad	0.022288645
128	0x3d056476	0.03256651
129	0x3bab2346	0.005222711
130	0x3c412530	0.011788651
131	0xbce6c612	-0.02817062
132	0x3ba86990	0.005139537
133	0x3c11c6bd	0.008897481
134	0xbc9f9d49	-0.01948418
135	0xbc8d340d	-0.017236734
136	0x3c7f1f67	0.015571452
137	0xbc9da534	-0.019243814
138	0xbc4e5d4e	-0.012595488
139	0x3cd3893a	0.02582227
140	0x3cdcba35	0.02694426
141	0xbcf54f93	-0.02994517
142	0xbd014ccb	-0.031567376
143	0x3cb60960	0.022221267
144	0xbc330544	-0.010926548
145	0x3b2e238e	0.0026571485
146	0xbcc79f5a	-0.024367977
147	0xbc7b5942	-0.015341105
148	0x3cdcb600	0.026942253
149	0xbcb83f62	-0.02249116
150	0x3c527fd5	0.01284786
151	0x3abced75	0.001441403
152	0x3c32d07b	0.010913963
153	0x3ac95962	0.0015361721
154	0xbbf6f12f	-0.0075360755
155	0x3c4cf88d	0.012510431
156	0x3c1eca75	0.009691824
157	0xbb56abbb	-0.0032756168
158	0x3cc202d3	0.023682987
159	0x3d00ae62	0.031416304
160	0x3c974380	0.018464804
161	0xbc22af37	-0.00992947
162	0xbcd1af24	-0.025596209
163	0xbcc3de27	-0.023909641
164	0xbc8cb92d	-0.017178142
165	0xbb3bc39a	-0.0028650523
166	0x3c941862	0.018078033
167	0x3c1cc179	0.009567612
168	0x3d012208	0.031526595
169	0xbd0afce8	-0.033932596
170	0xbc9f6e89	-0.019461887
171	0x3d0537dd	0.03252398
172	0xbcceda27	-0.025250508
173	0x3cb8c8b3	0.022556638
174	0x3accf54b	0.0015637068
175	0xbadfcb64	-0.0017074165
176	0x3ceb0668	0.028689578
177	0x3d1c1b04	0.0381117
178	0xbc184c28	-0.009295501
179	0x3ae51367	0.0017477096
180	0x3d0e5bc9	0.034755502
181	0x3d06cc4c	0.032909676
182	0x3cd0c920	0.025486529
183	0xbc818f1a	-0.015815306
184	0xbca2a8c2	-0.01985586
185	0x3d061b2c	0.032740757
186	0x3cf30022	0.02966315
187	0x3c5c0cdf	0.013430803
188	0x3d3a7e34	0.045530513
189	0x3d0bc0bc	0.034119353
190	0xbbb1c734	-0.005425358
191	0x3c99d6e6	0.01877923
192	0x3d387637	0.045034613
193	0x3cd450c7	0.025917424
194	0xbc56136a	-0.013066152
195	0xbd0c7dd9	-0.034299705
196	0x3c27111f	0.010196953
197	0x3ca1236e	0.019670215
198	0xbd058603	-0.032598507
199	0x3be6e234	0.0070460085
200	0xbcb2c427	-0.021822048
201	0x3c6bcfe4	0.014392827
202	0xbc889bfb	-0.01667594
203	0xbcda20a1	-0.026626887
204	0x3d0bd477	0.03413817
205	0x3cad27fd	0.021137232
206	0xbc66693e	-0.014063178
207	0xbccbb22b	-0.02486523
208	0x3cc66113	0.02421621
209	0xbcb3b106	-0.021934997
210	0xbc2b8dfb	-0.0104708625
211	0xbc7d6a09	-0.015467175
212	0x3c39140d	0.011296284
213	0xbaf0cfd4	-0.0018372484
214	0x3c5aeba5	0.013361846
215	0xbca25129	-0.01981409
216	0x3cd76fc4	0.026298411
217	0x3b9a2056	0.004703562
218	0xbcc587da	-0.02411263
219	0xbcd27947	-0.025692595
220	0x3cafc3cd	0.02145567
221	0xbc77327c	-0.01508772
222	0x3c2af3e5	0.010434126
223	0x3a97d523	0.0011583905
224	0xbc85b27b	-0.016320458
225	0x3d1e64ed	0.03867047
226	0xbc3a0535	-0.0113537805
227	0x3c9fb5cc	0.019495867
228	0x3ce3300e	0.027732875
229	0x3c9568ff	0.018238543
230	0x3d119852	0.035545655
231	0xbcc93c34	-0.02456484
232	0x3be4304a	0.0069637643
233	0x3b609959	0.003427109
234	0x3cba75e4	0.022761293
235	0xbc85fda2	-0.016356293
236	0xbcc768c7	-0.024341954
237	0xbcd8a591	-0.026446136
238	0x3cd8c1f6	0.026459675
239	0x3c60c59d	0.01371899
240	0xbd14f2ae	-0.03636425
241	0xbc01df8c	-0.007926833
242	0xbcfc03e8	-0.030763581
243	0xbcf064a8	-0.029344872
244	0x3cc32d4e	0.023825314
245	0xbc8eb0f3	-0.01741836
246	0x3c9903af	0.018678514
247	0x3d0c666c	0.034277365
248	0x3c03d3c6	0.008046096
249	0x3ca50650	0.020144612
250	0xbcfc2b02	-0.030782226
251	0xbc74aca2	-0.014933737
252	0xbaeb0e4c	-0.0017933338
253	0x3bfbbb84	0.0076822657
254	0x3c6c24d5	0.014413078
255	0x3c9d823a	0.019227136
