outputs/x3/epoch_169.pth (torch, 231335 bytes, 5 tensors)

conv1.weight f4 [64, 1, 9, 9]
-0.035958536 0.011459254 -0.046858877 0.048921388 -0.09022135 0.08427079 -0.07785078 -0.08585445
-0.06909962 0.05697827 -0.03533079 0.04960553 -0.08647216 -0.06246337 -0.0390673 -0.0204651
-0.08340765 0.07287353 -0.019179944 0.042861685 0.09087258 0.03633205 0.045059953 0.116623886
-0.043714993 0.03972787 -0.047492042 0.08694097 0.09667053 -0.087751545 0.11615068 0.07617698
0.06565989 0.058490787 0.100548476 -0.0111956475 -0.08675834 -0.025135746 -0.065856986 0.02637375
0.0015652591 -0.04128013 0.004429671 0.11455391 -0.005454851 0.012476029 -0.010515924 0.026488395
0.11048556 0.08133383 0.051388346 0.03526652 0.033856537 0.045966122 -0.0044354554 -0.096572585
-0.06208815 0.101036064 0.012492548 -0.08477355 0.02365113 0.096711986 -0.102195255 -0.06496387
-0.037494466 0.0108724795 -0.020372363 -0.008220236 -0.10548962 0.05557252 0.10096174 0.07105535
-0.06918376 -0.082666524 0.05282121 0.008799387 0.050609414 -0.10501041 -0.0033687078 0.08129226
0.054539174 0.004967877 0.02168058 -0.011137634 -0.061281856 -0.04173574 -0.066794224 0.094848335
0.06281547 0.03786425 -0.08357405 0.08624012 0.035096925 0.0775717 -0.042763736 0.025234101
0.11300401 0.078792475 0.08956982 -0.0219018 0.085452534 -0.0852195 0.012371928 -0.060849108
-0.025590936 -0.025078068 0.0122353565 0.102117814 0.05603678 0.00094159914 0.08341659 -0.050284814
0.061482236 -0.011064795 -0.018770434 0.014832254 -0.08441666 0.013231365 0.038335614 0.10011354
-0.026133534 0.046387162 0.111316286 -0.04760607 0.10654194 -0.05452164 0.04923849 0.043190923
0.03317202 0.09317833 -0.039392445 0.031264566 0.0024958283 -0.08184756 -0.025851699 -0.07385592
0.04758467 0.008188409 0.0103650745 -0.03279396 0.001682085 -0.032475807 0.0332959 0.10835087
0.016896555 -0.051307898 -0.071753986 0.0040723826 -0.08591731 -0.08509672 -0.072090775 -0.037991274
0.0074544144 0.0776805 0.042975288 0.083880626 -0.07165407 0.007655413 -0.09939735 0.06436849
0.02318268 0.10725188 -0.07901417 0.08910414 0.09379382 0.089830294 0.015840502 0.101039276
0.07420617 0.082897075 -0.0072417785 -0.08526122 -0.0014198815 0.020767992 -0.07569065 -0.06373601
-0.10652228 -0.03895139 0.0967896 0.018990122 -0.0067743566 0.0044178623 0.069277056 -0.098121904
-0.08573412 -0.036938235 -0.06394007 0.057327677 0.078523934 -0.10780622 -0.09430268 -0.108207285
0.041899756 0.08942594 -0.08615051 -0.051431704 0.035384744 -0.072534986 0.09437846 0.025853869
-0.031008128 0.0071340813 0.034619853 -0.03930831 -0.086099155 0.0007412475 0.002041439 0.0022417456
-0.016274568 0.07132129 -0.03109686 -0.010851149 0.045659117 -0.06994797 0.029714577 -0.024587255
0.053293575 -0.060279068 0.0040987693 0.010860989 -0.08940033 -0.080794156 0.04260963 -0.03233997
0.06598888 -0.10976216 -0.054924697 -0.09151809 0.044385843 -0.0032176238 -0.020721978 -0.018482529
-0.08684973 0.031513542 0.002777008 -0.07667872 0.041810434 -0.0022394836 -0.10746065 0.059770178
0.059433408 -0.020929804 -0.07671496 0.0038108842 0.08222522 0.10072387 -0.08222498 -0.047984432
0.087506145 0.054194167 0.06768094 -0.05786553 0.09597641 -0.09180318 -0.0056813997 0.0037062895
00000000: 4249 13bd 98bf 3b3c 18ef 3fbd cb61 483d
00000010: f9c5 b8bd 2a96 ac3d 3b70 9fbd 75d4 afbd
00000020: 1a84 8dbd 0c62 693d 05b7 10bd 2b2f 4b3d
00000030: 5118 b1bd 97d9 7fbd 0805 20bd 6da6 a7bc
00000040: a1d1 aabd b83e 953d 421f 9dbc bc8f 2f3d
00000050: 671b ba3d ead0 143d c990 383d 81d8 ee3d
00000060: 7e0e 33bd b1b9 223d 0487 42bd 1b0e b23d
00000070: 33fb c53d 15b7 b3bd 68e0 ed3d ad02 9c3d
00000080: b178 863d 0994 6f3d 5cec cd3d f36d 37bc
00000090: 5bae b1bd 7be9 cdbc 07e0 86bd c30d d83c
000000a0: 6129 cd3a 5b15 29bd c626 913b 3e9b ea3d
000000b0: 9bbe b2bb 4268 4c3c fb4a 2cbc 31fe d83c
000000c0: 4146 e23d 5a92 a63d 967c 523d a073 103d
000000d0: 27ad 0a3d f946 3c3d 4c57 91bb d9c7 c5bd
000000e0: 2550 7ebd ffeb ce3d 8bad 4c3c c19d adbd
000000f0: 04c0 c13c ef10 c63d bf4b d1bd c70b 85bd
00000100: cc93 19bd 7c22 323c f1e3 a6bc 2bae 06bc
00000110: f10a d8bd 03a0 633d 07c5 ce3d 7885 913d
00000120: 37b0 8dbd 114d a9bd 0e5b 583d 4e2b 103c
00000130: d14b 4f3d b30f d7bd 8ac5 5cbb 8e7c a63d
00000140: 7864 5f3d 93c9 a23b 799b b13c 9f7a 36bc
00000150: af02 7bbd 18f3 2abd 69cb 88bd d83f c23d
00000160: 66a5 803d 8b17 1b3d df28 abbd a99e b03d
00000170: cbc1 0f3d e9dd 9e3d 0729 2fbd bfb7 ce3c
00000180: a56e e73d f35d a13d 6270 b73d 676b b3bc
00000190: bd01 af3d 9087 aebd a1b3 4a3c ea3c 79bd
000001a0: 15a4 d1bc 8570 cdbc ce76 483c 2523 d13d
000001b0: d386 653d a6d5 763a 51d6 aa3d 73f7 4dbd
000001c0: ccd4 7b3d 1d49 35bc 74c4 99bc fb02 733c
000001d0: a4e2 acbd 5ec8 583c ce05 1d3d 5408 cd3d
000001e0: fe15 d6bc 7700 3e3d cbf9 e33d 95fe 42bd
000001f0: a932 da3d 1552 5fbd 4dae 493d f7e8 303d
00000200: 62df 073d 48d4 be3d f959 21bd 460f 003d
00000210: 0d91 233b b29f a7bd f1c6 d3bc c641 97bd
00000220: 25e8 423d ad28 063c 46d2 293c f652 06bd
00000230: 6879 dc3a 5a05 05bd 4861 083d 10e7 dd3d
00000240: a56a 8a3c 3b28 52bd c1f3 92bd 9f71 853b
00000250: 6af5 afbd 3047 aebd 54a4 93bd bd9c 1bbd
00000260: 2944 f43b f416 9f3d db06 303d 9bc9 ab3d
00000270: 5ebf 92bd 42da fa3b d690 cbbd a0d3 833d
00000280: 9be9 bd3c e0a6 db3d 2ed2 a1bd 3b7c b63d
00000290: f916 c03d f2f8 b73d f1c3 813c aeed ce3d
000002a0: 68f9 973d f1c5 a93d 714c edbb 6f9d aebd
000002b0: 511b baba a321 aa3c b303 9bbd 0688 82bd
000002c0: 5a28 dabd 7e8b 1fbd a039 c63d 2c91 9b3c
000002d0: 6cfb ddbb b7c3 903b 21e1 8d3d 23f4 c8bd
000002e0: 5f95 afbd 8c4c 17bd 03f3 82bd 6dd0 6a3d
000002f0: 28d1 a03d 82c9 dcbd c321 c1bd c89b ddbd
00000300: 149f 2b3d f224 b73d ae6f b0bd 0daa 52bd
00000310: 98ef 103d 398d 94bd 7e49 c13d 7ecb d33c
00000320: c204 febc 03c5 e93b 8ccd 0d3d c001 21bd
00000330: c154 b0bd 4750 423a aac9 053b 40ea 123b
00000340: 3e52 85bc e610 923d d8be febc 05c9 31bc
00000350: 0e05 3b3d e240 8fbd fc6b f33c 366b c9bc
00000360: 5d4a 5a3d 2fe7 76bd f84e 863b 4af2 313c
00000370: 8517 b7bd 6877 a5bd 6f87 2e3d eb76 04bd
00000380: 2e25 873d fcca e0bd b8f8 60bd d66d bbbd
00000390: eecd 353d c5de 52bb 23c1 a9bc ac68 97bc
000003a0: 45de b1bd 5814 013d 77fe 353b bc09 9dbd
000003b0: 6b41 2b3d 4dc4 12bb 5414 dcbd 93d1 743d
000003c0: 7270 733d fb74 abbc bc1c 9dbd 07c0 793b
000003d0: b265 a83d 5148 ce3d 9265 a8bd 538b 44bd
000003e0: 6c36 b33d b4fa 5d3d 4e9c 8a3d 6804 6dbd
000003f0: 488f c43d 4e03 bcbd 092b babb 38e5 723b

conv1.bias f4 [64]
-0.013901674 -0.06528406 -0.004746191 -0.061374735 0.033569865 -0.024220666 0.0630085 0.055105068
0.108025566 -0.07383497 -0.0027049333 0.002435722 -0.067472324 0.10020883 0.062020686 0.068014406
-0.032672152 -0.049954485 0.06787748 0.01609855 0.015239925 -0.021631364 -0.104979835 0.0636252
-0.04545941 0.05905514 -0.02729505 -0.0013546415 0.030085605 0.03665939 0.12532142 -0.04072114
0.03837867 0.04242491 -0.019082706 -0.08910737 -0.014944206 0.07428523 -0.094282076 0.0120933885
-0.05623403 -0.055272553 0.093033776 0.0009962885 0.036423534 0.014972994 -0.079387195 -0.11107467
-0.07003379 -0.0046700933 -0.047208257 -0.02392911 0.035449527 -0.0060473266 0.0065842625 -0.054800756
0.076271705 -0.053017367 -0.0061258134 0.09946981 0.10512405 -0.058408685 -0.09859327 -0.07401786
00000000: d9c3 63bc a6b3 85bd f085 9bbb 1364 7bbd
00000010: 8e80 093d 6b6a c6bc 9a0a 813d dab5 613d
00000020: 823c dd3d ca36 97bd 4045 31bb a2a0 1f3b
00000030: ee2e 8abd 493a cd3d 6709 7e3d 234b 8b3d
00000040: 3cd3 05bd 139d 4cbd 5903 8b3d 1be1 833c
00000050: e1b0 793c 4234 b1bc abff d6bd ee4d 823d
00000060: a533 3abd cde3 713d de99 dfbc 3a8e b1ba
00000070: 1676 f63c 2828 163d 4254 003e 36cb 26bd
00000080: f432 1d3d bec5 2d3d 5653 9cbc ed7d b6bd
00000090: 8bd8 74bc db22 983d f616 c1bd 5923 463c
000000a0: a755 66bd 7965 62bd 7e88 be3d e595 823a
000000b0: d830 153d 4a51 753c c195 a2bd 1e7b e3bd
000000c0: e06d 8fbd 9507 99bb 725d 41bd fb06 c4bc
000000d0: 8633 113d a728 c6bb ccc0 d73b c276 60bd
000000e0: 5734 9c3d bd28 59bd 0cbb c8bb d4b6 cb3d
000000f0: 474b d73d f23d 6fbd 45eb c9bd ad96 97bd

conv2.weight f4 [32, 64, 5, 5]
0.0050648395 0.01047692 -0.011267739 -0.019714475 -0.0047633164 -0.00631993 -0.015812587 -0.023689125
-0.017337069 -0.0009371009 0.013702345 -0.018620124 -0.009193617 -0.019057691 0.012102932 -0.0013831202
0.016271433 0.0032548585 -0.004677519 0.02207956 0.016824752 0.023948882 -0.017037079 0.011923304
-0.015456893 -0.01586623 0.018317064 0.0109006725 -0.014709796 -0.016827611 -0.0134715885 0.01889558
0.00820941 0.00085798244 -0.017367762 0.007740088 -0.0057750028 0.01458539 0.00552851 0.010861044
-0.008444709 -0.0004738814 -0.013822754 0.0055864993 -0.0021538024 -0.021635022 0.0134332795 0.009775084
0.014471166 0.0105627235 0.002418868 0.017778447 -0.02167627 0.0068976106 0.019907838 -0.004241284
0.01933253 0.0103701195 0.02115797 0.021443523 0.011400865 0.0022430972 -0.021227244 -0.009122707
-0.022233186 -0.0040060175 0.015171891 0.013540639 0.0018610846 -0.024125105 0.013317579 0.0093025435
-0.012714073 -0.02294151 -0.013882598 0.008000811 -0.01390001 -0.017781815 -0.020253725 -0.015152265
-0.0039071366 0.018437557 -0.015472542 -0.022143941 0.020646222 0.013500153 0.007783775 -0.016845018
0.017306658 0.010092508 0.0038814624 0.018675877 0.007513954 0.015586839 -0.0072730896 0.015373849
-0.012134504 0.006078452 -0.015687702 -0.023035051 -0.020886064 -0.018455375 0.01355056 0.024176143
0.015239829 -0.0005848268 -0.00025560858 0.003423385 0.023787694 0.012983941 -0.015074188 -0.01376869
0.020473622 0.013517336 -0.02445684 -0.020807236 0.012867427 -0.011921529 0.018968623 0.016316503
-0.019604802 0.005887181 -0.0040695546 -0.023843111 0.008096721 0.002765789 0.0046116235 -0.020244433
-0.0055216644 -0.0045460984 -0.021637168 0.019451372 -0.0068320204 0.0118981125 -0.0065487386 -0.019581147
-0.00677642 0.0046505486 0.019711284 0.0037929788 0.017044142 0.011770327 -0.017165111 0.0008234886
0.02209937 -0.007811493 0.010663909 0.021697883 -0.0016195773 -0.00940948 -0.015348718 -0.0020299514
-0.016871473 0.02441381 -0.021647135 0.02190052 0.016827842 -0.021292219 -0.014548303 0.023325816
-0.0030672296 -0.017304985 0.0011794943 -0.005565462 0.0032407416 0.0099265585 -0.021110963 -0.012691757
-0.0004449743 0.023509692 -0.01872911 -0.013106845 0.01402467 0.023776012 0.0031394016 5.973436e-06
0.010917425 -0.0047973166 0.014930399 0.02483375 0.018073365 -0.024408124 0.019691324 0.02394894
0.010717593 -0.0076297354 -0.0029991462 -0.016225584 -0.0039218017 0.016098881 -0.006128759 -0.0035112083
-0.004119207 6.229176e-05 0.0035741327 -0.0034041966 -0.024353717 -0.007899868 -0.012625007 -0.008844153
-0.012447992 -0.017563697 -0.020230524 -0.008921391 0.0036138839 0.024642987 0.0023384036 0.00218368
0.012220883 0.0056375815 -0.020038854 -0.024271002 -0.015345791 -0.0051776525 -0.016842686 0.018633036
-0.007754339 -0.01161067 -0.017650401 -0.010930891 -0.018856475 0.020883007 0.0067012706 -0.021479951
0.024448754 -0.004943657 0.008288326 -0.0040103113 -0.004643476 0.013813019 0.021903615 0.009474421
0.024602378 0.02401088 -0.001363853 -0.0021306651 -0.0017221493 -0.0055285925 -0.009136908 -0.020522267
-0.023867765 -0.009796624 -0.009542565 -0.02435206 -0.0054835067 0.016287787 -0.0036383853 -0.011039014
-0.0004899337 0.016439045 -0.011216437 -0.0103071425 -0.0015429336 -0.0008914154 0.02314149 -0.021944268
00000000: f4f6 a53b 63a7 2b3c 539c 38bc 4080 a1bc
00000010: 9815 9cbb 6a17 cfbb 6689 81bc b20f c2bc
00000020: 7806 8ebc c7a7 75ba cd7f 603c 3b89 98bc
00000030: d3a0 16bc e01e 9cbc 604b 463c d049 b5ba
00000040: ab4b 853c 774f 553b e045 99bb 32e0 b43c
00000050: 10d4 893c 7230 c43c 5891 8bbc f659 433c
00000060: e83e 7dbc e5f9 81bc ab0d 963c bc98 323c
00000070: 5b01 71bc 0fda 89bc f0b7 5cbc e7ca 9a3c
00000080: c380 063c 3aea 603a d646 8ebc 90a0 fd3b
00000090: 3c3c bdbb 8ff7 6e3c 8128 b53b 85f2 313c
000000a0: ad5b 0abc 4973 f8b9 d578 62bc f40e b73b
000000b0: cf26 0dbb ee3b b1bc 4217 5c3c ad27 203c
000000c0: 7818 6d3c 460f 2d3c df85 1e3b 1ba4 913c
000000d0: 6f92 b1bc 5a05 e23b c315 a33c 78fa 8abb
000000e0: 415f 9e3c 6fe7 293c 7b53 ad3c 54aa af3c
000000f0: b2ca 3a3c ed00 133b c2e4 adbc 6877 15bc
00000100: 5f22 b6bc e944 83bb 8693 783c 8ed9 5d3c
00000110: a3ef f33a 03a2 c5bc fa31 5a3c b269 183c
00000120: b04e 50bc d5ef bbbc d673 63bc d515 033c
00000130: debc 63bc 2bab 91bc 24eb a5bc 3541 78bc
00000140: 7007 80bb 5c0a 973c 8b80 7dbc 3667 b5bc
00000150: 4422 a93c bf2f 5d3c 0a0f ff3b 90fe 89bc
00000160: b1c6 8d3c 0c5b 253c 2260 7e3b 27fe 983c
00000170: 9d37 f63b f15f 7f3c 1953 eebb 99e2 7b3c
00000180: cccf 46bc c02d c73b 7f83 80bc 01b4 bcbc
00000190: 4019 abbc ba2f 97bc 2b03 5e3c 0c0d c63c
000001a0: 7ab0 793c 104f 19ba 3403 86b9 df5a 603b
000001b0: 69de c23c 98ba 543c baf9 76bc 1296 61bc
000001c0: 4cb8 a73c d177 5d3c b659 c8bc f073 aabc
000001d0: e7d1 523c 8452 43bc 1664 9b3c 30aa 853c
000001e0: 409a a0bc 41e9 c03b e659 85bb a152 c3bc
000001f0: 1ca8 043c 3d42 353b 1a1d 973b a7d7 a5bc
00000200: 14ef b4bb 70f7 94bb 6e40 b1bc 7c58 9f3c
00000210: 24df dfbb 4df0 423c cd96 d6bb a468 a0bc
00000220: bb0c debb a163 983b 8f79 a13c a093 783b
00000230: 28a0 8b3c 54d8 403c d99d 8cbc 62df 573a
00000240: bd09 b53c 8df7 ffbb adb7 2e3c c2bf b13c
00000250: ff47 d4ba 382a 1abc 3079 7bbc ef08 05bb
00000260: 0b36 8abc 78ff c73c 5555 b1bc b868 b33c
00000270: 8bda 893c 056d aebc 015c 6ebc c815 bf3c
00000280: 9303 49bb 2fc3 8dbc 4399 9a3a 7b5e b6bb
00000290: 9f62 543b 01a3 223c e6f0 acbc 16f1 4fbc
000002a0: 714b e9b9 6697 c03c ca6d 99bc 18be 56bc
000002b0: bbc7 653c e9c5 c23c 6bbe 4d3b 6d6f c836
000002c0: 00df 323c cf32 9dbb a29e 743c 2670 cb3c
000002d0: 980e 943c 8cf3 c7bc b34f a13c 9130 c43c
000002e0: d898 2f3c dc02 fabb 538d 44bb 84eb 84bc
000002f0: 7582 80bb cde1 833c c2d3 c8bb 4d1c 66bb
00000300: 6afa 86bb a2a2 8238 ff3b 6a3b f118 5fbb
00000310: 7281 c7bc 736e 01bc 1ed9 4ebc 11e7 10bc
00000320: aaf2 4bbc bee1 8fbc 7cba a5bc 072b 12bc
00000330: e9d6 6c3b 17e0 c93c e73f 193b 121c 0f3b
00000340: 193a 483c 76bb b83b 8628 a4bc fbd3 c6bc
00000350: ea6c 7bbc 4ca9 a9bb acf9 89bc 4fa4 983c
00000360: 1c18 febb ae3a 3ebc 9397 90bc 7b17 33bc
00000370: e578 9abc d712 ab3c 5596 db3b b9f6 afbc
00000380: c148 c83c 67fe a1bb c2cb 073c ee68 83bb
00000390: 4d28 98bb 0050 623c 366f b33c 9a3a 1b3c
000003a0: ed8a c93c 77b2 c43c 50c3 b2ba a1a2 0bbb
000003b0: beb9 e1ba 3229 b5bb f8b2 15bc 501e a8bc
000003c0: 5586 c3bc 0582 20bc 6b58 1cbc f97d c7bc
000003d0: fdae b3bb f76d 853c fa71 6ebb fbdc 34bc
000003e0: e56e 00ba 2dab 863c 26c5 37bc 4adf 28bc
000003f0: 433c caba e0ad 69ba 3993 bd3c 77c4 b3bc

conv2.bias f4 [32]
-0.008210984 -0.02408453 -0.004381435 0.016082287 0.027313018 0.020737223 -0.01490332 0.037164748
0.0034455552 -0.0116786575 -0.007311688 0.0037202602 0.031579494 0.026802415 -0.0055028326 -0.009476545
-0.0166205 -0.017890073 0.025114706 0.02123128 -0.00016944093 0.0024412659 -0.006908164 0.0003690395
0.011636207 -0.010616292 0.012655987 0.028275691 0.006235073 -0.016699957 -0.0041789208 -0.0043843784
00000000: 5d87 06bc ec4c c5bc 2492 8fbb 00bf 833c
00000010: 8dbf df3c 1ce1 a93c 0e2d 74bc 103a 183d
00000020: d3ce 613b d757 3fbc e296 efbb 9ccf 733b
00000030: 8059 013d bd90 db3c 1b51 b4bb 8343 1bbc
00000040: b727 88bc 348e 92bc 5bbd cd3c 39ed ad3c
00000050: f4ab 31b9 a5fd 1f3b e15d e2bb a57b c139
00000060: caa5 3e3c f5ef 2dbc 0f5b 4f3c 6ca2 e73c
00000070: 954f cc3b 59ce 88bc 54ef 88bb d5aa 8fbb

conv3.weight f4 [1, 32, 5, 5]
0.019191807 0.018298918 -0.0017924937 0.024431221 0.030240882 -0.029096426 0.001631626 -0.033896625
0.004217626 0.0103036165 -0.0021509407 0.028028263 0.012329492 -0.0296158 -0.0028604718 -0.015418134
-0.028506218 -0.00013616773 -0.031728473 0.023540726 0.004680297 0.012799613 0.019781657 0.027832037
-0.017270584 0.004918999 -0.029477606 0.010704059 0.026621683 -0.021923652 0.023483343 -0.0113574
0.01473793 -0.013943049 0.007950829 -0.029399643 0.033006597 -0.0012922005 0.036335185 -0.009166454
0.016819589 -0.013377129 -0.011136487 -0.0073811323 0.019212652 0.0154753635 0.023195734 -0.0034180793
0.0053096847 0.02373472 -0.0138925975 -0.01168712 0.02685587 -0.029874763 -0.017180974 -0.019665804
-0.007433468 -0.025969613 0.00818897 -0.024759762 -0.01557714 -0.0344308 0.02368426 -0.021716557
-0.004310254 -0.02116426 -0.004891251 -0.006705382 -0.011546703 -0.00058069685 0.014968615 0.029048102
0.026214538 -0.026276818 -0.0041672 -0.027493497 0.018401057 0.024649177 0.009767969 0.011820164
0.035184354 -0.0033577562 -0.030094648 -0.016569242 -0.010438165 0.016993616 0.0010376779 0.027997809
0.019693095 -0.010190008 -0.008969775 -0.011739767 -0.0318421 -0.011322817 -0.016461963 -0.0066279806
-0.00778444 -0.013284233 -0.016390378 0.0056423703 0.005277755 0.01017814 0.019505044 -0.00073838123
0.0046908697 -0.0069896863 0.03585714 0.007410105 0.029796064 -0.018160397 -0.023829948 0.011362413
-0.021825328 0.027603915 0.024999779 0.03339766 0.03817033 0.018891703 0.018346356 -0.0014278813
0.034951348 0.018765874 -0.004614876 -0.030941218 0.0062695267 0.0069217863 0.028253963 0.023381582
0.03424859 0.0063411407 0.013462849 -0.02805827 0.0044870963 0.008719282 -0.01967058 -0.016710829
0.014097414 -0.02156844 -0.014087901 0.025022443 0.026470916 -0.032031637 -0.0340209 0.021457754
-0.0104321325 0.0023008597 -0.02564666 -0.016436184 0.027358605 -0.021149637 0.012847778 0.0014410609
0.010913887 0.0015359449 -0.007536188 0.0125087015 0.0096924575 -0.0032564898 0.02367637 0.031415876
0.01846446 -0.009931217 -0.025597064 -0.02391137 -0.017178768 -0.0028672519 0.018077867 0.00956652
0.031526525 -0.03393266 -0.019461885 0.03252398 -0.025250511 0.022556636 0.0015642283 -0.0020438214
0.029808935 0.040004734 -0.009897353 0.00092161936 0.034953523 0.03549646 0.029827107 -0.014641669
-0.019645257 0.034768995 0.03481677 0.02107487 0.048893627 0.035161834 -0.0054684603 0.020273197
0.048070263 0.026401613 -0.014079391 -0.036303096 0.008875998 0.019704547 -0.033039585 0.006241009
-0.021822048 0.014394731 -0.016744893 -0.02668644 0.034136765 0.021137232 -0.014051141 -0.024895336
0.024178484 -0.02194279 -0.010471063 -0.015397305 0.01146845 -0.0017718441 0.01342004 -0.01981409
0.026298746 0.0047701574 -0.02410869 -0.025675094 0.02145567 -0.015086057 0.010474074 0.0011553473
-0.01630491 0.039916478 -0.010946914 0.020747129 0.028739633 0.017459985 0.035978485 -0.025151635
0.007804224 0.0046764878 0.023010833 -0.018082598 -0.027018668 -0.027154997 0.02709192 0.014462517
-0.038568668 -0.010696768 -0.03176667 -0.029016435 0.024391243 -0.018258462 0.017759984 0.03480574
0.008792914 0.02022712 -0.030782226 -0.014933736 -0.0017927898 0.0076822694 0.014413078 0.019227136
00000000: 2338 9d3c 9de7 953c 1cf2 eaba fc23 c83c
00000010: babb f73c a15b eebc 49dc d53a 30d7 0abd
00000020: 0334 8a3b 80d0 283c ccf6 0cbb 879b e53c
00000030: a301 4a3c d69c f2bc c176 3bbb 579c 7cbc
00000040: df85 e9bc 3fc8 0eb9 b7f5 01bd 7bd8 c03c
00000050: 2d5d 993b 78b5 513c 240d a23c 0300 e43c
00000060: 0a7b 8dbc 8e2f a13b 057b f1bc 1460 2f3c
00000070: b715 da3c 3b99 b3bc 2460 c03c 6314 3abc
00000080: 5c77 713c 6371 64bc 3244 023c 85d7 f0bc
00000090: ed31 073d 0e5f a9ba 34d4 143d e52e 16bc
000000a0: 3cc9 893c bf2b 5bbc d075 36bc 6ddd f1bb
000000b0: da63 9d3c 618c 7d3c fb04 be3c db01 60bb
000000c0: ddfc ad3b 516f c23c c79d 63bc 567b 3fbc
000000d0: d700 dc3c ebbb f4bc 1dbf 8cbc 2e1a a1bc
000000e0: 7394 f3bb 3abe d4bc 082b 063c fcd4 cabc
000000f0: 4337 7fbc 4f07 0dbd 7e05 c23c ece6 b1bc
00000100: 083d 8dbb ac60 adbc ca46 a0bb d2b8 dbbb
00000110: 622e 3dbc e839 18ba ec3e 753c 49f6 ed3c
00000120: dfbf d63c 7b42 d7bc 028d 88bb 0b3a e1bc
00000130: d0bd 963c 12ed c93c d509 203c 5ca9 413c
00000140: 781d 103d cd0d 5cbb 0d89 f6bc 38bc 87bc
00000150: d604 2bbc 3236 8b3c b102 883a a95b e53c
00000160: 6a53 a13c fef3 26bc f7f5 12bc 2758 40bc
00000170: dd6c 02bd 5683 39bc 3ddb 86bc 882f d9bb
00000180: 9e14 ffbb 1da6 59bc 1d45 86bc a2e3 b83b
00000190: 05f1 ac3b 37c2 263c 0bc9 9f3c ed8f 41ba
000001a0: deb5 993b bd09 e5bb f0de 123d 77d0 f23b
000001b0: e016 f43c 1dc5 94bc 0637 c3bc 6a29 3a3c
000001c0: 08cb b2bc 9b21 e23c 56cc cc3c fccb 083d
000001d0: 7e58 1c3d c6c2 9a3c 194b 963c bf27 bbba
000001e0: 2529 0f3d e4ba 993c 6338 97bb 7078 fdbc
000001f0: 9a70 cd3b 27d0 e23b db74 e73c bb8a bf3c
00000200: 4048 0c3d 58c9 cf3b 4893 5c3c 75da e5bc
00000210: 7e08 933b 52db 0e3c 3224 a1bc 26e5 88bc
00000220: d7f8 663c 4cb0 b0bc f1d0 66bc defb cc3c
00000230: 89d9 d83c 9b33 03bd 8059 0bbd 2cc8 af3c
00000240: 89eb 2abc 05ca 163b f218 d2bc 2da5 86bc
00000250: 271f e03c 0142 adbc 7d7f 523c fbe1 bc3a
00000260: 29d0 323c c251 c93a 20f2 f6bb 4cf1 4c3c
00000270: 1dcd 1e3c d56a 55bb f2f4 c13c efad 003d
00000280: c742 973c 8bb6 22bc efb0 d1bc c7e1 c3bc
00000290: 7dba 8cbc 81e8 3bbb 0918 943c e5bc 1c3c
000002a0: f521 013d f9fc 0abd 886e 9fbc dd37 053d
000002b0: 29da cebc b2c8 b83c cb06 cd3a a2f1 05bb
000002c0: de31 f43c 01dc 233d 8228 22bc d498 713a
000002d0: 6d2b 0f3d bc64 113d fa57 f43c 9ce3 6fbc
000002e0: 17ef a0bc ef69 0e3d 089c 0e3d 35a5 ac3c
000002f0: af44 483d db05 103d c530 b3bb fa13 a63c
00000300: 53e5 443d 3248 d83c 3fad 66bc 8eb2 14bd
00000310: a26c 113c 6e6b a13c 8454 07bd 6181 cc3b
00000320: 27c4 b2bc e1d7 6b3c 962c 89bc 859d dabc
00000330: fed2 0b3d fd27 ad3c c236 66bc 4ef1 cbbc
00000340: f511 c63c 5ec1 b3bc d28e 2bbc fa44 7cbc
00000350: 2ae6 3b3c 393d e8ba badf 5b3c 2951 a2bc
00000360: 7870 d73c fb4e 9c3b 967f c5bc 9354 d2bc
00000370: cdc3 af3c 822b 77bc 739b 2b3c 066f 973a
00000380: e091 85bc 767f 233d af5a 33bc e2f5 a93c
00000390: 616f eb3c 3e08 8f3c 2d5e 133d cd0a cebc
000003a0: 93ba ff3b 393d 993b 3781 bc3c f521 94bc
000003b0: 4156 ddbc 2874 debc e0ef dd3c 31f4 6c3c
000003c0: 2efa 1dbd 7f41 2fbc c51d 02bd e0b3 edbc
000003d0: 25d0 c73c c592 95bc 637d 913c 7790 0e3d
000003e0: 2810 103c 58b3 a53c 022b fcbc a1ac 74bc
000003f0: 0bfc eaba 8cbb fb3b d524 6c3c 3a82 9d3c
