outputs/x3/epoch_28.pth (torch, 231327 bytes, 5 tensors)

conv1.weight f4 [64, 1, 9, 9]
000000 12 4d 28 bd 73 e2 e4 3b 6d 74 4f bd 7e 19 41 3d
       -0.041089125 0.0069850027 -0.05064814 0.047143452
000010 21 41 b7 bd 83 7b ae 3d 2a 2e a0 bd 5d fa b1 bd
       -0.08947969 0.08519652 -0.07821305 -0.08690331
000020 ed a6 8f bd 2f c9 5b 3d 09 67 1c bd cc 27 3e 3d
       -0.070142604 0.05365866 -0.0381842 0.046424672
000030 9a a9 b4 bd 85 18 7b bd 73 d0 15 bd 8a f5 9c bc
       -0.088214114 -0.06130268 -0.036575746 -0.01916005
000040 9c 09 ab bd 36 ec 93 3d f5 23 ab bc 51 d2 27 3d
       -0.08351442 0.07222788 -0.02089117 0.040972058
000050 42 7f b1 3d c2 ab fd 3c 7e e0 28 3d 05 39 ed 3d
       0.086668506 0.03096569 0.041229717 0.11583141
000060 79 ae 32 bd 26 20 22 3d a5 9b 42 bd 76 1b b2 3d
       -0.04362342 0.03958144 -0.047511715 0.08696644
000070 a5 70 c5 3d 3b 96 bb bd bb 5a de 3d c8 73 8b 3d
       0.09640626 -0.091595136 0.10857149 0.06809193
000080 e6 3e 7b 3d fe fa 66 3d a8 aa cd 3d e1 b6 1f bc
       0.06133928 0.05639171 0.10042316 -0.009748192
000090 e1 60 b0 bd c1 8e c6 bc f0 c9 8a bd 17 8c a9 3c
       -0.08612228 -0.024237992 -0.06776798 0.020696683
0000a0 78 67 b8 bb 86 97 3c bd a1 b5 be 3a 62 d5 e9 3d
       -0.005627569 -0.04604294 0.0014549979 0.11417653
0000b0 e8 e2 4d bb 49 7f 34 3c 7a 0f 30 bc 97 93 d4 3c
       -0.0031415764 0.011016675 -0.010745877 0.025949283
0000c0 28 06 e0 3d ab 9e a3 3d 7e 20 4e 3d 2c ff 09 3d
       0.10938674 0.07989248 0.050323956 0.033690616
0000d0 49 7a 09 3d 93 92 42 3d 8a 49 fe bb c0 3c c9 bd
       0.033563886 0.047503065 -0.0077602314 -0.0982604
0000e0 7b 71 80 bd f1 98 d0 3d 49 93 6e 3c 6b ea a9 bd
       -0.06271645 0.10185421 0.014561483 -0.08296665
0000f0 fa 28 c2 3c b4 b0 c5 3d 4e 4c d1 bd 33 a0 8b bd
       0.02370118 0.09652844 -0.10219632 -0.06817665
000100 83 e2 21 bd 68 3a 1f 3c 86 bb a4 bc 3d 4d c6 bb
       -0.03952266 0.009718515 -0.02010895 -0.006051688
000110 f8 36 d3 bd 49 a0 67 3d e5 31 cf 3d 0d 29 90 3d
       -0.10313219 0.056549344 0.101169385 0.0703908
000120 84 59 92 bd 79 a5 ac bd 40 f2 53 3d 73 d7 0a 3c
       -0.0714598 -0.08429999 0.0517447 0.008474219
000130 a6 b7 53 3d 07 e3 d3 bd c8 24 0c bb f8 74 a8 3d
       0.051688813 -0.103460364 -0.0021384228 0.08225435
000140 bc 00 60 3d 1d 23 60 3b 26 39 a9 3c af 6a 35 bc
       0.0546882 0.0034200617 0.020657133 -0.011072799
000150 e4 18 79 bd f1 83 2a bd 74 88 8a bd 7f 52 be 3d
       -0.060814753 -0.041629735 -0.067643076 0.09293079
000160 02 14 7b 3d c3 6f 1b 3d a1 47 ad bd 42 1a b0 3d
       0.061298378 0.03794838 -0.08460928 0.08598758
000170 af 57 13 3d 71 93 a1 3d d7 0e 2b bd 46 33 cc 3c
       0.035972293 0.0788945 -0.0417622 0.024926793
000180 2a 36 e2 3d a8 07 9c 3d 2a ef b6 3d 11 8c b3 bc
       0.11045487 0.07618648 0.08932336 -0.021917375
000190 f1 25 b0 3d ad f8 ac bd 63 9f 56 3c 90 f6 73 bd
       0.08600987 -0.08445869 0.013099524 -0.059561312
0001a0 e8 4d c5 bc 69 21 d6 bc fe 0e 27 3c fa 8c d0 3d
       -0.024085 -0.026138978 0.0101964455 0.10183139
0001b0 c2 df 68 3d 1f b0 cb 3a e9 df a8 3d 4b 5a 56 bd
       0.056854017 0.0015540159 0.082458325 -0.052332204
0001c0 2c f0 79 3d 02 c7 08 bc a5 7c 8c bc 39 ca 73 3c
       0.06102006 -0.008348228 -0.017149279 0.014879757
0001d0 95 67 ac bd 14 99 68 3c 6b ff 1e 3d 94 e3 c8 3d
       -0.08418194 0.014196653 0.038817804 0.09809032
0001e0 6d 5e f8 bc 19 3a 32 3d aa ff e6 3d c2 4b 3b bd
       -0.030318463 0.043512437 0.11279233 -0.045726545
0001f0 aa c0 db 3d e9 3d 5e bd 70 18 4a 3d 26 c4 32 3d
       0.10730107 -0.05425826 0.04933971 0.043644093
000200 4f d9 04 3d 2f 5e b9 3d 37 ef 2d bd d2 19 fa 3c
       0.032433804 0.09051167 -0.04246446 0.03052989
000210 9b d1 15 3b 07 7c a8 bd 3b c4 d8 bc 2c 59 9a bd
       0.002286053 -0.08226781 -0.026460757 -0.075365394
000220 7b a3 41 3d a0 6b 10 3c e7 a5 2f 3c 52 e9 09 bd
       0.047275048 0.008814722 0.010720707 -0.033669777
000230 4b 19 94 39 0d 40 0c bd 2e 4f 02 3d 1e 33 db 3d
       0.00028247604 -0.03424077 0.031813793 0.10703109
000240 f1 74 6c 3c c5 4d 57 bd 72 62 91 bd 61 53 c7 3b
       0.014432178 -0.0525644 -0.07098855 0.0060829376
000250 3d 29 ad bd 93 14 af bd b4 a4 96 bd 1f 1c 21 bd
       -0.08455131 -0.08548846 -0.073556334 -0.03933346
000260 cf 78 c5 3b a1 11 9a 3d d6 7a 27 3d 57 5b aa 3d
       0.0060263644 0.07522894 0.04088863 0.08318203
000270 b0 9a 91 bd b6 a3 06 3c 58 88 cc bd 77 9c 81 3d
       -0.071095824 0.008217743 -0.09986943 0.063286714
000280 e2 34 b7 3c b3 71 d9 3d 97 d5 a1 bd f2 7a b6 3d
       0.022364084 0.106173895 -0.07902067 0.08910169
000290 a9 18 c0 3d 4f fa b7 3d ec c1 81 3c 08 e8 ce 3d
       0.093797036 0.089832895 0.01583954 0.1010285
0002a0 f2 f3 97 3d 29 c0 a9 3d 28 77 ed bb 3a a0 ae bd
       0.07419576 0.08288605 -0.0072468705 -0.085266545
0002b0 59 cf b7 ba 8f 7b aa 3c 95 02 9b bd 28 89 82 bd
       -0.0014023586 0.02081087 -0.07568852 -0.06373817
0002c0 b8 2b da bd e3 9a 1f bd 01 33 c6 3d 9d 6f 9b 3c
       -0.1065287 -0.03896607 0.09677697 0.01897412
0002d0 8c a5 de bb 1c 81 91 3b bd e1 8d 3d 8f f3 c8 bd
       -0.006794637 0.00444044 0.06927822 -0.0981208
0002e0 19 95 af bd 72 56 17 bd f3 f6 82 bd 9c b0 6a 3d
       -0.0857336 -0.036947675 -0.06394758 0.057297334
0002f0 a5 c7 a0 3d 78 c9 dc bd 7d 21 c1 bd 3f 9b dd bd
       0.07850579 -0.107806146 -0.094302155 -0.108206265
000300 3d a6 2b 3d 30 25 b7 3d 9b 6f b0 bd 9e b8 52 bd
       0.041906584 0.0894264 -0.08615037 -0.051445596
000310 4c cd 10 3d 32 97 94 bd e8 4a c1 3d 45 07 d4 3c
       0.035352036 -0.07255401 0.09438115 0.025882373
000320 06 a4 fd bc 0e 96 eb 3b 33 d8 0d 3d e9 f8 20 bd
       -0.030962002 0.007189519 0.03463001 -0.03929988
000330 be 53 b0 bd af f6 3f 3a 83 d7 03 3b f5 df 11 3b
       -0.086097226 0.00073228305 0.0020117469 0.0022258733
000340 ce 12 85 bc 4b 15 92 3d b9 4b fe bc 2a c7 30 bc
       -0.016244318 0.071329676 -0.031041967 -0.010789672
000350 72 11 3b 3d ec 3d 8f bd a8 84 f3 3c f3 72 c9 bc
       0.045670934 -0.069942325 0.029726341 -0.024590945
000360 36 4b 5a 3d b9 e5 76 bd 1a 33 86 3b 61 f8 31 3c
       0.053294383 -0.060277674 0.0040954472 0.010862441
000370 83 17 b7 bd 67 77 a5 bd cf 88 2e 3d 1c 77 04 bd
       -0.089400314 -0.08079415 0.04261094 -0.032340154
000380 07 25 87 3d fc ca e0 bd b8 f8 60 bd d6 6d bb bd
       0.06598859 -0.10976216 -0.054924697 -0.09151809
000390 3b ce 35 3d 6b 04 53 bb 0b c2 a9 bc db 69 97 bc
       0.04438613 -0.0032198678 -0.02072241 -0.018483093
0003a0 45 de b1 bd 3f 14 01 3d 0a c0 35 3b bc 09 9d bd
       -0.08684973 0.03151345 0.0027732872 -0.07667872
0003b0 7f 41 2b 3d 7e 57 12 bb 54 14 dc bd 8e d1 74 3d
       0.04181051 -0.0022329981 -0.10746065 0.05977016
0003c0 6d 70 73 3d d9 76 ab bc bc 1c 9d bd d4 92 6f 3b
       0.05943339 -0.020930694 -0.07671496 0.0036556022
0003d0 57 ab a8 3d 38 76 ce 3d 7a 48 aa bd d4 c8 4b bd
       0.082358055 0.10081142 -0.08314605 -0.04975207
0003e0 c6 fa af 3d a4 50 58 3d 4e dc 87 3d 3e 9d 6e bd
       0.08592753 0.05281128 0.06633817 -0.058255427
0003f0 82 d8 c3 3d f8 5c bc bd 79 2c b0 bb 75 29 7e 3b
       0.0956278 -0.0919742 -0.0053763953 0.0038782035

conv1.bias f4 [64]
000000 06 a1 98 bc f4 74 8a bd f5 36 9b bb c9 ed 8d bd
       -0.01863147 -0.06760588 -0.004736776 -0.069301195
000010 68 b9 f6 3c 39 89 d4 bc 73 ca 7b 3d 22 fa 56 3d
       0.030117705 -0.02594434 0.061472367 0.05248464
000020 55 11 e1 3d bb fd 8a bd b8 6c ca bb 96 9d 4d bb
       0.10989634 -0.067866765 -0.006177511 -0.0031374446
000030 79 aa a1 bd 54 a3 bc 3d 28 0a 89 3d 35 a6 95 3d
       -0.07893843 0.0921084 0.0669139 0.07307092
000040 bd 3a 27 bd 8a b0 61 bd 9e 81 81 3d c4 2d 8b 3c
       -0.0408275 -0.0551 0.06323551 0.016989596
000050 78 d7 47 3c 2c 19 b0 bc 1b 11 cc bd 49 47 77 3d
       0.012197368 -0.021496378 -0.099642 0.060370717
000060 be f4 63 bd 0c 72 8b 3d f0 37 dc bc a6 ca 83 bc
       -0.055653326 0.06808862 -0.026882142 -0.016087841
000070 30 91 e0 3c 7a ab f0 3c 8d 5a f3 3d 21 8d 26 bd
       0.02741298 0.029378641 0.118825056 -0.040661935
000080 7f 16 1b 3d f1 a7 3b 3d 98 11 22 bc 7f b0 c7 bd
       0.03786325 0.04581446 -0.00989189 -0.09750461
000090 a1 01 c7 bc d6 2d 9c 3d 37 06 c1 bd 6f bb 5c 3c
       -0.024292769 0.0762593 -0.094250135 0.013472422
0000a0 21 b2 70 bd 58 66 62 bd f3 c7 ba 3d 30 68 b3 3b
       -0.058763627 -0.055273384 0.091201685 0.0054750666
0000b0 53 45 07 3d c5 7e 99 3c cc 22 a2 bd 1e 7b e3 bd
       0.033025097 0.018737206 -0.07916793 -0.11107467
0000c0 d0 0e 8f bd f1 62 41 bc 5f 3d 46 bd c1 a4 bd bc
       -0.06985247 -0.011803375 -0.04839837 -0.02314985
0000d0 0b 47 28 3d 40 16 dc bb eb 61 fc 3b 54 41 5e bd
       0.041083377 -0.0067165196 0.0077021024 -0.05426152
0000e0 b2 70 9a 3d 34 d2 69 bd 53 2d 04 bc 55 60 b5 3d
       0.07541026 -0.05708523 -0.008067447 0.088562645
0000f0 c8 25 d0 3d 40 02 72 bd fa 0a ca bd 2a 2a a7 bd
       0.10163456 -0.059084177 -0.09865375 -0.08162339

conv2.weight f4 [32, 64, 5, 5]
000000 2d 0d a1 3b 08 99 28 3c 22 a6 3c bc 50 25 a3 bc
       0.0049149008 0.010290392 -0.0115142185 -0.019915253
000010 a1 3f a1 bb 60 69 d0 bb 87 86 82 bc c1 44 c3 bc
       -0.0049209152 -0.006360218 -0.015933288 -0.023836495
000020 2e 7a 8e bc 8c 05 86 ba 09 ef 58 3c 2e a6 9c bc
       -0.017392244 -0.0010225042 0.013240584 -0.01912221
000030 b5 5e 1e bc e4 af 9f bc 4d e6 3c 3c 07 9a 0b bb
       -0.009666135 -0.01949305 0.011529517 -0.0021301524
000040 4e f1 7e 3c ce 1f 2f 3b f3 cd ab bb 0c 28 af 3c
       0.015560461 0.0026721838 -0.005243057 0.0213814
000050 60 db 82 3c 8a 95 bd 3c 61 2a 91 bc 38 e3 38 3c
       0.015973747 0.023142595 -0.017720403 0.011284642
000060 1f 5a 84 bc 82 08 80 bc b9 31 97 3c 84 ec 34 3c
       -0.016156254 -0.015629057 0.018456327 0.011042718
000070 40 7a 6e bc a6 de 88 bc 42 cf 5b bc 8e 03 9b 3c
       -0.014555514 -0.01670773 -0.013416113 0.018922593
000080 0d 7e 07 3c ea 0a 80 3a 26 a2 8d bc f8 c9 fb 3b
       0.008269799 0.0009768878 -0.017289232 0.0076839887
000090 9b fc bc bb ba 81 6f 3c 49 13 b8 3b 3e 7e 33 3c
       -0.0057674176 0.014618332 0.0056175333 0.010955391
0000a0 4b bb 0d bc d7 32 23 ba 90 d7 65 bc 87 db af 3b
       -0.008650611 -0.0006225532 -0.014028445 0.005366746
0000b0 03 75 19 bb a5 9c b2 bc 8f b3 59 3c 95 80 1c 3c
       -0.0023415692 -0.02180321 0.013287439 0.009552141
0000c0 d4 8e 68 3c d3 fe 28 3c 12 9f 1e 3b 1b a4 91 3c
       0.014194209 0.010314661 0.00242037 0.017778447
0000d0 6f 92 b1 bc 8c 06 e2 3b c3 15 a3 3c b5 fd 8a bb
       -0.02167627 0.006897753 0.019907838 -0.00424167
0000e0 14 5f 9e 3c ab da 29 3c 4d 53 ad 3c 51 aa af 3c
       0.019332446 0.010367076 0.021157885 0.021443518
0000f0 f2 ca 3a 3c 6d ed 12 3b 65 e6 ad bc 1a 8a 15 bc
       0.011400925 0.0022419349 -0.021228025 -0.009127164
000100 da 27 b6 bc 9f 44 83 bb 7e 96 78 3c 3f c6 5d 3c
       -0.0222358 -0.004005983 0.015172599 0.013536035
000110 5d 94 f2 3a ff ac c5 bc b2 40 5a 3c 6f 97 18 3c
       0.001850735 -0.024130343 0.013321089 0.009313448
000120 1d 19 50 bc 2c e7 bb bc 1a 67 63 bc 93 51 08 3c
       -0.0127013 -0.02293738 -0.013879562 0.00832023
000130 e5 80 5d bc e3 fe 8d bc ba de a2 bc 0e aa 74 bc
       -0.0135195 -0.017333454 -0.019881595 -0.014933122
000140 41 da 84 bb 66 4e 96 3c db 2f 7d bc 17 93 b5 bc
       -0.004054338 0.01834793 -0.015453304 -0.022164864
000150 b7 8c a7 3c b2 62 5c 3c 06 02 00 3c eb cd 88 bc
       0.02045284 0.013451265 0.007812982 -0.016699752
000160 ee 1a 8f 3c d9 72 26 3c 9e 83 64 3b ff 42 96 3c
       0.017468896 0.010159218 0.003486849 0.018342493
000170 bd b8 ef 3b ea e7 7d 3c 46 13 f3 bb d6 f1 7a 3c
       0.0073157237 0.015497187 -0.007418069 0.015316447
000180 48 de 47 bc 0d 86 c7 3b 19 5c 7f bc f6 a6 bc bc
       -0.012198992 0.006088978 -0.015585923 -0.023028832
000190 76 42 ac bc cc 19 98 bc 37 ff 5b 3c db 57 c5 3c
       -0.021027785 -0.018566988 0.013427547 0.024089744
0001a0 bd 11 78 3c 8c b5 68 ba ac b0 1f ba 7d c3 49 3b
       0.015140948 -0.000887715 -0.0006091695 0.0030786686
0001b0 0c 81 c1 3c 96 9b 53 3c d4 a3 7d bc 5d 4e 6a bc
       0.023621105 0.012915513 -0.015480954 -0.01430091
0001c0 b7 ec a2 3c fe 40 56 3c fc 53 ca bc 7c 1f ac bc
       0.019888265 0.013077019 -0.02469825 -0.021011107
0001d0 27 8e 4d 3c f5 d1 4a bc 08 f6 96 3c 4c db 81 3c
       0.012546099 -0.012379159 0.018427864 0.01585164
0001e0 ac d5 a3 bc 37 c4 b4 3b b6 b8 94 bb 05 fb c8 bc
       -0.019999348 0.0055165547 -0.004538621 -0.024533758
0001f0 43 d9 f1 3b 11 72 36 3b b4 34 98 3b 70 98 a5 bc
       0.007380636 0.0027838985 0.0046449546 -0.02021429
000200 98 19 b5 bb e5 4a 96 bb 09 b0 b1 bc 4c fb 9e 3c
       -0.0055267327 -0.004586565 -0.021690385 0.019406937
000210 50 45 e2 bb f9 06 41 3c fa ec db bb e7 d0 9f bc
       -0.0069052354 0.011781448 -0.0067115994 -0.019508792
000220 10 bc da bb 4d fc 9b 3b 95 3f a2 3c bc 0b 80 3b
       -0.006675251 0.004760301 0.019805709 0.003907649
000230 40 be 8b 3c 7f 4a 41 3c 68 69 8c bc 31 f9 54 3a
       0.017058492 0.011797546 -0.017140105 0.00081242906
000240 6d d2 b5 3c 0c 25 f7 bb c8 61 33 3c 7a 37 b4 3c
       0.022195065 -0.007542258 0.010948606 0.02199911
000250 d2 83 af ba a7 41 13 bc b3 7f 6e bc 82 fb b0 ba
       -0.0013390726 -0.008987821 -0.014556813 -0.001350269
000260 d7 76 85 bc 4f 31 cc 3c 7f 96 ac bc b1 b0 ad 3c
       -0.016292019 0.024925856 -0.021067856 0.021202417
000270 91 86 82 3c 69 28 b7 bc 03 a4 7f bc 8e 1a b8 3c
       0.015933307 -0.022358136 -0.015603068 0.0224736
000280 db e8 74 bb 73 c4 93 bc a1 5e 78 39 63 19 da bb
       -0.0037370238 -0.01803801 0.00023686375 -0.0066558584
000290 97 ea 15 3b c1 31 17 3c 50 7b b1 bc 58 b9 5a bc
       0.0022875422 0.009228171 -0.021665245 -0.013349853
0002a0 66 b3 b7 ba a1 ef b7 3c 73 ce a1 bc 02 0e 63 bc
       -0.0014015257 0.022453131 -0.019751763 -0.01385832
0002b0 1f 58 5b 3c b4 9f bb 3c f3 6e 08 3b ce 2e da 39
       0.013387709 0.0229033 0.0020818084 0.00041615072
0002c0 9b 71 37 3c f4 7c a0 bb be 0c 73 3c 04 56 cb 3c
       0.011196519 -0.004897708 0.014834581 0.024821289
0002d0 62 53 91 3c 73 bb ca bc e1 f5 9c 3c fa 02 c0 3c
       0.017739955 -0.024747586 0.019160213 0.02343892
0002e0 86 f3 27 3c 94 9e 0a bc 70 6e 69 bb e8 06 89 bc
       0.010250932 -0.0084606595 -0.0035618804 -0.016726926
0002f0 40 8f 8c bb bf 5f 81 3c 0d 47 e6 bb 2c dc 87 bb
       -0.0042895377 0.015792726 -0.007027513 -0.0041461196
000300 33 5f 98 bb 8f d4 ae b9 7f 83 52 3b 96 ca 80 bb
       -0.0046500205 -0.00033346235 0.0032121835 -0.0039304
000310 5c 3e cb bc 6b 55 0a bc e1 8b 56 bc 8b be 18 bc
       -0.024810009 -0.008443217 -0.013094873 -0.009322773
000320 50 34 4d bc 67 63 90 bc a0 d6 a5 bc 74 46 12 bc
       -0.012524679 -0.017625524 -0.020243943 -0.00892793
000330 f9 1a 6c 3b 17 78 c9 3c c6 e0 11 3b 8e 76 0c 3b
       0.003602682 0.024593396 0.002225922 0.0021432969
000340 cc 21 48 3c c4 af b7 3b a4 33 a4 bc 63 e5 c7 bc
       0.012215089 0.0056056697 -0.020044155 -0.024401372
000350 4e 28 7d bc 4e 9a aa bb 04 fd 89 bc 7f 93 98 3c
       -0.015451504 -0.005206383 -0.01684428 0.01862502
000360 b1 65 01 bc 4b 1a 41 bc e0 47 91 bc 83 c4 33 bc
       -0.00789778 -0.011786054 -0.017734468 -0.010972145
000370 b4 b7 99 bc 82 6d ab 3c 64 bc d9 3b 42 60 b0 bc
       -0.018764354 0.02092624 0.0066447724 -0.021530274
000380 9b 3e c8 3c 2d a0 9f bb 85 2a 0a 3c ee ab 7b bb
       0.024443915 -0.0048713894 0.008432989 -0.0038402039
000390 94 da 93 bb 35 f9 63 3c 16 4c b1 3c 63 75 17 3c
       -0.0045121405 0.013914396 0.021642726 0.009244296
0003a0 2a 29 c8 3c c2 56 c3 3c 68 eb ce ba 51 fa 26 bb
       0.024433691 0.02384508 -0.0015786709 -0.002547879
0003b0 47 71 0a bb 1e f2 be bb 68 c2 19 bc f1 0b aa bc
       -0.0021124647 -0.0058272025 -0.009384729 -0.020757647
0003c0 07 75 c5 bc 10 68 24 bc fd de 1e bc 6e 15 c8 bc
       -0.024103655 -0.010034576 -0.009696719 -0.024424281
0003d0 c4 56 b6 bb 77 f7 84 3c cb b4 76 bb e7 56 36 bc
       -0.0055645425 0.016231282 -0.0037644382 -0.011129118
0003e0 13 0a 0b ba bf 96 86 3c 04 cc 37 bc 97 e7 28 bc
       -0.00053039304 0.016429303 -0.011218075 -0.010309122
0003f0 ae 93 ca ba 0c 2e 6a ba 68 92 bd 3c b3 83 b3 bc
       -0.0015455389 -0.0008933253 0.023141101 -0.021913385

conv2.bias f4 [32]
000000 e2 22 35 bc 70 19 cc bc 84 d0 2e bb 1a 51 7d 3c
       -0.01105568 -0.024914473 -0.0026674578 0.015461231
000010 1d 9c c3 3c aa bc a5 3c 48 42 5b bc 22 54 14 3d
       0.023878152 0.020231564 -0.013382502 0.036213048
000020 7a bd 29 3b 4e ad 59 bc 3f e4 da bb 36 da 8f 3b
       0.002590029 -0.013285948 -0.006680041 0.0043900264
000030 35 13 f7 3c 29 61 cf 3c 69 c7 9e bb b0 ea 1f bc
       0.030160526 0.025314884 -0.004845549 -0.009760544
000040 b5 2e 84 bc dd d1 9b bc 71 42 ca 3c 04 4a fc 3c
       -0.016135553 -0.019020969 0.024689885 0.030797012
000050 1c 71 36 b9 96 93 a9 ba e6 70 2b bb f6 c0 59 39
       -0.00017399009 -0.0012937661 -0.0026159822 0.00020766616
000060 c9 22 5b 3c bb 8f 2d bc 6a 2d 80 3c 75 8e e9 3c
       0.013374993 -0.01059335 0.015646655 0.028510312
000070 48 1e c9 3a a3 6e 87 bc 2a 4c 28 bc 12 7c 16 bc
       0.0015344108 -0.016532248 -0.010272065 -0.009184854

conv3.weight f4 [1, 32, 5, 5]
000000 ea f9 9b 3c d7 45 94 3c 08 23 f9 ba 9b 95 c7 3c
       0.019040067 0.018099708 -0.0019007633 0.02436333
000010 2f 76 f7 3c ca cb ef bc 51 f8 c5 3a e6 f4 0a bd
       0.030207722 -0.029271979 0.0015103911 -0.03392496
000020 05 31 89 3b 4d b4 27 3c 97 66 11 bb 4b 79 e6 3c
       0.004186752 0.010235858 -0.0022186392 0.028134009
000030 ed ee 4c 3c 6a fb f1 bc 73 12 40 bb a1 56 7c bc
       0.012508136 -0.029538829 -0.0029307872 -0.015401513
000040 4c 37 e7 bc ce 09 87 39 cc 14 01 bd 41 d4 c0 3c
       -0.02822461 0.00025756512 -0.031513974 0.02353871
000050 b3 6a 95 3b 5a 98 51 3c cb 91 a2 3c d2 f5 e3 3c
       0.0045598387 0.012792671 0.01984491 0.027827177
000060 c2 0a 8e bc 0b 65 a7 3b 76 fc f4 bc 18 00 27 3c
       -0.017339114 0.005108481 -0.029905539 0.010192893
000070 19 68 db 3c b7 01 af bc 36 bf c0 3c 79 39 4f bc
       0.026783036 -0.021363122 0.023528676 -0.01264798
000080 db 7b 52 3c 12 46 6e bc 1d 9b 03 3c a5 9c f3 bc
       0.012846912 -0.014543073 0.008032587 -0.02973778
000090 ce b4 fe 3c b0 7f 85 bb 68 35 0f 3d a6 2d 25 bc
       0.031092074 -0.0040740594 0.03496304 -0.010081684
0000a0 0a bf 8f 3c e2 84 5f bc c6 9d 44 bc e0 0e fb bb
       0.01754715 -0.013642522 -0.012000507 -0.0076616853
0000b0 21 72 98 3c da c2 86 3c 0f 79 c2 3c 4c 8e 3c bb
       0.018609108 0.016450334 0.023739366 -0.002877134
0000c0 ed ff c3 3b 4f d6 c3 3c c7 9d 63 bc 56 7b 3f bc
       0.0059814365 0.023905901 -0.0138925975 -0.01168712
0000d0 d7 00 dc 3c eb bb f4 bc 1d bf 8c bc 2e 1a a1 bc
       0.02685587 -0.029874763 -0.017180974 -0.019665804
0000e0 1f 8f f4 bb 5d d6 d4 bc 08 2b 06 3c fc d4 ca bc
       -0.0074633504 -0.025981123 0.00818897 -0.024759762
0000f0 dc 75 7f bc c4 08 0d bd 87 6e c1 3c ec e6 b1 bc
       -0.015592065 -0.034432188 0.023612274 -0.021716557
000100 08 3d 8d bb ac 60 ad bc 62 72 a1 bb 54 a2 dd bb
       -0.004310254 -0.02116426 -0.0049269656 -0.006763736
000110 c1 2f 3d bc 57 31 18 ba d8 3e 75 3c 45 f6 ed 3c
       -0.01154703 -0.0005805692 0.014968596 0.029048095
000120 a6 bb d6 3c 8c 42 d7 bc 02 8d 88 bb a1 38 e1 bc
       0.026212525 -0.02627685 -0.0041672 -0.027492823
000130 42 30 95 3c 24 94 c8 3c 5d aa 1d 3c 3a 51 40 3c
       0.018211488 0.024484701 0.009623137 0.011738116
000140 a0 84 0f 3d 82 b9 74 bb 5e 81 f8 bc e9 e4 88 bc
       0.03503859 -0.0037342017 -0.030335125 -0.016710715
000150 54 b2 2d bc c3 dc 87 3c b5 80 29 3a f0 0f e3 3c
       -0.010601599 0.01658476 0.0006466017 0.02771756
000160 9a f8 a0 3c 3b 85 28 bc a0 7f 19 bc 67 38 45 bc
       0.019649792 -0.010285671 -0.009368807 -0.012037373
000170 a8 03 03 bd 35 a6 38 bc 09 9f 86 bc 8e 37 e6 bb
       -0.03198591 -0.011270096 -0.016433256 -0.0070256656
000180 5a 89 03 bc 71 f7 5a bc 16 50 85 bc 62 f9 bd 3b
       -0.008028353 -0.013364659 -0.01627354 0.005797551
000190 13 60 00 3c 0f 8f 35 3c be d0 9c 3c ae 94 c6 b3
       0.007835406 0.011081471 0.019142505 -9.247138e-08
0001a0 6c 58 b5 3b 26 8a a7 bb c6 cc 12 3d 7d 91 b3 3b
       0.0055342223 -0.005112904 0.03583982 0.00547999
0001b0 ea 58 ec 3c 37 82 97 bc 95 73 c5 bc 89 28 1f 3c
       0.028850991 -0.018494708 -0.024102965 0.009714254
0001c0 51 de cd bc f2 06 cf 3c 47 59 c1 3c ea 72 03 3d
       -0.025130423 0.025271866 0.023602141 0.032092012
0001d0 6a bd 16 3d 65 9c 8e 3c 75 dc 8f 3c 93 32 18 bb
       0.036801733 0.01740856 0.017561177 -0.0023223504
0001e0 c5 89 0e 3d 28 a3 9a 3c d9 e7 6f bb f6 b8 f2 bc
       0.034799356 0.018876627 -0.0036606698 -0.029629212
0001f0 7b f1 da 3b af 45 ae 3b cf ca e1 3c 6c d4 b4 3c
       0.0066816187 0.0053183655 0.027562527 0.022073947
000200 f0 ce 03 3d 35 9b 9d 3b 41 89 39 3c 44 4d e5 bc
       0.032179773 0.004809762 0.011324228 -0.027990945
000210 d6 cb b3 3b 6c 32 16 3c 1c 7f 9e bc 8e 42 8e bc
       0.0054869456 0.009167295 -0.01934772 -0.01736572
000220 b3 f8 83 3c 49 bb 97 bc 13 1a 44 bc 5a c2 d6 3c
       0.0161098 -0.018521922 -0.011969107 0.02621572
000230 4a 97 de 3c 06 18 ef bc 17 18 fc bc c6 66 ba 3c
       0.02717175 -0.02918626 -0.030773206 0.022754084
000240 e6 88 2f bc 97 0a 33 3b d1 fa c3 bc f1 18 76 bc
       -0.0107137915 0.0027319544 -0.02392331 -0.015020595
000250 57 20 dd 3c 22 d6 b9 bc d9 85 52 3c 48 47 bd 3a
       0.02699296 -0.022685114 0.012849295 0.0014440799
000260 8b d6 32 3c eb 96 c9 3a be e4 f6 bb 81 3a 4d 3c
       0.010915409 0.001538006 -0.0075345924 0.012526155
000270 96 0f 1f 3c 98 62 55 bb 52 66 c2 3c 17 c9 00 3d
       0.009708306 -0.0032559987 0.02373043 0.031441774
000280 95 56 97 3c e7 73 22 bc 87 8e d1 bc 9f 9a c3 bc
       0.018473903 -0.009915329 -0.025580658 -0.02387744
000290 7d 8b 8c bc f1 23 3b bb bd 2a 94 3c 1b fc 1c 3c
       -0.017156357 -0.0028555358 0.018086785 0.009581591
0002a0 b8 2c 01 3d 43 f7 0a bd 57 70 9f bc e1 37 05 3d
       0.031536788 -0.033927213 -0.019462747 0.032523993
0002b0 f8 d7 ce bc e2 ce b8 3c d1 38 cd 3a 84 3e de ba
       -0.025249466 0.022559587 0.0015657191 -0.0016955887
0002c0 be 43 e9 3c 3b 51 19 3d 95 eb 13 bc 2d f3 06 3b
       0.028474685 0.037430983 -0.009028335 0.0020591721
0002d0 95 08 0f 3d fe 90 05 3d 98 2c c8 3c 00 bd 81 bc
       0.034920294 0.03260898 0.024435326 -0.015837193
0002e0 ec 21 a1 bc 92 30 04 3d 94 2c ea 3c 3e 46 3b 3c
       -0.019669496 0.032272883 0.02858571 0.011430321
0002f0 85 50 37 3d c2 6a 0a 3d bf e1 b3 bb 61 e6 97 3c
       0.044754524 0.03379322 -0.0054895575 0.01854247
000300 f5 de 34 3d 0e e4 d3 3c 4f d2 53 bc 91 8d 0a bd
       0.04415794 0.02586558 -0.012928559 -0.033826414
000310 b8 bf 30 3c ae 94 a1 3c 9c fa 03 bd 82 a3 ed 3b
       0.010787897 0.019724216 -0.03222142 0.0072521577
000320 27 c4 b2 bc f0 cd 6b 3c c0 b1 88 bc a6 0d da bc
       -0.021822048 0.014392361 -0.01668632 -0.026617836
000330 19 d5 0b 3d fd 27 ad 3c 4d 79 66 bc d3 e6 cb bc
       0.034138773 0.021137232 -0.014067006 -0.024890339
000340 43 67 c6 3c 0f ab b3 bc db 8d 2b bc a8 b5 7d bc
       0.02421916 -0.021932153 -0.010470833 -0.015485205
000350 a3 13 38 3c b6 22 f3 ba ff d0 5a 3c 29 51 a2 bc
       0.0112351505 -0.0018549773 0.013355493 -0.01981409
000360 bc 6f d7 3c b1 2a 99 3b fa 87 c5 bc 40 78 d2 bc
       0.026298396 0.0046742787 -0.02411269 -0.025692105
000370 cd c3 af 3c 17 33 77 bc 1b b3 2a 3c 4d d9 98 3a
       0.02145567 -0.015087864 0.010418679 0.001166144
000380 55 b1 85 bc c9 3f 1c 3d 8c 91 3a bc 76 44 9a 3c
       -0.01631991 0.038146768 -0.01138724 0.018831473
000390 5d 23 df 3c fe 2d 94 3c a5 65 11 3d e9 40 c6 bc
       0.027238542 0.018088337 0.035497326 -0.024200873
0003a0 ae 07 d5 3b 5c ad 46 3b 21 01 b9 3c 50 46 82 bc
       0.0065011596 0.0030315733 0.022583546 -0.015902668
0003b0 2f a5 c0 bc 5a a1 d9 bc 51 f1 d6 3c 09 40 5d 3c
       -0.023516266 -0.026566196 0.026238116 0.013504037
0003c0 86 e6 11 bd ee 8e dc bb 5b 04 f9 bc 4a 8a ee bc
       -0.035620235 -0.0067309057 -0.030397585 -0.029118676
0003d0 17 64 c4 3c 3f 76 8e bc ab 7f 9d 3c 2f e3 0b 3d
       0.023973508 -0.017390369 0.019225916 0.034152206
0003e0 da 01 02 3c 0d 5f a4 3c 02 2b fc bc fa ac 74 bc
       0.007935012 0.020064855 -0.030782226 -0.014933819
0003f0 9d 40 eb ba 22 bb fb 3b d5 24 6c 3c 3a 82 9d 3c
       -0.0017948333 0.00768222 0.014413078 0.019227136
