outputs/x3/epoch_62.pth (torch, 231327 bytes, 5 tensors)

conv1.weight f4 [64, 1, 9, 9]
-0.03869445 0.009057484 -0.048842065 0.048242267 -0.08928834 0.08516475 -0.07804972 -0.08652366
-0.06953999 0.055156775 -0.036716215 0.048201792 -0.08682257 -0.06096745 -0.036984984 -0.019608023
-0.08371778 0.07228742 -0.020119391 0.042041756 0.08877818 0.03351338 0.043129295 0.116483845
-0.043641604 0.039340388 -0.047835093 0.08713049 0.096897185 -0.089729965 0.11160423 0.07115781
0.0631222 0.05720924 0.100337856 -0.01044316 -0.08602374 -0.024107775 -0.06664618 0.022965627
-0.0028703373 -0.04397322 0.002782675 0.1144143 -0.0038625526 0.011961956 -0.010310566 0.026414532
0.11003032 0.080821015 0.05129307 0.03461305 0.03377421 0.047022894 -0.0057500945 -0.097099036
-0.06216339 0.10186722 0.014370107 -0.082898356 0.024128748 0.096743345 -0.102115974 -0.065604106
-0.03777746 0.010753712 -0.019789131 -0.0062993504 -0.10329474 0.05669277 0.10138131 0.070895515
-0.0689209 -0.082434796 0.05297017 0.009076026 0.051695682 -0.10352898 -0.0021526604 0.08229608
0.055115458 0.0037019842 0.020620156 -0.011534011 -0.06130581 -0.04186026 -0.06754456 0.093384214
0.06158122 0.037761323 -0.084384196 0.08594634 0.035573717 0.07841597 -0.04210736 0.024865547
0.11098096 0.07668201 0.08922291 -0.021856975 0.08602669 -0.08449878 0.013011974 -0.059918858
-0.024684075 -0.026112672 0.010450683 0.10167636 0.056736093 0.0017255321 0.08305305 -0.05161701
0.061059136 -0.009336872 -0.017851954 0.014598625 -0.08448849 0.014011625 0.03902185 0.098949015
-0.029092195 0.044110388 0.11215353 -0.046352603 0.107022114 -0.054418236 0.049284387 0.043733776
0.03288444 0.091392286 -0.0416602 0.030662099 0.0023894922 -0.08210851 -0.026319439 -0.07505964
0.047385056 0.00871379 0.010759566 -0.03332127 0.000751525 -0.033628542 0.032269318 0.107346416
0.015038691 -0.05231758 -0.07133463 0.0055328445 -0.084815666 -0.08526045 -0.07304401 -0.038986005
0.0063008834 0.07601617 0.041455477 0.08323227 -0.07128343 0.008162965 -0.09960231 0.06371261
0.02258847 0.10640994 -0.07901839 0.089102805 0.09379649 0.089832574 0.015836248 0.10103075
0.074197456 0.082888246 -0.007250189 -0.08526521 -0.0014085856 0.020798584 -0.075689 -0.063737564
-0.10652749 -0.03896561 0.09677913 0.018973265 -0.0067911674 0.004432747 0.06927778 -0.09812108
-0.08573366 -0.036946442 -0.0639462 0.05730217 0.07851009 -0.107806176 -0.094302304 -0.108206525
0.041904744 0.089426294 -0.08615039 -0.0514433 0.03535858 -0.07254941 0.094380654 0.025873456
-0.03097594 0.007173915 0.034627214 -0.039302357 -0.08609763 0.0007313853 0.002016131 0.0022271287
-0.016254902 0.0713272 -0.031059828 -0.0108098835 0.04566654 -0.0699438 0.029719723 -0.024593879
0.053294163 -0.06027818 0.00409409 0.010860772 -0.08940032 -0.08079415 0.042610437 -0.032339882
0.06598878 -0.10976216 -0.054924697 -0.09151809 0.044386007 -0.0032201638 -0.020722145 -0.018482702
-0.08684973 0.031513676 0.0027744374 -0.07667872 0.04181051 -0.002235808 -0.10746065 0.059770178
0.059433408 -0.020930031 -0.07671496 0.0040093 0.08241601 0.10078633 -0.0829171 -0.049272455
0.08647561 0.053509284 0.06725993 -0.057408035 0.09594897 -0.091913365 -0.0055436394 0.0037304647
00000000: 127e 1ebd d765 143c 9e0e 48bd af99 453d
00000010: cedc b6bd db6a ae3d 88d8 9fbd 5133 b1bd
00000020: fb6a 8ebd 12ec 613d be63 16bd 3e6f 453d
00000030: 08d0 b1bd 01b9 79bd 917d 17bd 01a1 a0bc
00000040: 3a74 abbd 6d0b 943d 6cd1 a4bc fa33 2c3d
00000050: 56d1 b53d 5345 093d 58a8 303d 158f ee3d
00000060: 8ac1 32bd 6323 213d bbee 43bd 7871 b23d
00000070: 0872 c63d 58c4 b7bd c290 e43d 30bb 913d
00000080: 3646 813d 3c54 6a3d ef7d cd3d ca19 2bbc
00000090: 372d b0bd ab7d c5bc cb7d 88bd 6922 bc3c
000000a0: 451c 3cbb 431d 34bd 8a5d 363b 0b52 ea3d
000000b0: e122 7dbb 14fc 433c a6ed 28bc 4a63 d83c
000000c0: 9457 e13d 7d85 a53d af18 523d 6ac6 0d3d
000000d0: d356 0a3d 149b 403d 4a6b bcbb dcdb c6bd
000000e0: 0a9f 7ebd c39f d03d 9970 6b3c 9dc6 a9bd
000000f0: a7a9 c53c 6021 c63d 2e22 d1bd 725b 86bd
00000100: 8abc 1abd 5630 303c d11c a2bc c86a cebb
00000110: 318c d3bd ae36 683d 01a1 cf3d ab31 913d
00000120: 6726 8dbd 93d3 a8bd 40f7 583d 9db3 143c
00000130: dabe 533d 0007 d4bd a613 0dbb d98a a83d
00000140: bfc0 613d fd9c 723b 9aeb a83c 26f9 3cbc
00000150: cd1b 7bbd aa75 2bbd cd54 8abd 3940 bf3d
00000160: 973c 7c3d 9eab 1a3d 9fd1 acbd a204 b03d
00000170: bfb5 113d 8d98 a03d c478 2cbd d5b2 cb3c
00000180: fc49 e33d 750b 9d3d 80ba b63d 660d b3bc
00000190: c32e b03d b20d adbd 2d30 553c 7a6d 75bd
000001a0: 4236 cabc 3eea d5bc 5739 2b3c b23b d03d
000001b0: 1b64 683d 402b e23a b817 aa3d 5c6c 53bd
000001c0: 2519 7a3d aef9 18bc 433e 92bc 122f 6f3c
000001d0: 4d08 adbd 0491 653c 60d5 1f3d c8a5 ca3d
000001e0: c152 eebc 18ad 343d c0b0 e53d 3adc 3dbd
000001f0: 692e db3d a8e5 5ebd 6dde 493d 3022 333d
00000200: d6b1 063d e12b bb3d e3a3 2abd 152f fb3c
00000210: 0799 1c3b 8228 a8bd dd9b d7bc deb8 99bd
00000220: d516 423d 49c4 0e3c e448 303c e27b 08bd
00000230: fd01 453a 15be 09bd d52c 043d 70d8 db3d
00000240: d864 763c f54a 56bd e417 92bd dd4c b53b
00000250: d6b3 adbd 089d aebd 1998 95bd caaf 1fbd
00000260: a477 ce3b 5eae 9b3d 38cd 293d ae75 aa3d
00000270: 0cfd 91bd f5bd 053c 4cfc cbbd c27b 823d
00000280: 740b b93c 74ed d93d 65d4 a1bd 887b b63d
00000290: 6018 c03d 24fa b73d 05bb 813c 36e9 ce3d
000002a0: d6f4 973d 50c1 a93d fe92 edbb 879f aebd
000002b0: 4aa0 b8ba cb61 aa3c d602 9bbd d788 82bd
000002c0: 162b dabd 679a 1fbd 2334 c63d d26d 9b3c
000002d0: 7188 debb 9440 913b 82e1 8d3d b4f3 c8bd
000002e0: 2195 afbd 2755 17bd 3af6 82bd aeb5 6a3d
000002f0: e6c9 a03d 7cc9 dcbd 9121 c1bd 629b ddbd
00000300: 4fa4 2b3d 2225 b73d 9e6f b0bd 36b6 52bd
00000310: 29d4 103d c994 94bd a54a c13d 92f4 d33c
00000320: 41c1 fdbc 2913 eb3b 44d5 0d3d 82fb 20bd
00000330: f453 b0bd 70ba 3f3a 1121 043b 05f5 113b
00000340: 0029 85bc ff13 923d 2e71 febc f01b 31bc
00000350: d60c 3b3d b23e 8fbd c776 f33c 1a79 c9bc
00000360: fb4a 5a3d 41e6 76bd b727 863b 61f1 313c
00000370: 8417 b7bd 6777 a5bd 4888 2e3d d376 04bd
00000380: 2025 873d fcca e0bd b8f8 60bd d66d bbbd
00000390: 1ace 353d 6209 53bb 7dc1 a9bc 0969 97bc
000003a0: 45de b1bd 7c14 013d 56d3 353b bc09 9dbd
000003b0: 7f41 2b3d a286 12bb 5414 dcbd 93d1 743d
000003c0: 7270 733d 7575 abbc bc1c 9dbd 7260 833b
000003d0: bac9 a83d 1069 ce3d 71d0 a9bd ead1 49bd
000003e0: 201a b13d 8d2c 5b3d 93bf 893d b024 6bbd
000003f0: e580 c43d 133d bcbd 6ba7 b5bb d07a 743b

conv1.bias f4 [64]
-0.014947493 -0.06696487 -0.004745536 -0.06575262 0.032477155 -0.02552692 0.062310018 0.0552268
0.10971612 -0.07124141 -0.0050420477 -0.00070888834 -0.07510283 0.09501108 0.06547517 0.071188815
-0.038312264 -0.05374313 0.065256394 0.01652499 0.014251987 -0.021348497 -0.10131952 0.06348685
-0.049795453 0.06434056 -0.027394319 -0.011046177 0.029054143 0.031708293 0.121023774 -0.040945265
0.039128132 0.04394486 -0.014052527 -0.09367392 -0.019457072 0.076461986 -0.0942708 0.013151145
-0.057661783 -0.055273026 0.09205455 0.0038778556 0.034787633 0.017639624 -0.0793041 -0.11107467
-0.069904916 -0.0091754515 -0.048062112 -0.023005715 0.03847031 -0.0069295377 0.008034429 -0.054403406
0.075668804 -0.055452753 -0.006997619 0.0932085 0.10250724 -0.05896755 -0.09895886 -0.07930478
00000000: 54e6 74bc e124 89bd 7180 9bbb 4fa9 86bd
00000010: c406 053d d51d d1bc ca38 7f3d 7f35 623d
00000020: d8b2 e03d 04e7 91bd c337 a5bb b1d4 39ba
00000030: 83cf 99bd 2b95 c23d d917 863d 71cb 913d
00000040: 52ed 1cbd c221 5cbd 25a5 853d 6a5f 873c
00000050: 2b81 693c 0be3 aebc 9c80 cfbd 6505 823d
00000060: 51f6 4bbd fcc4 833d 0d6a e0bc 06fb 34bc
00000070: f402 ee3c 8ee0 013d 50db f73d 39b6 27bd
00000080: d244 203d 87ff 333d 923c 66bc 1dd8 bfbd
00000090: 7064 9fbc 1a98 9c3d 0d11 c1bd e677 573c
000000a0: c32e 6cbd f865 62bd 1987 bc3d 9f23 7e3b
000000b0: 7a7d 0e3d f980 903c 306a a2bd 1e7b e3bd
000000c0: 4f2a 8fbd a254 16bc c7dc 44bd 7b76 bcbc
000000d0: 0b93 1d3d 2d11 e3bb d6a2 033c 1bd6 5ebd
000000e0: 3ff8 9a3d 6d22 63bd 484c e5bb 19e4 be3d
000000f0: 51ef d13d f587 71bd f1aa cabd 8b6a a2bd

conv2.weight f4 [32, 64, 5, 5]
0.004921627 0.010286874 -0.011527393 -0.019937715 -0.004943801 -0.006342247 -0.015928749 -0.02384128
-0.01740622 -0.0010364292 0.01329504 -0.019083597 -0.009639838 -0.019477662 0.011542524 -0.002058187
0.015613979 0.0027046327 -0.0052239033 0.02139509 0.016051471 0.023212327 -0.01767086 0.011319296
-0.016131377 -0.015643964 0.018449308 0.011044021 -0.014548019 -0.016698098 -0.013405163 0.018934729
0.00828716 0.0009963621 -0.017271373 0.0077043367 -0.0057494882 0.014637725 0.0056374795 0.010971826
-0.008633047 -0.0006033497 -0.014002696 0.005397182 -0.0023135836 -0.021802915 0.013289289 0.009561303
0.014212225 0.010336409 0.0024203733 0.017778447 -0.02167627 0.006897718 0.019907838 -0.0042408295
0.01933247 0.010367801 0.021157915 0.02144352 0.011401648 0.0022431118 -0.021227736 -0.009126194
-0.022235496 -0.0040052943 0.015173041 0.013537025 0.0018531004 -0.024129376 0.013321032 0.009312853
-0.01270295 -0.022938197 -0.0138799995 0.008340284 -0.013516304 -0.01734781 -0.01990379 -0.014950413
-0.004014668 0.018367315 -0.015451249 -0.022176811 0.020444248 0.013486953 0.007835391 -0.016696887
0.017454468 0.010137922 0.0035371748 0.018381182 0.007340468 0.015501199 -0.007424612 0.015347209
-0.012164465 0.006115071 -0.01557569 -0.023031255 -0.02099755 -0.01854273 0.013445037 0.024095953
0.015141182 -0.00085062505 -0.0005745383 0.0031062912 0.023632515 0.012918944 -0.015439606 -0.014254617
0.019933823 0.013112335 -0.024673704 -0.02098022 0.012586122 -0.012330187 0.01848082 0.015905565
-0.019982127 0.0055363933 -0.0045152614 -0.024504397 0.007413732 0.0027845553 0.0046427534 -0.020218592
-0.0055221706 -0.004580004 -0.021684723 0.0194134 -0.0068920627 0.011802525 -0.006682994 -0.01950684
-0.006674833 0.0047612716 0.019805634 0.0039127963 0.017059542 0.011799182 -0.017138403 0.00081618974
0.022193827 -0.007542509 0.010947205 0.021994893 -0.0013485675 -0.009006784 -0.014555855 -0.0013427752
-0.016277289 0.024947455 -0.021049071 0.021249512 0.015983786 -0.022297997 -0.015537466 0.022536187
-0.003705753 -0.018011909 0.00027197108 -0.0066106473 0.0023395966 0.0092614 -0.021649264 -0.013335834
-0.0013780682 0.022494221 -0.019707445 -0.013832827 0.013398633 0.022912392 0.002103676 0.00042582632
0.011195843 -0.0048983325 0.014827805 0.024812412 0.017779293 -0.024727192 0.01917528 0.023448242
0.010259561 -0.008381037 -0.0035125634 -0.01670189 -0.0042727673 0.0158007 -0.006932975 -0.0040740822
-0.004610783 -0.00030836285 0.0032263768 -0.0038727415 -0.024754044 -0.008404481 -0.013071841 -0.00930959
-0.012518305 -0.01761743 -0.020240756 -0.008927263 0.0036036407 0.024593743 0.0022372825 0.0021499593
0.012216719 0.0056065307 -0.020050138 -0.02439316 -0.015441328 -0.00520082 -0.016843773 0.01861138
-0.007892672 -0.0117748175 -0.017731413 -0.010972203 -0.018784102 0.020912835 0.006644028 -0.021528158
0.024444327 -0.0048589436 0.008436274 -0.0038400672 -0.004512327 0.013914229 0.021667782 0.009265625
0.024443997 0.0238506 -0.0015681653 -0.0025155435 -0.0020839786 -0.005808334 -0.009373849 -0.020755986
-0.024090707 -0.010013403 -0.009683972 -0.02442205 -0.0055593853 0.016226966 -0.003753499 -0.0111205345
-0.0005243053 0.016430203 -0.011218044 -0.010309096 -0.0015457246 -0.0008935947 0.023141101 -0.021919657
00000000: 9a45 a13b 478a 283c 64dd 3cbc 6b54 a3bc
00000010: 9cff a1bb a0d2 cfbb 027d 82bc ca4e c3bc
00000020: 7d97 8ebc cbd8 87ba 70d3 593c 3455 9cbc
00000030: 69f0 1dbc 9e8f 9fbc db1c 3d3c a6e2 06bb
00000040: c6d1 7f3c 3540 313b 472d abbb c144 af3c
00000050: 607e 833c c727 be3c 7bc2 90bc 9274 393c
00000060: f325 84bc c527 80bc 0123 973c fbf1 343c
00000070: d05a 6ebc 73ca 88bc 54a1 5bbc 011d 9b3c
00000080: dec6 073c 5d98 823a b27c 8dbc a974 fc3b
00000090: 3466 bcbb 12d3 6f3c 9bba b83b 2cc3 333c
000000a0: a071 0dbc 1d2a 1eba 906b 65bc d8da b03b
000000b0: 7e9f 17bb 079c b2bc 51bb 593c 03a7 1c3c
000000c0: 64da 683c 0b5a 293c 209f 1e3b 1ba4 913c
000000d0: 6f92 b1bc 4106 e23b c315 a33c a8f6 8abb
000000e0: 215f 9e3c b6dd 293c 5d53 ad3c 52aa af3c
000000f0: facd 3a3c 2c01 133b cae5 adbc 0886 15bc
00000100: 3727 b6bc d83e 83bb 5998 783c 66ca 5d3c
00000110: bbe3 f23a f8aa c5bc 7540 5a3c f094 183c
00000120: 0920 50bc e3e8 bbbc f068 63bc b0a5 083c
00000130: 7d73 5dbc ff1c 8ebc 460d a3bc 94f2 74bc
00000140: 7a8d 83bb 0d77 963c 3c27 7dbc 25ac b5bc
00000150: b27a a73c 62f8 5c3c 0360 003c e9c7 88bc
00000160: acfc 8e3c 8719 263c f2cf 673b 2294 963c
00000170: 4f88 f03b bef8 7d3c 294a f3bb dc72 7b3c
00000180: 774d 47bc ef60 c83b 2e31 7fbc 0bac bcbc
00000190: 0e03 acbc ece6 97bc 9348 5c3c e064 c53c
000001a0: b812 783c 7bfc 5eba 9d9c 16ba eb92 4b3b
000001b0: fa98 c13c faa9 533c 67f6 7cbc 328c 69bc
000001c0: 424c a33c 1ed5 563c 8220 cabc b6de abbc
000001d0: 0636 4e3c 8d04 4abc 1765 973c 634c 823c
000001e0: 8fb1 a3bc a26a b53b c2f4 93bb 72bd c8bc
000001f0: e4ee f23b 167d 363b 3d22 983b 76a1 a5bc
00000200: 53f3 b4bb dc13 96bb 29a4 b1bc da08 9f3c
00000210: d0d6 e1bb 615f 413c 04fd dabb cfcc 9fbc
00000220: 8fb8 dabb 7104 9c3b 6d3f a23c ea36 803b
00000230: 74c0 8b3c 5b51 413c d665 8cbc 91f5 553a
00000240: d4cf b53c 2727 f7bb e85b 333c a22e b43c
00000250: 6bc2 b0ba 3191 13bc ae7b 6ebc 0f00 b0ba
00000260: f357 85bc 9b5e cc3c 1a6f acbc 7513 ae3c
00000270: 6ef0 823c 4aaa b6bc db90 7ebc cf9d b83c
00000280: 38dc 72bb b68d 93bc 5797 8e39 219e d8bb
00000290: eb53 193b 21bd 173c cc59 b1bc 8b7e 5abc
000002a0: 4ca0 b4ba cd45 b83c 8271 a1bc 15a3 62bc
000002b0: f185 5b3c c5b2 bb3c d4dd 093b 7141 df39
000002c0: c56e 373c 3182 a0bb 52f0 723c 6643 cb3c
000002d0: e1a5 913c ae90 cabc 7a15 9d3c 8716 c03c
000002e0: b817 283c 9e50 09bc 0933 66bb 67d2 88bc
000002f0: 9202 8cbb 7870 813c 022e e3bb e17f 85bb
00000300: 0d16 97bb c3ab a1b9 9f71 533b d2cd 7dbb
00000310: fec8 cabc f3b2 09bc 462b 56bc 4087 18bc
00000320: 9419 4dbc 6e52 90bc f1cf a5bc a843 12bc
00000330: 0f2b 6c3b d178 c93c 5f9f 123b 55e6 0c3b
00000340: a228 483c fdb6 b73b 3040 a4bc 2ad4 c7bc
00000350: a0fd 7cbc a46b aabb f4fb 89bc e576 983c
00000360: 4450 01bc 2aeb 40bc 7841 91bc c1c4 33bc
00000370: 1ee1 99bc 6551 ab3c 25b6 d93b d25b b0bc
00000380: 783f c83c c637 9fbb 4c38 0a3c a3a9 7bbb
00000390: 24dc 93bb 82f8 633c a280 b13c d9ce 173c
000003a0: c73e c83c 5562 c33c e58a cdba d1db 24bb
000003b0: 5c93 08bb d653 bebb c694 19bc 7508 aabc
000003c0: e059 c5bc 420f 24bc 86a9 1ebc c010 c8bc
000003d0: 812b b6bb 6aee 843c 43fd 75bb e732 36bc
000003e0: 8871 09ba a298 863c e3cb 37bc 7ce7 28bc
000003f0: e999 caba 2040 6aba 6892 bd3c da90 b3bc

conv2.bias f4 [32]
-0.010899617 -0.024633693 -0.0034549546 0.014891024 0.02568265 0.020921407 -0.01427914 0.036574166
0.0029012484 -0.011562295 -0.007022449 0.0040831654 0.03100713 0.026580421 -0.005151783 -0.009674576
-0.015552324 -0.01791155 0.025436657 0.029614298 0.001464562 0.00044748577 -0.0031007605 0.00016193216
0.012273664 -0.010605139 0.015015391 0.028779728 0.0039097522 -0.016649809 -0.007745983 -0.007283855
00000000: 4f94 32bc 99cc c9bc 856c 62bb 7bf9 733c
00000010: 6c64 d23c 5f63 ab3c 0ef3 69bc cbce 153d
00000020: df22 3e3b c86f 3dbc 921c e6bb 13cc 853b
00000030: aa02 fe3c 2fbf d93c 4ad0 a8bb 1d82 1ebc
00000040: 2dcf 7ebc 3ebb 92bc 8960 d03c af99 f23c
00000050: 8cf6 bf3a 869c ea39 2136 4bbb 55cc 2939
00000060: 7a17 493c 2dc1 2dbc 1d03 763c 77c3 eb3c
00000070: 611d 803b 2e65 88bc 04d2 fdbb 68ad eebb

conv3.weight f4 [1, 32, 5, 5]
0.019034866 0.018096304 -0.0019051924 0.024360832 0.030207008 -0.029281165 0.0014980386 -0.033926766
0.004181114 0.010233139 -0.0022304547 0.028122786 0.012499241 -0.0295422 -0.0029374373 -0.015406786
-0.02823715 0.00024076606 -0.031515304 0.023534365 0.004559992 0.012783928 0.019838378 0.027825978
-0.01734096 0.0051280987 -0.029766148 0.010185535 0.026531585 -0.021650737 0.023542373 -0.012235181
0.013305524 -0.014489874 0.007932647 -0.029667657 0.031711493 -0.003261388 0.035346225 -0.009818712
0.017198754 -0.0135502145 -0.0117235165 -0.0075950245 0.018744389 0.015998444 0.02354839 -0.0030341728
0.0057503628 0.02381062 -0.0138925975 -0.01168712 0.02685587 -0.029874763 -0.017180974 -0.019665804
-0.007439366 -0.025969613 0.00818897 -0.024759762 -0.015577512 -0.0344308 0.023675993 -0.021716557
-0.004310254 -0.02116426 -0.0049025314 -0.00672804 -0.011546703 -0.00058068836 0.014968615 0.029048102
0.026214538 -0.026276818 -0.0041672 -0.027522596 0.018242579 0.024546454 0.00967076 0.011782616
0.035046905 -0.0036529773 -0.030251384 -0.016648578 -0.0105182715 0.01664156 0.0007344713 0.027815307
0.01968158 -0.010228833 -0.00927565 -0.011942313 -0.031906154 -0.011265557 -0.016431322 -0.0068848324
-0.007908708 -0.013280546 -0.016271697 0.0057686092 0.0070935674 0.010930783 0.019176777 -0.00030826306
0.0052635362 -0.0056661577 0.0359898 0.0060403617 0.029096585 -0.01840466 -0.0240828 0.010317601
-0.024152832 0.025916845 0.02395206 0.032317676 0.037253242 0.017866844 0.017778223 -0.0021275396
0.03468889 0.01884116 -0.0039447644 -0.030026866 0.00655589 0.0059418106 0.027657552 0.02235315
0.032703687 0.0053475397 0.011944186 -0.028209208 0.0050281165 0.008832242 -0.019513363 -0.017190108
0.015400834 -0.019495904 -0.012784622 0.02571956 0.026864467 -0.030196702 -0.031850487 0.022072138
-0.010946343 0.0026395249 -0.024496192 -0.01544566 0.026963362 -0.02237538 0.012847818 0.0014412523
0.010913923 0.0015360866 -0.007536128 0.012509727 0.009692527 -0.0032740168 0.02367956 0.031415973
0.018464584 -0.009930078 -0.025596727 -0.023910768 -0.01717855 -0.0028653883 0.018077949 0.009567079
0.031526554 -0.033932634 -0.019461885 0.03252398 -0.025250511 0.022556636 0.0015636438 -0.0017799153
0.028726814 0.03825664 -0.009418112 0.0015994658 0.034715716 0.033082224 0.025876125 -0.01574312
-0.019891825 0.03287712 0.03008161 0.014138513 0.045830846 0.03419318 -0.005453167 0.018871116
0.04531425 0.02595058 -0.013167473 -0.03450447 0.010009273 0.019640433 -0.0326757 0.006964424
-0.021822048 0.014393053 -0.016676037 -0.026631339 0.034137987 0.021137232 -0.014061274 -0.024861483
0.024214368 -0.021935996 -0.010470888 -0.0154590765 0.011316035 -0.0018301848 0.013365671 -0.01981409
0.026298437 0.0047109677 -0.024112534 -0.025692673 0.02145567 -0.015087595 0.01043708 0.001155739
-0.016320592 0.038839325 -0.011301952 0.019686412 0.027873876 0.0182087 0.03557261 -0.024645943
0.0070906407 0.0035565142 0.02278309 -0.016514475 -0.024601538 -0.026451949 0.02653094 0.013775408
-0.03657853 -0.008257916 -0.030884871 -0.029381722 0.023798235 -0.017427886 0.018549917 0.034302503
0.008071859 0.020115424 -0.030782226 -0.014933736 -0.0017930425 0.007682269 0.014413078 0.019227136
00000000: 02ef 9b3c b33e 943c a6b7 f9ba 5e90 c73c
00000010: b074 f73c 0edf efbc d659 c43a cbf6 0abd
00000020: ba01 893b e5a8 273c d22c 12bb c261 e63c
00000030: 9ec9 4c3c 7c02 f2bc 0582 40bb bf6c 7cbc
00000040: 9851 e7bc 2676 7c39 3116 01bd 24cb c03c
00000050: fc6b 953b ae73 513c 1884 a23c 4ef3 e33c
00000060: a10e 8ebc 9c09 a83b 23d8 f3bc 3be1 263c
00000070: c458 d93c e35c b1bc efdb c03c 1276 48bc
00000080: 6aff 593c f066 6dbc eff7 013c 9609 f3bc
00000090: e9e3 013d 03bd 55bb 34c7 103d aade 20bc
000000a0: 67e4 8c3c b801 5ebc fe13 40bc afdf f8bb
000000b0: d58d 993c 2b0f 833c 8ee8 c03c f9d8 46bb
000000c0: 8a6d bc3b 7d0e c33c c79d 63bc 567b 3fbc
000000d0: d700 dc3c ebbb f4bc 1dbf 8cbc 2e1a a1bc
000000e0: edc5 f3bb 3abe d4bc 082b 063c fcd4 cabc
000000f0: d238 7fbc 4f07 0dbd 28f4 c13c ece6 b1bc
00000100: 083d 8dbb ac60 adbc 6aa5 a0bb e476 dcbb
00000110: 622e 3dbc 5639 18ba ec3e 753c 49f6 ed3c
00000120: dfbf d63c 7b42 d7bc 028d 88bb 1177 e1bc
00000130: 7671 953c a515 c93c 1b72 1e3c e00b 413c
00000140: 588d 0f3d ca66 6fbb c0d1 f7bc 9962 88bc
00000150: d454 2cbc e153 883c 8989 403a eddc e33c
00000160: 443b a13c d696 27bc e5f8 17bc b1a9 43bc
00000170: 07b0 02bd 2c93 38bc fb9a 86bc 299a e1bb
00000180: 8793 01bc a696 59bc 394c 85bc 9a06 bd3b
00000190: 2871 e83b 0717 333c 9e18 9d3c 5e9e a1b9
000001a0: be79 ac3b 2dab b9bb 0a6a 133d 3aee c53b
000001b0: f65b ee3c 5fc5 96bc 4b49 c5bc 280b 293c
000001c0: 29dc c5bc 904f d43c 1c37 c43c 8a5f 043d
000001d0: db96 183d 7d5d 923c a3a3 913c 316e 0bbb
000001e0: f015 0e3d c758 9a3c 1543 81bb e7fa f5bc
000001f0: cbd2 d63b 85b3 c23b 1792 e23c f41d b73c
00000200: 4df4 053d 6a3a af3b 8cb1 433c ff16 e7bc
00000210: e6c2 a43b 1cb5 103c 7dda 9fbc 45d2 8cbc
00000220: c853 7c3c e0b5 9fbc 9776 51bc d4b1 d23c
00000230: df12 dc3c 135f f7bc a875 02bd a1d0 b43c
00000240: 4a58 33bc e1fb 2c3b 3dac c8bc cb0f 7dbc
00000250: 45e2 dc3c 934c b7bc a87f 523c 67e8 bc3a
00000260: 50d0 323c 8356 c93a a0f1 f6bb 99f5 4c3c
00000270: 68cd 1e3c e390 56bb a3fb c13c 09ae 003d
00000280: 0a43 973c c4b1 22bc 3ab0 d1bc 84e0 c3bc
00000290: 08ba 8cbc 3dc9 3bbb 3518 943c 3dbf 1c3c
000002a0: fd21 013d f2fc 0abd 886e 9fbc dd37 053d
000002b0: 29da cebc b2c8 b83c 2ef3 cc3a 0c4c e9ba
000002c0: 7f54 eb3c ffb2 1c3d 6d4e 1abc 2ba5 d13a
000002d0: 1132 0e3d 3a81 073d 2bfa d33c b7f7 80bc
000002e0: 2ef4 a2bc 29aa 063d b56d f63c 39a5 673c
000002f0: 20b9 3b3d 260e 0c3d 7bb0 b2bb 9997 9a3c
00000300: 6f9b 393d 5096 d43c 62bc 57bc 8f54 0dbd
00000310: effd 233c f9e4 a03c f4d6 05bd d335 e43b
00000320: 27c4 b2bc d7d0 6b3c 2f9c 88bc f729 dabc
00000330: 46d4 0b3d fd27 ad3c 4261 66bc 4faa cbbc
00000340: 365d c63c 1eb3 b3bc 168e 2bbc 1148 7dbc
00000350: e466 393c d0e2 efba b0fb 5a3c 2951 a2bc
00000360: d26f d73c 765e 9a3b a687 c5bc 7179 d2bc
00000370: cdc3 af3c f631 77bc 4900 2b3c 2a7c 973a
00000380: c3b2 85bc fc15 1f3d d32b 39bc 6645 a13c
00000390: c157 e43c 692a 953c 96b4 113d 4ae6 c9bc
000003a0: 9b58 e83b 6814 693b 9aa3 ba3c 5d49 87bc
000003b0: 2a89 c9bc c2b1 d8bc 6a57 d93c 40b2 613c
000003c0: 5ed3 15bd 364c 07bc 4502 fdbc f0b1 f0bc
000003d0: 84f4 c23c edc4 8ebc fff5 973c c880 0c3d
000003e0: d53f 043c 1ac9 a43c 022b fcbc a1ac 74bc
000003f0: 8604 ebba 8bbb fb3b d524 6c3c 3a82 9d3c
