outputs/x3/epoch_51.pth (torch, 231327 bytes, 5 tensors)

conv1.weight f4 [64, 1, 9, 9]
0	0xbd20daaf	-0.039271053
1	0x3c0c3e0c	0.008559715
2	0xbd49bfeb	-0.049255293
3	0x3d44cc50	0.04804641
4	0xbdb6bd4f	-0.089228265
5	0x3dae9334	0.085241705
6	0xbd9ff433	-0.07810249
7	0xbdb187d6	-0.08668487
8	0xbd8ed42b	-0.069740616
9	0x3d607e6b	0.05480806
10	0xbd17be94	-0.037046984
11	0x3d43d0c2	0.04780651
12	0xbdb2583a	-0.08708234
13	0xbd798c18	-0.06092462
14	0xbd16a14b	-0.036774915
15	0xbc9f9082	-0.019478086
16	0xbdab7db9	-0.08373589
17	0x3d93d887	0.07219034
18	0xbca5cd6a	-0.02023955
19	0x3d2b6eac	0.04185359
20	0x3db4df0e	0.08831607
21	0x3d06ef2f	0.032942947
22	0x3d2f11a7	0.042741444
23	0x3dee6f8a	0.11642368
24	0xbd328910	-0.043587744
25	0x3d2144f2	0.039372392
26	0xbd43c882	-0.04779864
27	0x3db29c2f	0.08721196
28	0x3dc673eb	0.09690078
29	0xbdb8881c	-0.09010336
30	0x3de31f4a	0.11089952
31	0x3d903fc4	0.07043412
32	0x3d808771	0.062758334
33	0x3d69ba40	0.057062387
34	0x3dcd94fd	0.10038183
35	0xbc27d7ea	-0.010244349
36	0xbdafec55	-0.08589999
37	0xbcc48671	-0.023989888
38	0xbd88cf5f	-0.06680178
39	0x3cb83227	0.022484852
40	0xbb652058	-0.0034961905
41	0xbd35df97	-0.044402685
42	0x3b24e7ee	0.0025162655
43	0x3dea4d98	0.11440581
44	0xbb6c6128	-0.0036068652
45	0x3c41e0e0	0.0118333995
46	0xbc28efac	-0.0103110485
47	0x3cd86159	0.026413606
48	0x3de147d0	0.11000025
49	0x3da550c7	0.08072048
50	0x3d51a193	0.05117948
51	0x3d0d2470	0.034458578
52	0x3d0a5587	0.03377297
53	0x3d41633a	0.04721377
54	0xbbca1798	-0.0061673634
55	0xbdc74e61	-0.097317465
56	0xbd7ed4ba	-0.06221459
57	0x3dd0e1e4	0.10199335
58	0x3c6ed2d2	0.014576631
59	0xbda980dd	-0.08276532
60	0x3cc57c01	0.024106981
61	0x3dc61d26	0.096735284
62	0xbdd11295	-0.10208622
63	0xbd877775	-0.066145815
64	0xbd1c44be	-0.038151495
65	0x3c2cdece	0.010551168
66	0xbca20dd3	-0.019781983
67	0xbbc8483d	-0.006112127
68	0xbdd33354	-0.103125244
69	0x3d6866d0	0.056738675
70	0x3dcf9c9d	0.101372935
71	0x3d910732	0.070814505
72	0xbd8e2699	-0.06940956
73	0xbda99b39	-0.082815595
74	0x3d57f4d5	0.052723724
75	0x3c13594a	0.008993456
76	0x3d541d91	0.05178601
77	0xbdd3c796	-0.10340802
78	0xbb0754b8	-0.0020649862
79	0x3da8a96c	0.0823544
80	0x3d61a889	0.05509237
81	0x3b6b5005	0.003590585
82	0x3ca8bd04	0.020597942
83	0xbc3b4d1c	-0.0114319585
84	0xbd7a9842	-0.06118036
85	0xbd2b3cd6	-0.041806065
86	0xbd8a7255	-0.06760088
87	0x3dbef10c	0.0932332
88	0x3d7bd25f	0.061479922
89	0x3d1addec	0.037809297
90	0xbdacf3f9	-0.084449716
91	0x3db00fc4	0.08596757
92	0x3d123dd9	0.035703514
93	0x3da0ed73	0.0785779
94	0xbd2bff21	-0.041991357
95	0x3ccbb571	0.024866791
96	0x3de2eb50	0.110800385
97	0x3d9cad6a	0.076502636
98	0x3db6c254	0.08923784
99	0xbcb2f320	-0.021844447
100	0x3db045e7	0.08607083
101	0xbdacef1d	-0.08444045
102	0x3c5649fc	0.013079163
103	0xbd74e475	-0.059788186
104	0xbcc8cf85	-0.024513016
105	0xbcd62588	-0.026140943
106	0x3c296b8b	0.010340582
107	0x3dd048a8	0.10170108
108	0x3d68d6a6	0.05684533
109	0x3ae7d112	0.0017686209
110	0x3da9e2cc	0.08295211
111	0xbd541429	-0.05177704
112	0x3d7a2d0f	0.061078127
113	0xbc13da78	-0.009024255
114	0xbc905ed8	-0.01762335
115	0x3c70a44e	0.014687611
116	0xbdacd4ca	-0.08439024
117	0x3c67d640	0.014150202
118	0x3d200012	0.039062567
119	0x3dca45fb	0.09876629
120	0xbcf100ce	-0.029419329
121	0x3d33ff2b	0.04394452
122	0x3de61ddb	0.11236163
123	0xbd3cef80	-0.046126842
124	0x3ddb6aed	0.10713754
125	0xbd5e9606	-0.054342292
126	0x3d4a2662	0.04935301
127	0x3d335264	0.043779746
128	0x3d065f78	0.03280589
129	0x3dbab27d	0.09116075
130	0xbd2b9b85	-0.04189636
131	0x3cfae78d	0.03062799
132	0x3b1c8f63	0.0023889176
133	0xbda833e2	-0.08213021
134	0xbcd7ca26	-0.02634151
135	0xbd99e176	-0.075137064
136	0x3d421862	0.047386535
137	0x3c0fcd5b	0.008776988
138	0x3c309b24	0.010779176
139	0xbd08d952	-0.033410378
140	0x3a220f07	0.0006182049
141	0xbd0a65ee	-0.033788614
142	0x3d03adc4	0.032148138
143	0x3ddbaa48	0.10725838
144	0x3c7337e0	0.014844865
145	0xbd569a20	-0.05239308
146	0xbd91e016	-0.07122819
147	0x3bbb6359	0.0057186303
148	0xbdad7de8	-0.0847128
149	0xbdaeb918	-0.085313976
150	0xbd95ddd6	-0.073177025
151	0xbd2017d8	-0.03908524
152	0x3bcb8146	0.006210479
153	0x3d9b290d	0.07576189
154	0x3d2905c2	0.041265257
155	0x3daa6241	0.08319522
156	0xbd91dfa8	-0.07122737
157	0x3c06387e	0.00819218
158	0xbdcc21f2	-0.09967412
159	0x3d8240ae	0.06359993
160	0x3cb87c36	0.022520166
161	0x3dd9c1fa	0.10632701
162	0xbda1d4ba	-0.079019025
163	0x3db67b67	0.08910256
164	0x3dc01888	0.09379679
165	0x3db7fa4d	0.08983288
166	0x3c81bb92	0.01583651
167	0x3dcee8d8	0.10103005
168	0x3d97f476	0.07419674
169	0x3da9c0d2	0.08288731
170	0xbbed9844	-0.0072508175
171	0xbdae9fb9	-0.085265584
172	0xbab86a37	-0.001406974
173	0x3caa68f1	0.020801993
174	0xbd9b02b9	-0.07568879
175	0xbd8288e7	-0.06373768
176	0xbdda2b47	-0.10652786
177	0xbd1f9b52	-0.038966484
178	0x3dc6339e	0.09677814
179	0x3c9b6aec	0.018971883
180	0xbbde95b9	-0.0067927507
181	0x3b915130	0.004434727
182	0x3d8de198	0.06927794
183	0xbdc8f3a1	-0.098120935
184	0xbdaf9515	-0.08573357
185	0xbd1755be	-0.036947004
186	0xbd82f673	-0.06394663
187	0x3d6ab35e	0.057299964
188	0x3da0c908	0.07850844
189	0xbddcc97b	-0.10780617
190	0xbdc1218b	-0.09430226
191	0xbddd9b55	-0.10820643
192	0x3d2ba4d9	0.041905258
193	0x3db72526	0.089426324
194	0xbdb06f99	-0.086150356
195	0xbd52b719	-0.051444147
196	0x3d10d18c	0.03535609
197	0xbd9495a5	-0.07255105
198	0x3dc14ac0	0.094380856
199	0x3cd3f972	0.02587578
200	0xbcfdb94c	-0.030972145
201	0x3beb377e	0.007178246
202	0x3d0dd612	0.03462798
203	0xbd20fac3	-0.039301645
204	0xbdb053dc	-0.08609745
205	0x3a3f965f	0.0007308479
206	0x3b03f8b5	0.0020137255
207	0x3b11e1da	0.0022259862
208	0xbc852334	-0.016252138
209	0x3d921468	0.071327984
210	0xbcfe66bb	-0.031054845
211	0xbc3103f1	-0.010804162
212	0x3d3b0e1a	0.045667745
213	0xbd8f3e6f	-0.0699433
214	0x3cf379d0	0.02972117
215	0xbcc978d4	-0.024593748
216	0x3d5a4b07	0.053294208
217	0xbd76e61e	-0.06027805
218	0x3b862795	0.004094074
219	0x3c31f295	0.010861059
220	0xbdb71784	-0.08940032
221	0xbda57767	-0.08079415
222	0x3d2e8873	0.042610597
223	0xbd0476ee	-0.032339983
224	0x3d87251a	0.065988734
225	0xbde0cafc	-0.10976216
226	0xbd60f8b8	-0.054924697
227	0xbdbb6dd6	-0.09151809
228	0x3d35ce25	0.044386048
229	0xbb5309a8	-0.00322018
230	0xbca9c18f	-0.020722179
231	0xbc97692d	-0.018482769
232	0xbdb1de45	-0.08684973
233	0x3d011467	0.031513598
234	0x3b35ccad	0.0027740404
235	0xbd9d09bc	-0.07667872
236	0x3d2b4180	0.041810513
237	0xbb12799b	-0.0022350315
238	0xbddc1454	-0.10746065
239	0x3d74d193	0.059770178
240	0x3d737072	0.059433408
241	0xbcab75be	-0.020930167
242	0xbd9d1cbc	-0.07671496
243	0x3b81893a	0.0039531263
244	0x3da8cbf5	0.08242027
245	0x3dce7135	0.10080186
246	0xbda9f372	-0.08298387
247	0xbd4a7044	-0.04942347
248	0x3db0bed3	0.08630147
249	0x3d5a5ee5	0.053313155
250	0x3d8943f7	0.067024164
251	0xbd6bdefc	-0.0575857
252	0x3dc4554f	0.09586584
253	0xbdbc4c41	-0.09194232
254	0xbbb4aabc	-0.005513517
255	0x3b75daa0	0.0037514344

conv1.bias f4 [64]
0	0xbc7f3691	-0.0155769745
1	0xbd89660f	-0.06708919
2	0xbb9b7bf7	-0.0047450024
3	0xbd887023	-0.066620134
4	0x3d03330c	0.032031104
5	0xbcd21356	-0.025643986
6	0x3d7ec511	0.062199656
7	0x3d602952	0.054726906
8	0x3de0cd33	0.10976639
9	0xbd905961	-0.07048298
10	0xbbb19453	-0.005419293
11	0xbab4ab3b	-0.0013783941
12	0xbd9be04a	-0.07611139
13	0x3dc0eb9e	0.094199404
14	0x3d8700e1	0.065919645
15	0x3d92d5d9	0.071696945
16	0xbd2020f8	-0.03909394
17	0xbd5d9cb5	-0.054104526
18	0x3d84aa6b	0.06477817
19	0x3c883da0	0.016630948
20	0x3c63a28b	0.013893734
21	0xbcaeddfa	-0.021346081
22	0xbdce63bc	-0.100776166
23	0x3d80cfa0	0.06289601
24	0xbd514411	-0.051090304
25	0x3d85d09f	0.06533932
26	0xbcdf97fc	-0.027294151
27	0xbc4c3975	-0.012464871
28	0x3cebc864	0.028782077
29	0x3cfc3efa	0.030791748
30	0x3df6c04b	0.12048396
31	0xbd2774f1	-0.04088301
32	0x3d1faede	0.038985126
33	0x3d35a270	0.044344366
34	0xbc550410	-0.013001457
35	0xbdc197af	-0.094527595
36	0xbca7d2af	-0.020486204
37	0x3d9cdd64	0.076594144
38	0xbdc10f40	-0.09426737
39	0x3c5968e1	0.013269634
40	0xbd6d1e2c	-0.057890102
41	0xbd62661a	-0.055273153
42	0x3dbc2cd0	0.09188235
43	0x3b91465c	0.0044334363
44	0x3d0cefd6	0.034408413
45	0x3c92d449	0.017923491
46	0xbda253e7	-0.07926159
47	0xbde37b1e	-0.11107467
48	0xbd8f214b	-0.06988772
49	0xbc243430	-0.010022208
50	0xbd454c36	-0.048168384
51	0xbcbc11b4	-0.02295766
52	0x3d20a44d	0.03921919
53	0xbbe536cc	-0.0069950577
54	0x3c03945e	0.008030979
55	0xbd5ea8d3	-0.054360222
56	0x3d9ad830	0.07560766
57	0xbd64ecca	-0.055889882
58	0xbbec7ebe	-0.0072172573
59	0x3dbc888f	0.09205734
60	0x3dd14ba9	0.10219509
61	0xbd71dd94	-0.059049204
62	0xbdcab2f9	-0.098974176
63	0xbda3adb3	-0.07992115

conv2.weight f4 [32, 64, 5, 5]
0	0x3ba131f2	0.004919284
1	0x3c288fc2	0.010288181
2	0xbc3ccadb	-0.011522974
3	0xbca3453a	-0.01993047
4	0xbba1c1fe	-0.0049364557
5	0xbbd00c6d	-0.0063491375
6	0xbc8281f2	-0.015931103
7	0xbcc34df6	-0.023840886
8	0xbc8e9165	-0.017403314
9	0xba878500	-0.001033932
10	0x3c597bda	0.013274157
11	0xbc9c76db	-0.019099643
12	0xbc1e2341	-0.00965196
13	0xbc9fa261	-0.019486608
14	0x3c3cf89b	0.011533882
15	0xbb08ab1a	-0.0020853938
16	0x3c7f76f1	0.015592323
17	0x3b304635	0.0026897315
18	0xbbab88a8	-0.0052347966
19	0x3caf3096	0.021385472
20	0x3c834332	0.016023252
21	0x3cbdf0fc	0.0231862
22	0xbc90ebe0	-0.017690599
23	0x3c393571	0.011304245
24	0xbc843f8e	-0.016143586
25	0xbc801e66	-0.015639495
26	0x3c972700	0.018451214
27	0x3c34eee5	0.011043285
28	0xbc6e6532	-0.014550494
29	0xbc88d0fa	-0.01670121
30	0xbc5bb6f0	-0.013410315
31	0x3c9b1189	0.01892926
32	0x3c07a8d9	0.0082800025
33	0x3a819b9d	0.0009888295
34	0xbc8d8aee	-0.01727816
35	0x3bfc3099	0.007696223
36	0xbbbca3a1	-0.005756811
37	0x3c6fb25a	0.014629925
38	0x3bb87974	0.0056297127
39	0x3c33a841	0.010965408
40	0xbc0d8ed1	-0.008640007
41	0xba201d35	-0.0006107868
42	0xbc6593f6	-0.014012327
43	0x3bb07e8c	0.0053861793
44	0xbb184780	-0.0023235977
45	0xbcb2a2b5	-0.0218061
46	0x3c59ab66	0.0132854935
47	0x3c1c8cba	0.009555036
48	0x3c68b443	0.014203134
49	0x3c292ec1	0.010326088
50	0x3b1e9f15	0.0024203707
51	0x3c91a41b	0.017778447
52	0xbcb1926f	-0.02167627
53	0x3be2065b	0.0068977303
54	0x3ca315c3	0.019907838
55	0xbb8af8c4	-0.004241081
56	0x3c9e5f1d	0.019332463
57	0x3c29dcc1	0.010367573
58	0x3cad5357	0.021157904
59	0x3cafaa52	0.02144352
60	0x3c3acd29	0.011401453
61	0x3b12fc18	0.0022428092
62	0xbcade5fa	-0.021227825
63	0xbc15875c	-0.0091265105
64	0xbcb6276d	-0.022235597
65	0xbb834052	-0.0040054703
66	0x3c789802	0.01517296
67	0x3c5dc947	0.013536758
68	0x3af2cd2c	0.0018524281
69	0xbcc5ab9c	-0.024129681
70	0x3c5a408c	0.013321053
71	0x3c1895cd	0.009313059
72	0xbc501dab	-0.012702386
73	0xbcbbe848	-0.022937909
74	0xbc636811	-0.013879792
75	0x3c088a59	0.008333766
76	0xbc5d7813	-0.013517397
77	0xbc8e13a2	-0.017343346
78	0xbca2feaf	-0.019896833
79	0xbc74daf5	-0.014944782
80	0xbb83fd07	-0.004027966
81	0x3c9668aa	0.018360455
82	0xbc7d2e27	-0.015452898
83	0xbcb5a6c3	-0.022174245
84	0x3ca77d21	0.020445408
85	0x3c5cc9d9	0.013475859
86	0x3c0042b4	0.007828403
87	0xbc88c9b5	-0.016697744
88	0x3c8f060c	0.017458938
89	0x3c26359e	0.010144619
90	0x3b66b554	0.0035203295
91	0x3c967888	0.01836802
92	0x3bf03de3	0.007331596
93	0x3c7dedc8	0.015498586
94	0xbbf345cc	-0.007424092
95	0x3c7b45ad	0.015336436
96	0xbc477fb6	-0.012176445
97	0x3bc81160	0.006105587
98	0xbc7f44fc	-0.015580412
99	0xbcbcae7c	-0.02303242
100	0xbcac15b5	-0.021006444
101	0xbc97f62c	-0.018550001
102	0x3c5c3175	0.013439526
103	0x3cc55fd9	0.024093555
104	0x3c7810b0	0.015140697
105	0xba624ad8	-0.00086323684
106	0xba19b4f2	-0.000586345
107	0x3b4ae978	0.0030961912
108	0x3cc18d33	0.0236269
109	0x3c539bf3	0.012915599
110	0xbc7d34e3	-0.015454504
111	0xbc69d087	-0.014270908
112	0x3ca329d9	0.019917415
113	0x3c569c1d	0.013098744
114	0xbcca36a1	-0.024684252
115	0xbcabf7aa	-0.020992119
116	0x3c4df929	0.012571611
117	0xbc4a4e43	-0.012347761
118	0x3c973c90	0.018461496
119	0x3c8221fc	0.015885346
120	0xbca3c345	-0.019990573
121	0x3bb51e15	0.0055272677
122	0xbb944ac0	-0.0045255125
123	0xbcc8d7b4	-0.024516918
124	0x3bf277a8	0.007399518
125	0x3b367ad0	0.0027844198
126	0x3b982860	0.004643485
127	0xbca59e9c	-0.020217232
128	0xbbb50024	-0.0055236984
129	0xbb962757	-0.0045823264
130	0xbcb1a78f	-0.021686343
131	0x3c9f052d	0.019411648
132	0xbbe1f77d	-0.006895958
133	0x3c41443f	0.011796056
134	0xbbdb4920	-0.006692067
135	0xbc9fcdbf	-0.019507287
136	0xbbdab5d4	-0.0066745076
137	0x3b9c07bc	0.004761664
138	0x3ca24102	0.019806389
139	0x3b802f72	0.003911906
140	0x3c8bbfcc	0.01705923
141	0x3c41500d	0.011798871
142	0xbc8c6663	-0.017138666
143	0x3a55cf67	0.00081562105
144	0x3cb5d204	0.02219487
145	0xbbf725f9	-0.0075423685
146	0x3c335e02	0.010947706
147	0x3cb431b5	0.021996358
148	0xbab050fe	-0.0013451872
149	0xbc1375a6	-0.009000218
150	0xbc6e7cc8	-0.014556117
151	0xbab04281	-0.0013447554
152	0xbc8560fa	-0.016281594
153	0x3ccc5072	0.024940703
154	0xbcac7c0e	-0.021055248
155	0x3cade890	0.021229059
156	0x3c82c3f7	0.015962584
157	0xbcb6dd01	-0.02232218
158	0xbc7efd65	-0.015563344
159	0x3cb868fa	0.022510994
160	0xbb73cc72	-0.0037200716
161	0xbc93a7a5	-0.018024275
162	0x3986b91a	0.00025696383
163	0xbbd93560	-0.0066286772
164	0x3b17fd7c	0.002319186
165	0x3c177d8f	0.009246244
166	0xbcb16dfe	-0.021658894
167	0xbc5aa44f	-0.013344838
168	0xbab6311b	-0.0013900133
169	0x3cb82065	0.022476384
170	0xbca19916	-0.019726317
171	0xbc62da04	-0.013845924
172	0x3c5b61dd	0.013390032
173	0x3cbba199	0.022904204
174	0x3b090e6f	0.0020913144
175	0x39dd3ab7	0.0004219615
176	0x3c376e35	0.011195709
177	0xbba08120	-0.0048982054
178	0x3c72fa99	0.014830255
179	0x3ccb49de	0.024815496
180	0x3c9183df	0.017763076
181	0xbccaa58f	-0.024737148
182	0x3c9d0485	0.019167194
183	0x3cc00a13	0.023442304
184	0x3c27ffc4	0.01025385
185	0xbc09ce0c	-0.008410942
186	0xbb678356	-0.0035326085
187	0xbc88eb65	-0.016713807
188	0xbb8c4cbb	-0.004281608
189	0x3c81637a	0.015794504
190	0xbbe446cb	-0.006966447
191	0xbb865cdc	-0.004100425
192	0xbb979968	-0.0046264417
193	0xb9a75ace	-0.00031920377
194	0x3b52f65a	0.0032190294
195	0xbb7f1e66	-0.003892803
196	0xbccaf242	-0.02477372
197	0xbc09eee5	-0.008418773
198	0xbc56520f	-0.013081088
199	0xbc18a076	-0.009315601
200	0xbc4d22e1	-0.012520523
201	0xbc9057f4	-0.017620064
202	0xbca5d21e	-0.020241793
203	0xbc1244c1	-0.008927525
204	0x3b6c251d	0.0036032863
205	0x3cc977f3	0.024593329
206	0x3b125e49	0.002233403
207	0x3b0cc044	0.0021476904
208	0x3c48264e	0.012216164
209	0x3bb7b464	0.005606221
210	0xbca43cef	-0.020048587
211	0xbcc7da2f	-0.02439603
212	0xbc7d0c28	-0.015444793
213	0xbbaa7ba9	-0.0052027297
214	0xbc89fc50	-0.016843945
215	0x3c987ec8	0.018615142
216	0xbc0159bb	-0.007894929
217	0xbc40fbef	-0.011778816
218	0xbc9143e4	-0.017732568
219	0xbc33c535	-0.010972311
220	0xbc99d51c	-0.018778376
221	0x3cab59a2	0.020916764
222	0x3bd9b646	0.006644043
223	0xbcb05d73	-0.021528935
224	0x3cc83f17	0.024444146
225	0xbb9f5641	-0.004862577
226	0x3c0a349e	0.0084353965
227	0xbb7ba991	-0.003840063
228	0xbb93db6f	-0.0045122425
229	0x3c63f8c1	0.013914288
230	0x3cb16dda	0.021658827
231	0x3c17ae7a	0.009257907
232	0x3cc83611	0.024439843
233	0x3cc35d44	0.023848183
234	0xbace1876	-0.0015723843
235	0xbb259e8f	-0.002527151
236	0xbb093a62	-0.002093934
237	0xbbbe8d1e	-0.0058151623
238	0xbc19a608	-0.009377964
239	0xbcaa0a54	-0.020756878
240	0xbcc5638f	-0.024095325
241	0xbc242b9c	-0.010020163
242	0xbc1eb9a1	-0.009687812
243	0xbcc811bc	-0.024422519
244	0xbbb638a5	-0.005560952
245	0x3c84efe1	0.016227664
246	0xbb7636f7	-0.0037569383
247	0xbc363cf8	-0.0111229345
248	0xba09e06b	-0.0005259576
249	0x3c869828	0.016429976
250	0xbc37cbee	-0.011218054
251	0xbc28e783	-0.010309103
252	0xbaca985b	-0.0015456782
253	0xba6a3b34	-0.00089352136
254	0x3cbd9268	0.023141101
255	0xbcb38cd7	-0.021917744

conv2.bias f4 [32]
0	0xbc3394b6	-0.010960748
1	0xbcca7fe4	-0.024719186
2	0xbb542dbe	-0.0032375897
3	0x3c7a5905	0.015280013
4	0x3ccf1bea	0.025281865
5	0x3caa0b32	0.020757291
6	0xbc6757ba	-0.014120037
7	0x3d156d6c	0.036481306
8	0x3b37be01	0.0028036835
9	0xbc43b0d9	-0.011944019
10	0xbbe2bb6b	-0.0069193146
11	0x3b88027b	0.0041506863
12	0x3cfcbc38	0.030851468
13	0x3cd74bfd	0.026281351
14	0xbba5f6c9	-0.0050648195
15	0xbc1eebca	-0.009699771
16	0xbc7ea53f	-0.015542327
17	0xbc935909	-0.017986791
18	0x3ccfe058	0.02537553
19	0x3cf7ce1b	0.030249646
20	0x3ab36c0c	0.0013688817
21	0x3818f611	3.646879e-05
22	0xbb3cde38	-0.0028818976
23	0x38fbe0b6	0.00012010468
24	0x3c4e6c93	0.012599128
25	0xbc2db8d4	-0.0106031485
26	0x3c7b4ee5	0.015338634
27	0x3cec1239	0.028817283
28	0x3b5ca886	0.0033669784
29	0xbc8840b2	-0.016632412
30	0xbc07553e	-0.008260069
31	0xbbfe6997	-0.007764052

conv3.weight f4 [1, 32, 5, 5]
0	0x3c9bf1d5	0.019036213
1	0x3c944031	0.018097015
2	0xbaf999f4	-0.0019043074
3	0x3cc79197	0.024361415
4	0x3cf774df	0.030207096
5	0xbcefd992	-0.02927855
6	0x3ac4c647	0.0015012705
7	0xbd0af67d	-0.033926476
8	0x3b890d9e	0.0041825315
9	0x3c27ab8f	0.010233774
10	0xbb11f46e	-0.0022270936
11	0x3ce6682b	0.028125843
12	0x3c4cd297	0.01250138
13	0xbcf20130	-0.029541582
14	0xbb4065ff	-0.002935767
15	0xbc7c660c	-0.015405189
16	0xbce749d3	-0.028233444
17	0x3980dca7	0.0002457846
18	0xbd011605	-0.03151514
19	0x3cc0cd3c	0.023535363
20	0x3b956c26	0.0045600114
21	0x3c517ec7	0.012786574
22	0x3ca287bb	0.019840112
23	0x3ce3f368	0.027826026
24	0xbc8e0e1e	-0.017340716
25	0x3ba7f68d	0.0051258267
26	0xbcf430a0	-0.029808342
27	0x3c266a7e	0.010157226
28	0x3cd997ce	0.026561644
29	0xbcb0f6c9	-0.021602051
30	0x3cc0e6dd	0.023547584
31	0xbc4a45fa	-0.012345785
32	0x3c578cbd	0.013156113
33	0xbc6e06e4	-0.01452801
34	0x3c022d04	0.007945303
35	0xbcf3246d	-0.029680455
36	0x3d01380d	0.031547595
37	0xbb655188	-0.0034991223
38	0x3d10504c	0.035232827
39	0xbc220ddf	-0.009891002
40	0x3c8da571	0.017290803
41	0xbc5e4f43	-0.013568702
42	0xbc4163cc	-0.011803579
43	0xbbf97fdb	-0.0076141185
44	0x3c9946a3	0.01871044
45	0x3c841549	0.01612343
46	0x3cc177a8	0.023616627
47	0xbb431abc	-0.0029770574
48	0x3bbf0a40	0.0058300793
49	0x3cc37492	0.023859296
50	0xbc639dc7	-0.0138925975
51	0xbc3f7b56	-0.01168712
52	0x3cdc00d7	0.02685587
53	0xbcf4bbeb	-0.029874763
54	0xbc8cbf1d	-0.017180974
55	0xbca11a2e	-0.019665804
56	0xbbf3f883	-0.0074453964
57	0xbcd4be7e	-0.02596974
58	0x3c062b08	0.00818897
59	0xbccad4fc	-0.024759762
60	0xbc7f3e55	-0.015578826
61	0xbd0d0750	-0.034430802
62	0x3cc1d73f	0.023662208
63	0xbcb1e6ec	-0.021716557
64	0xbb8d3d08	-0.004310254
65	0xbcad60ac	-0.02116426
66	0xbba0db2c	-0.00490894
67	0xbbdcbcfe	-0.006736397
68	0xbc3d2e62	-0.011546703
69	0xba183896	-0.0005806772
70	0x3c753eec	0.014968615
71	0x3cedf649	0.029048102
72	0x3cd6bfdf	0.026214538
73	0xbcd7427b	-0.026276818
74	0xbb888d02	-0.0041672
75	0xbce172d0	-0.027520567
76	0x3c95582f	0.018230526
77	0x3cc8fa1c	0.024533324
78	0x3c1e3f2f	0.009658619
79	0x3c40e55e	0.011773435
80	0x3d0f7c05	0.035030384
81	0xbb71b9b7	-0.0036884376
82	0xbcf809db	-0.030278137
83	0xbc888d72	-0.016669009
84	0xbc2cb0a0	-0.010540158
85	0x3c880e4f	0.016608385
86	0x3a366513	0.000695781
87	0x3ce39893	0.027782714
88	0x3ca11fcf	0.019668488
89	0xbc27e662	-0.010247799
90	0xbc188a49	-0.0093103135
91	0xbc442e51	-0.011973933
92	0xbd02c4e1	-0.03192604
93	0xbc38906b	-0.011264901
94	0xbc869b20	-0.016431391
95	0xbbe33d16	-0.0069347722
96	0xbc0239fe	-0.007948397
97	0xbc59f805	-0.013303761
98	0xbc854dfe	-0.016272541
99	0x3bbd37a4	0.005774455
100	0x3bf05865	0.007334756
101	0x3c34bf3f	0.011031925
102	0x3c9d3633	0.019190883
103	0xb9613f83	-0.00021481332
104	0x3baf89a1	0.005356983
105	0xbbb34c68	-0.005471755
106	0x3d13835d	0.03601395
107	0x3bc1b720	0.005911723
108	0x3cede59b	0.029040148
109	0xbc96c065	-0.018402288
110	0xbcc548df	-0.0240826
111	0x3c26d9f0	0.010183796
112	0xbcc818e8	-0.024425939
113	0x3cd2b84a	0.025722641
114	0x3cc379b5	0.023861745
115	0x3d04255b	0.032262187
116	0x3d184057	0.037170734
117	0x3c91836b	0.01776286
118	0x3c91393f	0.017727492
119	0xbb0d3c21	-0.0021550732
120	0x3d0e4540	0.03473401
121	0x3c9ac689	0.018893497
122	0xbb7b746e	-0.0038368958
123	0xbcf4f66b	-0.029902657
124	0x3bd905c7	0.006623003
125	0x3bbe524c	0.0058081504
126	0x3ce26890	0.02763775
127	0x3cb68840	0.022281766
128	0x3d055562	0.03255213
129	0x3baaaf41	0.00520888
130	0x3c40e1f6	0.011772623
131	0xbce6bbbd	-0.028165692
132	0x3ba8cfd1	0.005151727
133	0x3c11e728	0.00890521
134	0xbc9f9613	-0.01948074
135	0xbc8d3da4	-0.017241307
136	0x3c7f6c50	0.015589789
137	0xbc9d6d9f	-0.01921731
138	0xbc4e06c2	-0.012574853
139	0x3cd3a177	0.025833828
140	0x3cdccc09	0.02695276
141	0xbcf517c9	-0.029918568
142	0xbd012ded	-0.03153794
143	0x3cb62c41	0.022237899
144	0xbc32f6e2	-0.010923119
145	0x3b2e4b52	0.0026595187
146	0xbcc78166	-0.024353694
147	0xbc7b2974	-0.015329707
148	0x3cdcb418	0.026941344
149	0xbcb855a5	-0.022501776
150	0x3c527fdb	0.012847866
151	0x3abcee37	0.0014414255
152	0x3c32d080	0.010913968
153	0x3ac959d3	0.0015361853
154	0xbbf6f11e	-0.0075360676
155	0x3c4cf904	0.012510542
156	0x3c1eca5f	0.009691804
157	0xbb56ad00	-0.0032756925
158	0x3cc203e4	0.023683496
159	0x3d00ae78	0.031416386
160	0x3c974396	0.018464845
161	0xbc22aed8	-0.009929381
162	0xbcd1aeed	-0.025596106
163	0xbcc3ddba	-0.023909438
164	0xbc8cb902	-0.017178062
165	0xbb3bc2c7	-0.0028650032
166	0x3c941869	0.018078046
167	0x3c1cc1cf	0.009567692
168	0x3d01220a	0.031526603
169	0xbd0afce7	-0.033932593
170	0xbc9f6e89	-0.019461887
171	0x3d0537dd	0.03252398
172	0xbcceda27	-0.025250508
173	0x3cb8c8b4	0.02255664
174	0x3accf5ab	0.001563718
175	0xbadef3fd	-0.001700997
176	0x3ceafd3b	0.028685203
177	0x3d1c0986	0.03809502
178	0xbc18189e	-0.009283213
179	0x3ae7080e	0.0017626302
180	0x3d0e6131	0.034760658
181	0x3d06bba8	0.032893807
182	0x3cd07688	0.025447145
183	0xbc819b59	-0.015821146
184	0xbca29e96	-0.01985101
185	0x3d060c9e	0.032726876
186	0x3cf2a8ad	0.029621447
187	0x3c5add0b	0.013358365
188	0x3d3a5ec0	0.045500517
189	0x3d0bb87c	0.034111485
190	0xbbb1b29a	-0.0054229023
191	0x3c99c499	0.018770503
192	0x3d385804	0.045005813
193	0x3cd44b3d	0.025914783
194	0xbc55e973	-0.013056147
195	0xbd0c6837	-0.034279075
196	0x3c27660a	0.010217199
197	0x3ca12aab	0.019673666
198	0xbd057c03	-0.03258897
199	0x3be72b13	0.0070546954
200	0xbcb2c427	-0.021822048
201	0x3c6bcfd3	0.014392811
202	0xbc889c3b	-0.016676059
203	0xbcda1fbe	-0.026626464
204	0x3d0bd47e	0.034138195
205	0x3cad27fd	0.021137232
206	0xbc6669fb	-0.014063354
207	0xbccbb34c	-0.024865769
208	0x3cc66165	0.024216363
209	0xbcb3b0d0	-0.021934897
210	0xbc2b8dfb	-0.0104708625
211	0xbc7d6d6d	-0.015467984
212	0x3c390b29	0.011294165
213	0xbaf0e7ad	-0.0018379592
214	0x3c5aea2e	0.013361497
215	0xbca25129	-0.01981409
216	0x3cd76fc4	0.026298411
217	0x3b9a1936	0.0047027124
218	0xbcc587e0	-0.024112642
219	0xbcd27942	-0.025692586
220	0x3cafc3cd	0.02145567
221	0xbc773287	-0.01508773
222	0x3c2af25d	0.0104337605
223	0x3a97ded4	0.0011586794
224	0xbc85b271	-0.016320439
225	0x3d1e5271	0.03865284
226	0xbc3a17d1	-0.011358217
227	0x3c9f8a03	0.019474989
228	0x3ce30fa2	0.027717415
229	0x3c956b3c	0.01823961
230	0x3d119681	0.035543922
231	0xbcc92733	-0.024554824
232	0x3be3bdb9	0.006950107
233	0x3b5fbb1e	0.003413863
234	0x3cba7010	0.022758514
235	0xbc85da61	-0.016339483
236	0xbcc72e93	-0.0243142
237	0xbcd8a688	-0.026446596
238	0x3cd8b2a1	0.026452364
239	0x3c60acc6	0.013713067
240	0xbd14da30	-0.036340892
241	0xbc014670	-0.007890329
242	0xbcfbe8bc	-0.030750625
243	0xbcf059aa	-0.02933963
244	0x3cc335c0	0.023829341
245	0xbc8eaeec	-0.017417394
246	0x3c992396	0.018693727
247	0x3d0c63f2	0.034275003
248	0x3c03cb30	0.008044049
249	0x3ca50c0c	0.020147346
250	0xbcfc2b02	-0.030782226
251	0xbc74aca2	-0.014933737
252	0xbaeb0fa8	-0.0017933743
253	0x3bfbbb82	0.007682265
254	0x3c6c24d5	0.014413078
255	0x3c9d823a	0.019227136
